saved_models/checkpoint.pt (torch, 274032 bytes, 35 tensors)

lstm.weight_ih_l0 f4 [128, 13]
0.21173869 0.27085474 0.32389873 0.14651911 -0.030259605 0.020436665 -0.043600347 -0.012773487
-0.020518323 -0.08039909 0.12510622 -0.12665987 -0.13130483 0.19238393 0.302757 0.1858826
0.25353014 -0.1363386 0.04922513 -0.012459366 -0.092853986 -0.036083765 0.0014831397 -0.04819187
-0.03078612 -0.01812141 0.14555983 0.2338574 0.36436498 0.18715596 -0.077373706 0.09145194
-0.056899324 -0.03991179 -0.020032825 -0.026859682 0.021508554 -0.037133723 -0.064582065 0.09543074
0.338161 0.36504266 0.36864796 0.12716345 -0.16374154 0.13831657 0.016896985 0.08435515
-0.15361491 -0.03174845 -0.06333942 0.06053811 0.35417712 0.33251804 0.100806564 0.17423847
-0.010827518 0.042272896 -0.092030704 0.026339522 0.02337545 -0.08657675 -0.008334373 0.07682156
0.005395061 0.33894852 0.30042928 0.14374585 0.14827693 -0.10725847 -0.029747894 -0.07800591
0.043668803 -0.008838364 0.010962746 0.10667942 -0.12741546 -0.13578892 0.29207385 0.3724685
0.15831785 0.12625062 -0.06924661 0.09754786 0.014747879 0.074442305 -0.114442766 -0.04687416
0.044852737 0.11040193 0.1453707 0.33683053 0.1908679 0.31579405 0.10719169 0.011940788
-0.12987329 0.091462485 0.06640356 0.019609815 0.013883555 0.06713313 -0.04949641 -0.1121499
-0.29129696 -0.36159068 -0.43095857 -0.4788221 -0.148346 -0.15071985 0.05642394 0.0395362
0.04700822 0.013910788 0.024604872 -0.042596724 -0.0074956766 -0.46054915 -0.37850386 -0.26440224
-0.33832002 -0.018280005 -0.087925866 0.1426433 0.13430846 -0.04723695 0.09560645 -0.09812124
-0.049292788 -0.061503828 0.4351957 0.24738973 0.15339941 0.13544093 -0.07438482 -0.060724836
0.07535905 -0.047735848 -0.03733313 -0.102998674 0.1004012 -0.019283105 -0.06287197 0.18119831
0.273337 0.2394489 0.2960183 0.006823456 0.056163788 -0.075651914 -0.08311207 -0.026976304
0.119352944 -0.1598128 0.1122226 -0.07559949 0.271583 0.39352503 0.25965887 0.20493004
-0.07092968 0.015591659 -0.089371696 -0.009565077 0.10379931 0.051991463 0.069397055 0.13895965
0.117985114 0.34615692 0.4009576 0.5389581 0.41645023 0.07903083 -0.099794835 -0.0385624
0.06547511 0.06705823 -0.016647317 0.08597797 0.1202394 -0.028149879 0.09111724 0.11325544
0.3661339 0.13902566 -0.035746835 -0.021934714 0.029322611 0.031539172 -0.026610032 -0.008623112
0.033427287 -0.024625903 0.15360893 0.31653446 0.151598 0.4065273 0.1729858 0.020997258
0.08319088 -0.037271135 0.19019878 -0.019230703 0.028006535 -0.105785705 0.04800222 -0.01864132
0.23796508 0.40601394 0.31208435 0.120740555 -0.113554835 0.08702999 -0.19964108 -0.021739157
0.029911216 0.030443575 -0.12523298 0.12406282 0.013709834 -0.206763 -0.32897618 -0.34498718
-0.223944 -0.004490786 -0.18765408 0.14787824 0.1185725 0.09298486 0.0051413993 -0.12444948
-0.027067333 -0.057290062 0.22814263 0.20516105 0.13928987 0.25731206 0.05878512 0.024786878
-0.030240204 -0.10892591 0.0055818288 0.06907195 0.010025098 -0.07103141 0.02160366 0.13222015
0.3773766 0.08560776 0.35542277 -0.08129474 -0.052076615 0.028727487 0.018782625 0.033307333
00000000: 07d2 583e 79ad 8a3e 0ed6 a53e 1b09 163e
00000010: fee2 f7bc cb6a a73c 4796 32bd e347 51bc
00000020: 0b16 a8bc 47a8 a4bd d81b 003e 20b3 01be
00000030: c674 06be 4b00 453e f702 9b3e 0258 3e3e
00000040: b4ce 813e 599c 0bbe 4aa0 493d 5e22 4cbc
00000050: 3b2a bebd 92cc 13bd e965 c23a d764 45bd
00000060: 2c33 fcbc 5a73 94bc a30d 153e 5078 6f3e
00000070: 0c8e ba3e d0a5 3f3e 1b76 9ebd 284b bb3d
00000080: 440f 69bd 8c7a 23bd e11b a4bc d608 dcbc
00000090: b532 b03c 8819 18bd 9a43 84bd 3171 c33d
000000a0: 7023 ad3e dfe6 ba3e 6dbf bc3e 2337 023e
000000b0: ddab 27be dca2 0d3e 8c6b 8a3c 65c2 ac3d
000000c0: 3a4d 1dbe aa0a 02bd 19b8 81bd cff6 773d
000000d0: b456 b53e ce3f aa3e ac73 ce3d 926b 323e
000000e0: e765 31bc 5826 2d3d 987a bcbd fbc5 d73c
000000f0: df7d bf3c 274f b1bd e58c 08bc 9f54 9d3d
00000100: 0dc9 b03b a98a ad3e ded1 993e 1d32 133e
00000110: e8d5 173e 54aa dbbd dbb1 f3bc 90c1 9fbd
00000120: 0fde 323d c9ce 10bc 179d 333c bd7a da3d
00000130: 3379 02be 400c 0bbe b48a 953e 31b4 be3e
00000140: 131e 223e d847 013e 2bd1 8dbd 2cc7 c73d
00000150: 16a1 713c 3575 983d f860 eabd 1fff 3fbd
00000160: 81b7 373d 681a e23d 0fdc 143e 0d75 ac3e
00000170: e072 433e c2af a13e 5187 db3d 4ba3 433c
00000180: 81fd 04be af50 bb3d 97fe 873d c3a4 a03c
00000190: da77 633c 187d 893d bfbc 4abd d9ae e5bd
000001a0: e024 95be 6a22 b9be 9aa6 dcbe 2c28 f5be
000001b0: 04e8 17be 4e56 1abe ca1c 673d b6f0 213d
000001c0: b18b 403d 13ea 633c 2890 c93c e779 2ebd
000001d0: 4b9e f5bb 19cd ebbe 42cb c1be bb5f 87be
000001e0: 4838 adbe f3bf 95bc 7a12 b4bd 1611 123e
000001f0: 2888 093e 887b 41bd 51cd c33d caf3 c8bd
00000200: 3ce7 49bd 70eb 7bbd f9d1 de3e bc53 7d3e
00000210: bc14 1d3e 07b1 0a3e 1257 98bd 9bba 78bd
00000220: d855 9a3d aa86 43bd a0ea 18bd f8f0 d2bd
00000230: 259f cd3d 9af7 9dbc 05c3 80bd 0d8c 393e
00000240: d4f2 8b3e 1832 753e b68f 973e 4c97 df3b
00000250: 000c 663d 64ef 9abd a936 aabd 69fd dcbc
00000260: 516f f43d f7a5 23be f6d4 e53d e8d3 9abd
00000270: ed0c 8b3e 1d7c c93e 02f2 843e 2ed9 513e
00000280: 9443 91bd 2874 7f3c 8208 b7bd d7b6 1cbc
00000290: bc94 d43d 00f5 543d 0b20 8e3d 704b 0e3e
000002a0: 2ea2 f13d 7b3b b13e 514a cd3e 28f9 093f
000002b0: f738 d53e eada a13d 3c61 ccbd 9bf3 1dbd
000002c0: d117 863d d355 893d f45f 88bc 3815 b03d
000002d0: 1340 f63d 939a e6bc ad9b ba3d 78f2 e73d
000002e0: e775 bb3e be5c 0e3e 466b 12bd 6eb0 b3bc
000002f0: f935 f03c 382f 013d 48fd d9bc f447 0dbc
00000300: 0deb 083d 43bc c9bc a94b 1d3e ce10 a23e
00000310: 823c 1b3e 5924 d03e 3123 313e 7102 ac3c
00000320: fb5f aa3d 9ea9 18bd 78c3 423e b589 9dbc
00000330: f66d e53c 2da6 d8bd fa9d 443d aeb5 98bc
00000340: 1ead 733e 0fe1 cf3e 85c9 9f3e d346 f73d
00000350: 708f e8bd c83c b23d b66e 4cbe 5116 b2bc
00000360: 5e08 f53c ce64 f93c 133d 00be a614 fe3d
00000370: 369f 603c aeb9 53be 916f a8be 29a2 b0be
00000380: 9351 65be 7227 93bb 6428 40be 656d 173e
00000390: 24d6 f23d d96e be3d 2f79 a83b 5edf febd
000003a0: 50bc ddbc fca8 6abd 399e 693e bd15 523e
000003b0: 01a2 0e3e 68be 833e aac8 703d da0d cb3c
000003c0: 4eba f7bc 8c14 dfbd c6e7 b63b 9875 8d3d
000003d0: 4f40 243c ea78 91bd 29fa b03c b864 073e
000003e0: 8137 c13e 1f53 af3d f9f9 b53e db7d a6bd
000003f0: 4a4e 55bd e855 eb3c 05de 993c 456d 083d

lstm.weight_hh_l0 f4 [128, 32]
0.108919635 -0.1568567 0.05033198 -0.17558381 0.09555952 -0.057785243 -0.111307696 -0.095295854
-0.13610972 0.08434476 -0.026985347 0.11801739 -0.045200363 0.13288595 -0.05804137 0.07607888
0.10010223 0.051719993 -0.002354771 -0.13022944 -0.09261955 0.09970583 -0.15144783 -0.1155612
-0.1349838 -0.014209405 -0.11388778 0.008113667 -0.082094684 -0.17674464 -0.12523793 -0.080133446
0.093691066 -0.04234515 0.02394715 0.08852486 -0.060529068 -0.06765688 -0.06952637 0.16897534
-0.08647496 -0.13101739 0.041890234 -0.081025355 0.04104279 -0.1356642 -0.06809045 0.084662214
-0.010649681 -0.12484944 0.14439745 0.08910678 0.16521348 0.083495036 -0.13562658 -0.033629596
-0.16126871 -0.068643816 0.120383605 0.054217413 0.12312667 0.16006894 0.079012915 -0.041245997
-0.16843481 -0.0046507567 -0.13446935 0.07530983 0.052597433 0.099034026 -0.095379725 0.050190464
0.06757608 0.043859586 -0.095108345 -0.058404885 0.09554811 0.15925585 0.00047761202 0.050321847
-0.0423429 -0.06984169 -0.12623084 0.050381646 -0.08645193 -0.028364748 -0.089468546 0.10385992
-0.008757666 0.12782188 0.11166845 -0.14746071 -0.17524843 0.06859766 0.059359998 -0.07322473
-0.12176317 0.07601027 0.14196594 0.13415535 0.15549754 0.054635316 0.06319502 -0.09855528
-0.038882643 0.093825206 -0.12486136 -0.046980992 0.06989464 0.14353575 -0.14584978 -0.010867074
-0.12357652 -0.033249542 -0.12864634 0.0141451955 0.06419054 0.0736963 -0.08732032 -0.08906034
-0.15067016 -0.10132745 -0.15929553 0.062490314 -0.15353058 -0.07307831 -0.1149012 0.032388
0.10859965 0.17366745 0.15576936 0.010394767 0.13085653 0.08443774 -0.043128178 -0.12076798
0.17640726 0.063566744 0.14548077 -0.12131332 0.07664715 0.09297337 0.04861474 -0.07615611
-0.05259288 0.14534055 -0.14202474 0.088235214 0.11583398 -0.03409037 -0.16298869 -0.0050840527
0.0027959943 0.14609341 -0.008149192 0.09415667 -0.076438345 0.07823329 -0.002212286 0.083446756
0.038881347 -0.16378434 0.14153968 0.086382285 0.049825147 0.15375115 -0.09278047 0.065205395
0.056375876 -0.15834284 0.13163467 0.05583538 0.16560112 -0.10192806 -0.17275149 -0.07340986
-0.034082785 0.120839074 -0.11848303 0.15402941 0.1590247 -0.031805083 0.010824591 0.10566603
0.13638557 -0.13213561 -0.13401355 -0.12005325 0.1664028 0.13092689 0.12672453 -0.13257559
0.028067201 -0.07577491 0.012835428 -0.14462261 0.021687552 -0.010877848 -0.08311858 0.11834629
-0.071454436 -0.15373085 0.07919411 -0.05135247 -0.15282796 0.096956804 -0.015041918 0.14298911
0.049318478 -0.01962404 0.087917075 0.05940111 -0.09655049 -0.09554842 -0.16326962 0.068728924
-0.03017518 0.084417656 0.04860802 0.09324108 0.07267299 0.051993325 0.17342518 -0.16412461
0.16559877 -0.0077694803 -0.05598545 0.018361926 -0.009159148 0.06252402 0.026225448 -0.1522272
-0.011409402 0.001165092 -0.15757287 -0.01683487 -0.056175508 -0.17132287 -0.1323434 0.08972643
0.096193776 -0.10958779 -0.118778095 0.14377768 -0.0705466 -0.14042124 0.0728939 0.06774275
-0.11511919 0.15957911 -0.08551397 -0.09884489 -0.031422302 0.1382039 0.06454724 -0.0033866018
00000000: 4211 df3d 0b9f 20be e828 4e3d 3ecc 33be
00000010: b6b4 c33d 38b0 6cbd 4af5 e3bd 792a c3bd
00000020: 5960 0bbe f2bc ac3d 6010 ddbc 1ab3 f13d
00000030: 0424 39bd 4113 083e cabc 6dbd 3ecf 9b3d
00000040: 6602 cd3d 58d8 533d 8052 1abb de5a 05be
00000050: 52af bdbd 9232 cc3d 2415 1bbe 5aab ecbd
00000060: 3139 0abe 90ce 68bc ff3d e9bd 30ef 043c
00000070: 4221 a8bd 8cfc 34be 5f3e 00be 011d a4bd
00000080: 1ae1 bf3d 1c72 2dbd d02c c43c 864c b53d
00000090: 54ed 77bd b18f 8abd d763 8ebd df07 2d3e
000000a0: c919 b1bd 6c29 06be 1895 2b3d 9ff0 a5bd
000000b0: 7c1c 283d 8eeb 0abe 0173 8bbd 6263 ad3d
000000c0: 007c 2ebc 10b1 ffbd eddc 133e 9e7d b63d
000000d0: b92d 293e 72ff aa3d b2e1 0abe 30bf 09bd
000000e0: a023 25be 2195 8cbd ae8b f63d 1413 5e3d
000000f0: d629 fc3d 1de9 233e 86d1 a13d 90f1 28bd
00000100: 2d7a 2cbe 6065 98bb 55b2 09be 0a3c 9a3d
00000110: 6870 573d 5ad2 ca3d 7256 c3bd 8494 4d3d
00000120: 5465 8a3d 1ca6 333d 2ac8 c2bd f639 6fbd
00000130: baae c33d f713 233e 0068 fa39 481e 4e3d
00000140: c06f 2dbd 2909 8fbd a842 01be fc5c 4e3d
00000150: b60d b1bd 305d e8bc 493b b7bd 82b4 d43d
00000160: 507c 0fbc bde3 023e 6eb2 e43d f1ff 16be
00000170: 5374 33be ee7c 8c3d 7823 733d d9f6 95bd
00000180: f85e f9bd 46ab 9b3d 855f 113e 0560 093e
00000190: bf3a 1f3e 48c9 5f3d 646c 813d 5ad7 c9bd
000001a0: 6843 1fbd 6e27 c03d 50b7 ffbd 246f 40bd
000001b0: ec24 8f3d 09fb 123e a559 15be d00b 32bc
000001c0: b015 fdbd ac30 08bd debb 03be 40c1 673c
000001d0: 5476 833d 16ee 963d ffd4 b2bd 4465 b6bd
000001e0: 4749 1abe c484 cfbd 5e1e 23be d8f5 7f3d
000001f0: 1f37 1dbe 15aa 95bd 5251 ebbd 48a9 043d
00000200: 7e69 de3d e1d5 313e 0182 1f3e d04e 2a3c
00000210: 41ff 053e b2ed ac3d 2ca7 30bd 3455 f7bd
00000220: 1ba4 343e 482f 823d e9f8 143e 1e73 f8bd
00000230: 2ef9 9c3d d268 be3d 4020 473d bcf7 9bbd
00000240: a26b 57bd 27d4 143e ef6e 11be aab4 b43d
00000250: 5e3a ed3d 58a2 0bbd 82e6 26be 2098 a6bb
00000260: 003d 373b 8399 153e 3084 05bc 36d5 c03d
00000270: b58b 9cbd c638 a03d 00fc 10bb 22e6 aa3d
00000280: 0c42 1f3d 15b7 27be c7ef 103e 32e9 b03d
00000290: 7415 4c3d f170 1d3e b003 bebd 688a 853d
000002a0: 64ea 663d a024 22be 3dcb 063e a4b3 643d
000002b0: 5793 293e a9bf d0bd c4e5 30be e957 96bd
000002c0: 649a 0bbd 7a7a f73d 3ba7 f2bd e3b9 1d3e
000002d0: 5fd7 223e 0c46 02bd a059 313c 6e67 d83d
000002e0: a9a8 0b3e 8f4e 07be d93a 09be 7ade f5bd
000002f0: 7f65 2a3e b311 063e 13c4 013e e5c1 07be
00000300: 30ed e53c e02f 9bbd b04b 523c f317 14be
00000310: 18aa b13c 0039 32bc 133a aabd 8a5f f23d
00000320: b456 92bd 9f6b 1dbe 8630 a23d f856 52bd
00000330: ef7e 1cbe 4a91 c63d 6072 76bc bd6b 123e
00000340: 2c02 4a3d 98c2 a0bc de0d b43d 944e 733d
00000350: 43bc c5bd e4ae c3bd 2730 27be c0c1 8c3d
00000360: f031 f7bc 2ae3 ac3d 3419 473d 2ef5 be3d
00000370: 94d5 943d f4f6 543d 5f96 313e 4810 28be
00000380: b992 293e 2097 febb 0051 65bd c06b 963c
00000390: 4010 16bc 980c 803d c0d6 d63c 72e1 1bbe
000003a0: 80ee 3abc 00b6 983a c85a 21be 48e9 89bc
000003b0: 4a18 66bd 436f 2fbe 0785 07be 7ec2 b73d
000003c0: 3e01 c53d 906f e0bd ee41 f3bd 753a 133e
000003d0: bc7a 90bd 96ca 0fbe 6649 953d b6bc 8a3d
000003e0: 9cc3 ebbd b568 233e f321 afbd 316f cabd
000003f0: acb4 00bd 5385 0d3e 5831 843d c0f1 5dbb

lstm.bias_ih_l0 f4 [128]
-0.35856193 -0.43857676 -0.3872755 -0.21116915 -0.16782737 -0.52825904 -0.29075986 -0.27770245
0.3289552 0.31652015 -0.33941102 -0.24592835 -0.032221235 -0.45982704 -0.12037187 -0.19124831
-0.36678892 0.25943446 -0.28911513 -0.39010727 0.307825 -0.11745918 -0.2644333 0.257175
-0.6007442 0.009056829 0.28091523 -0.29671854 -0.23120265 -0.06635297 -0.3676583 0.14161347
-0.066841274 0.11463769 0.12906156 -0.11823702 0.12522815 0.08230321 0.02612479 -0.17307955
-0.037416056 0.15461151 -0.07237305 0.14081927 -0.1314378 -0.035174012 0.093389645 -0.13998936
-0.040531352 0.16157894 0.06961833 -0.06640902 -0.06826485 0.029877707 -0.16739681 0.16499327
0.13748391 0.17030989 -0.078198925 0.011138827 0.022234738 -0.07332529 0.1349483 0.11193241
-0.15169397 -0.12904835 0.03471219 0.06830341 -0.31498796 0.035733998 0.12729761 -0.15371434
-0.22573735 -0.22020087 0.0234748 -0.30348745 0.38166106 -0.43836468 -0.12299794 -0.15588003
-0.14236222 -0.22782248 -0.14401317 -0.12511441 -0.36045238 -0.23295647 0.009757739 -0.40526354
-0.16772355 0.16743758 -0.3477434 0.17750652 0.33308426 0.004207746 0.078333944 0.2621381
-0.33981133 -0.5319311 -0.24523897 -0.46174327 -0.2664667 -0.26323634 -0.2930017 -0.17528957
0.37305683 0.3048042 -0.1740682 -0.41297695 0.0511896 -0.47629365 -0.04998044 -0.013321153
-0.3790984 0.2977752 -0.21033916 -0.13847078 0.5715688 -0.16616136 -0.31174308 0.53323233
-0.47143325 -0.23050039 0.21676612 -0.16449687 -0.19787219 -0.18224667 -0.44296733 0.33470857
00000000: 6e95 b7be 228d e0be f948 c6be ba3c 58be
00000010: f0da 2bbe fc3b 07bf 7ade 94be 042f 8ebe
00000020: d16c a83e ee0e a23e 48c7 adbe a4d4 7bbe
00000030: 6afa 03bd 736e ebbe 8785 f6bd 99d6 43be
00000040: c2cb bbbe 98d4 843e e606 94be 24bc c7be
00000050: 3d9b 9d3e 708e f0bd cd63 87be 71ac 833e
00000060: 5fca 19bf 1863 143c 1fd4 8f3e 7eeb 97be
00000070: 63c0 6cbe 11e4 87bd b53d bcbe 1f03 113e
00000080: 14e4 88bd 2ac7 ea3d b728 043e 4026 f2bd
00000090: cf3b 003e 968e a83d a803 d63c c43b 31be
000000a0: 9441 19bd 7b52 1e3e 5238 94bd ed32 103e
000000b0: a197 06be a012 10bd 1243 bf3d 5f59 0fbe
000000c0: 3404 26bd f374 253e 0e94 8e3d 7401 88bd
000000d0: 71ce 8bbd 18c2 f43c 126a 2bbe fff3 283e
000000e0: 95c8 0c3e b765 2e3e c226 a0bd a07f 363c
000000f0: a025 b63c 922b 96bd e32f 0a3e d23c e53d
00000100: aa55 1bbe 4025 04be 5f2e 0e3d a9e2 8b3d
00000110: 1a46 a1be d05d 123d 4e5a 023e 4b67 1dbe
00000120: b127 67be 567c 61be 394e c03c b562 9bbe
00000130: 1469 c33e 5671 e0be 58e6 fbbd 049f 1fbe
00000140: 67c7 11be 4c4a 69be 3078 13be fe1d 00be
00000150: 378d b8be 248c 6ebe ecde 1f3c b47e cfbe
00000160: b9bf 2bbe c274 2b3e 6c0b b2be 45c4 353e
00000170: 058a aa3e 22e1 893b 8c6d a03d f736 863e
00000180: c0fb adbe a32c 08bf ed1f 7bbe 9d69 ecbe
00000190: 536e 88be eac6 86be 5204 96be 1c7f 33be
000001a0: 4e01 bf3e 4c0f 9c3e ef3e 32be b771 d3be
000001b0: 30ac 513d c3dc f3be 4ab8 4cbd f740 5abc
000001c0: 2f19 c2be fe75 983e 2663 57be 49cb 0dbe
000001d0: 5552 123f 3426 2abe ca9c 9fbe ea81 083f
000001e0: b35f f1be 4b08 6cbe f0f7 5d3e de71 28be
000001f0: 029f 4abe df9e 3abe 9dcc e2be ec5e ab3e

lstm.bias_hh_l0 f4 [128]
-0.14096802 -0.35461614 -0.33982718 -0.1982422 -0.4213092 -0.29945976 -0.3621556 -0.3484057
0.25083017 0.3389138 -0.20561753 -0.39038467 -0.1413668 -0.2625554 -0.19205087 -0.17781332
-0.2731453 0.2718582 -0.0955232 -0.22774695 0.20325351 -0.28826314 -0.43019396 0.5103528
-0.5221019 0.01634794 0.18679735 -0.158526 -0.13962005 -0.2052263 -0.21380343 0.39520857
0.14660592 0.013727516 -0.14056253 0.0008249134 -0.034773305 -0.1641243 -0.05241125 0.14173661
-0.14140174 0.024468884 0.03155069 0.017255634 -0.10183066 -0.021764949 -0.01503548 -0.1197142
0.1317886 -0.17327124 -0.05046168 0.10841815 0.022756532 0.059245408 0.17029281 -0.022701845
0.043595165 0.013261646 -0.04539688 0.056688517 -0.02160123 -0.024984077 0.07266191 -0.043436557
0.052950326 0.040860202 -0.12137538 0.41077083 -0.21061456 0.068323694 -0.006172482 0.04712915
-0.34827232 -0.36951452 0.10123093 -0.24047059 0.19333555 -0.4222051 -0.026269702 -0.268449
-0.22373274 -0.23069794 -0.0015764543 0.032685135 -0.4122713 -0.19382127 -0.11417407 -0.124482
0.0736948 -0.024539106 -0.15947498 0.21580346 0.16066837 -0.11369393 -0.16400313 0.21489215
-0.14662592 -0.38306993 -0.3272708 -0.40819848 -0.12710726 -0.4393813 -0.03928835 -0.08831303
0.30923402 0.26102564 -0.2502545 -0.18034786 0.100911684 -0.39771742 -0.25901553 -0.27537042
-0.19783841 0.21841545 -0.15345326 -0.11338473 0.56471425 -0.17136449 -0.27977678 0.24580093
-0.36098295 -0.26871276 0.1202063 -0.13860692 -0.12740724 -0.10691169 -0.23233077 0.31579846
00000000: ec59 10be 3f90 b5be d4fd adbe 0100 4bbe
00000010: d7b5 d7be ca52 99be 756c b9be 3b62 b2be
00000020: d06c 803e 1c86 ad3e 678d 52be 80e0 c7be
00000030: 75c2 10be a96d 86be fca8 44be b214 36be
00000040: b3d9 8bbe ff30 8b3e aba1 c3bd 7f36 69be
00000050: b021 503e 3a97 93be 6242 dcbe 7ba6 023f
00000060: 78a8 05bf 1dec 853c ce47 3f3e a454 22be
00000070: 8ff8 0ebe d826 52be 49ef 5abe c758 ca3e
00000080: dd1f 163e 60e9 603c a0ef 0fbe 003f 583a
00000090: 746e 0ebd 3310 28be 2ead 56bd 6723 113e
000000a0: 9ecb 10be f872 c83c 4c3b 013d b05b 8d3c
000000b0: 988c d0bd 684c b2bc 6057 76bc b82c f5bd
000000c0: 97f3 063e 046e 31be e8b0 4ebd 560a de3d
000000d0: e86b ba3c 50ab 723d 3d61 2e3e 38f9 b9bc
000000e0: d890 323d 6047 593c 14f2 39bd 3832 683d
000000f0: 10f5 b0bc 68ab ccbc c4cf 943d 88ea 31bd
00000100: 71e2 583d 075d 273d a893 f8bd 8e50 d23e
00000110: 58ab 57be 4bed 8b3d 8842 cabb 7f0a 413d
00000120: c050 b2be 0231 bdbe 2952 cf3d ec3d 76be
00000130: c1f9 453e 442b d8be 8f33 d7bc 2672 89be
00000140: 321a 65be 153c 6cbe 07a1 ceba d9e0 053d
00000150: 3915 d3be 1579 46be 18d4 e9bd 6bf0 febd
00000160: 4ded 963d 3c06 c9bc 694d 23be 95fb 5c3e
00000170: 4086 243e 5dd8 e8bd 70f0 27be b00c 5c3e
00000180: 1b25 16be be21 c4be 0a90 a7be 64ff d0be
00000190: 6828 02be 96f6 e0be d2ec 20bd 76dd b4bd
000001a0: ec53 9e3e 27a5 853e 5c21 80be 1cad 38be
000001b0: c9aa ce3d 9ea1 cbbe af9d 84be 5afd 8cbe
000001c0: 2796 4abe 4da8 5f3e da22 1dbe 4136 e8bd
000001d0: 1d91 103f 2c7a 2fbe e73e 8fbe 3db3 7b3e
000001e0: c2d2 b8be b894 89be b82e f63d f9ee 0dbe
000001f0: 0b77 02be 84f4 dabd 1ee8 6dbe 56b0 a13e

lstm.weight_ih_l1 f4 [128, 32]
0.10860136 -0.20292869 -0.020456271 -0.773482 0.7629219 0.24421877 -0.23921318 -0.06693483
0.26263416 0.3449863 -0.014097744 0.5890043 -0.4145139 0.6669258 0.029101241 0.41923213
0.48261732 0.16630937 -0.11322499 -0.17583671 0.27102208 0.5756615 0.102149494 0.13575031
0.2050355 0.042853363 0.70822567 -0.37926146 -0.5735606 0.15452167 0.025154997 -0.3425666
0.045952022 -0.15663314 0.049235158 -0.5807924 0.66359836 0.040335078 0.117494754 -0.23075634
0.2808895 0.41347605 -0.07069695 0.5128004 -0.7034527 0.7323274 0.120311886 0.34101897
0.33339235 0.34485918 0.119258724 -0.16462976 0.3841014 0.4292261 0.13127854 0.31406382
0.16725047 0.07341369 0.21629453 -0.54086125 -0.3085645 -0.138238 -0.17709665 -0.3555965
0.108759716 -0.22520968 -0.043354996 -0.61268747 0.7556862 0.08820932 -0.018708706 0.15687418
0.5067774 0.7431224 0.025281267 0.33361292 -0.71536636 0.91779107 0.27816886 0.473142
0.4506659 0.41372946 0.11362379 -0.018666927 0.6642944 0.6473822 0.024466684 0.43095583
0.122810036 0.17336005 0.52298874 -0.42682496 -0.30460158 0.07897169 -0.11189853 -0.7323377
0.052580975 -0.03622102 -0.1200763 -0.80031085 0.7440785 0.24270827 -0.0980462 0.051733974
0.62520295 0.6274936 -0.20333192 0.7002618 -0.47859612 0.1440708 0.12201577 0.5955341
0.8641625 0.5334245 -0.06967109 0.121318474 0.6043665 0.7562522 0.20313762 0.5032568
0.542559 0.062105972 0.31350204 -0.5129929 -0.6761535 -0.084778875 -0.106633686 -0.47712848
0.18047588 0.027026298 -0.08862231 -0.91147304 0.90063024 0.15868996 0.015066404 -0.0068642697
0.56024575 1.0190235 -0.08359337 0.4697744 -0.7707089 1.1599123 0.075445 0.45756525
0.5433213 0.56385094 0.17262961 0.087629974 0.9036407 0.49514478 0.045570657 0.80847585
0.35725376 0.13279471 0.8908959 -0.35981625 -0.06472191 0.14853662 0.11575555 -0.8920843
-0.07627919 -0.11653369 0.062263835 -0.83873695 0.9126228 -0.06611474 -0.0789267 0.13675542
0.5767126 0.82562995 -0.19081075 0.58520114 -0.68052745 0.8841647 0.18504752 0.4684959
0.57016367 0.6007501 0.16396877 -0.043633167 0.7044055 0.57151806 -0.115802415 0.36670473
0.17366655 0.012654661 0.7853964 -0.4285069 -0.34377787 -0.06896824 -0.11928904 -0.7642475
0.07856656 -0.21364571 -0.07669485 -0.77567935 0.6218057 -0.09530053 -0.1520919 0.031930193
0.40414336 0.6711994 -0.02476627 0.6024412 -0.59766114 0.52905256 0.29204175 0.4994977
0.5714354 0.28632155 0.14838398 -0.053441487 0.2345349 0.64410555 -0.037716348 0.35112047
0.17889081 -0.031883456 0.6658438 -0.55218565 -0.518747 -0.04169285 -0.08123407 -0.2393139
0.37624204 0.25848138 0.41657943 -0.02725484 -0.17176582 -0.4692469 -0.40091518 0.39671892
0.90559554 1.2526805 -0.43660808 -0.031736474 0.26341853 0.21784681 0.5797625 -0.43605632
-0.7259736 0.60372424 0.49740386 0.45551637 1.3419223 -0.47803628 0.25255576 1.054455
-0.55579036 -0.5074151 1.3935617 0.60097575 0.3540173 0.44222006 0.4924582 -1.015131
00000000: 646a de3d 8acc 4fbe e993 a7bc eb02 46bf
00000010: da4e 433f 7c14 7a3e 4df4 74be 2115 89bd
00000020: fc77 863e 0ba2 b03e 39fa 66bc fcc8 163f
00000030: 2a3b d4be a6bb 2a3f ba65 ee3c 98a5 d63e
00000040: 9e19 f73e 014d 2a3e 81e2 e7bd 8a0e 34be
00000050: 68c3 8a3e 8d5e 133f c133 d13d 2102 0b3e
00000060: d3f4 513e 0287 2f3d 474e 353f 8f2e c2be
00000070: ded4 12bf ee3a 1e3e da11 ce3c e464 afbe
00000080: 3038 3c3d 7064 20be ceaa 493d d0ae 14bf
00000090: 95e1 293f 6536 253d 17a1 f03d 644b 6cbe
000000a0: c0d0 8f3e 22b3 d33e 90c9 90bd e346 033f
000000b0: 7a15 34bf cf79 3b3f 1466 f63d 0a9a ae3e
000000c0: 67b2 aa3e 6291 b03e eb3d f43d b494 28be
000000d0: f0a8 c43e 86c3 db3e e26d 063e f9cc a03e
000000e0: b543 2b3e eb59 963d 507c 5d3e e275 0abf
000000f0: 2bfc 9dbe 438e 0dbe d358 35be bf10 b6be
00000100: 6abd de3d 5e9d 66be 0295 31bd 16d9 1cbf
00000110: a774 413f 17a7 b43d 0043 99bc a0a3 203e
00000120: 2abc 013f 453d 3e3f a91a cf3c 50cf aa3e
00000130: 4022 37bf 5bf4 6a3f 266c 8e3e ab3f f23e
00000140: aebd e63e 59d4 d33e 97b3 e83d 62eb 98bc
00000150: 330f 2a3f d7ba 253f 5b6e c83c 3ea6 dc3e
00000160: d483 fb3d 4c85 313e 97e2 053f cd88 dabe
00000170: bdf4 9bbe e9bb a13d 0e2b e5bd 7c7a 3bbf
00000180: 265f 573d 7e5c 14bd 90ea f5bd 2ce1 4cbf
00000190: ee7b 3e3f 8488 783e 72cc c8bd 01e7 533d
000001a0: 4d0d 203f 6ca3 203f 3e36 50be 5b44 333f
000001b0: 8d0a f5be 4c87 133e 67e3 f93d ec74 183f
000001c0: c139 5d3f 828e 083f b7af 8ebd d275 f83d
000001d0: c3b7 1a3f bf99 413f 4f03 503e 70d5 003f
000001e0: 26e5 0a3f d562 7e3d 5783 a03e 8153 03bf
000001f0: 6518 2dbf 8ca0 adbd c362 dabd 2f4a f4be
00000200: abce 383e 4166 dd3c 9d7f b5bd 4c56 69bf
00000210: b48f 663f 9f7f 223e 14d9 763c abed e0bb
00000220: 446c 0f3f 5d6f 823f 0033 abbd 4586 f03e
00000230: 2e4d 45bf 0278 943f e882 9a3d fe45 ea3e
00000240: 1b17 0b3f 8958 103f d1c5 303e 5877 b33d
00000250: ff54 673f 9e83 fd3e 4ca8 3a3d 46f8 4e3f
00000260: f7e9 b63e 56fb 073e c111 643f d639 b8be
00000270: ec8c 84bd fc19 183e 3f11 ed3d a35f 64bf
00000280: 4438 9cbd 37a9 eebd 5d08 7f3d 77b7 56bf
00000290: a6a1 693f 2a67 87bd 52a4 a1bd 9d09 0c3e
000002a0: 70a3 133f 7c5c 533f e563 43be becf 153f
000002b0: 0c37 2ebf 9e58 623f 197d 3d3e b2de ef3e
000002c0: 3ff6 113f c2ca 193f 6ee7 273e b1b8 32bd
000002d0: eb53 343f 024f 123f d129 edbd b9c0 bb3e
000002e0: a5d5 313e 7f55 4f3c bd0f 493f 4265 dbbe
000002f0: a703 b0be 383f 8dbd d04d f4bd b9a5 43bf
00000300: 81e7 a03d f1c5 5abe 3112 9dbd ec92 46bf
00000310: a92e 1f3f ed2c c3bd fbbd 1bbe 3cc9 023d
00000320: e1eb ce3e b9d3 2b3f a2e2 cabc 9639 1a3f
00000330: 5200 19bf fd6f 073f 7f86 953e 2abe ff3e
00000340: 9749 123f bd98 923e f8f1 173e 76e5 5abd
00000350: eb29 703e 1ae4 243f 757c 1abd 10c6 b33e
00000360: 272f 373e 3a98 02bd bd74 2a3f 0a5c 0dbf
00000370: 9acc 04bf 1fc6 2abd 0c5e a6bd b40e 75be
00000380: cca2 c03e ac57 843e e649 d53e 8b45 dfbc
00000390: 61e3 2fbe 2141 f0be c144 cdbe be1e cb3e
000003a0: 1cd5 673f d657 a03f 188b dfbe 1bfe 01bd
000003b0: cbde 863e 3c13 5f3e 516b 143f c642 dfbe
000003c0: 68d9 39bf ac8d 1a3f b8ab fe3e 7139 e93e
000003d0: 1cc4 ab3f 2cc1 f4be fd4e 813e 62f8 863f
000003e0: 4748 0ebf f5e5 01bf 3b60 b23f 8cd9 193f
000003f0: c141 b53e ab6a e23e 7b23 fc3e d0ef 81bf

lstm.weight_hh_l1 f4 [128, 32]
0.09393485 -0.16570938 -0.11009954 0.11461876 -0.061817877 -0.088335976 -0.035095677 -0.049606666
-0.06323304 -0.07077781 -0.032905623 -0.016155839 -0.16933177 0.10361464 0.1684903 -0.01501736
-0.04658799 -0.10577679 -0.10195025 -0.17151365 -0.12914188 -0.03781891 0.14015533 0.071340874
0.025654659 -0.016535476 0.0593403 0.059661165 -0.016455308 0.06866974 0.120445475 0.08122055
0.100653216 -0.020063266 -0.025941476 0.015265465 0.069931835 -0.05497072 -0.1336374 -0.025057271
0.038295493 0.09328176 -0.0056627095 -0.14350516 -0.016049579 0.13139887 -0.07514994 -0.0337328
-0.17266761 0.04916501 0.0713955 -0.12558286 -0.014757782 0.038079277 -0.049688265 -0.11141494
0.055636972 -0.08149679 -0.018519625 0.041270003 -0.0372518 0.15412466 0.029819056 0.023210019
0.102399215 0.07020995 0.16210191 0.024308473 -0.022211075 0.14133368 -0.118489504 -0.093034826
-0.17667219 -0.14555003 -0.06689729 -0.052854232 0.10785587 -0.058235966 -0.065195546 0.027995855
-0.15148565 -0.05390238 -0.08559241 -0.037966594 0.14966498 0.09747286 0.08097936 0.028986752
0.11382134 0.04666567 -0.045713797 -0.072153635 0.06536521 0.10268663 -0.10616517 -0.015560687
0.15323801 -0.1470742 0.0390743 -0.0137230605 0.0137794465 -0.09128552 0.17262502 0.03620945
0.027813315 0.12371327 0.093026474 0.015825063 0.032067835 -0.015869021 -0.11320142 -0.011224672
-0.06244787 -0.026717916 0.16045849 0.0078088045 -0.036671802 -0.16464126 0.038743272 0.11893828
-0.016286686 -0.025631458 -0.13153431 0.10860045 0.120522216 -0.03299424 0.16199951 -0.09169637
-0.14075875 0.06775224 -0.10936801 -0.012031466 -0.048914522 -0.17327778 0.026336432 0.13379316
-0.12635349 0.1071683 -0.1213547 -0.037063047 0.14499803 -0.09317604 0.06647776 0.09827344
0.069886535 0.16460334 -0.1360558 0.02929984 0.027489677 0.043000653 0.017651856 -0.010322452
0.12185533 0.015786082 -0.00085414946 -0.09391416 -0.1497279 -0.030222297 0.03453763 0.12351407
0.053577513 0.05117829 -0.12794794 -0.075547785 -0.09805835 -0.14160097 0.12757556 0.029077813
0.15265922 0.07171427 -0.13965912 -0.16442904 0.14937823 0.14838205 0.07783885 -0.16283505
-0.08130795 -0.17315084 -0.03882213 0.14279477 0.048840255 0.11901896 0.097920045 -0.16527607
0.16486402 0.076893166 -0.106673755 -0.16817147 0.047919407 -0.09763718 0.15925984 0.000620082
-0.11138457 -0.055245623 0.04159744 0.10199396 0.03720863 -0.09733151 -0.049935654 0.028439194
-0.03682503 -0.055511676 0.049925387 0.13924633 0.16966684 0.0434552 0.06721352 0.071555614
-0.12625434 0.010416001 0.0490544 0.036023647 -0.13879012 0.0041625053 -0.045794636 -0.05864405
0.15523686 0.06519535 0.14653455 -0.10443443 -0.09182861 0.17579336 -0.075886264 -0.0426926
0.0740497 0.0890003 0.15206887 -0.013851434 -0.13465983 -0.11458032 0.08569704 0.15477179
-0.024976477 0.07327281 -0.016718283 -0.12379241 0.024073228 -0.026660368 0.12362124 0.08421044
0.011120945 -0.14389303 0.017702892 0.17637818 0.08143522 -0.014945656 0.0989991 -0.046403915
0.12766995 0.14424054 0.057488233 -0.1028205 0.17636053 0.0889294 -0.075702354 -0.118435256
00000000: ea60 c03d b8af 29be de7b e1bd 3ebd ea3d
00000010: be34 7dbd 7ee9 b4bd 7cc0 0fbd 5c30 4bbd
00000020: 5380 81bd f5f3 90bd 0cc8 06bd 4059 84bc
00000030: 4f65 2dbe ea33 d43d b988 2c3e 600b 76bc
00000040: 0cd3 3ebd 80a1 d8bd 4bcb d0bd 46a1 2fbe
00000050: c53d 04be 00e8 1abd e184 0f3e 2a1b 923d
00000060: b829 d23c 6875 87bc d00e 733d 445f 743d
00000070: 48cd 86bc b8a2 8c3d 1eac f63d f656 a63d
00000080: 4623 ce3d b85b a4bc 3883 d4bc 001c 7a3c
00000090: 6c38 8f3d fa28 61bd 3ed8 08be e844 cdbc
000000a0: bcdb 1c3d 820a bf3d 408e b9bb 04f3 12be
000000b0: 687a 83bc 6d8d 063e 36e8 99bd 682b 0abd
000000c0: c7cf 30be 4061 493d ce37 923d cb98 00be
000000d0: a0ca 71bc 04f9 1b3d ec85 4bbd 842d e4bd
000000e0: 98e3 633d cae7 a6bd 78b6 97bc bc0a 293d
000000f0: 5895 18bd dbd2 1d3e 1847 f43c f022 be3c
00000100: aeb6 d13d 3cca 8f3d 0bfe 253e 9022 c73c
00000110: 00f4 b5bc c7b9 103e a0aa f2bd 0b89 bebd
00000120: 8ee9 34be 110b 15be 7201 89bd ae7d 58bd
00000130: 8ae3 dc3d d688 6ebd 3e85 85bd 9057 e53c
00000140: 0e1f 1bbe bec8 5cbd 134b afbd dc82 1bbd
00000150: c741 193e da9f c73d 82d8 a53d a075 ed3c
00000160: 2a1b e93d 8024 3f3d 643e 3bbd 49c5 93bd
00000170: 32de 853d 5e4d d23d 206d d9bd 40f2 7ebc
00000180: 6dea 1c3e 9e9a 16be 600c 203d b0d6 60bc
00000190: 30c3 613c e7f3 babd 9dc4 303e 5c50 143d
000001a0: c0d8 e33c 625d fd3d aa84 be3d 90a3 813c
000001b0: 9059 033d c0ff 81bc 25d6 e7bd b0e7 37bc
000001c0: 56c9 7fbd 88df dabc 3b4f 243e 00e1 ff3b
000001d0: 2c35 16bd b897 28be 44b1 1e3d ea95 f33d
000001e0: a86b 85bc 10f9 d1bc eeb0 06be ea69 de3d
000001f0: 5ad4 f63d f824 07bd 33e3 253e 4ecb bbbd
00000200: 1023 10be b0c1 8a3d 56fc dfbd a01f 45bc
00000210: 985a 48bd bb6f 31be 80bf d73c 1301 093e
00000220: cf62 01be 0e7b db3d d088 f8bd 6ccf 17bd
00000230: 5d7a 143e 14d3 bebd 7e25 883d 9643 c93d
00000240: ac20 8f3d c78d 283e 3652 0bbe 3806 f03c
00000250: 0832 e13c 7421 303d a09a 903c 801f 29bc
00000260: 4a8f f93d d051 813c 00e9 5fba 1156 c0bd
00000270: 4552 19be c094 f7bc 5477 0d3d f2f4 fc3d
00000280: 1874 5b3d 54a0 513d c904 03be ccb8 9abd
00000290: d1d2 c8bd d8ff 10be 2ba3 023e 9834 ee3c
000002a0: b352 1c3e eede 923d cd02 0fbe 1660 28be
000002b0: 9bf6 183e 77f1 173e fa69 9f3d 3bbe 26be
000002c0: c884 a6bd 744e 31be f403 1fbd cb38 123e
000002d0: b80c 483d 36c0 f33d 4e8a c83d 213e 29be
000002e0: 1dd2 283e 2a7a 9d3d c577 dabd 2435 2cbe
000002f0: 2447 443d 00f6 c7bd 0315 233e 008d 223a
00000300: 981d e4bd 3c49 62bd 1462 2a3d 36e2 d03d
00000310: 1468 183d be55 c7bd 5489 4cbd 50f9 e83c
00000320: d8d5 16bd 3660 63bd 907e 4c3d 9796 0e3e
00000330: 25bd 2d3e 14fe 313d 3ea7 893d c08b 923d
00000340: d148 01be e0a7 2a3c 44ed 483d 888d 133d
00000350: ff1e 0ebe a065 883b 2893 3bbd be34 70bd
00000360: 69f6 1e3e 2485 853d 270d 163e b8e1 d5bd
00000370: a310 bcbd 2d03 343e 426a 9bbd 70de 2ebd
00000380: 5ea7 973d ca45 b63d f1b7 1b3e 20f1 62bc
00000390: 44e4 09be 16a9 eabd ee81 af3d 7f7c 1e3e
000003a0: 789b ccbc 0e10 963d c8f4 88bc e086 fdbd
000003b0: 3835 c53c d866 dabc 222d fd3d 8676 ac3d
000003c0: a034 363c b258 13be a805 913c 7b9c 343e
000003d0: 82c7 a63d a0de 74bc 0ac0 ca3d 0812 3ebd
000003e0: e9bb 023e cbb3 133e c878 6b3d 8e93 d2bd
000003f0: db97 343e 9e20 b63d d609 9bbd 2f8e f2bd

lstm.bias_ih_l1 f4 [128]
-0.09329756 -0.27024806 -0.29683968 -0.24024156 -0.38758856 -0.36696914 -0.11984688 0.112734504
-0.28927842 -0.32086185 -0.44029275 -0.37492895 -0.4441731 -0.07728155 0.04104825 -0.09973114
-0.10861002 -0.12565382 -0.030488158 -0.25238866 -0.5121346 0.062428184 -0.07254623 0.044317372
-0.33597252 -0.088751495 -0.15871574 -0.19021857 -0.09604892 0.2769703 -0.15262286 -0.16344278
-0.06395491 -0.118068665 -0.05283548 0.15287204 0.037175477 -0.06610596 -0.11353343 -0.04556568
-0.11253067 -0.04050751 0.03730662 0.074423924 -0.027857333 0.08611746 0.17539908 0.04283251
0.11488922 0.09269263 0.055901468 -0.12794057 -0.11688572 -0.026243806 0.17559476 0.07390441
-0.01920116 -0.043756306 -0.03549002 0.008022785 -0.1306307 -0.13829038 0.06272039 0.052175075
-0.07779877 -0.13348314 -0.063587315 -0.070643194 0.107954994 0.051907085 -0.093303606 -0.04912457
-0.123262234 0.012754342 0.06594908 0.008383549 0.09332835 -0.027883576 0.078919806 -0.010673887
-0.0077374605 0.07412947 0.038325492 0.03465978 0.1377035 0.22189662 0.07437832 0.040934667
-0.08021467 0.050760206 -0.051267143 -0.10397143 0.021851534 -0.03969951 0.057879057 -0.12871356
-0.12715043 -0.2785245 -0.13889842 -0.14667293 -0.36017707 -0.34830502 -0.2961628 -0.020414375
-0.2857732 -0.19081545 -0.4012158 -0.10354653 -0.24643369 -0.13137299 -0.078431584 -0.16565788
-0.02328556 -0.10176003 -0.15291084 -0.30968937 -0.3054186 0.043066427 -0.010577423 0.18455884
-0.43435395 -0.04056324 -0.0074941535 -0.12362666 0.042266916 0.2729294 -0.1324329 -0.0405524
00000000: cb12 bfbd f45d 8abe 5ffb 97be e201 76be
00000010: 0272 c6be 61e3 bbbe 4872 f5bd 59e1 e63d
00000020: 4d1c 94be 0148 a4be 0d6e e1be b0f6 bfbe
00000030: a86a e3be ca45 9ebd 3622 283d d73f ccbd
00000040: ee6e debd 65ab 00be 4dc2 f9bc 1639 81be
00000050: 411b 03bf b2b4 7f3d 1e93 94bd 2286 353d
00000060: 9704 acbe 58c3 b5bd 6186 22be a8c8 42be
00000070: 4cb5 c4bd 0dcf 8d3e 2b49 1cbe 8b5d 27be
00000080: cbfa 82bd fccd f1bd 046a 58bd 7d8a 1c3e
00000090: 5045 183d 9062 87bd 3784 e8bd 14a3 3abd
000000a0: 7b76 e6bd 34eb 25bd d4ce 183d 926b 983d
000000b0: 1035 e4bc 5a5e b03d d19b 333e 2471 2f3d
000000c0: 0a4b eb3d a2d5 bd3d f0f8 643d da02 03be
000000d0: c861 efbd 40fd d6bc 1dcf 333e 325b 973d
000000e0: c04b 9dbc d039 33bd fc5d 11bd 0072 033c
000000f0: 0ec4 05be fe9b 0dbe 8c73 803d 88b5 553d
00000100: f654 9fbd ceaf 08be 113a 82bd 61ad 90bd
00000110: 8217 dd3d 869c 543d f615 bfbd d836 49bd
00000120: e970 fcbd 96f7 503c 5010 873d 275b 093c
00000130: ef22 bf3d 196c e4bc b5a0 a13d 87e1 2ebc
00000140: 868a fdbb 31d1 973d 31fb 1c3d 6af7 0d3d
00000150: 2502 0d3e de38 633e a953 983d 1cab 273d
00000160: 9747 a4bd efe9 4f3d 7ffd 51bd f9ee d4bd
00000170: fd01 b33c f49b 22bd 9712 6d3d 7dcd 03be
00000180: b933 02be c39a 8ebe 633b 0ebe 6e31 16be
00000190: 2169 b8be 0955 b2be a7a2 97be 0c3c a7bc
000001a0: dd50 92be 2065 43be 286c cdbe 3410 d4bd
000001b0: 1d59 7cbe a486 06be bda0 a0bd 38a2 29be
000001c0: 5cc1 bebc 9067 d0bd a994 1cbe 9b8f 9ebe
000001d0: d45f 9cbe 6c66 303d ed4c 2dbc fefc 3c3e
000001e0: a463 debe a425 26bd 8491 f5bb f92f fdbd
000001f0: 1320 2d3d 67bd 8b3e 7d9c 07be 461a 26bd

lstm.bias_hh_l1 f4 [128]
-0.24357745 -0.27741373 -0.30531836 -0.1012636 -0.3241779 -0.22572537 -0.18910213 -0.08065918
-0.26111636 -0.21757202 -0.21964546 -0.2304041 -0.45643136 -0.17766808 -0.09256886 -0.28306493
-0.09155332 -0.16246136 -0.12050361 -0.32621968 -0.3852844 -0.12695055 0.149582 -0.019035026
-0.2495745 -0.01572661 0.15269835 -0.050106023 0.07217139 0.12043989 -0.14206883 -0.061415337
0.14237903 0.0510066 0.061869606 -0.05966843 -0.07320848 0.032035634 -0.023951322 0.11237989
-0.16815317 0.10748248 -0.06703702 0.08498351 -0.14797772 0.08007006 -0.12560998 0.11722289
0.0064123124 0.15235792 -0.09960889 -0.10614287 0.09622054 0.06683719 0.054880574 -0.16542412
0.13960363 0.1628363 -0.1046777 -0.013949588 -0.066953495 0.09106694 -0.15370591 -0.10732897
0.082577564 0.13808057 0.06626225 0.059703585 -0.11143969 -0.06084104 0.10574743 -0.024990179
0.12491603 -0.014717109 -0.07934643 -0.014156332 0.27937773 0.04237737 -0.055068452 0.017946567
-0.005428269 -0.08464327 -0.041542042 -0.017625552 -0.15166941 0.20679893 0.08567229 0.11293183
0.075461544 -0.07730839 -0.0024560282 0.13338473 0.045483828 -0.06272459 -0.044733245 0.123775445
-0.2681896 -0.2878497 -0.39563686 -0.11436421 -0.43656898 -0.11425673 -0.0062836125 0.048342485
-0.1560686 -0.09670957 -0.2535578 -0.06243852 -0.42738095 -0.034702968 -0.19560109 -0.17966552
-0.23024695 -0.00534883 -0.21856514 -0.46336043 -0.32537028 0.102877125 0.0173821 -0.094896056
-0.34147915 -0.009192169 -0.08060633 0.1429257 0.043903537 0.20693055 -0.2711502 -0.25601575
00000000: 5e6c 79be 2c09 8ebe b052 9cbe 4a63 cfbd
00000010: a5fa a5be 8d24 67be fda3 41be a430 a5bd
00000020: 0bb1 85be 33cb 5ebe bdea 60be 0def 6bbe
00000030: 5fb1 e9be 9fee 35be be94 bdbd e3ed 90be
00000040: 4f80 bbbd 455c 26be 99ca f6bd 4406 a7be
00000050: ff43 c5be 53ff 01be 062c 193e 58ef 9bbc
00000060: 7590 7fbe 17d5 80bc f55c 1c3e f93b 4dbd
00000070: 98ce 933d 30a9 f63d 7e7a 11be a68e 7bbd
00000080: cfcb 113e 4cec 503d fc6a 7d3d e266 74bd
00000090: 54ee 95bd cc37 033d 9035 c4bc 6e27 e63d
000000a0: 5830 2cbe c61f dc3d b54a 89bd d60b ae3d
000000b0: 7987 17be c6fb a33d e79f 00be 8e12 f03d
000000c0: 601e d23b b703 1c3e bfff cbbd 6f61 d9bd
000000d0: 460f c53d f0e1 883d 74ca 603d f164 29be
000000e0: 41f4 0e3e 8fbe 263e 4361 d6bd d08c 64bc
000000f0: ea1e 89bd 4e81 ba3d 1565 1dbe 4bcf dbbd
00000100: 6d1e a93d fe64 0d3e 81b4 873d bf8b 743d
00000110: 7e3a e4bd 7434 79bd 1c92 d83d 34b8 ccbc
00000120: fad3 ff3d 0720 71bc 6280 a2bd f6ef 67bc
00000130: 990a 8f3e e593 2d3d 758f 61bd ae04 933c
00000140: 9fdf b1bb 7359 adbd fd27 2abd 7663 90bc
00000150: 3a4f 1bbe 19c3 533e f474 af3d ce48 e73d
00000160: 958b 9a3d dc53 9ebd 51f5 20bb 0296 083e
00000170: 404d 3a3d c075 80bd 353a 37bd fb7d fd3d
00000180: 2650 89be 0961 93be ea90 cabe c837 eabd
00000190: f885 dfbe 6fff e9bd c3e6 cdbb c502 463d
000001a0: 72d0 1fbe ab0f c6bd 54d2 81be 89bf 7fbd
000001b0: add1 dabe b324 0ebd a74b 48be 3dfa 37be
000001c0: dbc5 6bbe 3d45 afbb 8acf 5fbe 943d edbe
000001d0: ef96 a6be 3eb1 d23d e864 8e3c dd58 c2bd
000001e0: 5bd6 aebe c09a 16bc ee14 a5bd 1d5b 123e
000001f0: 32d4 333d 9ae5 533e 33d4 8abe 7f14 83be

lstm.weight_ih_l2 f4 [128, 32]
-0.11694591 -0.27685797 0.0950567 -0.006460488 -0.50164634 -0.112522684 -0.04874025 1.4564855
0.27005467 0.38682136 -0.16291538 0.026652113 -1.3119868 -0.058993254 -0.1324863 0.09651794
0.14804925 0.0814785 0.16228822 0.4373225 -0.31542063 -2.3836255 0.9060912 0.7884645
-0.3059283 -0.021924645 -0.31762955 0.10500764 0.4680922 -0.49920312 -0.11532974 0.24500088
-0.1785105 -0.2200982 0.13661161 -0.09524626 -0.40289208 -0.31216836 -0.18663482 0.62160385
0.251424 0.15678762 -0.28820372 0.047877 -0.6247803 -0.065287694 -0.11098512 -0.12154924
0.1748449 0.20403965 0.28481084 0.5084456 -0.35799968 -1.1075194 0.40717176 0.31622273
-0.12883744 -0.035502438 -0.24770035 0.016494261 0.25536007 -0.44292134 -0.06523583 0.10776549
-0.11550309 -0.17479195 0.007851034 -0.40329856 0.027544226 0.19108215 0.050013613 0.86821645
-0.20022015 0.1819581 0.15332153 0.054816056 1.055216 -0.11544194 0.04681795 0.2072482
0.057115633 -0.1458509 0.12105928 -0.275974 0.20722829 -1.1191272 0.7609496 0.5645847
0.174422 -0.3104304 -0.19359317 0.07312496 0.03007645 -0.41810754 0.23057711 -0.023160467
-0.8707966 -1.0983311 0.8416508 0.50303686 -0.96662235 -0.7889768 -0.4154254 -0.041673336
0.8364647 0.77703375 -1.1408553 0.79348814 0.33361626 -0.4685472 -0.42310733 -0.39493725
0.48322695 0.45839524 0.7994715 0.97246295 -1.0186532 -0.35853955 0.15388176 0.068581514
-1.0511372 0.29655242 0.1178628 -0.5171596 -0.08515611 -0.114159875 -0.61098725 0.5380156
-0.61068964 -0.7595346 0.7177847 0.24568966 -0.6869499 -0.49834237 -0.46478033 1.5645893
0.61140144 0.7323288 -0.6786865 0.3972964 -1.2567984 -0.47297996 -0.31767738 -0.33588478
0.7903782 0.3587079 0.5603699 0.33513644 -0.5344091 -1.8407624 0.46168503 0.30796024
-0.70617485 0.15092103 0.24568298 -0.49947226 -0.17321011 -0.14506505 -0.6004358 0.48165008
-0.07958599 -0.23522761 0.03816504 0.03470743 -0.03962465 -0.21630959 0.16345128 0.8886206
0.0049933167 0.10474389 -0.1872071 0.15198384 0.58786327 -0.053630706 0.0013989557 -0.25825444
0.2506747 0.24795245 0.04525214 0.37539887 -0.32374248 -0.6860162 0.7329926 0.6546239
-0.35608825 -0.022604043 -0.06171899 0.089722894 0.2590877 -0.40396684 -0.07368604 0.17503293
-0.20916794 -0.21661125 0.31905282 0.13690634 -0.3811769 -0.11441629 -0.14406353 0.84007984
0.25243756 0.19442976 -0.43444782 0.0028618907 -0.5924225 -0.08962067 -0.036443286 -0.12719993
0.21289 0.10080983 0.17424296 0.40765956 -0.6402003 -1.2556075 0.6068846 0.7980435
-0.18351868 0.0057422635 -0.29388648 0.08850106 0.37995413 -0.3161678 0.061295804 0.06192884
-0.06973038 -0.31354105 0.38544822 -0.028961003 -0.2990477 -0.05458179 -0.009051624 0.6887459
0.30701488 0.21161595 -0.42579094 0.0945101 -0.7954307 -0.08618278 -0.12756985 -0.111465156
-0.04006944 -0.005781125 0.15752603 0.4019146 -0.50867504 -0.22693649 0.70103914 0.32236475
-0.2899429 -0.18357879 -0.14187102 0.04600998 0.31307742 -0.22886814 -0.12866397 0.16462997
00000000: 5681 efbd 54c0 8dbe 16ad c23d 80b2 d3bb
00000010: e56b 00bf 4b72 e6bd dba3 47bd 1e6e ba3f
00000020: 9b44 8a3e 730d c63e 4ad3 26be 8855 da3c
00000030: 2fef a7bf e9a2 71bd 7daa 07be 33ab c53d
00000040: 399a 173e 33de a63d e22e 263e bce8 df3e
00000050: d07e a1be 528d 18c0 98f5 673f cfd8 493f
00000060: a2a2 9cbe 509b b3bc 57a0 a2be 3f0e d73d
00000070: c8a9 ef3e 8d97 ffbe 0032 ecbd 83e1 7a3e
00000080: 75cb 36be 6c61 61be eae3 0b3e 7910 c3bd
00000090: df47 cebe 88d4 9fbe 331d 3fbe 6e21 1f3f
000000a0: a6ba 803e ef8c 203e 708f 93be ac1a 443d
000000b0: 9af1 1fbf 8eb5 85bd 2b4c e3bd cfee f8bd
000000c0: 8b0a 333e c5ef 503e bad2 913e 7e29 023f
000000d0: bc4b b7be 32c3 8dbf d178 d03e f2e7 a13e
000000e0: f6ed 03be 016b 11bd 29a5 7dbe f91e 873c
000000f0: 8ebe 823e 96c6 e2be 5d9a 85bd 27b4 dc3d
00000100: e28c ecbd a9fc 32be a0a1 003c 267d cebe
00000110: 6ea4 e13c 0aab 433e 13db 4c3d 6f43 5e3f
00000120: 8306 4dbe 3953 3a3e 5200 1d3e cd86 603d
00000130: 5111 873f d36c ecbd 2ec4 3f3d df38 543e
00000140: 15f2 693d f059 15be eeed f73d 774c 8dbe
00000150: a733 543e 8f3f 8fbf 98cd 423f 9f88 103f
00000160: ae9b 323e bcf0 9ebe 4a3d 46be 8ac2 953d
00000170: e362 f63c 3112 d6be 681c 6c3e 05bb bdbc
00000180: 87ec 5ebf 1d96 8cbf 6d76 573f 06c7 003f
00000190: 9074 77bf 62fa 49bf a3b2 d4be a9b1 2abd
000001a0: 8d22 563f afeb 463f 8c07 92bf 0a22 4b3f
000001b0: c0cf aa3e 6be5 efbe 86a1 d8be 3735 cabe
000001c0: 8669 f73e c8b2 ea3e 2aaa 4c3f 55f3 783f
000001d0: 3a63 82bf 7f92 b7be 2e93 1d3e 7774 8c3d
000001e0: aa8b 86bf b8d5 973e 0d62 f13d 9264 04bf
000001f0: 5466 aebd a7cc e9bd a969 1cbf 64bb 093f
00000200: 2856 1cbf dc70 42bf bdc0 373f 1296 7b3e
00000210: f3db 2fbf bb26 ffbe b0f7 edbe 7644 c83f
00000220: ce84 1c3f e679 3b3f 66be 2dbf 6f6a cb3e
00000230: c5de a0bf 6e2a f2be 9ca6 a2be 17f9 abbe
00000240: 3a56 4a3f 90a8 b73e 6774 0f3f 0197 ab3e
00000250: 09cf 08bf 1a9e ebbf fb61 ec3e f7ac 9d3e
00000260: e0c7 34bf 0b8b 1a3e 5294 7b3e d4ba ffbe
00000270: fe5d 31be ef8b 14be 29b6 19bf d79a f63e
00000280: fbfd a2bd 82df 70be f252 1c3d 6129 0e3d
00000290: 754d 22bd 4380 5dbe c65f 273e a47c 633f
000002a0: fa9e a33b f783 d63d 38b3 3fbe a7a1 1b3e
000002b0: 357e 163f dfab 5bbd 2a5d b73a ed39 84be
000002c0: 6f58 803e 3fe7 7d3e 4f5a 393d 4834 c03e
000002d0: 93c1 a5be c29e 2fbf 67a5 3b3f 6f95 273f
000002e0: 3351 b6be 1d2c b9bc 0dcd 7cbd a3c0 b73d
000002f0: 25a7 843e bed4 cebe b5e8 96bd d53b 333e
00000300: 1f30 56be 57cf 5dbe e45a a33e 2d31 0c3e
00000310: 9e29 c3be 1653 eabd 6485 13be 790f 573f
00000320: 7f3f 813e 9818 473e f26f debe 8f8e 3b3b
00000330: 00a9 17bf 0b8b b7bd 8e45 15bd b340 02be
00000340: d6ff 593e 6275 ce3d bf6c 323e c1b8 d03e
00000350: 2be4 23bf bfb7 a0bf ca5c 1b3f 944c 4c3f
00000360: 52ec 3bbe 9929 bc3b 4a78 96be 0b40 b53d
00000370: 5989 c23e bfe0 a1be 4f11 7b3d 18a9 7d3d
00000380: cdce 8ebd 7488 a0be 7859 c53e a03f edbc
00000390: c81c 99be 2891 5fbd 434d 14bc a751 303f
000003a0: 0e31 9d3e dab1 583e 4501 dabe 838e c13d
000003b0: 59a1 4bbf 9980 b0bd aca1 02be d847 e4bd
000003c0: da1f 24bd 976f bdbb 814e 213e c0c7 cd3e
000003d0: 8738 02bf 0a62 68be 4d77 333f fe0c a53e
000003e0: 6573 94be 14fc 3bbe a346 11be f674 3c3d
000003f0: af4b a03e 695c 6abe 7dc0 03be c294 283e

lstm.weight_hh_l2 f4 [128, 32]
-0.16217998 0.13553895 -0.024114966 -0.026076302 0.09771298 -0.08614536 0.060508475 0.14364265
0.097855374 0.07561158 -0.13172169 -0.0014593601 -0.14378296 -0.16613811 -0.029289916 -0.09214264
-0.15384562 0.046566382 -0.14473024 -0.13902265 0.1295575 0.005657077 0.093053564 -0.0067038834
0.12987138 0.048010066 -0.05595234 -0.17372765 -0.15808153 -0.16064756 -0.07076911 -0.05994746
0.07574858 0.1344585 -0.003546536 0.046293125 -0.10529589 -0.16592267 0.00637874 0.12439026
-0.04044196 -0.16302288 -0.08579743 -0.1757804 -0.008601174 0.096747145 -0.08973165 0.13133974
-0.0125339925 -0.115383275 -0.10522875 0.068325475 -0.008136556 0.016972408 0.07710062 -0.031694993
-0.07853123 0.037883416 -0.13084759 -0.15246367 0.036251873 0.052593023 0.043208987 -0.03472972
-0.089449264 0.015660986 0.08109625 -0.021846458 -0.15701915 0.072097704 -0.056131996 0.0048939586
-0.114812836 0.020143747 -0.008860379 0.1389487 -0.018799827 0.100351885 -0.08839606 -0.102816895
0.15735076 -0.034304485 -0.08273134 -0.03268893 -0.06182207 0.16714858 0.14570995 -0.058085524
-0.102757305 0.029494956 0.14175849 -0.052780308 0.033782765 -0.061489023 0.024433836 -0.15192918
-0.041356996 0.17380695 0.07119496 0.078646705 -0.1255733 -0.07602744 0.1619354 -0.16143186
-0.030918837 -0.09601151 0.13326578 0.1662579 -0.08524878 -0.16129377 -0.08305375 -0.0884173
-0.12481037 0.11438008 -0.021635205 -0.047060892 0.12632062 0.09868421 0.1765901 -0.12935938
-0.16935962 0.14880066 0.014776319 -0.090098135 -0.11872312 -0.10238228 0.019667134 -0.15883198
0.051824614 0.087092385 -0.13316387 0.088595584 -0.15784155 0.17564775 0.12316008 0.001754567
0.08565684 0.008793727 0.028398186 -0.12630141 0.1518404 0.111784205 0.1425959 -0.052279964
-0.16513026 -0.09266455 0.003777817 -0.09222392 -0.11078088 -0.07210047 -0.069183394 0.1667545
0.035644054 0.11448766 0.12275393 0.12886693 0.16115908 0.10380177 -0.13894537 0.02412574
-0.112450294 0.13963006 0.034609288 0.12881936 0.0024674237 -0.10731582 -0.1707479 0.15654765
-0.04832533 0.06061949 0.07012895 0.062063694 0.038693845 0.008856609 0.14142434 0.050065458
-0.047229603 0.17637013 -0.12648812 -0.0717218 0.07528801 0.06713787 -0.10815159 0.14111541
-0.11872676 0.15189765 -0.17616917 -0.10033392 -0.020838559 0.09928711 0.12198119 -0.090237774
0.075506344 -0.06045626 -0.04278502 0.03582631 0.12574305 0.04096368 0.06731263 0.11872698
0.122022465 0.115631446 0.14100786 -0.021334603 -0.00070244074 -0.112853035 -0.121984296 0.1676525
0.064799175 -0.04841745 -0.16106097 0.1047716 -0.13409886 -0.1366697 0.06380947 -0.17316115
-0.115268275 0.028504625 -0.027523085 0.03326094 -0.10334129 0.13616635 -0.121585906 -0.16113286
0.16233493 0.071920395 -0.09816346 0.10643728 0.16066436 -0.117961064 -0.042369336 -0.013000533
0.056478456 -0.16145563 -0.042689145 0.07297699 -0.004830152 0.0314046 -0.101361945 -0.06376129
0.025498927 -0.011556715 -0.13081995 0.05560845 0.15015273 -0.16341905 0.0974908 -0.08252629
0.028525561 -0.005502671 -0.17533344 -0.14373347 -0.12476657 0.111847505 -0.14993241 -0.1425896
00000000: 8212 26be b9ca 0a3e c08c c5bc f89d d5bc
00000010: be1d c83d fa6c b0bd bcd7 773d 0f17 133e
00000020: 6668 c83d 3eda 9a3d 0de2 06be 0048 bfba
00000030: d73b 13be 1c20 2abe 68f1 efbc 48b5 bcbd
00000040: b589 1dbe 64bc 3e3d 2a34 14be f45b 0ebe
00000050: b9aa 043e 005f b93b de92 be3d 40ac dbbb
00000060: 01fd 043e 34a6 443d 482e 65bd a9e5 31be
00000070: 20e0 21be cb80 24be 65ef 90bd 788b 75bd
00000080: 1222 9b3d 7daf 093e 006d 68bb dc9d 3d3d
00000090: 5fa5 d7bd a2e7 29be c004 d13b 52c0 fe3d
000000a0: 78a6 25bd 78ef 26be 90b6 afbd c7ff 33be
000000b0: f0eb 0cbc 5e23 c63d 3ac5 b7bd ed7d 063e
000000c0: 605b 4dbc 114e ecbd 2c82 d7bd 3aee 8b3d
000000d0: 304f 05bc b809 8b3c eee6 9d3d 9cd2 01bd
000000e0: fbd4 a0bd a42b 1b3d e9fc 05be 701f 1cbe
000000f0: d87c 143d c86b 573d e8fb 303d c040 0ebd
00000100: 2d31 b7bd 784b 803c ca15 a63d 58f7 b2bc
00000110: a1c9 20be f6a7 933d aaea 65bd 805d a03b
00000120: fe22 ebbd 8004 a53c 202b 11bc 9148 0e3e
00000130: 1802 9abc 4a85 cd3d fe08 b5bd aa91 d2bd
00000140: 8f20 213e dc82 0cbd 0c6f a9bd d4e4 05bd
00000150: 2439 7dbd ff28 2b3e fd34 153e 16eb 6dbd
00000160: 6c72 d2bd 689f f13c 2329 113e 2a30 58bd
00000170: cc5f 0a3d eadb 7bbd 7829 c83c 5393 1bbe
00000180: f465 29bd 73fa 313e aace 913d 8611 a13d
00000190: 4a96 00be 46b4 9bbd 65d2 253e 654e 25be
000001a0: 8049 fdbc afa1 c4bd d376 083e 833f 2a3e
000001b0: ea96 aebd 322a 25be 1618 aabd 2114 b5bd
000001c0: 949c ffbd 1a40 ea3d 503c b1bc ecc2 40bd
000001d0: 315a 013e f21a ca3d 09d4 343e c976 04be
000001e0: 9c6c 2dbe 335f 183e 6018 723c 5f85 b8bd
000001f0: 1b25 f3bd cdad d1bd f81c a13c daa4 22be
00000200: 0c46 543d 7e5d b23d 1c5c 08be 9a71 b53d
00000210: 37a1 21be 01dd 333e 5a3b fc3d 80f9 e53a
00000220: da6c af3d 9013 103c 50a3 e83c 2855 01be
00000230: 0d7c 1b3e 1eef e43d a904 123e 8423 56bd
00000240: e817 29be e9c6 bdbd 4095 773b e5df bcbd
00000250: 16e1 e2bd 69a9 93bd 06b0 8dbd b1c1 2a3e
00000260: 80ff 113d 8278 ea3d 6a66 fb3d b1f5 033e
00000270: e306 253e 0696 d43d b247 0ebe 58a3 c53c
00000280: 574c e6bd 2ffb 0e3e 78c2 0d3d 39e9 033e
00000290: 80b4 213b 66c8 dbbd 8ad8 2ebe 074e 203e
000002a0: c8f0 45bd 244c 783d c49f 8f3d 8036 7e3d
000002b0: 707d 1e3d 501b 113c 8bd1 103e 7011 4d3d
000002c0: d473 41bd 5f9a 343e 1a86 01be e1e2 92bd
000002d0: 9a30 9a3d 947f 893d 957e ddbd 8f80 103e
000002e0: 0427 f3bd 0f8b 1b3e b165 34be df7b cdbd
000002f0: a0b5 aabc 0a57 cb3d 46d1 f93d 95ce b8bd
00000300: 12a3 9a3d fca0 77bd 583f 2fbd 9cbe 123d
00000310: c9c2 003e 88c9 273d 34db 893d 2227 f33d
00000320: eae6 f93d 2ed0 ec3d 5d64 103e e8c5 aebc
00000330: 0024 38ba 7e1f e7bd e7d2 f9bd 19ad 2b3e
00000340: 6eb5 843d 6051 46bd 2bed 24be 7e92 d63d
00000350: 3651 09be 24f3 0bbe 8aae 823d 2851 31be
00000360: c611 ecbd 8882 e93c 1878 e1bc a03c 083d
00000370: 99a4 d3bd 316f 0b3e 0802 f9bd 0300 25be
00000380: 213b 263e 004b 933d ed09 c9bd cafb d93d
00000390: 3385 243e 9295 f1bd 788b 2dbd 3000 55bc
000003a0: f455 673d a054 25be d0da 2ebd f674 953d
000003b0: 4046 9ebb 1ca2 003d da96 cfbd 4795 82bd
000003c0: 20e3 d03c 6058 3dbc aaf5 05be b0c5 633d
000003d0: a3c1 193e 5357 27be 42a9 c73d 8b03 a9bd
000003e0: 70ae e93c c04f b4bb 9c8a 33be de2e 13be
000003f0: 9e85 ffbd 4e10 e53d e287 19be 0203 12be
