best_model6_64_2_0.1.pt (torch, 230515 bytes, 15 tensors)

lstm.weight_ih_l0 f4 [256, 6]
0.33918747 0.3764416 0.32471886 0.02489178 -0.039247036 0.0040385583 0.48847762 0.47723237
0.5115865 0.34259942 0.24132924 0.25793114 0.2953506 0.38116953 0.4222705 0.15561403
0.17717873 0.14902388 0.3927791 0.38104412 0.3746777 0.1899893 0.17875661 -0.074854754
0.11687912 0.29229426 0.29723606 -0.03706541 -0.09073723 -0.13870144 0.28022334 0.3702472
0.4339159 0.050608046 0.062102053 -0.024761014 0.22361496 0.17358679 0.3839956 0.11452593
0.15749936 -0.090035 0.20848417 0.19462806 0.34423268 0.14484279 0.101671815 0.070360795
0.54192686 0.49481314 0.4820113 0.4112201 0.242266 0.20659259 0.31855723 0.36704275
0.4911041 0.18071741 0.2598924 0.20464298 -0.20949177 -0.21010332 -0.2036043 -0.022895966
0.17350276 0.12182159 -0.47470525 -0.5413356 -0.43458924 -0.28533658 -0.20177774 -0.2708019
0.45060876 0.45917985 0.45861337 0.38989937 0.2029747 0.25507867 0.21779735 0.13167992
0.19445273 0.018778427 -0.07781393 -0.18386734 -0.12691285 -0.12286272 -0.10437406 0.05113385
0.06932015 0.21066788 0.20951387 0.21715388 0.23160146 0.27882457 0.23043005 0.103443496
0.53500766 0.5373527 0.5034356 0.40984157 0.36843383 0.30327553 0.45152575 0.44514078
0.58636254 0.2795963 0.2280857 0.01970171 -0.38126317 -0.43797916 -0.5850803 -0.32388148
-0.38237885 -0.13585587 -0.0961914 0.035695452 0.107020125 -0.019770028 -0.12195378 -0.001068185
0.37130392 0.38166365 0.29142028 0.37947598 0.40792516 0.3176346 0.6222477 0.5922711
0.7449089 0.605121 0.4135119 0.37377036 0.33725107 0.33194834 0.34247458 0.22529885
-0.035191484 0.002675018 0.11881899 0.16746053 0.13171229 0.1086256 0.046495955 -0.04299569
0.16712102 0.18930152 0.2387593 0.06679143 -0.054190848 -0.18917248 0.3237429 0.43363315
0.4363408 0.24574625 0.19170587 0.016986439 0.20280096 0.23381145 0.38013235 0.15361077
0.18994327 0.25028318 -0.5302524 -0.5073872 -0.49756193 -0.3150286 -0.25951555 -0.21673061
0.29261464 0.48386148 0.4950551 0.3633125 0.13690737 0.08562604 0.23015898 0.28837425
0.22682561 0.07483848 -0.02203859 0.032267354 0.37495562 0.26513585 0.43614662 0.3246455
0.41369137 0.3777598 0.21511179 0.24168283 0.1627111 0.015066369 0.048893142 -0.10540618
0.21243273 0.28453347 0.22309151 -0.009951453 -0.07789796 -0.024204489 -0.4719196 -0.501042
-0.46834546 -0.36489353 -0.23180388 -0.043177873 0.104691505 0.1939244 0.3304943 0.07604867
-0.056185756 0.07044152 0.1918339 0.15833592 0.3068637 0.2779819 0.13557304 0.11683666
-0.055854503 -0.19557562 -0.2700758 -0.048681326 0.04344714 -0.006667191 0.50404227 0.6057401
0.6496082 0.48903093 0.30854118 0.15059106 0.03409017 -0.012461551 -0.07887456 0.19843923
0.27693367 0.17670551 -0.082255825 0.043167185 -0.10863676 0.030587565 0.18393975 0.21075433
0.3367091 0.337284 0.24592751 0.21009439 -0.009985024 -0.08078554 0.284935 0.36955068
0.38459826 0.2057526 -0.07773625 -0.06452963 0.22137888 0.271912 0.26903912 0.07100027
00000000: fba9 ad3e f4bc c03e 8d41 a63e d9e9 cb3c
00000010: 80c1 20bd e255 843b bd19 fa3e cd57 f43e
00000020: 55f7 023f 3169 af3e 031f 773e 8d0f 843e
00000030: 3238 973e a728 c33e d733 d83e 4959 1f3e
00000040: 576e 353e b799 183e 581a c93e 3718 c33e
00000050: c1d5 bf3e 8e8c 423e f90b 373e 734d 99bd
00000060: 525e ef3d 98a7 953e 532f 983e e6d1 17bd
00000070: 71d4 b9bd c007 0ebe 6f79 8f3e 0a91 bd3e
00000080: 3a2a de3e 624a 4f3d b95e 7e3d 9cd7 cabc
00000090: 52fb 643e bcc0 313e 129b c43e 928c ea3d
000000a0: 8347 213e 4564 b8bd e07c 553e 944c 473e
000000b0: 443f b03e ab51 143e 5039 d03d 5219 903d
000000c0: b8bb 0a3f 2658 fd3e 2fca f63e 718b d23e
000000d0: 9414 783e 028d 533e ef19 a33e 07ed bb3e
000000e0: ff71 fb3e fc0d 393e 9e10 853e ee8d 513e
000000f0: 0385 56be 5325 57be a57d 50be 5290 bbbc
00000100: b5aa 313e 997d f93d 910c f3be f894 0abf
00000110: 7b82 debe a317 92be d39e 4ebe 8ca6 8abe
00000120: 31b6 e63e 9f19 eb3e 5fcf ea3e e4a0 c73e
00000130: 9ad8 4f3e ac99 823e 4506 5f3e 1ad7 063e
00000140: 9e1e 473e 37d5 993c e95c 9fbd b847 3cbe
00000150: 71f5 01be 739f fbbd 11c2 d5bd ba71 513d
00000160: b9f7 8d3d 52b9 573e ce8a 563e 965d 5e3e
00000170: ef28 6d3e 18c2 8e3e dbf5 6b3e 2fda d33d
00000180: 43f6 083f f28f 093f 28e1 003f c1d6 d13e
00000190: 5ca3 bc3e ee46 9b3e 622e e73e 7ee9 e33e
000001a0: db1b 163f 3f27 8f3e 4c8f 693e 7b65 a13c
000001b0: ed34 c3be ce3e e0be d3c7 15bf cbd3 a5be
000001c0: 29c7 c3be cd1d 0bbe ffff c4bd 6535 123d
000001d0: 5e2d db3d c1f4 a1bc e7c2 f9bd 5702 8cba
000001e0: 8c1b be3e 6b69 c33e 0a35 953e ad4a c23e
000001f0: 91db d03e 01a1 a23e a04b 1f3f 149f 173f
00000200: 5ab2 3e3f 36e9 1a3f d5b7 d33e d45e bf3e
00000210: 2cac ac3e 22f5 a93e d458 af3e beb4 663e
00000220: f224 10bd 5b4f 2f3b 5f57 f33d c67a 2b3e
00000230: 96df 063e 1977 de3d 8b72 3e3d 401c 30bd
00000240: c621 2b3e 42d8 413e 517d 743e f2c9 883d
00000250: 39f7 5dbd 6eb6 41be a1c1 a53e 2a05 de3e
00000260: 1068 df3e e8a4 7b3e 8b4e 443e 2527 8b3c
00000270: 0eab 4f3e 456c 6f3e b5a0 c23e 244c 1d3e
00000280: 7d80 423e 1e25 803e 9fbe 07bf 21e4 01bf
00000290: 70c0 febe 6e4b a1be 39df 84be a1ee 5dbe
000002a0: 96d1 953e b1bc f73e dd77 fd3e 1904 ba3e
000002b0: 7231 0c3e b55c af3d ccae 6b3e caa5 933e
000002c0: f944 683e eb44 993d 468a b4bc c62a 043d
000002d0: 2ffa bf3e e3bf 873e 9c4e df3e ef37 a63e
000002e0: 5bcf d33e bc69 c13e 4446 5c3e b47b 773e
000002f0: bd9d 263e efd8 763c 2d44 483d 32df d7bd
00000300: f787 593e 5fae 913e 1a72 643e 6b0b 23bc
00000310: f788 9fbd 7e48 c6bc 729f f1be 4a44 00bf
00000320: faca efbe 53d3 babe ff5d 6dbe 48db 30bd
00000330: 8068 d63d 1e94 463e 8d36 a93e 68bf 9b3d
00000340: 0923 66bd a543 903d 1b70 443e d022 223e
00000350: 3d1d 9d3e a553 8e3e a9d3 0a3e 0f48 ef3d
00000360: b1c7 64bd fa44 48be 6047 8abe 1266 47bd
00000370: a1f5 313d 7478 dabb ea08 013f c811 1b3f
00000380: b94c 263f 4362 fa3e 1cf9 9d3e 8b34 1a3e
00000390: 22a2 0b3d 892b 4cbc fc88 a1bd a733 4b3e
000003a0: 40ca 8d3e 4af2 343e be75 a8bd 13d0 303d
000003b0: f37c debd c692 fa3c b45a 3c3e fccf 573e
000003c0: 2365 ac3e 7db0 ac3e 6cd4 7b3e fc22 573e
000003d0: 3a98 23bc e472 a5bd 00e3 913e bf35 bd3e
000003e0: 10ea c43e cfb0 523e 2f34 9fbd 1c28 84bd
000003f0: 25b1 623e 0d38 8b3e 7fbf 893e 9768 913d

lstm.weight_hh_l0 f4 [256, 64]
0.1370015 -0.0825103 0.14920232 -0.12966248 0.13367124 -0.08135663 0.1428869 0.11996237
-0.12842898 0.09066292 0.04179405 0.0729501 0.15045032 0.12512484 0.10626287 -0.34536332
-0.09759049 -0.105701245 -0.058707118 -0.093876526 -0.05900926 -0.07817201 0.15861243 -0.12439487
-0.117162265 -0.16631372 0.1737674 -0.09931657 0.1383112 -0.14066336 0.029324053 0.14304787
-0.12679888 -0.05306448 0.14204422 -0.059427857 -0.08986614 -0.10992306 0.023085559 0.1636921
0.14659666 0.1425018 0.15427421 -0.0124121485 -0.025852207 0.050502185 0.15916611 -0.07625881
-0.0357027 0.11005152 -0.03549789 0.06949036 -0.15763478 0.10999319 0.12561597 0.17878403
0.11746698 0.0897315 0.111299 -0.13430183 -0.079075985 0.07230866 -0.017033866 -0.063692436
-0.04417939 0.017958792 -0.009877114 0.016604085 0.012194804 0.01504333 -0.07545364 -0.05859232
-0.006868159 -0.02791103 -0.12578087 0.032572266 -0.0127913235 0.04529949 -0.093162484 0.15506233
0.06577048 0.005364847 -0.039646104 -0.0069298544 -0.06585336 -0.0044981586 -0.025018416 -0.044932276
-0.037931506 0.02776197 -0.1082775 0.01542649 -0.026778046 0.078768626 0.065615304 0.02826268
-0.015228592 -0.04919556 -0.055593573 -0.015293035 -0.0014959001 0.0071210605 -0.09927316 -0.057139277
-0.062283337 -0.025867213 -0.07360613 -0.1047381 0.06840112 0.031253815 0.0054278504 0.08598475
-0.016603362 0.017053736 -0.05529935 -0.122827366 0.038677953 0.012482028 -0.058092587 -0.070493154
-0.016423343 0.033363085 0.09200724 0.08574287 0.05643449 0.092639595 -0.044420198 0.12942562
-0.09582255 -0.016143298 0.02425053 -0.009703316 0.020107727 0.047722362 -0.08899744 -0.10625857
-0.005790674 0.04321245 -0.07666543 0.00075023505 0.036374208 0.07068265 -0.10470472 0.2782345
0.033858053 -0.03849317 0.026166774 0.028821344 0.0039201076 -0.05077607 0.01685676 -0.041802708
-0.052282095 -0.008579586 -0.22254735 0.12324255 0.01992701 0.0970856 -0.000732899 0.017985236
-0.033874147 0.041499957 -0.098496616 0.0028480014 0.08002115 -0.04097454 -0.03872354 -0.09954042
-0.09264072 -0.011973587 -0.08101517 -0.057118654 -0.02011751 0.13512357 0.02746005 0.056940038
-0.111047454 0.025866011 -0.03774853 -0.024288807 0.004894582 -0.01956928 -0.089504346 -0.14565349
0.021881226 0.020128278 -0.028036792 0.07412949 0.07046184 0.047277875 0.06682319 0.002405927
0.0106610805 -0.034185003 0.006193401 -0.0692075 -0.026306905 -0.0140718855 0.027035475 0.007736186
0.014005646 0.02283126 -0.013198876 -0.15464957 0.012059773 -0.0017866472 0.021921504 0.22448394
-0.0539284 -0.008016972 0.1770954 0.035216007 0.1118814 0.011754782 0.005988425 -0.0128489025
-0.005372044 -0.008677369 -0.18645497 0.13682939 -0.0139751285 0.000340448 -0.08432992 0.005128063
0.004233282 0.033737745 -0.010726512 0.038819753 0.10211998 -0.013207794 0.10466411 0.049121816
0.022708941 -0.00051913667 0.024333538 0.19969797 -0.09769158 -0.027244944 -0.008895861 0.0057924143
0.11150498 -0.04912223 -0.18497756 0.02752328 0.041483525 -0.047238894 0.094813734 0.0169845
-0.004104262 -0.08783737 0.012495843 -0.11531691 -0.02049973 -0.18669872 0.15716372 -0.047487672
00000000: 1f4a 0c3e 29fb a8bd 7ec8 183e 3ec6 04be
00000010: 1de1 083e 4e9e a6bd f250 123e d5ae f53d
00000020: e382 03be 7bad b93d 3d30 2b3d dd66 953d
00000030: a60f 1a3e ba20 003e 59a0 d93d 76d3 b0be
00000040: 86dd c7bd e579 d8bd e076 70bd 5642 c0bd
00000050: b2b3 71bd a618 a0bd 4c6b 223e bdc2 febd
00000060: c5f2 efbd 254e 2abe 15f0 313e 7c66 cbbd
00000070: 74a1 0d3e 0e0a 10be ff38 f03c 247b 123e
00000080: 91d7 01be 245a 59bd 0a74 113e a06a 73bd
00000090: bd0b b8bd 571f e1bd ed1d bd3c e79e 273e
000000a0: 6f1d 163e feeb 113e 0ffa 1d3e 535c 4bbc
000000b0: 02c8 d3bc 61db 4e3d 71fc 223e 942d 9cbd
000000c0: ff3c 12bd b162 e13d 3c66 11bd f650 8e3d
000000d0: 036b 21be 1c44 e13d 79a1 003e 2913 373e
000000e0: 8792 f03d 26c5 b73d bbf0 e33d 6b86 09be
000000f0: 97f2 a1bd 9016 943d 9b8a 8bbc 2e71 82bd
00000100: 73f5 34bd 511e 933c 9ed3 21bc 4a05 883c
00000110: b7cc 473c 4d78 763c 7087 9abd 80fe 6fbd
00000120: 4b0e e1bb aca5 e4bc b3cc 00be 7f6a 053d
00000130: b392 51bc f58b 393d f9cb bebd a9c8 1e3e
00000140: acb2 863d 99cb af3b f463 22bd d513 e3bb
00000150: 20de 86bd 4a65 93bb 6cf3 ccbc e80a 38bd
00000160: 115e 1bbd 126d e33c 98c0 ddbd 64bf 7c3c
00000170: a25d dbbc 7251 a13d 5161 863d 2387 e73c
00000180: 5881 79bc 4981 49bd 16b6 63bd a38f 7abc
00000190: 1412 c4ba c957 e93b ba4f cbbd e00a 6abd
000001a0: d01c 7fbd 7ae7 d3bc d0be 96bd ee80 d6bd
000001b0: e315 8c3d 0004 003d 1cdc b13b c618 b03d
000001c0: c603 88bc 47b4 8b3c 9281 62bd ea8c fbbd
000001d0: c66c 1e3d 6c81 4c3c 7ef2 6dbd b75e 90bd
000001e0: 3f8a 86bc bba7 083d 4b6e bc3d f599 af3d
000001f0: da27 673d d4b9 bd3d f4f1 35bd 2688 043e
00000200: 9d3e c4bd f33e 84bc 0ca9 c63c a8fa 1ebc
00000210: f6b8 a43c 8678 433d 4a44 b6bd 189e d9bd
00000220: b2bf bdbb 8aff 303d c402 9dbd 6cab 443a
00000230: 1ffd 143d 11c2 903d 6e6f d6bd c174 8e3e
00000240: beae 0a3d 04ab 1dbd b45b d63c bd1a ec3c
00000250: 3f74 803b 92fa 4fbd 3017 8a3c 5139 2bbd
00000260: c025 56bd 6491 0cbc 74e3 63be 9766 fc3d
00000270: f83d a33c d1d4 c63d 0520 40ba c655 933c
00000280: 9ebf 0abd dcfb 293d 98b8 c9bd 89a5 3a3b
00000290: 21e2 a33d ebd4 27bd 939c 1ebd d9db cbbd
000002a0: 6bba bdbd dd2c 44bc 48eb a5bd 40f5 69bd
000002b0: 7acd a4bc d55d 0a3e e6f3 e03c f539 693d
000002c0: d96c e3bd f5e4 d33c 349e 1abd 52f9 c6bc
000002d0: bb62 a03b c14f a0bc 0e4e b7bd 3026 15be
000002e0: 4240 b33c 0fe4 a43c 6aad e5bc 34d1 973d
000002f0: 4c4e 903d 72a6 413d 99da 883d c2ac 1d3b
00000300: d0ab 2e3c 9305 0cbd 03f2 ca3b a9bc 8dbd
00000310: 9481 d7bc c48d 66bc 8079 dd3c d57f fd3b
00000320: f077 653c 9f08 bb3c 1940 58bc 755c 1ebe
00000330: 5b96 453c ef2d eaba ba94 b33c 1edf 653e
00000340: 07e4 5cbd 9e59 03bc 7f58 353e a93e 103d
00000350: 1322 e53d 2197 403c 8d3a c43b 3484 52bc
00000360: f907 b0bb 862b 0ebc 0dee 3ebe 011d 0c3e
00000370: f0f7 64bc 287e b239 2ab5 acbd 4f09 a83b
00000380: 58b7 8a3b 9730 0a3d 41be 2fbc 7601 1f3d
00000390: 4824 d13d 8165 58bc 235a d63d f533 493d
000003a0: 1a08 ba3c ac16 08ba 2157 c73c a07d 4c3e
000003b0: 8612 c8bd ca30 dfbc f2bf 11bc 4bce bd3b
000003c0: b95c e43d 6434 49bd c26a 3dbe 8078 e13c
000003d0: a1ea 293d 927d 41bd b42d c23d 1423 8b3c
000003e0: 0c7d 86bb 14e4 b3bd 5dbb 4c3c 462b ecbd
000003f0: 0def a7bc f32d 3fbe 87ef 203e 6f82 42bd

lstm.bias_ih_l0 f4 [256]
-0.77587354 -0.5393875 -0.59917736 -0.72540873 -0.36356482 -0.9177641 -0.7613266 -0.7395075
-0.34817237 -0.60779953 -0.2903096 0.62259597 -0.64228153 -0.35771745 -0.28185302 -1.0482788
-0.4857513 -0.47402713 0.71804315 -0.2833093 -0.063921966 -0.44244862 -0.52128977 -0.2725816
-0.32610208 -0.66511375 -0.881189 0.31282124 -0.5522273 -0.7667359 -0.12899847 -0.3489214
-0.5206594 0.49482906 -0.5864641 -0.3851503 0.13136493 -0.6912183 -0.23845196 -0.29484612
-0.7953021 -0.6575209 -0.6901808 -0.18138751 0.020408938 -0.32898065 -0.41856545 -0.44436663
-0.48879763 -0.3590194 -0.5368523 -0.37724677 -0.5783964 -0.14991295 0.098315425 -1.0177727
-0.47394204 -0.02311497 0.19851281 -0.040978193 -0.039742637 -0.3178056 0.19987515 0.060033854
-0.1770662 -0.6907794 -0.72244954 -0.41427225 -0.46878052 -0.01725271 -0.27538866 -0.1238415
-0.602741 -0.61251354 -0.07822794 -0.85708463 -0.46726 -0.46959704 -0.08224355 0.26547697
-0.54888207 -0.6936455 -0.86548215 -0.50591725 -0.30652106 -0.5843527 -0.5440012 -0.38557753
-0.46857485 -0.52856326 0.73478395 -0.7417476 -0.63125426 -0.12684192 -0.31538132 -0.5321834
-0.44553572 -0.72824824 0.1355203 -0.42548928 -0.30274913 -0.6454974 -0.15235561 -0.15733805
-0.12635459 -0.60692734 -0.3325242 0.20520295 -0.30327544 0.45485514 -0.5948443 -0.35890082
0.24550593 -0.71774095 -0.2664589 -0.4799776 -0.5477336 -0.4411981 0.20343131 0.25674626
-0.63499105 -0.9400408 -0.28244168 0.23584086 -0.06105937 0.09876005 -0.35491076 -0.22975872
-0.46886644 -0.23953997 0.25546822 -0.106183134 0.41810554 0.33568442 -0.5613005 -0.4736853
-0.44714835 0.23157144 -0.5809092 0.4674714 0.19880104 0.41786382 -0.6379889 0.38116038
0.13100243 -0.2904043 -0.5944061 -0.40460452 -0.5426184 -0.1351032 0.16217317 -0.41090518
-0.40569565 -0.25290802 -0.15972617 -0.6543422 0.23930359 0.39466304 0.39132285 0.35056293
-0.3662056 -0.4864014 -0.4326454 -0.43405056 -0.43326905 -0.23700751 -0.6180538 -0.53789574
-0.5498739 0.09461216 -0.4270094 -0.74117184 0.46143892 0.7471042 0.26110452 0.6262015
-0.7138433 0.381158 0.5067651 -0.63940597 -0.20438132 0.4713558 -0.6732944 -0.37467715
0.16017161 0.38962007 0.63910764 0.6845882 0.45509523 0.800378 -0.43317702 0.5756958
-0.7635891 -0.6191762 -0.77432543 -0.74887276 -0.36366904 -0.90502346 -0.64003587 -0.9882226
-0.28460413 -0.7291795 -0.17138804 0.1513376 -0.46603376 -0.17847428 0.065115385 -0.420799
-0.46027273 -0.7475713 0.20104502 -0.19932477 0.46417764 -0.47462913 -0.5434277 -0.35770926
-0.33977187 -0.38415194 0.007380312 0.28809762 -0.5937305 -0.78244936 0.34690535 -0.34079105
-0.2748569 0.34989828 -1.283217 -0.00652861 0.059171245 -0.5770743 0.40034285 0.38795692
-0.7446498 -0.51940954 -0.66214 -0.55479765 0.6197108 -1.4575704 -0.49206853 -0.043410376
-1.3686366 -0.38777527 -0.07353994 -0.040506605 -0.42664447 0.08759441 0.83123606 -0.32613918
-0.40477368 -0.16443272 0.41003105 0.6975364 -0.035806317 -0.2644235 0.65081686 0.14913553
00000000: a69f 46bf 4d15 0abf b063 19bf 63b4 39bf
00000010: 2b25 babe 97f2 6abf 4de6 42bf 5d50 3dbf
00000020: a643 b2be c098 1bbf 76a3 94be 7362 1f3f
00000030: 906c 24bf be26 b7be 0a4f 90be 002e 86bf
00000040: 65b4 f8be afb3 f2be add1 373f eb0d 91be
00000050: 85e9 82bd a088 e2be 3f73 05bf d18f 8bbe
00000060: daf6 a6be e544 2abf 9a95 61bf 1b2a a03e
00000070: c55e 0dbf ce48 44bf 2d18 04be d3a5 b2be
00000080: ef49 05bf 3c5a fd3e 8322 16bf 6c32 c5be
00000090: 8784 063e aff3 30bf c02c 74be 12f6 96be
000000a0: eb98 4bbf 4a53 28bf b0af 30bf a6bd 39be
000000b0: a530 a73c 2770 a8be 364e d6be 0684 e3be
000000c0: af43 fabe 64d1 b7be 276f 09bf 7d26 c1be
000000d0: c911 14bf c882 19be 9959 c93d 6046 82bf
000000e0: 88a8 f2be 9b5b bdbc f146 4b3e c0d8 27bd
000000f0: 2dc9 22bd 6ab7 a2be 12ac 4c3e 0fe6 753d
00000100: d850 35be ebd6 30bf 74f2 38bf 7e1b d4be
00000110: 0004 f0be 8e55 8dbc beff 8cbe 9da0 fdbd
00000120: 3c4d 1abf b0cd 1cbf f835 a0bd e669 5bbf
00000130: b43c efbe 066f f0be 4e6f a8bd 99ec 873e
00000140: 8983 0cbf c092 31bf 3d90 5dbf cb83 01bf
00000150: 54f0 9cbe 2398 15bf aa43 0bbf 6b6a c5be
00000160: 0be9 efbe ec4f 07bf cd1a 3c3f 2ce3 3dbf
00000170: e199 21bf d9e2 01be a979 a1be 2c3d 08bf
00000180: 421d e4be 7a6e 3abf d5c5 0a3e bbd9 d9be
00000190: ef01 9bbe 513f 25bf 1c03 1cbe 3a1d 21be
000001a0: 1963 01be 975f 1bbf 9d40 aabe b920 523e
000001b0: eb46 9bbe c6e2 e83e b747 18bf d9c1 b7be
000001c0: e865 7b3e dfbd 37bf 4d6d 88be a0bf f5be
000001d0: 4538 0cbf b8e4 e1be 4c50 503e 3f74 833e
000001e0: c68e 22bf 84a6 70bf 329c 90be 4480 713e
000001f0: 6419 7abd b642 ca3d ddb6 b5be df45 6bbe
00000200: 430f f0be f749 75be bbcc 823e 8b76 d9bd
00000210: ee11 d63e d4de ab3e 64b1 0fbf e186 f2be
00000220: a1f0 e4be 1021 6d3e 77b6 14bf 6958 ef3e
00000230: 8092 4b3e 3ff2 d53e 3e53 23bf 7427 c33e
00000240: 8025 063e dfaf 94be 002b 18bf 5328 cfbe
00000250: 0ae9 0abf 7e58 0abe b910 263e 2a62 d2be
00000260: 57b7 cfbe 297d 81be 428f 23be f882 27bf
00000270: 000c 753e 4611 ca3e 785b c83e fc7c b33e
00000280: 4d7f bbbe 9b09 f9be b383 ddbe e03b debe
00000290: 71d5 ddbe 19b2 72be c638 1ebf 89b3 09bf
000002a0: 89c4 0cbf 05c4 c13d faa0 dabe 70bd 3dbf
000002b0: b941 ec3e 3942 3f3f 7eaf 853e be4e 203f
000002c0: 6fbe 36bf 2427 c33e 5cbb 013f 1cb0 23bf
000002d0: 5649 51be 8c55 f13e 065d 2cbf afd5 bfbe
000002e0: 0704 243e 487c c73e 8f9c 233f 2c41 2f3f
000002f0: 3e02 e93e 93e5 4c3f 61c9 ddbe cd60 133f
00000300: 937a 43bf 5582 1ebf 313a 46bf 20b6 3fbf
00000310: d432 babe 9eaf 67bf 64d9 23bf 28fc 7cbf
00000320: a2b7 91be 82ab 3abf 5980 2fbe 3ef8 1a3e
00000330: fa9b eebe f6c1 36be 375b 853d f772 d7be
00000340: dea8 ebbe d560 3fbf bfde 4d3e cb1b 4cbe
00000350: b1a8 ed3e 9702 f3be 141e 0bbf ab25 b7be
00000360: 94f6 adbe 90af c4be 8bd6 f13b 8881 933e
00000370: b9fe 17bf 9a4e 48bf 949d b13e 2a7c aebe
00000380: 0bba 8cbe de25 b33e 7440 a4bf f3ed d5bb
00000390: 8c5d 723d 24bb 13bf bdf9 cc3e 4aa2 c63e
000003a0: 5fa1 3ebf 06f8 04bf 0282 29bf 3807 0ebf
000003b0: 5ea5 1e3f ab91 babf 68f0 fbbe 14cf 31bd
000003c0: 7c2f afbf 7b8a c6be 1c9c 96bd 41ea 25bd
000003d0: 2571 dabe b364 b33d e3cb 543f b7fb a6be
000003e0: 7f3e cfbe 0d61 28be 97ef d13e bf91 323f
000003f0: a5a9 12bd 8462 87be ef9b 263f fcb6 183e

lstm.bias_hh_l0 f4 [256]
-0.8756346 -0.46353942 -0.5787557 -0.8371839 -0.37465525 -0.8750317 -0.6344099 -0.7200402
-0.45994645 -0.59249663 -0.37689665 0.6546038 -0.6076361 -0.28493094 -0.25682187 -1.0040196
-0.40624118 -0.5147292 0.66426903 -0.39998 -0.062902644 -0.50664276 -0.6561552 -0.32422134
-0.31946963 -0.65275234 -0.841086 0.32574183 -0.6173027 -0.58135384 -0.1918483 -0.27316394
-0.4708017 0.36402708 -0.51117307 -0.2617755 0.046790548 -0.6440841 -0.15423319 -0.26284048
-0.7642608 -0.561991 -0.689957 -0.25597227 0.115195036 -0.3856787 -0.40659022 -0.25426692
-0.5015435 -0.25383297 -0.6963645 -0.41061923 -0.58589077 -0.22397515 -0.06892356 -0.8927467
-0.58570725 -0.0023001193 0.15855773 0.06996963 -0.0607304 -0.17698042 0.13389617 -0.029323503
-0.077684715 -0.6619641 -0.6163988 -0.43765616 -0.46393546 -0.11654506 -0.1655886 -0.051420398
-0.5477077 -0.649111 -0.02809912 -0.95312065 -0.491916 -0.5215584 -0.0539774 0.38069272
-0.5944106 -0.61728865 -0.9072448 -0.50087863 -0.27909142 -0.6125336 -0.49378374 -0.3938697
-0.49736318 -0.51622474 0.68419355 -0.8073974 -0.5932562 -0.022779938 -0.3065402 -0.5483458
-0.43172497 -0.74200195 0.22666934 -0.41762075 -0.3127153 -0.59603757 -0.014699945 -0.2209822
-0.1185414 -0.6280031 -0.23306224 0.30735806 -0.3667691 0.3778037 -0.61787695 -0.33277383
0.3212967 -0.6987168 -0.29737887 -0.43313757 -0.5391924 -0.43914333 0.1943393 0.36451825
-0.5788325 -0.8758659 -0.19324386 0.10459557 0.022859132 0.060867604 -0.2964314 -0.17250413
-0.4830791 -0.21027096 0.18196672 -0.06747277 0.3571403 0.25847614 -0.4364465 -0.456592
-0.32966632 0.13059571 -0.6239506 0.5630119 0.20583647 0.3234429 -0.6418842 0.30337265
0.10024265 -0.27305487 -0.44734716 -0.34439915 -0.4543749 -0.26234928 0.28990257 -0.34396484
-0.32906714 -0.19340429 -0.12561919 -0.46046573 0.23927937 0.4192719 0.47348186 0.4722359
-0.25211403 -0.6496634 -0.5616014 -0.43388873 -0.4075957 -0.25562793 -0.6605382 -0.72266996
-0.40971187 0.2771312 -0.36436048 -0.83714217 0.4966804 0.76772034 0.23482282 0.5767462
-0.9431414 0.36720088 0.4684503 -0.68930745 -0.23821445 0.41475266 -0.53968227 -0.22128645
0.32943162 0.4306889 0.61963326 0.6196053 0.5749557 0.91344273 -0.6046733 0.569484
-0.90850645 -0.69352025 -0.7046132 -0.6859089 -0.36516544 -0.9604759 -0.6770709 -0.9063508
-0.3246988 -0.65993583 -0.16299942 0.1540079 -0.47028434 -0.35630727 -0.070266165 -0.42522633
-0.31669635 -0.7334615 0.16206172 -0.22176592 0.6586606 -0.48138258 -0.39953333 -0.29550186
-0.40962532 -0.49525714 0.031976417 0.22339168 -0.45890954 -0.9143301 0.33781186 -0.28970912
-0.35802397 0.2865706 -1.1459702 0.0045832936 0.07002539 -0.49677005 0.30771467 0.21038555
-0.734648 -0.38139415 -0.694796 -0.5765874 0.5444076 -1.4075235 -0.35422772 -0.080413654
-1.287348 -0.21129881 -0.2459197 0.007952893 -0.40826115 0.023852592 0.72313374 -0.3149049
-0.59032065 -0.23820311 0.35035875 0.6850971 0.11241371 -0.3928115 0.75685644 0.079361334
00000000: 9729 60bf 0a55 edbe 5529 14bf af51 56bf
00000010: d0d2 bfbe 1402 60bf b068 22bf 8e54 38bf
00000020: 1a7e ebbe dcad 17bf 99f8 c0be 1d94 273f
00000030: 0a8e 1bbf 78e2 91be 287e 83be b783 80bf
00000040: d8fe cfbe 4bc5 03bf 890d 2a3f 2eca ccbe
00000050: 1ad3 80bd 57b3 01bf caf9 27bf 5700 a6be
00000060: 8691 a3be c71a 27bf 6951 57bf a2c7 a63e
00000070: 8d07 1ebf 9bd3 14bf e173 44be 25dc 8bbe
00000080: ec0c f1be c261 ba3e 3ddc 02bf 7007 86be
00000090: 72a7 3f3d b2e2 24bf 4eef 1dbe 0793 86be
000000a0: 99a6 43bf a4de 0fbf 06a1 30bf cc0e 83be
000000b0: 60eb eb3d ae77 c5be 982c d0be 462f 82be
000000c0: 2865 00bf 65f6 81be f244 32bf af3c d2be
000000d0: f0fc 15bf be59 65be cc27 8dbd 0c8b 64bf
000000e0: e9f0 15bf 99bd 16bb f55c 223e 3d4c 8f3d
000000f0: 71c0 78bd 5b3a 35be 141c 093e d837 f0bc
00000100: 2a19 9fbd 7b76 29bf 50cc 1dbf 7814 e0be
00000110: f388 edbe 2daf eebd 0f90 29be 329e 52bd
00000120: 9236 0cbf 232c 26bf 2030 e6bc b7ff 73bf
00000130: 6adc fbbe da84 05bf 6817 5dbd 28ea c23e
00000140: 4b2b 18bf a106 1ebf 3241 68bf 9539 00bf
00000150: 12e5 8ebe 01cf 1cbf 39d1 fcbe 4aa9 c9be
00000160: 63a6 febe 4e27 04bf 4f27 2f3f 99b1 4ebf
00000170: a3df 17bf fe9c babc d6f2 9cbe 6460 0cbf
00000180: 0e0b ddbe d7f3 3dbf 021c 683e 63d2 d5be
00000190: 381c a0be eb95 18bf 0ad8 70bc 2849 62be
000001a0: d5c5 f2bd d0c4 20bf dea7 6ebe 095e 9d3e
000001b0: 29c9 bbbe 7d6f c13e 2f2d 1ebf 5561 aabe
000001c0: 0081 a43e 1bdf 32bf 0b42 98be 35c4 ddbe
000001d0: 8308 0abf 65d7 e0be e200 473e 23a2 ba3e
000001e0: 5e2e 14bf bf38 60bf b8e1 45be 3436 d63d
000001f0: 1343 bb3c 4f50 793d dbc5 97be eca4 30be
00000200: 2556 f7be 4551 57be 7c55 3a3e 2a2f 8abd
00000210: 18db b63e fc56 843e ea75 dfbe 6dc6 e9be
00000220: 06ca a8be e2ba 053e 3abb 1fbf 8c21 103f
00000230: ccc6 523e 4f9a a53e 8652 24bf a953 9b3e
00000240: 054c cd3d d9cd 8bbe b00a e5be 1655 b0be
00000250: d4a3 e8be a552 86be 1c6e 943e 291c b0be
00000260: 7d7b a8be c60b 46be 51a2 00be 2ac2 ebbe
00000270: a705 753e ceaa d63e 376c f23e e7c8 f13e
00000280: 1715 81be 5750 26bf 1cc5 0fbf aa26 debe
00000290: 62b0 d0be aae1 82be 0819 29bf e600 39bf
000002a0: c1c5 d1be 24e4 8d3e 758d babe f34e 56bf
000002b0: e54c fe3e 5289 443f 6575 703e a4a5 133f
000002c0: b771 71bf c101 bc3e b8d8 ef3e 7476 30bf
000002d0: 7dee 73be 765a d43e 9e28 0abf ea98 62be
000002e0: 43ab a83e 4183 dc3e 49a0 1e3f 749e 1e3f
000002f0: 4c30 133f 62d7 693f dfcb 1abf b4c9 113f
00000300: e193 68bf 8b8a 31bf 8861 34bf ba97 2fbf
00000310: f7f6 babe c0e1 75bf 8554 2dbf 9b06 68bf
00000320: ec3e a6be 8ef1 28bf 52e9 26be 3fb4 1d3e
00000330: 1cc9 f0be e86d b6be b5e7 8fbd 44b7 d9be
00000340: 0626 a2be 22c4 3bbf 82f3 253e 9b16 63be
00000350: fb9d 283f c777 f6be a28f ccbe 054c 97be
00000360: 69ba d1be 5892 fdbe b4f9 023d cac0 643e
00000370: 31f6 eabe 8a11 6abf adf5 ac3e c154 94be
00000380: eb4e b7be 62b9 923e 27af 92bf 742f 963b
00000390: 7969 8f3d a558 febe c78c 9d3e 4f6f 573e
000003a0: e411 3cbf 1846 c3be 27de 31bf 3b9b 13bf
000003b0: 4c5e 0b3f bb29 b4bf 565d b5be eaaf a4bd
000003c0: d2c7 a4bf b75e 58be 60d2 7bbe da4c 023c
000003d0: 9b07 d1be 8366 c33c 4b1f 393f 373b a1be
000003e0: 411f 17bf 84eb 73be 3962 b33e 8662 2f3f
000003f0: 2939 e63d 971e c9be 58c1 413f 3288 a23d

lstm.weight_ih_l1 f4 [256, 64]
-0.119828254 -0.11253001 0.07956517 -0.110557474 0.27554277 -0.037002154 -0.0030979742 -0.0765651
-0.22914961 0.1177563 -0.3639302 -0.65581626 0.13970508 0.2219073 -0.015044939 -0.19343494
-0.30102384 -0.18782884 0.526096 0.035581328 0.4523166 -0.18635064 0.19168359 -0.24410932
-0.36955702 -0.29477745 0.7227703 0.049346354 0.26714596 0.007621812 -0.55638987 0.13798273
-0.23017108 0.063871786 -0.35022727 0.1341242 -0.28904969 -0.15544188 0.4680848 0.52130634
-0.05782777 0.075210586 0.036292627 0.93303967 -0.277846 -0.36399648 0.21315275 0.5754123
0.557508 0.12022605 -0.08902878 0.13954572 -0.092083886 -0.21442828 0.5534216 0.1860916
0.073642135 -0.18841977 0.10453375 -0.3638553 0.41515633 -0.85552293 0.10236488 0.3547534
-0.07567131 0.16007484 -0.31700915 0.43135124 -0.21948965 0.36192924 -0.2504208 -0.6084623
0.4165773 -0.15205199 0.38553932 -1.5498749 -0.24222407 -0.3829104 0.4983147 0.89321905
0.27930227 0.24213703 1.6391969 0.6784551 1.0983483 0.1383327 -0.31339228 0.32382855
0.2742898 0.35374555 -1.0606946 1.0258683 -0.19108427 0.48802677 -1.1330237 -0.41717184
0.29086393 1.2077986 -0.17342526 0.82419336 0.9248761 0.11048548 -0.05418116 0.15082982
-0.48838174 -0.2789994 -0.1141894 0.62415105 -1.0842637 -0.20632023 -0.31289792 -0.22318378
0.33752272 -0.639227 -0.12288272 0.14038767 0.27328557 -1.0872153 -0.24126442 -0.27757898
-0.24354433 -1.0674293 -0.4908736 -0.3750561 -0.32726958 -0.6747503 1.1311239 -0.2774832
0.07766764 -0.0286943 0.06995305 0.13472162 0.048565436 -0.3329576 0.15462914 0.21535562
0.024118647 -0.054003112 0.9434144 0.037637085 -0.0542463 -0.043082274 0.7172986 -0.2995953
-0.040557366 0.07314191 0.06777486 0.04999789 0.049780153 0.018433707 -0.13162889 0.075172015
-0.101007625 0.013893877 0.045869302 0.031975903 0.11681556 -0.091950215 -0.022761518 0.10297801
0.09130523 0.08962658 0.104479656 0.33230358 0.3001465 0.09949695 0.9134248 0.919062
0.0855937 0.024013259 0.16223451 -0.0632894 -0.20430447 -0.3292637 -0.112809554 -0.95379615
0.323481 -0.07631897 -0.35591894 1.1283123 0.044701345 -0.06945653 0.68807185 0.19962655
0.11644216 -0.14303738 -0.57411325 -0.5395224 -0.8700878 -0.21211533 0.23234457 -0.833856
0.22461113 -0.09707145 -0.081643544 -0.07065226 -0.11064201 -0.19712725 0.14419016 0.066898435
0.02604435 0.04482322 0.63336074 -0.40881497 0.043751594 -0.057378314 0.5092794 -0.08943747
0.3192713 -0.111086555 0.3024707 0.10226427 0.41588798 0.20064753 0.04144479 0.02943006
-0.039688807 -0.022947123 -0.019225843 0.5635202 -0.10291632 -0.17498887 -0.3196482 0.032164674
0.06265776 0.3723784 0.21601258 0.2671894 0.29679474 -0.029307932 0.76236624 0.7226033
0.16006927 0.046319086 0.029115615 0.21646444 -0.3856029 0.0028492492 0.031509507 -0.6775542
0.16994509 -0.09551453 -0.18388267 0.67751783 0.016443616 -0.36166653 0.93448997 -0.028848583
-0.048560143 -0.23470877 -0.7050178 -0.85938007 -0.6512184 -0.22177939 0.40656722 -0.5671567
00000000: 8468 f5bd 2276 e6bd 10f3 a23d f56b e2bd
00000010: f113 8d3e 928f 17bd 6207 4bbb 2ace 9cbd
00000020: 32a6 6abe 372a f13d 0f55 babe 93e3 27bf
00000030: d90e 0f3e ab3b 633e 0c7f 76bc cf13 46be
00000040: cc1f 9abe 3456 40be 3aae 063f babd 113d
00000050: 0b96 e73e b4d2 3ebe b448 443e cbf7 79be
00000060: 9436 bdbe 12ed 96be 7907 393f 671f 4a3d
00000070: 5bc7 883e 65c0 f93b 916f 0ebf 584b 0d3e
00000080: f8b1 6bbe 36cf 823d fd50 b3be db57 093e
00000090: 52fe 93be 282c 1fbe d0a8 ef3e 5574 053f
000000a0: d0dc 6cbd 0208 9a3d 94a7 143d b0db 6e3f
000000b0: d541 8ebe bf5d babe b744 5a3e 384e 133f
000000c0: d8b8 0e3f 1339 f63d b954 b6bd 13e5 0e3e
000000d0: 7a96 bcbd 1693 5bbe 0aad 0d3f cc8e 3e3e
000000e0: b0d1 963d 1df1 40be ca15 d63d 3e4b babe
000000f0: 5f8f d43e 8d03 5bbf aea4 d13d 3da2 b53e
00000100: 8ff9 9abd a9ea 233e 064f a2be 12da dc3e
00000110: e5c1 60be ca4e b93e 2837 80be 2fc4 1bbf
00000120: 9f49 d53e 84b3 1bbe 6965 c53e 4d62 c6bf
00000130: 9609 78be d50c c4be 1b23 ff3e 01aa 643f
00000140: b500 8f3e c5f2 773e 34d1 d13f 3caf 2d3f
00000150: ad96 8c3f 16a7 0d3e f474 a0be dbcc a53e
00000160: b66f 8c3e 231e b53e d7c4 87bf a74f 833f
00000170: 98ab 43be a5de f93e ec06 91bf 8c97 d5be
00000180: 1eec 943e 2599 9a3f 6496 31be 56fe 523f
00000190: aec4 6c3f 3646 e23d 10ed 5dbd 2273 1a3e
000001a0: 2c0d fabe 02d9 8ebe 22dc e9bd 5dc8 1f3f
000001b0: 27c9 8abf 9c45 53be 2834 a0be 4a8a 64be
000001c0: c7cf ac3e 61a4 23bf efa9 fbbd c9c1 0f3e
000001d0: 16ec 8b3e df29 8bbf 050e 77be d51e 8ebe
000001e0: af63 79be 86a1 88bf c953 fbbe 5a07 c0be
000001f0: e18f a7be 70bc 2cbf abc8 903f 4712 8ebe
00000200: 3610 9f3d 4f10 ebbc 8b43 8f3d 77f4 093e
00000210: 8dec 463d 6b79 aabe 1a57 1e3e 2f86 5c3e
00000220: 7894 c53c 5e32 5dbd 9b83 713f 5829 1a3d
00000230: 5e31 5ebd 0a77 30bd e2a0 373f 8e64 99be
00000240: 7b1f 26bd 6dcb 953d 8ccd 8a3d 96ca 4c3d
00000250: 46e6 4b3d 4902 973c b9c9 06be c9f3 993d
00000260: 16dd cebd 25a3 633c 73e1 3b3d 2af9 023d
00000270: ff3c ef3d 6550 bcbd 5d76 babc 23e6 d23d
00000280: 3dfe ba3d 248e b73d 6ef9 d53d b223 aa3e
00000290: cdac 993e 0fc5 cb3d 35d6 693f a647 6b3f
000002a0: c04b af3d 74b7 c43c ce20 263e df9d 81bd
000002b0: 3135 51be 4095 a8be b208 e7bd fc2b 74bf
000002c0: 4d9f a53e 1f4d 9cbd 023b b6be 8a6c 903f
000002d0: c218 373d 3a3f 8ebd 7a25 303f e76a 4c3e
000002e0: 3a79 ee3d 6478 12be 16f9 12bf 241e 0abf
000002f0: 13be 5ebf c334 59be bceb 6d3e 9677 55bf
00000300: 7600 663e 65cd c6bd bb34 a7bd 22b2 90bd
00000310: 4798 e2bd badb 49be 96a6 133e 0c02 893d
00000320: f65a d53c 8e98 373d ee23 223f 3250 d1be
00000330: df34 333d 8605 6bbd 2260 023f fe2a b7bd
00000340: 8777 a33e 5981 e3bd 71dd 9a3e ee6f d13d
00000350: 45ef d43e 8c76 4d3e 03c2 293d 4f17 f13c
00000360: bb90 22bd 9bfb bbbc 847f 9dbc dc42 103f
00000370: cbc5 d2bd 4830 33be eea8 a3be 1bbf 033d
00000380: b652 803d 62a8 be3e 6732 5d3e 0dcd 883e
00000390: 7bf5 973e 3017 f0bc 6f2a 433f 88fc 383f
000003a0: 33e9 233e 15b9 3d3d df83 ee3c dba8 5d3e
000003b0: be6d c5be 78ba 3a3b 1d10 013d 3174 2dbf
000003c0: 1606 2e3e 1f9d c3bd bd4b 3cbe cf71 2d3f
000003d0: c3b4 863c 5b2c b9be bc3a 6f3f dd53 ecbc
000003e0: 00e7 46bd 7f57 70be 0c7c 34bf 5500 5cbf
000003f0: 40b6 26bf 231a 63be 9429 d03e 2e31 11bf

lstm.weight_hh_l1 f4 [256, 64]
0.0031614052 -0.19337778 0.052111797 -0.010571216 -0.0032751386 0.1942906 -0.6692957 0.22412008
-0.35686296 0.07583217 0.08226326 -0.16415815 -0.030581841 -0.36627522 -0.1712848 -0.05072761
0.026293922 0.2844233 -0.14651619 0.026397595 0.55813015 -0.22364485 0.02109757 -0.0042776945
-0.07483366 0.05743709 0.050507408 0.60590833 -0.0015059811 0.3122021 0.052362684 -0.026129946
-0.00059624366 -0.1346049 -0.44139624 -0.06039666 -0.011511002 0.24649283 -0.18524936 0.21314725
-0.031245843 0.112119436 0.07515516 0.023961619 -0.3400073 0.1552999 0.3514767 -0.12381422
0.13584805 -0.18919712 -0.013008374 0.0063389456 -0.2626464 0.067700654 0.33385855 -0.053772558
0.051944014 -0.09887354 0.3418629 -0.22280563 0.010039622 0.2249469 0.26499733 0.04707235
-0.2986998 0.47009876 0.04833714 -0.1880487 0.12544282 -0.12916632 0.30028296 0.089621425
0.44289774 0.012752883 -0.0099002095 0.2939958 -0.1763345 0.20300554 0.18448737 0.3953045
0.0017865212 -0.5107216 -0.3318169 -0.16833791 -1.0702184 -0.011762408 0.120919585 0.030211736
0.2230915 -0.16875803 -0.029171003 -0.89644355 0.13301237 0.0736734 -0.27104008 -0.23716445
0.25538874 0.077003956 0.20548734 0.28933078 0.14804478 -0.22427845 0.1783777 -0.2943455
0.26885575 0.23827912 -0.1975777 -0.11723003 0.05203469 -0.11228378 -0.119552396 0.09525296
-0.05275595 0.5578956 -0.29778555 0.08490903 0.27252308 -0.46472606 -0.40490136 -0.052471448
0.27274126 0.053795442 -0.4113971 0.16176704 0.092998154 -0.053368527 -0.23968673 0.047546398
-0.1314705 -0.09086563 0.076758526 -0.18504821 0.14376774 -0.012700292 -0.8002239 0.1898652
0.26264372 -0.09007989 -0.1565599 -0.070167184 0.070712 0.17459135 0.06334465 0.06315446
0.12329976 0.073222324 -0.163734 0.19580962 -0.2821565 0.16518675 -0.022953715 0.0139774885
0.03318743 -0.050030082 -0.14047185 -1.3018788 0.16624293 0.10000815 -0.06756096 0.073450945
0.09801357 -0.008906122 0.17501637 0.07644972 0.106313035 -0.13200971 0.07928059 0.052153308
0.25083515 -0.14518404 -0.19211726 -0.1522235 -0.03237217 0.003278421 -0.29462516 0.14649646
-0.056534093 -0.0028804238 0.087061666 -0.12048173 -0.021482896 0.009544579 -0.0760075 -0.12825745
0.00076642266 0.13676564 -0.11003372 0.13203128 -0.02917668 -0.030446762 -0.08541958 -0.050254785
-0.052792635 -0.123510495 0.030295057 -0.06559443 0.14963092 0.0653945 0.09148334 0.072741725
0.00064306887 0.08331714 -0.03292143 -0.054774325 -0.11981229 0.083911 0.035061844 0.049031522
0.0080535235 0.15250742 -0.14344388 0.0695665 0.24706051 0.018033128 -0.015762333 0.11220948
0.028307844 -0.00011243166 -0.039694868 0.3957965 -0.075655505 0.113148905 -0.018166542 -0.032815676
0.009232634 0.1160598 0.036059216 -0.035597485 0.03526269 0.20381081 -0.23803057 -0.012785841
0.025846062 -0.009115513 -0.10096181 0.016507141 -0.06452331 0.07232272 0.1213378 0.03652431
0.09431366 0.008941942 0.088551424 0.086739324 0.22049354 0.07203108 0.06916204 0.01567639
0.100723565 0.07523301 0.0044182246 -0.07315282 0.013275886 0.031985745 0.04544672 0.14788687
00000000: 942f 4f3b d304 46be 2e73 553d e532 2dbc
00000010: b5a3 56bb 1df4 463e f756 2bbf bc7f 653e
00000020: beb6 b6be e64d 9b3d a479 a83d 1319 28be
00000030: c586 fabc 6d88 bbbe 4865 2fbe c1c7 4fbd
00000040: 5a66 d73c ee9f 913e 5708 16be c53f d83c
00000050: 9ee1 0e3f 2803 65be d0d4 ac3c e72b 8cbb
00000060: 6442 99bd 2743 6b3d dbe0 4e3d cf1c 1b3f
00000070: 5764 c5ba f4d8 9f3e 417a 563d 780e d6bc
00000080: 3c4d 1cba ded5 09be b0fe e1be 7d62 77bd
00000090: a498 3cbc 9e68 7c3e 02b2 3dbe 4643 5a3e
000000a0: 48f7 ffbc e09e e53d f3ea 993d 284b c43c
000000b0: 7015 aebe f006 1f3e c1f4 b33e 4f92 fdbd
000000c0: c01b 0b3e e4bc 41be 1321 55bc eeb6 cf3b
000000d0: 9779 86be a4a6 8a3d 82ef aa3e 9d40 5cbd
000000e0: 3fc3 543d 367e cabd a708 af3e 2927 64be
000000f0: 3a7d 243c 7b58 663e bbad 873e f0ce 403d
00000100: 2eef 98be c9b0 f03e 2afd 453d d78f 40be
00000110: 1574 003e 2d44 04be b0be 993e 708b b73d
00000120: 7ec3 e23e 78f1 503c 7d34 22bc 9e86 963e
00000130: 0891 34be afe0 4f3e 42ea 3c3e 5a65 ca3e
00000140: b429 ea3a a7be 02bf e8e3 a9be c660 2cbe
00000150: ebfc 88bf 1db7 40bc b0a4 f73d 9a7e f73c
00000160: 1972 643e e8ce 2cbe 07f8 eebc 537d 65bf
00000170: 6534 083e 14e2 963d c4c5 8abe 3ddb 72be
00000180: 50c2 823e 40b4 9d3d 466b 523e 2a23 943e
00000190: 0d99 173e 40a9 65be a5a8 363e 74b4 96be
000001a0: 76a7 893e 71ff 733e cf51 4abe 4c16 f0bd
000001b0: 5422 553d 0af5 e5bd e3d7 f4bd fc13 c33d
000001c0: 9f16 58bd 3fd2 0e3f 5977 98be c9e4 ad3d
000001d0: 2588 8b3e 93f0 edbe 3b4f cfbe 4dec 56bd
000001e0: bea4 8b3e 9c58 5c3d a4a2 d2be 42a6 253e
000001f0: d175 be3d f598 5abd 7070 75be 03c0 423d
00000200: 34a0 06be c217 babd 9333 9d3d 477d 3dbe
00000210: da37 133e e314 50bc 79db 4cbf 066c 423e
00000220: 3d79 863e ce7b b8bd 3d51 20be d0b3 8fbd
00000230: 74d1 903d 13c8 323e d7ba 813d 2057 813d
00000240: 9684 fc3d 96f5 953d e3a9 27be 5182 483e
00000250: d176 90be b726 293e 6e09 bcbc d601 653c
00000260: 8bef 073d 58ec 4cbd dad7 0fbe f7a3 a6bf
00000270: 963b 2a3e 13d1 cc3d 675d 8abd 736d 963d
00000280: 57bb c83d fcea 11bc 7e37 333e ac91 9c3d
00000290: a6ba d93d 8e2d 07be dd5d a23d b59e 553d
000002a0: 776d 803e 20ab 14be 63ba 44be 7ae0 1bbe
000002b0: ae98 04bd c7da 563b 1cd9 96be 2b03 163e
000002c0: 4b90 67bd 7ec5 3cbb 634d b23d 20bf f6bd
000002d0: e6fc afbc de60 1c3c d2a9 9bbd ec55 03be
000002e0: c1e9 483a 4b0c 0c3e 5c59 e1bd 3533 073e
000002f0: ef03 efbc 7d6b f9bc 76f0 aebd f6d7 4dbd
00000300: 173d 58bd 12f3 fcbd 572d f83c 5f56 86bd
00000310: d938 193e 8ded 853d 9e5b bb3d 9df9 943d
00000320: 9f93 283a 2da2 aa3d 9fd8 06bd 0b5b 60bd
00000330: 2560 f5bd 88d9 ab3d 029d 0f3d 47d5 483d
00000340: edf2 033c e82a 1c3e f4e2 12be e278 8e3d
00000350: 6efd 7c3e 36ba 933c 0220 81bc 15ce e53d
00000360: dae5 e73c 4ac9 ebb8 1697 22bd d7a5 ca3e
00000370: 46f1 9abd 9dba e73d 00d2 94bc bb69 06bd
00000380: 7944 173c c3b0 ed3d d4b2 133d abce 11bd
00000390: 9c6f 103d c8b3 503e 49be 73be b47b 51bc
000003a0: 1fbb d33c 3c59 15bc 11c5 cebd fc39 873c
000003b0: cc24 84bd ef1d 943d f47f f83d 849a 153d
000003c0: 8527 c13d 3981 123c 735a b53d 63a4 b13d
000003d0: 0fc9 613e 0885 933d d4a4 8d3d c66b 803c
000003e0: 2848 ce3d c413 9a3d c1c6 903b 25d1 95bd
000003f0: 1a83 593c 7c03 033d 5726 3a3d a86f 173e

lstm.bias_ih_l1 f4 [256]
-0.3303491 0.016909514 -0.4065944 -0.34055525 -0.15329243 -0.03145413 -0.40309843 -0.39307344
-0.39057684 -0.45193872 0.017517012 0.23557037 -0.63143533 -0.6031707 -0.15076084 -0.34724566
-0.7857159 -0.28907007 0.023253035 -0.3397212 -0.5124992 -0.5549433 -0.13059457 -0.2462314
-0.4884768 -0.61563945 -0.55013144 -0.19183984 0.040749554 -0.20154901 0.2757888 -0.3302881
-0.45172828 -0.87814754 -0.7387346 -0.34611365 -0.5825597 -0.36320058 -0.1363149 0.42805997
-0.19832617 -0.25526884 -0.3813347 -0.38725615 0.16196178 -0.06937134 -0.36025944 -0.6739942
-0.19771934 -0.3029515 -0.430819 -0.36934337 0.4528652 -0.45616224 0.0497741 -0.54655397
0.24869259 -0.08372105 0.3928438 -0.22693555 -0.56412894 -0.8023413 0.032270435 -0.5477783
-0.46407437 -0.46900386 -0.32532218 -0.37813106 -0.31946367 -0.37275928 0.3816789 -0.27468464
-0.020679494 -0.33291858 -0.5140504 0.13896856 -0.2505034 -0.6022435 -0.34909782 -0.26417097
-0.39393356 -0.3875051 0.24682367 -0.41145942 -0.04812062 -0.47265902 -0.35012507 -0.5462547
-0.29901046 -0.4288383 -0.47058672 0.5903568 -0.50306886 -0.47721934 0.37587488 -0.34274566
-0.5034466 -0.42049256 -0.50407034 -0.3035179 -0.28448686 -0.33588842 -0.20791967 0.12656732
-0.32120237 -0.37480724 -0.26451263 -0.35918987 -0.379508 -0.28636685 -0.4429922 -0.535199
-0.29661423 -0.41594294 -0.44987968 -0.4440487 0.120074965 -0.30477276 -0.5216406 -0.41436002
0.3766082 -0.25544766 0.19729559 -0.31300408 -0.38300124 -0.40438068 -0.21707816 -0.44017902
-0.45665792 0.007135307 0.0468978 0.037982415 -0.0895536 0.13028345 -0.29018772 0.49798185
-0.15987635 0.022791388 0.4007895 0.5139302 -0.07585918 -0.17085706 -0.3319128 -0.074560285
0.0034796053 0.38968295 0.599277 -0.20803633 -0.1982939 -0.13415875 0.34905106 0.052955527
0.014810553 -0.19702244 -0.071485005 -0.033164904 -0.29379013 -0.47446284 0.4556791 -0.05874922
-0.0032092754 -0.108691566 -0.098833285 0.0729043 0.10286608 0.36846638 -0.4537278 -0.5670196
0.02154328 -0.093570985 -0.110898666 0.19331199 0.44965214 0.0024424305 0.034868073 -0.043925628
-0.21134868 0.2421973 0.18976454 0.09725872 0.6730085 -0.03583981 0.37966824 0.038300775
-0.47564375 0.089832835 -0.85000294 -0.021930112 -0.21430002 0.1274083 -0.001267419 -0.12471985
-0.33471757 0.04045093 -0.523882 -0.54006636 -0.24819739 -0.6900711 -0.45634708 -0.29030147
-0.28414467 -0.5802045 0.20353216 0.122296676 -0.6920788 -0.28493077 -0.5880406 -0.594476
-0.20363575 -0.41431335 -0.16301195 -0.52414113 0.099610455 -0.42902172 0.05985585 -0.4331529
-0.5293375 -0.3829109 -0.20460935 -0.15463933 -0.28487796 -0.31014398 0.13512795 -0.6416054
-0.60265124 -0.8233356 -0.5085724 -0.36034974 -0.22462668 -0.52780807 -0.65576893 0.12755089
-0.6062526 -0.45803738 -0.5359441 -0.5911335 -0.10770107 -0.23736334 -0.793243 -0.085117534
-0.52064675 -0.3281459 -0.48430756 -0.1270315 0.12823498 -0.49671143 -0.031303585 -0.4131693
0.39759967 -0.59514827 0.4189499 -0.56317407 -0.55011123 -0.6891184 -0.63621426 -0.5509404
00000000: 8423 a9be d285 8a3c 242d d0be 425d aebe
00000010: b1f8 1cbe 0cd6 00bd eb62 cebe ec40 c9be
00000020: b0f9 c7be 8364 e7be d67f 8f3c 5c39 713e
00000030: bfa5 21bf 6569 1abf 0d61 1abe 2fca b1be
00000040: ad24 49bf fe00 94be 267d be3c f0ef adbe
00000050: 2633 03bf c410 0ebf 95ba 05be 1624 7cbe
00000060: a219 fabe 8c9a 1dbf 6ad5 0cbf aa71 44be
00000070: 01e9 263d dd62 4ebe 3134 8d3e 861b a9be
00000080: ee48 e7be 47ce 60bf b61d 3dbf cf35 b1be
00000090: a222 15bf 6df5 b9be 2296 0bbe ad2a db3e
000000a0: 0416 4bbe 99b2 82be 4d3e c3be 7046 c6be
000000b0: 4fd9 253e 9012 8ebd ed73 b8be e28a 2cbf
000000c0: f076 4abe 761c 9bbe 4f94 dcbe 931a bdbe
000000d0: f3dd e73e 198e e9be eddf 4b3d f6ea 0bbf
000000e0: 45a9 7e3e f175 abbd d322 c93e cb61 68be
000000f0: c16a 10bf 3d66 4dbf 012e 043d 333b 0cbf
00000100: 289b edbe 4621 f0be a190 a6be 659a c1be
00000110: be90 a3be 4eda bebe 6b6b c33e 77a3 8cbe
00000120: 0b68 a9bc 4e74 aabe cf98 03bf c64d 0e3e
00000130: fb41 80be a12c 1abf f3bc b2be 6b41 87be
00000140: a9b1 c9be 1267 c6be 58bf 7c3e cfaa d2be
00000150: 211a 45bd 5d00 f2be 9843 b3be 59d7 0bbf
00000160: e617 99be b290 dbbe bef0 f0be a021 173f
00000170: 1fc9 00bf 1856 f4be ac72 c03e 5c7c afbe
00000180: e0e1 00bf cd4a d7be c10a 01bf b366 9bbe
00000190: 43a8 91be 91f9 abbe e5e8 54be dd9a 013e
000001a0: a374 a4be bce6 bfbe 336e 87be bce7 b7be
000001b0: df4e c2be ad9e 92be e0cf e2be cd02 09bf
000001c0: d2dd 97be 79f6 d4be a156 e6be 5a5a e3be
000001d0: dde9 f53d 2d0b 9cbe 3d8a 05bf ff26 d4be
000001e0: cad2 c03e 09ca 82be db07 4a3e 1242 a0be
000001f0: bd18 c4be fc0a cfbe bd49 5ebe 255f e1be
00000200: 11cf e9be 4bcf e93b e817 403d 7393 1b3d
00000210: e167 b7bd 0669 053e 7c93 94be 7af7 fe3e
00000220: a0b6 23be 01b5 ba3c 4834 cd3e ee90 033f
00000230: 0f5c 9bbd 27f5 2ebe 79f0 a9be 10b3 98bd
00000240: 170a 643b 8684 c73e 386a 193f 7a07 55be
00000250: 8e0d 4bbe e960 09be d2b6 b23e e5e7 583d
00000260: f6a7 723c 40c0 49be bb66 92bd ecd7 07bd
00000270: a96b 96be cbec f2be c54e e93e 06a3 70bd
00000280: b552 52bb af99 debd 1b69 cabd da4e 953d
00000290: 74ab d23d a0a7 bc3e 034f e8be 3228 11bf
000002a0: 887b b03c 25a2 bfbd d71e e3bd 94f3 453e
000002b0: ce38 e63e 2f11 203b d3d1 0e3d 5ceb 33bd
000002c0: ca6b 58be 9202 783e a351 423e 942f c73d
000002d0: 494a 2c3f c4cc 12bd e063 c23e 46e1 1c3d
000002e0: 9487 f3be 47fa b73d cb99 59bf c7a6 b3bc
000002f0: 7771 5bbe 5277 023e 861f a6ba 1f6d ffbd
00000300: 1a60 abbe e0af 253d 211d 06bf ca41 0abf
00000310: 7527 7ebe 80a8 30bf 53a6 e9be 65a2 94be
00000320: 697b 91be 4888 14bf bc6a 503e ae76 fa3d
00000330: 142c 31bf 72e2 91be d489 16bf 942f 18bf
00000340: e485 50be e120 d4be 9bec 26be 1d2e 06bf
00000350: 9100 cc3d bca8 dbbe 682b 753d 38c6 ddbe
00000360: aa82 07bf e60c c4be 1d85 51be c659 1ebe
00000370: 86db 91be 31cb 9ebe fb5e 0a3e 4040 24bf
00000380: 5a47 1abf 1fc6 52bf cd31 02bf c37f b8be
00000390: 8904 66be 6e1e 07bf 79e0 27bf b39c 023e
000003a0: 5f33 1bbf e083 eabe a233 09bf 8654 17bf
000003b0: 6192 dcbd 600f 73be f911 4bbf 1a52 aebd
000003c0: 1b49 05bf bd02 a8be 29f7 f7be 8c14 02be
000003d0: 0850 033e f650 febe 3038 00bd ed8a d3be
000003e0: 2f92 cb3e a35b 18bf 9a80 d63e 2d2c 10bf
000003f0: 17d4 0cbf 106a 30bf f0de 22bf 6e0a 0dbf

lstm.bias_hh_l1 f4 [256]
-0.18354887 -0.05859016 -0.32282308 -0.22705403 -0.22584268 -0.14949155 -0.31547457 -0.38577604
-0.39434436 -0.41231593 0.04042854 0.12294109 -0.5282526 -0.54283214 -0.19312426 -0.15918972
-0.6410582 -0.33731353 0.19077305 -0.3045786 -0.44672564 -0.4843529 -0.05861326 -0.34659454
-0.60257584 -0.48021442 -0.73562056 -0.21738409 -0.14761952 -0.062046077 0.265906 -0.25083077
-0.5815783 -0.7644278 -0.89473414 -0.34973544 -0.5983674 -0.35785073 -0.27031896 0.5094797
-0.2467057 -0.18045416 -0.47395107 -0.29502237 0.16694304 -0.043153934 -0.40518457 -0.7453022
-0.03703021 -0.283857 -0.45664492 -0.37429973 0.30569017 -0.53678817 -0.03759904 -0.73320115
0.3751277 0.021923468 0.48686156 -0.18183948 -0.5374297 -0.71245974 0.028950995 -0.54431385
-0.48395663 -0.46461147 -0.32406285 -0.37789056 -0.3292198 -0.36921358 0.5095595 -0.300459
-0.13940178 -0.32607558 -0.40896782 0.2516866 -0.24924284 -0.60760516 -0.34757766 -0.258822
-0.39281833 -0.345445 0.07787278 -0.40608153 0.011380203 -0.47842607 -0.3546035 -0.5232502
-0.30413976 -0.43272045 -0.46835384 0.49648982 -0.5172927 -0.4733951 0.49017388 -0.3390176
-0.5040971 -0.4256363 -0.48635894 -0.29463091 -0.28399447 -0.34815356 -0.15902522 0.03920297
-0.30534112 -0.37523803 -0.25880957 -0.36720353 -0.37782872 -0.23279622 -0.38404456 -0.52757007
-0.30922487 -0.40335536 -0.45050454 -0.40526482 0.10436424 -0.31280923 -0.4407289 -0.4152854
0.4150841 -0.2712293 0.1600471 -0.26397777 -0.38387078 -0.3953068 -0.19591005 -0.44334462
-0.28171834 0.10421596 0.081372 0.07941159 -0.1321332 0.1878929 -0.2195705 0.37934816
-0.12007208 -0.010161783 0.3842596 0.37798816 -0.008645842 -0.09228799 -0.15251982 -0.09119942
-0.112894736 0.28349176 0.6412513 -0.4133017 -0.17873721 -0.07021254 0.48916188 0.0809295
0.099325776 -0.09502433 -0.04881063 -0.20163696 -0.44957954 -0.35877702 0.45827866 -0.02266504
-0.080745794 -0.057020348 -0.15824893 0.21276358 0.10561666 0.340125 -0.49993736 -0.61780745
-0.15501232 -0.10975094 -0.03803738 0.038235955 0.61206377 0.006990866 0.033501 -0.029916024
-0.05570523 0.12513888 0.087996624 0.13247465 0.7050302 0.027688952 0.4881693 0.04050468
-0.48726264 0.07744207 -0.86959237 -0.17491716 -0.1679971 0.17764053 0.15418524 -0.22388044
-0.40558872 0.024487237 -0.48268068 -0.538633 -0.37272206 -0.56271607 -0.50728905 -0.2580716
-0.29884538 -0.56111175 0.12654251 0.2594721 -0.6468711 -0.14744349 -0.64511234 -0.60050017
-0.26034224 -0.426795 -0.0919041 -0.4781549 0.1643233 -0.36811107 -0.084105305 -0.513158
-0.50350475 -0.4696239 -0.22231953 -0.056413412 -0.42917562 -0.21987198 0.1465844 -0.52077144
-0.45729437 -0.7859437 -0.4903788 -0.3559231 -0.300552 -0.45736572 -0.68539506 0.0034690308
-0.60898393 -0.50978285 -0.48497292 -0.47771093 -0.27682278 -0.31823385 -0.7719882 -0.07639511
-0.6329404 -0.2650657 -0.4752756 -0.32886612 0.01819639 -0.5849897 0.06518074 -0.33747193
0.43659952 -0.55877507 0.41725016 -0.7111615 -0.59169394 -0.59017247 -0.57458264 -0.50956124
00000000: 3cf4 3bbe 3cfc 6fbd 1149 a5be da80 68be
00000010: 4e43 67be 5014 19be e285 a1be 7084 c5be
00000020: 81e7 c9be 131b d3be 6698 253d 8ac8 fb3d
00000030: 903b 07bf 0cf7 0abf 5ec2 45be a102 23be
00000040: 641c 24bf 5cb4 acbe 035a 433e baf1 9bbe
00000050: 39b9 e4be 1afd f7be 7514 70bd d774 b1be
00000060: 6942 1abf aade f5be a151 3cbf ef99 5ebe
00000070: 9229 17be 0724 7ebd d524 883e e46c 80be
00000080: 51e2 14bf 8ab1 43bf 4c0d 65bf 8610 b3be
00000090: 9b2e 19bf 3638 b7be 3f67 8abe 436d 023f
000000a0: 6ba0 7cbe fac8 38be b7a9 f2be 2c0d 97be
000000b0: 1ef3 2a3e 2ec2 30bd 5a74 cfbe 20cc 3ebf
000000c0: fdac 17bd b455 91be 5dcd e9be 37a4 bfbe
000000d0: 6c83 9c3e f36a 09bf 7301 1abd 12b3 3bbf
000000e0: bd10 c03e d898 b33c eb45 f93e 2134 3abe
000000f0: fe94 09bf c363 36bf a32a ed3c 2758 0bbf
00000100: 2ac9 f7be 8ee1 edbe 91eb a5be df7a c1be
00000110: 7f8f a8be 9009 bdbe 7e72 023f c3d5 99be
00000120: 57bf 0ebe 61f3 a6be 3b64 d1be 11dd 803e
00000130: 8439 7fbe 038c 1bbf b3f5 b1be 5184 84be
00000140: 7c1f c9be 2bde b0be c47b 9f3d ebe9 cfbe
00000150: 0874 3a3c 43f4 f4be 978e b5be baf3 05bf
00000160: 35b8 9bbe 898d ddbe 13cc efbe ea33 fe3e
00000170: 4b6d 04bf d860 f2be 12f8 fa3e b793 adbe
00000180: 820c 01bf 00ed d9be 0a04 f9be ddd9 96be
00000190: b967 91be 2f41 b2be 82d7 22be 4b93 203d
000001a0: ac55 9cbe 331f c0be b082 84be 1a02 bcbe
000001b0: c472 c1be 2262 6ebe 7da1 c4be d50e 07bf
000001c0: b952 9ebe 9884 cebe 88a8 e6be df7e cfbe
000001d0: ebbc d53d 8828 a0be 38a7 e1be 4aa0 d4be
000001e0: e785 d43e 91de 8abe 63e3 233e 1828 87be
000001f0: b68a c4be a765 cabe a59c 48be 11fe e2be
00000200: 633d 90be 2d6f d53d 5da6 a63d 8ba2 a23d
00000210: ed4d 07be ff66 403e 17d7 60be ec39 c23e
00000220: 5ae8 f5bd 9b7d 26bc adbd c43e aa87 c13e
00000230: 4aa7 0dbc 7c01 bdbd 282e 1cbe c3c6 babd
00000240: 5b35 e7bd d525 913e 0c29 243f 489c d3be
00000250: e306 37be 98cb 8fbd 6d73 fa3e 5ebe a53d
00000260: 506b cb3d 1e9c c2bd a8ed 47bd eb79 4ebe
00000270: 4a2f e6be 9fb1 b7be 80a3 ea3e 09ac b9bc
00000280: 0d5e a5bd 2b8e 69bd 020c 22be b2de 593e
00000290: 8c4d d83d dd24 ae3e caf7 ffbe a128 1ebf
000002a0: 8dbb 1ebe 1ac5 e0bd 15cd 1bbd 4e9d 1c3d
000002b0: 36b0 1c3f a213 e53b 5838 093d 7312 f5bc
000002c0: 2b2b 64bd 6824 003e 9337 b43d 6fa7 073e
000002d0: dc7c 343f f1d3 e23c 54f1 f93e 3ce8 253d
000002e0: 7d7a f9be f399 9e3d 9b9d 5ebf 7c1d 33be
000002f0: 6f07 2cbe 66e7 353e bce2 1d3e ea40 65be
00000300: 53a9 cfbe 7599 c83c ec21 f7be dae3 09bf
00000310: 6dd5 bebe 290e 10bf b2dd 01bf f621 84be
00000320: 4302 99be 05a5 0fbf 5c94 013e 87d9 843e
00000330: 5899 25bf 6dfb 16be 1526 25bf 61ba 19bf
00000340: 944b 85be e084 dabe 3738 bcbd b8d0 f4be
00000350: 5e44 283e 0e79 bcbe 673f acbd 535e 03bf
00000360: b0e5 00bf 8b72 f0be bba7 63be c011 67bd
00000370: e8bc dbbe 1f26 61be 391a 163e 4751 05bf
00000380: 7d22 eabe 9b33 49bf ee12 fbbe 8d3b b6be
00000390: f4e1 99be d72b eabe 0d76 2fbf ae58 633b
000003a0: 5fe6 1bbf 2181 02bf 5f4e f8be 8796 f4be
000003b0: b7bb 8dbe 8cef a2be 05a1 45bf 0a75 9cbd
000003c0: 6208 22bf b1b6 87be 5357 f3be 2461 a8be
000003d0: 9810 953c e3c1 15bf 7b7d 853d 1fc9 acbe
000003e0: f989 df3e e20b 0fbf d0a1 d53e ae0e 36bf
000003f0: 4179 17bf 8b15 17bf d917 13bf 9b72 02bf
