lstm_model2.pt (torch, 860409 bytes, 11 tensors)

lstm.weight_ih_l0 f4 [512, 14]
-0.07619268 -0.010441857 -0.060662605 -0.14644662 -0.07057457 -0.081991784 -0.073801324 0.14714365
0.005313185 0.14189488 0.08916716 0.015482538 -0.017274668 -0.0007522358 0.0013807018 0.04008749
0.066233285 0.014283105 -0.00883646 -0.027455045 -0.00040438218 0.0061695143 0.004002113 0.020636072
0.12061388 -0.02640601 0.024482934 0.0174693 0.009449292 -0.06443253 0.034687456 -0.04045579
-0.21387768 0.0073280637 -0.022404967 0.035644714 0.024920646 0.045479648 0.119193405 0.03498884
-0.06225533 0.040947545 -0.7809614 -0.7502357 -0.78219366 -0.7829889 -0.2603111 -0.011686206
-0.19522737 0.056462612 -0.09069839 -0.010277247 0.22677065 -0.18597472 0.104143575 -0.15728235
0.7169646 0.58230746 0.6786635 0.6637714 0.18695055 0.11520211 -0.03171693 0.018527713
-0.045417715 -0.10961218 -0.060195766 -0.11988287 -0.18006368 -0.121811286 0.4373408 0.2969971
0.4038977 0.44290814 -0.055374768 -0.13599923 -0.0011178548 -0.029056396 0.035240356 -0.048920907
0.048961062 0.11119218 -0.03946928 0.090171844 0.071280874 0.0998947 -0.0030299546 0.11911953
0.06825662 -0.0018318495 0.074495025 0.012514695 -0.09414985 -0.023842925 0.5049455 0.058808945
-0.014906279 -0.0065585836 0.44952825 0.33965397 0.3291614 0.4742576 -0.11360838 0.06352521
-0.17352727 0.14263694 0.02515006 -0.0768691 0.3094197 -0.10556666 -0.30210552 -0.036424078
-0.7568608 -0.92442405 -0.8605817 -0.80763865 -0.019095311 0.009027856 -0.029654752 -0.02368571
-0.046211824 0.017194368 -0.011476079 0.0040427484 0.0032881459 0.012984608 0.2701867 0.25482592
0.34188083 0.33449978 0.09728164 -0.020813005 0.25752482 0.081756316 0.036227513 0.10532476
-0.11941633 0.00014065384 -0.026891172 0.135273 -0.7000258 -0.71976006 -0.72085214 -0.7343467
-0.03566188 0.014002652 0.06789988 0.1521731 -0.04515394 -0.004855575 0.4349679 0.1029163
-0.02133091 -0.06351341 -0.4139345 -0.29609618 -0.3848238 -0.3252074 0.04309658 0.0004068582
0.046521094 -0.025934672 -0.06696901 0.044972554 0.22301608 -0.10143805 0.035659544 0.070671834
-0.123037964 -0.13702317 -0.09814265 -0.13690272 0.03326749 0.019741932 -0.015746044 -0.10266763
-0.058521476 0.08164078 0.12977524 0.051718276 -0.0044276845 0.04913553 0.6689309 0.6902311
0.62862617 0.7297041 -0.074524626 0.0713511 0.054240435 0.101171196 -0.007553496 0.02676812
0.07453059 -0.045161825 -0.05997275 0.09901689 0.5402786 0.55845875 0.5314247 0.48754546
0.07987387 0.060568433 -0.008323404 0.020358691 0.056214925 0.022406733 -0.3905319 0.08103431
0.035609286 0.0142966015 -0.07924005 0.006430305 -0.0605111 0.014553465 -0.04322413 -0.16646619
0.030991396 0.02787043 0.03323656 0.0137454625 0.25593054 0.04325403 0.0047230544 -0.08702275
-0.17503133 -0.14367941 -0.15547419 -0.24049406 0.07982647 0.1170351 -0.035474725 0.1065434
0.06580041 0.01962652 0.16224219 0.086024895 -0.043000717 0.007052124 -0.30593207 -0.37284052
-0.26281688 -0.2337148 -0.06922598 -0.030270027 0.07238888 0.060170382 -0.06070397 -0.04081048
0.5356972 -0.04611062 -0.03390559 0.07399045 0.29976803 0.26642415 0.18856652 0.23036988
00000000: e80a 9cbd 5314 2bbc 5a79 78bd 1af6 15be
00000010: 6689 90bd 4feb a7bd 2625 97bd d3ac 163e
00000020: 3a1a ae3b e44c 113e 469d b63d 79aa 7d3c
00000030: 9b83 8dbc b131 45ba aaf8 b43a c832 243d
00000040: 51a5 873d af03 6a3c cdc6 10bc 67e9 e0bc
00000050: 4203 d4b9 a329 ca3b 2824 833b fb0c a93c
00000060: 6904 f73d 6b51 d8bc 6f90 c83c c71b 8f3c
00000070: 34d1 1a3c 34f5 83bd 6f14 0e3d f8b4 25bd
00000080: c002 5bbe 4120 f03b 9f8a b7bc 3100 123d
00000090: 6226 cc3c de48 3a3d ac1b f43d 7550 0f3d
000000a0: 72ff 7ebd 9db8 273d 16ed 47bf 720f 40bf
000000b0: d83d 48bf f671 48bf 7f47 85be 8077 3fbc
000000c0: afe9 47be 5745 673d 14c0 b9bd e661 28bc
000000d0: 9136 683e 2870 3ebe 3a49 d53d a00e 21be
000000e0: fe8a 373f 1a12 153f e4bc 2d3f ecec 293f
000000f0: f76f 3f3e 15ef eb3d 9de9 01bd 6ec7 973c
00000100: ed07 3abd 5a7c e0bd d68f 76bd 2685 f5bd
00000110: 9d62 38be 3278 f9bd 22eb df3e 0110 983e
00000120: aecb ce3e dbc4 e23e a7d0 62bd 6243 0bbe
00000130: fc84 92ba ae07 eebc 3158 103d 4a61 48bd
00000140: 658b 483d bab8 e33d 8aaa 21bd 04ac b83d
00000150: b5fb 913d 9895 cc3d 3492 46bb f1f4 f33d
00000160: 20ca 8b3d ab1a f0ba d990 983d 6f0a 4d3c
00000170: a3d1 c0bd 3d52 c3bc 1c44 013f a6e1 703d
00000180: 7739 74bc 63e9 d6bb 9128 e63e 20e7 ad3e
00000190: d887 a83e e4d1 f23e 83ab e8bd 8119 823d
000001a0: 22b1 31be 6b0f 123e 8007 ce3c 8c6d 9dbd
000001b0: 426c 9e3e 5533 d8bd 93ad 9abe 6a31 15bd
000001c0: a1c1 41bf 0ea7 6cbf 154f 5cbf 68c1 4ebf
000001d0: c56d 9cbc 93e9 133c 86ee f2bc 8908 c2bc
000001e0: 9c48 3dbd 34db 8c3c 2a06 3cbc 0879 843b
000001f0: ef7d 573b 65bd 543c e955 8a3e 8b78 823e
00000200: 010b af3e 8e43 ab3e 993b c73d 0980 aabc
00000210: 4bda 833e db6f a73d 4d63 143d 82b4 d73d
00000220: 8c90 f4bd 7a7c 1339 e04a dcbc 0185 0a3e
00000230: e434 33bf 3242 38bf c489 38bf 25fe 3bbf
00000240: 3112 12bd 616b 653c 180f 8b3d 44d3 1b3e
00000250: 56f3 38bd 841b 9fbb 1db4 de3e c8c5 d23d
00000260: 29be aebc 5213 82bd 39ef d3be eb99 97be
00000270: a007 c5be 9681 a6be 0a86 303d 954f d539
00000280: e78c 3e3d f374 d4bc 0c27 89bd 2435 383d
00000290: 545e 643e c1be cfbd be0f 123d 65bc 903d
000002a0: 54fb fbbd cd4f 0cbe 04ff c8bd 3a30 0cbe
000002b0: 7e43 083d d5b9 a13c d9fd 80bc 6843 d2bd
000002c0: 37b4 6fbd 4833 a73d cde3 043e 8bd6 533d
000002d0: 1c16 91bb 5642 493d 0e3f 2b3f fcb2 303f
000002e0: a5ed 203f e3cd 3a3f 5ea0 98bd 8720 923d
000002f0: 382b 5e3d d832 cf3d 5183 f7bb d148 db3c
00000300: 7ea3 983d 9bfb 38bd fca5 75bd 5ec9 ca3d
00000310: b34f 0a3f 27f7 0e3f 730b 083f 8f9f f93e
00000320: e994 a33d 9b16 783d e35e 08bc 45c7 a63c
00000330: 9f41 663d 538e b73c ccf3 c7be 51f5 a53d
00000340: 0bdb 113d 4b3c 6a3c 9b48 a2bd 4fb5 d23b
00000350: 7dda 77bd a871 6e3c c90b 31bd 1d76 2abe
00000360: abe1 fd3c 8750 e43c 0f23 083d a634 613c
00000370: 5409 833e 232b 313d dac3 9a3b fc38 b2bd
00000380: 6a3b 33be b220 13be a034 1fbe 1344 76be
00000390: 0f7c a33d 19b0 ef3d f24d 11bd 6d33 da3d
000003a0: 5ec2 863d ccc7 a03c d122 263e d22d b03d
000003b0: 8521 30bd 8115 e73b 21a3 9cbe f4e4 bebe
000003c0: ef8f 86be ef52 6fbe 5ac6 8dbd d9f8 f7bc
000003d0: 9f40 943d 3875 763d baa4 78bd e428 27bd
000003e0: 7423 093f 7dde 3cbd 97e0 0abd 4e88 973d
000003f0: 327b 993e bf68 883e 9517 413e 15e6 6b3e

lstm.weight_hh_l0 f4 [512, 128]
-0.35211575 -0.19695938 0.28676644 -0.35346022 -0.018436495 0.14998683 0.26629034 0.027219597
-0.33477908 -0.069691904 0.060092945 -0.10467196 0.084946685 -0.15739171 0.212973 0.17750105
-0.18618481 0.10976124 0.042314652 -0.48759532 -0.024262955 -0.31702456 -0.00563366 0.053128455
0.17291981 0.061910957 0.16785796 -0.04521016 -0.22972298 0.009560948 0.35307238 0.03758252
-0.27452767 -0.06481003 -0.3960681 -0.2050546 -0.021484507 0.23658356 -0.32161555 -0.2878803
0.08526728 0.23666936 -0.07731186 0.20572832 0.12157075 0.051201653 -0.018913863 0.07807616
0.23439695 -0.22370574 0.2512568 -0.3472995 0.14589956 -0.08554988 0.29879034 0.039866723
-0.058145195 0.21757989 0.17952415 0.23660405 0.113132015 0.16352263 0.0922314 -0.26101413
-0.117836215 -0.10053936 -0.19006546 -0.12674597 -0.22236015 0.22907954 0.29459634 0.06429976
-0.0005203874 0.23445289 -0.21437043 0.21785127 0.47627053 0.21945985 -0.24141285 0.119991794
0.14387652 0.23460263 -0.14961877 -0.1642404 -0.11260505 -0.056246348 -0.122135945 0.03989002
0.32136923 0.27992788 -0.050921883 0.25498053 -0.25617242 0.24743475 0.24347079 -0.17326641
0.031047072 0.19025545 -0.0073496928 0.11866858 -0.24882104 0.1577345 -0.044935048 -0.053194933
-0.34001833 0.34170294 0.24181664 0.0341207 -0.18990393 -0.13709357 -0.23187049 -0.16169573
-0.0036410699 -0.23238938 -0.17249064 -0.1568023 0.114871286 -0.09887206 -0.13979398 -0.055270344
0.03724626 -0.16026644 -0.17944129 0.18488032 0.17984284 0.48417675 -0.15966041 0.08393228
0.0025890775 -0.20881143 -0.033955086 0.12905303 -0.082788326 -0.045698177 0.0681672 -0.025091602
-0.036538936 0.09925128 0.100788206 -0.07617333 0.11301162 0.026393456 0.081601016 -0.060660604
-0.09123442 0.090004124 0.13430604 -0.048999634 0.019909063 0.04466608 0.010035504 -0.031057343
0.006814862 -0.03338512 -0.11309644 -0.046441108 -0.15507236 0.020837007 -0.088962324 0.033734936
-0.060893543 0.062263068 -0.025309866 -0.0063090534 0.0051041683 -0.09459265 -0.08274247 -0.16934936
0.033405866 -0.049159043 -0.05703017 0.13436596 -0.16264105 -0.102746636 -0.06856324 -0.11603886
-0.036847733 -0.064826086 0.10035149 -0.07247527 0.09174777 0.05152381 0.11750859 0.012524281
-0.03520211 0.1487519 0.0067742257 0.25865534 0.15362386 -0.14335513 0.10906064 -0.050103072
0.066591084 0.066143565 0.020494297 -0.095891915 -0.058044747 0.16456221 0.109740764 0.1470516
-0.029911129 -0.1009356 -0.09283053 0.1630055 -0.0141876675 0.05100935 -0.14373718 -0.23144971
0.04255658 0.19275762 -0.16541958 -0.027794784 -0.105358884 0.078814246 -0.09991585 0.16750902
-0.097204894 0.097237244 -0.045870323 0.0030584254 -0.0400963 0.120241776 0.07365416 -0.07364151
-0.0042101406 0.11690209 -0.2373124 0.039213683 7.137661e-05 0.057411227 0.039068304 -0.07313083
0.045168538 0.04375404 -0.047211614 0.14616384 -0.18358476 -0.11600147 -0.11700026 -0.020382732
0.009120865 0.043647666 0.23652765 0.0768766 -0.041632257 -0.08289084 -0.019285478 -0.14032798
0.058291398 -0.16870224 -0.03659428 0.101815596 -0.0637506 -0.11511475 -0.25118703 -0.013604315
00000000: 8448 b4be b8af 49be 0dd3 923e bdf8 b4be
00000010: 2208 97bc 2696 193e 3557 883e a2fb de3c
00000020: 2a68 abbe a1ba 8ebd 0524 763d 415e d6bd
00000030: 87f8 ad3d 4b2b 21be 9815 5a3e d6c2 353e
00000040: 3ba7 3ebe 80ca e03d 2152 2d3d 18a6 f9be
00000050: 1bc3 c6bc 0b51 a2be 919a b8bb 399d 593d
00000060: e411 313e 5896 7d3d f5e2 2b3e 4a2e 39bd
00000070: 803c 6bbe 86a5 1c3c e7c5 b43e 21f0 193d
00000080: e48e 8cbe 1fbb 84bd 70c9 cabe d5f9 51be
00000090: 4700 b0bc f642 723e cbaa a4be 0c65 93be
000000a0: 9da0 ae3d 7459 723e ae55 9ebd 72aa 523e
000000b0: 16fa f83d d3b8 513d 3ff1 9abc 65e6 9f3d
000000c0: c105 703e 1e13 65be bba4 803e 3dd1 b1be
000000d0: b266 153e c734 afbd 0cfb 983e 4a4b 233d
000000e0: a829 6ebd 43cd 5e3e 2ed5 373e 5548 723e
000000f0: c2b1 e73d 7a72 273e d1e3 bc3d a5a3 85be
00000100: 1d54 f1bd 94e7 cdbd 85a0 42be b2c9 01be
00000110: 61b2 63be d493 6a3e 55d5 963e 98af 833d
00000120: 9b6a 08ba 6b14 703e ec83 5bbe 6714 5f3e
00000130: bbd9 f33e 15ba 603e ee34 77be 42be f53d
00000140: 5e54 133e ac3b 703e aa35 19be a32e 28be
00000150: 7a9d e6bd 9262 66bd 6922 fabd b863 233d
00000160: 828a a43e b552 8f3e 7793 50bd cf8c 823e
00000170: 0829 83be 895f 7d3e 6850 793e c06c 31be
00000180: 6e56 fe3c 53d2 423e b1d5 f0bb 8308 f33d
00000190: f1ca 7ebe 2785 213e d00d 38bd eee2 59bd
000001a0: e216 aebe b0f3 ae3e c89e 773e 26c2 0b3d
000001b0: 2d76 42be 4262 0cbe 756f 6dbe 9193 25be
000001c0: 049f 6ebb 7bf7 6dbe 63a1 30be c890 20be
000001d0: a341 eb3d 6f7d cabd 2726 0fbe 2863 62bd
000001e0: 898f 183d e31c 24be 75bf 37be 4451 3d3e
000001f0: b928 383e 04e6 f73e 057e 23be b0e4 ab3d
00000200: 83ad 293b aad2 55be 7d14 0bbd 7a26 043e
00000210: ed8c a9bd 032e 3bbd 3f9b 8b3d e78c cdbc
00000220: daa9 15bd 4144 cb3d 0c6a ce3d c300 9cbd
00000230: a372 e73d 1737 d83c 6f1e a73d 4177 78bd
00000240: 1dd9 babd 1554 b83d 8687 093e d7b3 48bd
00000250: 5518 a33c c8f3 363d f46b 243c f86b febc
00000260: 354f df3b d6be 08bd 1b9f e7bd 0839 3ebd
00000270: 4acb 1ebe 5fb2 aa3c e131 b6bd a52d 0a3d
00000280: 826b 79bd 8f07 7f3d a356 cfbc 2dbc cebb
00000290: de40 a73b cbb9 c1bd e274 a9bd eb69 2dbe
000002a0: 97d4 083d fe5a 49bd 7898 69bd 3b97 093e
000002b0: 608b 26be d46c d2bd e26a 8cbd c8a5 edbd
000002c0: a6ed 16bd 8ac3 84bd 1585 cd3d ea6d 94bd
000002d0: 41e6 bb3d a10a 533d 58a8 f03d a432 4d3c
000002e0: 1630 10bd 6b52 183e 53fa dd3b 796e 843e
000002f0: 934f 1d3e b0cb 12be 2f5b df3d e138 4dbd
00000300: e860 883d 4776 873d a8e3 a73c fb62 c4bd
00000310: 54c0 6dbd ff82 283e c4bf e03d b294 163e
00000320: 2f08 f5bc 53b7 cebd ef1d bebd eaea 263e
00000330: 6473 68bc 2eef 503d d72f 13be 2701 6dbe
00000340: cf4f 2e3d 4162 453e c063 29be e3b1 e3bc
00000350: 66c6 d7bd 5d69 a13d aea0 ccbd 7c87 2b3e
00000360: 5c13 c7bd 5224 c73d 85e2 3bbd dd6f 483b
00000370: 053c 24bd 5241 f63d fed7 963d 5cd1 96bd
00000380: 38f5 89bb 5d6a ef3d 0602 73be 879e 203d
00000390: 07b0 9538 0928 6b3d 1606 203d 9ec5 95bd
000003a0: a502 393d 7037 333d f760 41bd f9ab 153e
000003b0: a5fd 3bbe 2e92 edbd d59d efbd b0f9 a6bc
000003c0: ae6f 153c e5c7 323d 4e34 723e 7b71 9d3d
000003d0: 9686 2abd acc2 a9bd 94fc 9dbc 23b2 0fbe
000003e0: f6c2 6e3d 48c0 2cbe e2e3 15bd b284 d03d
000003f0: ad8f 82bd 48c1 ebbd 969b 80be a2e4 5ebc

lstm.bias_ih_l0 f4 [512]
1.6319023 0.07735984 1.6656288 0.23532383 -0.4911402 0.63373244 0.34214467 -0.3517536
0.5436363 -0.16802475 0.07929793 0.13289034 1.2078681 -0.43420747 0.24837628 1.7807622
1.6388845 0.24228582 0.4201591 0.8015161 0.00771569 1.3662734 -0.15112118 0.08910442
-0.057110973 0.60589427 1.5580016 0.47722527 1.2727376 -0.22366981 1.7497035 0.10470756
0.9985039 -0.4136384 0.888491 0.6828564 -0.22638625 1.4246014 1.4476604 0.22374317
0.124051504 0.24519435 -0.23665565 0.41766465 0.5823194 0.21986802 0.21513298 0.17762832
0.23875628 0.19047385 0.0017057944 1.0871478 0.34021378 0.24505232 1.2250353 -0.03582037
0.14594196 0.7845587 0.7963335 0.2785849 0.22687577 0.43123797 0.30421257 0.3169012
-0.6782129 1.4425128 0.09841551 -0.47782525 1.8353269 0.19082652 1.423936 0.18654275
-0.70428616 -0.13860585 0.16564655 0.1841241 1.2335387 0.29673383 0.14068522 0.022400478
1.3505837 0.08752011 0.19983071 1.0671533 0.11175758 0.28405353 -0.46737736 0.09612318
1.5630037 0.76388294 -0.19967824 0.038307358 1.6846172 0.162901 1.0576755 0.24572971
-0.3653648 0.17656058 -0.06203692 1.1332808 0.13417512 -0.07907639 -0.8544765 -0.2047065
1.3760738 0.8323299 1.4056474 -0.10229352 0.24247147 0.18073 1.7767228 0.047762733
-0.25702724 1.3959941 0.36189196 1.6641544 -0.34650406 0.065293156 -0.5644779 0.28411293
-0.28707838 0.3244845 1.3013525 0.32824135 0.30272314 1.1422108 0.20527582 -0.2667129
0.32992893 -0.109850384 0.35472322 0.18504727 0.1363658 0.42470458 -0.2830726 -0.001212962
-0.14451107 0.048198592 -0.2663663 -0.12905581 0.16836332 -0.0038909218 -0.27034143 0.28471968
0.35941848 -0.11177369 -0.30314142 -0.24165577 -0.20458706 0.28386888 -0.19566903 -0.24598533
-0.18630236 -0.23668385 0.35895213 -0.10759614 -0.28902495 0.098439984 0.28077197 -0.08648984
0.0049070097 0.060395136 -0.14541347 -0.15296537 0.21477702 0.38300818 0.3005515 -0.21456596
-0.2191571 -0.06695443 0.23175168 -0.31021744 -0.14203243 -0.08976533 -0.3356167 -0.29917803
-0.08240498 -0.02096579 -0.12655711 -0.05808441 -0.120135196 -0.27664798 -0.13671492 -0.03609699
-0.24150376 0.3268263 0.22366618 -0.096231684 -0.17649326 -0.28671765 -0.30546722 -0.14053261
0.09182001 0.24764404 -0.21536942 0.051496208 0.4648022 -0.23736636 0.27575332 -0.21110107
0.018607046 -0.16304196 -0.26311094 -0.11196155 -0.12282058 -0.1299167 -0.3373022 -0.26972705
0.095968224 -0.07207982 -0.19279346 0.18063939 -0.15143406 -0.2487998 0.105105214 -0.19768748
0.36557686 -0.29300943 -0.056373455 -0.1410484 0.35997963 -0.2626137 0.19785134 -0.17099063
0.17698954 -0.11596262 -0.20825903 0.1602963 -0.17335153 -0.16589968 0.25459597 0.17739442
0.2113954 -0.1953973 0.1198928 -0.19862783 -0.2941403 -0.2888588 0.52537847 -0.18850887
-0.24780498 0.27868226 -0.13062368 0.104223125 0.2508191 -0.15205939 0.13166793 -0.20874488
-0.13253869 -0.19811434 0.32530883 -0.22242577 -0.042631924 0.019480612 -0.019833947 0.060224693
00000000: 2de2 d03f d66e 9e3d 5333 d53f bbf8 703e
00000010: ba76 fbbe 4a3c 223f 962d af3e 0c19 b4be
00000020: c02b 0b3f ae0e 2cbe f466 a23d 6814 083e
00000030: 6c9b 9a3f 7150 debe 5a56 7e3e 04f0 e33f
00000040: f8c6 d13f c619 783e 181f d73e 2930 4d3f
00000050: e6d3 fc3b 0ce2 ae3f 83bf 1abe 617c b63d
00000060: 32ed 69bd e31b 1b3f 996c c73f df56 f43e
00000070: 11e9 a23f b309 65be 49f6 df3f eb70 d63d
00000080: f49d 7f3f 6ac8 d3be 2574 633f adcf 2e3f
00000090: ccd1 67be 5759 b63f f04c b93f ee1c 653e
000000a0: b70e fe3d 3a14 7b3e dc55 72be 24d8 d53e
000000b0: e212 153f 1525 613e d24b 5c3e 33e4 353e
000000c0: 877c 743e 940b 433e f694 df3a a927 8b3f
000000d0: 8030 ae3e ffee 7a3e f5cd 9c3f 61b8 12bd
000000e0: cf71 153e d7d8 483f 83dc 4b3f aea2 8e3e
000000f0: 1f52 683e 39cb dc3e c0c1 9b3e e040 a23e
00000100: 5c9f 2dbf 42a4 b83f 128e c93d 83a5 f4be
00000110: feeb ea3f 0768 433e 8943 b63f 1005 3f3e
00000120: 194c 34bf b1ee 0dbe 409f 293e 078b 3c3e
00000130: 99e4 9d3f 7fed 973e c90f 103e 3581 b73c
00000140: eddf ac3f be3d b33d 6ca0 4c3e 7b98 883f
00000150: 28e1 e43d 776f 913e 164c efbe 3bdc c43d
00000160: 8110 c83f d58d 433f 7478 4cbe 2de8 1c3d
00000170: 89a1 d73f 85cf 263e e961 873f 92a0 7b3e
00000180: 1811 bbbe 4ccc 343e 6d1a 7ebd 580f 913f
00000190: 3465 093e cdf2 a1bd f9be 5abf 959e 51be
000001a0: 3023 b03f 9313 553f 41ec b33f 447f d1bd
000001b0: 714a 783e 4911 393e a76b e33f dba2 433d
000001c0: 1399 83be efaf b23f e749 b93e 0303 d53f
000001d0: fb68 b1be 6bb8 853d a081 10bf 4077 913e
000001e0: f0fb 92be d522 a63e b892 a63f 400f a83e
000001f0: 87fe 9a3e f733 923f d333 523e 988e 88be
00000200: 72ec a83e 3df9 e0bd 489e b53e 087d 3d3e
00000210: 7aa3 0b3e e172 d93e e4ee 90be 40fc 9eba
00000220: b6fa 13be e36b 453d 2a61 88be 3527 04be
00000230: 6f67 2c3e d6fe 7ebb 316a 8abe c7c6 913e
00000240: b305 b83e 9be9 e4bd 5a35 9bbe 9c74 77be
00000250: 457f 51be 4357 913e 765d 48be 94e3 7bbe
00000260: 0cc6 3ebe 405d 72be 93c8 b73e 5d5b dcbd
00000270: 14fb 93be e79a c93d 58c1 8f3e 9621 b1bd
00000280: fbca a03b e460 773d 45e7 14be f4a2 1cbe
00000290: 82ee 5b3e a619 c43e e3e1 993e 2eb7 5bbe
000002a0: b86a 60be 671f 89bd 5050 6d3e d2d4 9ebe
000002b0: f370 11be e3d6 b7bd f4d5 abbe dd2d 99be
000002c0: f1c3 a8bd 73c0 abbc 3098 01be ebe9 6dbd
000002d0: 7109 f6bd cea4 8dbe fffe 0bbe 70da 13bd
000002e0: c34c 77be c755 a73e bf08 653e 1e15 c5bd
000002f0: a6ba 34be a8cc 92be 3366 9cbe c8e7 0fbe
00000300: 210c bc3d 6696 7d3e cd89 5cbe b0ed 523d
00000310: 8efa ed3e 2b10 73be 8a2f 8d3e e12a 58be
00000320: ce6d 983c 79f4 26be 7ab6 86be 194c e5bd
00000330: 5b89 fbbd e208 05be e0b2 acbe aa19 8abe
00000340: fd8a c43d 969e 93bd a66b 45be 88f9 383e
00000350: 8811 1bbe 60c5 7ebe 6741 d73d 966e 4abe
00000360: e42c bb3e 5505 96be dae7 66bd fe6e 10be
00000370: 404f b83e 4e75 86be 8b99 4a3e 2b18 2fbe
00000380: bf3c 353e cf7d edbd db41 55be b724 243e
00000390: 1083 31be 9be1 29be 675a 823e e2a6 353e
000003a0: 0978 583e 3b16 48be 5b8a f53d 1865 4bbe
000003b0: 8f99 96be 4de5 93be 347f 063f 7808 41be
000003c0: 97c0 7dbe 71af 8e3e 37c2 05be ef72 d53d
000003d0: 5c6b 803e 75b5 1bbe f5d3 063e 38c1 55be
000003e0: 39b8 07be 7cde 4abe e18e a63e 95c3 63be
000003f0: d09e 2ebd ce95 9f3c cd7a a2bc 2bae 763d

lstm.bias_hh_l0 f4 [512]
1.584217 0.24166825 1.5299914 0.24412915 -0.54412615 0.6656362 0.42124596 -0.34238365
0.45094946 -0.27719256 0.1594564 0.12047313 1.211799 -0.39641723 0.22480695 1.6402042
1.715717 0.23472929 0.32445794 0.8164482 0.04000679 1.4717139 -0.10960185 0.09421701
-0.025402354 0.56376666 1.5321383 0.34502107 1.3153508 -0.19058532 1.8513762 0.06840589
1.047894 -0.3351145 0.9745757 0.65019697 -0.26661685 1.4763602 1.5270101 0.21575004
0.07977189 0.16278425 -0.27178037 0.2663546 0.6426373 0.1889538 0.23839176 0.21347508
0.21064387 0.30734435 -0.039429583 1.1528982 0.21213692 0.10333105 1.0871725 0.039256234
0.15924145 0.75432533 0.833663 0.25608498 0.23021045 0.30017057 0.21146943 0.26837003
-0.7729952 1.6010675 0.049961567 -0.5137977 1.7510903 0.092029594 1.5451185 0.2639065
-0.8579996 -0.1214685 0.17956692 0.16568328 1.1069398 0.33123747 0.13758421 -0.08430208
1.2059742 0.12489192 0.23351057 0.9941962 0.085467115 0.29826245 -0.45630315 0.09677177
1.5371788 0.67483145 -0.20593452 0.072253175 1.8347634 0.0962515 1.114047 0.15726602
-0.47464612 0.2580899 -0.03720855 1.0700291 0.11796287 0.08408039 -0.8850166 -0.23045966
1.3724629 0.84144485 1.3550105 0.03287764 0.22906378 0.12833856 1.8756919 0.032828722
-0.20092031 1.367912 0.3115658 1.6420575 -0.4322788 0.05558411 -0.5415678 0.26907527
-0.24013802 0.2425606 1.3481996 0.31847635 0.2904671 1.1928229 0.25543946 -0.19982162
0.32117012 -0.23665643 0.28503266 0.20176324 0.038894344 0.36189777 -0.290229 0.03004873
-0.26932585 0.028889561 -0.21204947 -0.07180047 0.24213146 -0.01634351 -0.22342454 0.27748787
0.26405036 -0.21556918 -0.18252197 -0.249841 -0.20554073 0.33736488 -0.26037717 -0.20819241
-0.16200581 -0.080355085 0.28601962 -0.16485898 -0.25674132 0.003726223 0.41103086 -0.13212423
-0.09941526 0.17762768 -0.17983474 -0.26948655 0.14115925 0.25324395 0.43308705 -0.1401558
-0.1819859 -0.13736962 0.23105715 -0.20983222 -0.111906804 -0.20532912 -0.28871027 -0.3122312
-0.081218325 -0.110896625 -0.14309908 -0.09942369 -0.26144832 -0.23091234 -0.17947753 -0.10477945
-0.32072192 0.22332677 0.14638261 -0.16999565 -0.22175816 -0.28869617 -0.3052909 -0.1307624
-0.04670231 0.25173646 -0.20119768 0.05916372 0.38591647 -0.111862876 0.29976615 -0.16087869
0.08647495 -0.21653442 -0.11343812 -0.15583012 -0.10271866 -0.120561145 -0.3068853 -0.25543988
0.22438388 -0.1671336 -0.1252495 0.23098433 -0.12536213 -0.16200526 0.050517894 -0.12505446
0.28952417 -0.23450588 -0.029398965 -0.19974133 0.31842607 -0.3208351 0.17440036 -0.2652935
0.17060506 -0.17333202 -0.18420048 0.17149203 -0.24111734 -0.17503425 0.16318612 0.14891736
0.20064484 -0.2653238 0.1189301 -0.12998332 -0.3642843 -0.21281181 0.42444944 -0.098596305
-0.24867828 0.22743593 -0.19178241 0.100564174 0.19157928 -0.12430019 0.25244182 -0.2384757
-0.2327394 -0.32760233 0.31083158 -0.15603104 -0.14624672 -0.0048778662 -0.03953446 0.029477643
00000000: 9fc7 ca3f e277 773e c2d6 c33f fefc 793e
00000010: da4b 0bbf 2267 2a3f 8dad d73e e94c afbe
00000020: d9e2 e63e 2fec 8dbe 8a48 233e 9eba f63d
00000030: 3b1c 9b3f 33f7 cabe cb33 663e 36f2 d13f
00000040: 9d9c db3f e05c 703e 5a1f a63e c002 513f
00000050: 29de 233d 1f61 bc3f ef76 e0bd d9f4 c03d
00000060: 9918 d0bc 0353 103f 1c1d c43f 9aa6 b03e
00000070: 6a5d a83f cc28 43be e5f9 ec3f 6318 8c3d
00000080: 6421 863f 2194 abbe cb7d 793f 4f73 263f
00000090: 0182 88be 5ff9 bc3f 1175 c33f 94ed 5c3e
000000a0: 725f a33d eab0 263e cc26 8bbe a15f 883e
000000b0: e183 243f 1b7d 413e f81c 743e 3699 5a3e
000000c0: 07b3 573e 3d5c 9d3e ea80 21bd 2b92 933f
000000d0: 6c3a 593e 3b9f d33d 7828 8b3f 25cb 203d
000000e0: 3110 233e 771b 413f f06a 553f 921d 833e
000000f0: 4abc 6b3e f5af 993e 718b 583e cc67 893e
00000100: 03e3 45bf c8ef cc3f 80a4 4c3d 3f88 03bf
00000110: ba23 e03f 037a bc3d 71c6 c53f c11e 873e
00000120: dda5 5bbf 7ac4 f8bd 64e0 373e e1a8 293e
00000130: 34b0 8d3f f597 a93e e0e2 0c3e 92a6 acbd
00000140: 5d5d 9a3f 56c7 ff3d 651d 6f3e a483 7e3f
00000150: 6209 af3d dbb5 983e 91a0 e9be 4730 c63d
00000160: 46c2 c43f c1c1 2c3f 80e0 52be 79f9 933d
00000170: 87d9 ea3f 821f c53d 1899 8e3f 580a 213e
00000180: d104 f3be 5c24 843e fe67 18bd b7f6 883f
00000190: 8496 f13d 5732 ac3d 7390 62bf 9efd 6bbe
000001a0: ddac af3f ee68 573f fc70 ad3f b4aa 063d
000001b0: b28f 6a3e 2f6b 033e ac16 f03f 6977 063d
000001c0: 0ebe 4dbe be17 af3f 8d85 9f3e f12e d23f
000001d0: a653 ddbe 2aac 633d 30a4 0abf 3cc4 893e
000001e0: bee6 75be ce61 783e ce91 ac3f 550f a33e
000001f0: 1bb8 943e 6cae 983f f6c8 823e 0a9e 4cbe
00000200: 6970 a43e 1056 72be cdef 913e 069b 4e3e
00000210: ad4f 1f3d aa4a b93e e598 94be c128 f63c
00000220: 14e5 89be cda9 ec3c 7f23 59be 200c 93bd
00000230: 4ff1 773e d3e2 85bc 67c9 64be e412 8e3e
00000240: 9c31 873e 2bbe 5cbe 0ae7 3abe 52d6 7fbe
00000250: 4579 52be 17bb ac3e 2850 85be 6430 55be
00000260: dae4 25be 3591 a4bd 2a71 923e cbd0 28be
00000270: 9973 83be a633 743b a372 d23e 934b 07be
00000280: 3a9a cbbd 08e4 353e 9926 38be 24fa 89be
00000290: 0d8c 103e 31a9 813e 96bd dd3e 0185 0fbe
000002a0: 835a 3abe 9faa 0cbe 3f9a 6c3e 42de 56be
000002b0: 652f e5bd cc41 52be d5d1 93be c5dc 9fbe
000002c0: cb55 a6bd c51d e3bd 9188 12be a69e cbbd
000002d0: 8edc 85be 4974 6cbe f5c8 37be 9c96 d6bd
000002e0: aa35 a4be c6af 643e 53e5 153e 5713 2ebe
000002f0: 9214 63be fccf 93be 174f 9cbe 94e6 05be
00000300: ec4a 3fbd 9ae3 803e c406 4ebe a855 723d
00000310: d896 c53e 5d18 e5bd f37a 993e 62bd 24be
00000320: c719 b13d 33bb 5dbe 3f52 e8bd ee91 1fbe
00000330: 295e d2bd c3e8 f6bd 1220 9dbe 04c9 82be
00000340: e3c4 653e 1225 2bbe 6841 00be 2887 6c3e
00000350: ee5e 00be b5e4 25be daeb 4e3d 470e 00be
00000360: 833c 943e 4f22 70be 19d6 f0bc fe88 4cbe
00000370: be08 a33e 8044 a4be 0296 323e 8dd4 87be
00000380: 18b3 2e3e f37d 31be 0d9f 3cbe 9b9b 2f3e
00000390: 77e7 76be 2e3c 33be 431a 273e cb7d 183e
000003a0: d775 4d3e 85d8 87be a091 f33d 591a 05be
000003b0: 7983 babe 57eb 59be 7051 d93e dcec c9bd
000003c0: 85a5 7ebe f7e4 683e 9c62 44be 97f4 cd3d
000003d0: 5c2d 443e 1991 febd 0e40 813e f932 74be
000003e0: 3d53 6ebe 7ebb a7be 5125 9f3e 9ac6 1fbe
000003f0: b3c1 15be 82d6 9fbb e3ee 21bd 197b f13c

lstm.weight_ih_l1 f4 [512, 128]
-0.39225373 0.0015430644 0.47104588 -0.4192527 -0.25371394 0.57528985 0.3960868 -0.5461451
-0.7608304 0.3000996 -0.14950146 -0.0026078282 0.5031152 -0.45893252 0.50833195 0.5831002
-0.74914515 0.2912106 0.054446325 -0.34533873 0.037986916 -0.493185 0.25740236 -0.21137263
0.3115779 0.27121973 0.60668534 -0.11664511 -0.33555782 0.4392571 0.6275812 -0.110374786
-0.62729794 -0.50361323 -0.6400111 -0.1276152 0.26475984 0.5172424 -0.5663068 -0.34138224
0.25847018 0.2997852 -0.16408285 0.5008317 0.051052175 -0.09605793 -0.08765388 0.5449155
0.54328865 -0.031246051 0.33581915 -0.35853177 0.4880476 -0.41755965 0.5718387 0.08047468
0.14753741 0.75392187 0.47497213 0.29673767 0.43419927 0.025979726 -0.10069319 0.058102112
-0.3404315 -0.61580956 -0.3014854 -0.483524 -0.64531857 0.1354877 0.5677409 -0.16683562
0.42683733 0.1057794 -0.13357307 0.5586715 0.27400404 0.2890835 -0.3456645 -0.20221478
0.64410263 0.29634756 -0.049097206 -0.537411 -0.26240966 0.2169574 -0.24332088 0.15554164
0.4040296 0.26840466 0.08188302 0.06754368 -0.7532147 0.3130149 0.19539492 -0.53639805
-0.2589664 0.6248955 -0.0035064192 0.4494127 -0.18094733 0.5404094 0.43524215 -0.19843465
-0.5086033 0.37601808 0.48552692 -0.24901652 -0.38880745 -0.4729303 -0.6816279 -0.18154004
-0.12177772 -0.5825613 -0.12674811 -0.7123415 0.36250743 0.08472395 -0.39711702 -0.34204304
-0.30722475 -0.5480302 -0.4499298 -0.0111859115 0.30247173 0.2341841 -0.2930304 0.26504272
-0.3047922 -0.0500427 0.35102466 -0.49469885 -0.26421192 0.45725775 0.39406753 -0.59470516
-0.50402725 0.28645134 0.051067542 -0.16950762 0.62496233 -0.40777 0.5216776 0.39946562
-0.61199313 0.50814307 0.0088220155 -0.49964187 0.16534437 -0.43225908 0.21986304 -0.14267358
0.31765604 0.39591935 0.5082673 -0.109921806 -0.27039242 0.34153184 0.5846185 -0.08903661
-0.54215425 -0.5880575 -0.5711826 -0.19985978 0.41477144 0.4783091 -0.5349601 -0.26483944
0.21513791 0.44431975 -0.22084258 0.5441587 -0.03742535 0.09854098 -0.049145624 0.53644484
0.5131626 -0.17402636 0.15429206 -0.35382313 0.34670284 -0.43650502 0.5152455 0.038140286
0.2789151 0.57941765 0.34697142 0.21936059 0.3367318 0.009449058 0.027515918 0.032236986
-0.36860818 -0.65788233 -0.32554305 -0.38870856 -0.5716539 0.08446812 0.51990294 -0.07762615
0.5241528 0.19213206 -0.15746976 0.71049714 0.14601064 0.25850025 -0.40636146 -0.39084157
0.45859903 0.16743588 -0.006507105 -0.45700657 -0.26854408 0.035372224 -0.1095991 0.18911701
0.45737195 0.3520687 -0.12596624 -0.12658787 -0.5673677 0.28359994 0.23263666 -0.54552853
-0.19799244 0.5909906 -0.1742155 0.3244469 -0.27554548 0.47386253 0.48473284 -0.18410969
-0.48513496 0.38254756 0.35037807 -0.20271617 -0.26421475 -0.5034552 -0.594084 -0.25845474
-0.14917159 -0.533472 0.0060805855 -0.46757352 0.28674468 -0.04239911 -0.5109713 -0.37995762
-0.16731985 -0.67081577 -0.36075413 0.088314645 0.21483791 0.24934384 -0.24161324 0.2861925
00000000: 7bd5 c8be a640 ca3a ed2c f13e 4aa8 d6be
00000010: cbe6 81be 3246 133f e4cb ca3e 2ad0 0bbf
00000020: c8c5 42bf a8a6 993e e916 19be 19e8 2abb
00000030: 28cc 003f 34f9 eabe 0b22 023f 0e46 153f
00000040: fac7 3fbf 8e19 953e 1c03 5f3d 3dd0 b0be
00000050: 2b98 1b3d bf82 fcbe 3eca 833e 1172 58be
00000060: 2387 9f3e 50dd 8a3e bb4f 1b3f a2e3 eebd
00000070: 3cce abbe 4ee6 e03e 29a9 203f 2d0c e2bd
00000080: 9996 20bf ccec 00bf c4d7 23bf 8fad 02be
00000090: 9a8e 873e ff69 043f 7cf9 10bf a7c9 aebe
000000a0: 3456 843e 727d 993e 5605 28be 8236 003f
000000b0: 161c 513d 05ba c4bd e183 b3bd 957f 0b3f
000000c0: f714 0b3f b8f7 ffbc 7df0 ab3e 7a91 b7be
000000d0: 60e1 f93e 61ca d5be 0564 123f e9cf a43d
000000e0: 0c14 173e 0601 413f 8c2f f33e 00ee 973e
000000f0: 5e4f de3e 6fd3 d43c 3b38 cebd 7bfc 6d3d
00000100: 0a4d aebe b2a5 1dbf 4b5c 9abe 7590 f7be
00000110: 9933 25bf 4abd 0a3e 7857 113f f5d6 2abe
00000120: 6c8a da3e dfa2 d83d 61c7 08be 1805 0f3f
00000130: 424a 8c3e c102 943e f0fa b0be 6411 4fbe
00000140: e9e3 243f deba 973e 271a 49bd c493 09bf
00000150: 8f5a 86be 152a 5e3e 1c29 79be 4f46 1f3e
00000160: f8dc ce3e 566c 893e 49b2 a73d 5754 8a3d
00000170: aed2 40bf 7d43 a03e 9b15 483e 6251 09bf
00000180: 3e97 84be 27f9 1f3f f4cb 65bb 6c19 e63e
00000190: 424a 39be 4558 0a3f 0fd8 de3e 7432 4bbe
000001a0: d333 02bf 7185 c03e fc96 f83e 30fe 7ebe
000001b0: c511 c7be ec23 f2be 2b7f 2ebf a2e5 39be
000001c0: 9966 f9bd bd22 15bf 42ca 01be 035c 36bf
000001d0: 939a b93e c083 ad3d ec52 cbbe 4420 afbe
000001e0: 904c 9dbe b54b 0cbf 335d e6be 1d45 37bc
000001f0: 93dd 9a3e f5cd 6f3e 1508 96be aeb3 873e
00000200: b90d 9cbe 93f9 4cbd 81b9 b33e 2b49 fdbe
00000210: c946 87be b01d ea3e 38c3 c93e 993e 18bf
00000220: ee07 01bf c0a9 923e 332c 513d 6893 2dbe
00000230: 88fd 1f3f 3bc7 d0be aa8c 053f c286 cc3e
00000240: 95ab 1cbf aa15 023f 378a 103c 0fd1 ffbe
00000250: 0950 293e 1051 ddbe c723 613e 0619 12be
00000260: d0a3 a23e f1b5 ca3e ce1d 023f af1e e1bd
00000270: e070 8abe 43dd ae3e 8fa9 153f d458 b6bd
00000280: 9fca 0abf f08a 16bf 0639 12bf 0ba8 4cbe
00000290: ec5c d43e eee4 f43e 25f3 08bf 0999 87be
000002a0: 1d4d 5c3e e17d e33e 8f24 62be fc4d 0b3f
000002b0: 534b 19bd dacf c93d ec4c 49bd 7354 093f
000002c0: a05e 033f f733 32be bdfe 1d3e 4e28 b5be
000002d0: 0983 b13e 967d dfbe 21e7 033f fd38 1c3d
000002e0: f6cd 8e3e b754 143f 3da6 b13e 10a0 603e
000002f0: 1c68 ac3e 39d0 1a3c 1069 e13c ee0a 043d
00000300: 36ba bcbe fa6a 28bf 94ad a6be cf04 c7be
00000310: e957 12bf 9ffd ac3d 5c18 053f 75fa 9ebd
00000320: e12e 063f 44be 443e c13f 21be 24e3 353f
00000330: d083 153e 255a 843e 9c0e d0be 631c c8be
00000340: 7ecd ea3e 5074 2b3e 8e39 d5bb c4fc e9be
00000350: 9c7e 89be 77e2 103d 7e75 e0bd e4a7 413e
00000360: a82c ea3e 5942 b43e 4bfd 00be 40a0 01be
00000370: 023f 11bf 0334 913e 4e38 6e3e c2a7 0bbf
00000380: 88be 4abe 294b 173f 8c65 32be e71d a63e
00000390: 4c14 8dbe 1c9e f23e e72e f83e 4087 3cbe
000003a0: 9c63 f8be 46dd c33e c164 b33e d494 4fbe
000003b0: 2847 87be 71e2 00bf e415 18bf 2e54 84be
000003c0: 70c0 18be 9f91 08bf a63f c73b cc65 efbe
000003d0: 33d0 923e b0aa 2dbd 04cf 02bf ce89 c2be
000003e0: e555 2bbe 95ba 2bbf c4b4 b8be 4fde b43d
000003f0: 78fe 5b3e fe53 7f3e 7669 77be d387 923e

lstm.weight_hh_l1 f4 [512, 128]
0.06137903 0.11182858 -0.065037414 -0.10369704 -0.10969074 -0.025827577 -0.119757034 -0.041925475
-0.025080288 0.01582425 -0.05942397 0.08601901 0.13838543 -0.053441416 -0.03918884 -0.052190892
-0.111448206 0.14320362 0.036779974 -0.0626009 -0.09444238 0.011390642 -0.063440986 -0.08718643
0.0029408704 -0.116301656 -0.028690463 0.05584199 -0.14036007 0.013397693 0.08102231 -0.049347788
0.11097334 -0.14811586 0.0023757997 0.120843284 -0.021627389 -0.017636899 0.12502424 0.08393306
-0.10463148 0.1057837 0.16055858 0.029803818 -0.0014591436 -0.13757129 -0.021102231 -0.007908019
-0.012460003 0.08290657 -0.095992684 -0.071774535 0.000112068235 -0.070130266 -0.039652616 -0.10381866
0.0020647093 -0.0017406414 -0.10891862 0.102521636 -0.005669877 0.1216262 -0.08929983 -0.012960474
0.03557184 0.024526183 0.0036354924 0.019953204 0.030589584 -0.13214275 0.049495213 -0.012172493
0.029264312 -0.019227745 -0.05486775 -0.093113646 -0.10867454 -0.11456582 0.024659527 0.09369412
0.02850075 -0.056821 0.03261517 0.017534638 0.02009086 0.095148206 0.07657908 -0.110825464
-0.017610237 -0.08065031 -0.10511606 -0.016194096 -0.032720577 -0.06647425 0.07408451 0.22444725
0.037347227 0.008500797 -0.010250281 0.079741806 0.113506086 0.1122655 0.08840412 0.07154134
0.022335364 0.24179152 -0.19737473 0.09645721 0.07068068 -0.18123075 0.086902 -0.038533658
0.08274515 -0.059743136 -0.00012181836 -0.05192568 -0.014839669 -0.14017646 0.17775132 0.0863284
0.11786288 0.07300057 -0.14416766 -0.07159111 -0.013926915 0.108960226 -0.05159761 -0.04627597
0.102312766 0.035672892 -0.028041296 0.01713056 -0.08468922 -0.0030391198 -0.07193197 -0.014878222
-0.01056684 -0.004041767 0.009773232 0.08685562 0.18006553 -0.033148505 -0.19879876 -0.0036018225
-0.054777008 0.11486413 0.019728422 -0.08286527 -0.12313763 0.055234917 0.043924667 -0.1632815
-0.06848601 -0.13322565 -0.083609685 0.09737036 -0.0824173 -0.081091 0.038468182 -0.016420372
0.075609766 -0.02589522 0.0051996186 0.29270342 0.004937585 0.044635985 -0.0014305561 0.019107198
-0.12736939 0.08874452 0.046300083 -0.0154026 0.031783935 -0.06404811 -0.027532184 0.035930775
0.016329246 0.14231664 -0.098495275 -0.07676544 0.07615871 -0.04396416 0.019905476 -0.06747423
-0.067874484 -0.027493939 -0.099236146 0.07708904 -0.055202294 0.082185954 0.023110325 0.13945313
0.15554638 -0.0028375757 -0.025805593 0.06850888 -0.021903628 -0.09540168 0.17827001 0.06896302
-0.0096371 -0.09565235 -0.10928706 -0.061902203 -0.104784496 -0.047480036 -0.1353218 0.12816124
-0.083878465 -0.09761629 0.07808415 0.057916373 -0.028618522 0.14750046 0.17053923 -0.10067031
0.11221143 -0.09818579 -0.047397755 0.019099599 0.11031543 -0.044317946 0.12990151 0.10890133
-0.030986935 0.07305511 -0.028884113 0.018462317 0.1352014 0.06675264 0.12211948 0.23517452
0.122346036 0.17493027 -0.08669387 0.09159153 0.11203415 -0.06352405 0.12525229 -0.04768706
0.16633669 -0.11948103 -0.14274392 -0.05043435 0.116728425 -0.09977029 0.032714043 0.09564583
0.11690322 -0.036130227 -0.045998342 -0.011741537 -0.05824714 0.12424066 -0.07302129 -0.2050405
00000000: 9468 7b3d 6206 e53d 5632 85bd 1d5f d4bd
00000010: 8aa5 e0bd 5b94 d3bc 2d43 f5bd 0cba 2bbd
00000020: 2d75 cdbc dca1 813c 8c66 73bd bc2a b03d
00000030: e9b4 0d3e 63e5 5abd 7a84 20bd 1ec6 55bd
00000040: f53e e4bd f8a3 123e 99a6 163d e734 80bd
00000050: 026b c1bd d19f 3a3c 59ed 81bd cd8e b2bd
00000060: 9ebb 403b 902f eebd 4308 ebbc 92ba 643d
00000070: 8dba 0fbe ff81 5b3c 06ef a53d e820 4abd
00000080: fe45 e33d afab 17be 4eb3 1b3b af7c f73d
00000090: ec2b b1bc 427b 90bc 5b06 003e 19e5 ab3d
000000a0: 0849 d6bd 20a5 d83d 7869 243e 2327 f43c
000000b0: bc40 bfba 7ddf 0cbe 96de acbc a390 01bc
000000c0: 0a25 4cbc ebca a93d d097 c4bd 87fe 92bd
000000d0: 2d06 eb38 75a0 8fbd c86a 22bd e19e d4bd
000000e0: 1350 073b 3c26 e4ba ba10 dfbd ddf6 d13d
000000f0: 60ca b9bb 2817 f93d d4e2 b6bd 2b58 54bc
00000100: c7b3 113d 22eb c83c 7141 6e3b e774 a33c
00000110: 0297 fa3c 6e50 07be 7ebb 4a3d 236f 47bc
00000120: b6bb ef3c 8183 9dbc 01bd 60bd 5eb2 bebd
00000130: c290 debd 7ca1 eabd c702 ca3c b4e2 bf3d
00000140: 687a e93c 23bd 68bd 7c97 053d cda4 8f3c
00000150: 9695 a43c 10dd c23d 7ed5 9c3d 76f8 e2bd
00000160: 5843 90bc fd2b a5bd 1747 d7bd 7ba9 84bc
00000170: 0306 06bd a723 88bd 9fb9 973d 80d5 653e
00000180: 68f9 183d ed46 0b3c cbf0 27bc ac4f a33d
00000190: e175 e83d 74eb e53d 380d b53d 4484 923d
000001a0: a7f8 b63c 3298 773e 9a1c 4abe 5c8b c53d
000001b0: 08c1 903d 8e94 39be adf9 b13d 78d5 1dbd
000001c0: 4a76 a93d 38b5 74bd bc78 ffb8 06b0 54bd
000001d0: 1522 73bc 6b8a 0fbe 7104 363e f2cc b03d
000001e0: 1862 f13d 5381 953d b0a0 13be 5c9e 92bd
000001f0: b72d 64bc 8a26 df3d 0458 53bd df8b 3dbd
00000200: 5b89 d13d bd1d 123d dcb6 e5bc 6355 8c3c
00000210: 8b71 adbd f82b 47bb 1251 93bd c9c3 73bc
00000220: 8a20 2dbc cd70 84bb e81f 203c 5ce1 b13d
00000230: 1963 383e bac6 07bd e791 4bbe 8e0c 6cbb
00000240: db5d 60bd e33d eb3d 809d a13c 44b5 a9bd
00000250: 952f fcbd 023e 623d 5aea 333d 4433 27be
00000260: 6542 8cbd 4e6c 08be 8e3b abbd 1c6a c73d
00000270: 67ca a8bd 0a13 a6bd d090 1d3d 0484 86bc
00000280: 4bd9 9a3d 3622 d4bc 9061 aa3b 39dd 953e
00000290: 77cb a13b 39d4 363d 7f81 bbba b386 9c3c
000002a0: 1f6d 02be b0bf b53d 28a5 3d3d 305b 7cbc
000002b0: df2f 023d a82b 83bd 2d8b e1bc 262c 133d
000002c0: e9c4 853c 74bb 113e e4b7 c9bd 3337 9dbd
000002d0: 19f9 9b3d c313 34bd cf10 a33c ee2f 8abd
000002e0: c701 8bbd f83a e1bc 523c cbbd dce0 9d3d
000002f0: cd1b 62bd 1c51 a83d dd51 bd3c cdcc 0e3e
00000300: 8d47 1f3e 9ff6 39bb 4066 d3bc 624e 8c3d
00000310: 3d6f b3bc f561 c3bd 6a8c 363e 7c3c 8d3d
00000320: ede4 1dbc 61e5 c3bd e5d1 dfbd 2a8d 7dbd
00000330: 4199 d6bd 6d7a 42bd cc91 0abe b33c 033e
00000340: 79c8 abbd 0deb c7bd 95ea 9f3d b839 6d3d
00000350: 6471 eabc 5c0a 173e d6a1 2e3e 3c2c cebd
00000360: 1bcf e53d a215 c9bd 2624 42bd c376 9c3c
00000370: 0eed e13d bc86 35bd e704 053e a907 df3d
00000380: 50d8 fdbc eb9d 953d 609e ecbc 493e 973c
00000390: 3c72 0a3e 9cb5 883d c719 fa3d 97d1 703e
000003a0: 8f90 fa3d ec20 333e 8e8c b1bd 5794 bb3d
000003b0: 2972 e53d e618 82bd 2342 003e 8253 43bd
000003c0: 2a54 2a3e 78b2 f4bd 762b 12be 4094 4ebd
000003d0: 500f ef3d 5e54 ccbd 29ff 053d f6e1 c33d
000003e0: f56a ef3d 4afd 13bd c268 3cbd 935f 40bc
000003f0: 8e94 6ebd e371 fe3d 308c 95bd 23f6 51be

lstm.bias_ih_l1 f4 [512]
0.5731533 0.46944603 0.5047724 0.45104972 0.3895337 0.35909638 0.48967135 0.43781427
0.42398956 0.4968773 0.5351037 0.67905504 0.16018993 0.48954597 0.6350347 0.37528896
0.45974553 0.23560213 0.40790513 0.5284741 0.45549658 0.4310476 0.35481885 0.43692446
0.3425277 0.29761443 0.5786452 0.43560013 0.587299 0.44850254 0.35186002 0.5164331
0.489636 0.53772086 0.46324855 0.5084562 0.38234276 0.45673808 0.43920282 0.3029447
0.60525876 0.32251805 0.5128541 0.4233602 0.41965613 0.37306136 0.51981395 0.28367472
0.3605391 0.5822866 0.5515653 0.36396086 0.35026458 0.34636936 0.58815426 0.29046696
0.48307672 0.3731357 0.04537328 0.44124013 0.5162129 0.48472342 0.41927347 0.46405953
0.46342382 0.4579132 0.4307868 0.46604818 0.4321445 0.5260591 0.25042453 0.47233343
0.5230936 0.3347325 0.47980696 0.5362375 0.40074277 0.43985882 0.5728102 0.45140636
0.32805187 0.56308436 0.4171687 0.26005653 0.45552182 0.4910121 0.6154935 0.4772737
0.19239786 0.43666914 0.38586938 0.3130733 0.47038925 0.48116615 0.5681101 0.58240944
0.40625337 0.55512756 0.4418621 0.41490057 0.45556384 0.47391725 0.68483555 0.29353634
0.48196942 0.22869863 0.46835428 0.28121898 0.43006286 0.6691225 0.3837664 0.35722807
0.49117544 0.3869474 0.30425182 0.47340503 0.384126 0.38971627 0.6781577 0.5037824
0.5055328 0.5056385 0.3946378 0.68257815 0.44629633 0.5517422 0.45218486 0.40761614
-0.041678205 0.06344672 0.14635932 -0.09950147 -0.058728475 0.13229345 0.08808506 -0.121488534
0.10017296 -0.00016701622 0.21602915 0.074582346 0.07358797 -0.09585422 -0.0026254326 0.06224342
0.051257104 0.058368366 -0.020761542 -0.0026976473 0.11677686 0.06937338 0.02767821 -0.14522421
0.021294711 -0.030769905 0.0854381 0.12935561 0.10904767 0.119987085 0.057559315 0.011013815
0.03194235 0.11287891 0.08573471 0.030060045 0.15813598 -0.13402316 0.043356813 0.10245342
0.15885015 -0.07985387 -0.2870745 0.09552696 0.039508786 0.18497945 -0.012929858 -0.049205303
0.016824951 0.09051751 0.019801198 0.21768638 0.07981921 -0.003991115 0.12927341 -0.0129444385
0.18287079 -0.015980015 -0.22264029 0.06460696 -0.00045817194 -0.06660117 0.26113486 0.04274462
0.01715934 -0.03907881 0.023716388 0.13505206 -0.07810225 0.047658682 -0.11588098 -0.014213376
-0.04262375 0.013546634 0.10902616 0.14440593 0.124999 0.026398705 0.04186683 0.25459978
0.06187639 0.026784265 0.070468694 0.020058947 -0.044593614 0.15710036 0.17915928 0.00015066005
-0.19123282 0.054336682 0.037022214 0.09691715 0.011487539 0.19034646 0.15456016 -0.031122332
0.06431558 -0.008960089 0.02644205 -0.086655416 0.06508887 0.08177054 0.03921141 -0.091331236
0.035740443 -0.07318028 0.05556548 0.102857985 0.13512537 0.22032203 0.108324654 -0.017199632
-0.025229549 -0.08582186 -0.059634384 0.15031724 0.09631753 0.03871706 0.1703563 0.27111113
-0.06656802 0.055480942 0.1601502 0.10661801 0.259696 0.023451412 0.022248585 -0.049098156
00000000: 2dba 123f 3b5b f03e c438 013f fdef e63e
00000010: f670 c73e 7bdb b73e 34b6 fa3e 3129 e03e
00000020: 2915 d93e b466 fe3e 8efc 083f 8dd6 2d3f
00000030: d408 243e c5a5 fa3e a291 223f e025 c03e
00000040: c463 eb3e af41 713e f1d8 d03e 144a 073f
00000050: d936 e93e 45b2 dc3e d1aa b53e 90b4 df3e
00000060: ca5f af3e eb60 983e 1822 143f fb06 df3e
00000070: 3a59 163f 20a2 e53e ff26 b43e f634 043f
00000080: 92b1 fa3e 13a8 093f ea2e ed3e 2f2a 023f
00000090: 6ec2 c33e 93d9 e93e 31df e03e 911b 9b3e
000000a0: 3df2 1a3f 1621 a53e 684a 033f abc2 d83e
000000b0: 2bdd d63e e601 bf3e 8712 053f d03d 913e
000000c0: 9598 b83e bc10 153f 6233 0d3f 1459 ba3e
000000d0: e155 b33e 5357 b13e 4791 163f 16b8 943e
000000e0: d555 f73e a40b bf3e 55d9 393d 3aea e13e
000000f0: 8726 043f ab2d f83e 03ab d63e 3699 ed3e
00000100: e345 ed3e 9973 ea3e 1690 dc3e de9d ee3e
00000110: 0b42 dd3e cfab 063f a537 803e b0d5 f13e
00000120: 76e9 053f 0f62 ab3e 42a9 f53e dc46 093f
00000130: 282e cd3e 2d35 e13e b0a3 123f bc1e e73e
00000140: 6af6 a73e 4c26 103f 2397 d53e 2126 853e
00000150: 283a e93e f065 fb3e fb90 1d3f 385d f43e
00000160: f203 453e 1993 df3e ac90 c53e 254b a03e
00000170: dcd6 f03e 695b f63e aa6f 113f c918 153f
00000180: 7100 d03e d71c 0e3f c03b e23e d96d d43e
00000190: aa3f e93e 48a5 f23e 6251 2f3f 654a 963e
000001a0: b2c4 f63e f92f 6a3e 22cc ef3e effb 8f3e
000001b0: 3331 dc3e 9d4b 2b3f 087d c43e 99e6 b63e
000001c0: 597b fb3e f81d c63e e5c6 9b3e 2562 f23e
000001d0: 2aac c43e e488 c73e be9b 2d3f e2f7 003f
000001e0: 996a 013f 8671 013f f70d ca3e 71bd 2e3f
000001f0: f480 e43e fa3e 0d3f c684 e73e 10b3 d03e
00000200: c4b6 2abd 5bf0 813d 38df 153e 6dc7 cbbd
00000210: 458d 70bd ef77 073e f165 b43d fbce f8bd
00000220: 7b27 cd3d 1321 2fb9 bf36 5d3e a1be 983d
00000230: 4ab5 963d 384f c4bd 730f 2cbb f5f2 7e3d
00000240: f8f2 513d ab13 6f3d 1c14 aabc 03cb 30bb
00000250: b528 ef3d a113 8e3d 6abd e23c a8b5 14be
00000260: 3f72 ae3c 2b11 fcbc 2cfa ae3d cc75 043e
00000270: 6354 df3d cabb f53d 51c3 6b3d 4a73 343c
00000280: fbd5 023d 0f2d e73d ae95 af3d 7c40 f63c
00000290: 66ee 213e 5e3d 09be ea96 313d 19d3 d13d
000002a0: 9da9 223e 6d8a a3bd 6efb 92be a4a3 c33d
000002b0: f7d3 213d 416b 3d3e c1d7 53bc 808b 49bd
000002c0: 7bd4 893c 3f61 b93d 1f36 a23c 2ee9 5e3e
000002d0: 4178 a33d e6c7 82bb 4060 043e e914 54bc
000002e0: 7b42 3b3e 85e8 82bc d1fb 63be a750 843d
000002f0: cc36 f0b9 3266 88bd 78b3 853e fc14 2f3d
00000300: bf91 8c3c 1a11 20bd df48 c23c 164b 0a3e
00000310: 13f4 9fbd c035 433d 0253 edbd 38df 68bc
00000320: 3e96 2ebd b4f2 5d3c 1b49 df3d 26df 133e
00000330: 7aff ff3d 1942 d83c 8e7c 2b3d e75a 823e
00000340: 1972 7d3d ad6a db3c e451 903d a952 a43c
00000350: cba7 36bd ebde 203e 8875 373e 80fa 1d39
00000360: 89d2 43be 2490 5e3d 9ba4 173d 807c c63d
00000370: 3b36 3c3c 2fea 423e 0545 1e3e 43f4 febc
00000380: e3b7 833d 56cd 12bc ff9c d83c 6578 b1bd
00000390: 504d 853d 5077 a73d 259c 203d df0b bbbd
000003a0: 9264 123d 8bdf 95bd a198 633d 35a7 d23d
000003b0: 4e5e 0a3e 199c 613e 51d9 dd3d 3ee6 8cbc
000003c0: 33ae cebc 5fc3 afbd 2f43 74bd c3ec 193e
000003d0: 2042 c53d c895 1e3d e271 2e3e 14cf 8a3e
000003e0: d054 88bd fc3f 633d 6afe 233e 8b5a da3d
000003f0: e0f6 843e 2d1d c03c aa42 b63c 261b 49bd

lstm.bias_hh_l1 f4 [512]
0.51593584 0.3750716 0.36766782 0.44784465 0.32068902 0.32227838 0.42340294 0.52427185
0.48530433 0.48922476 0.48576158 0.6741955 0.16986652 0.58578795 0.5471846 0.40656704
0.4000036 0.3069526 0.5050726 0.39523762 0.4558302 0.48719773 0.4363073 0.43387312
0.39388373 0.18674052 0.5404344 0.43078804 0.650199 0.5531918 0.32434928 0.53227293
0.56969655 0.45159402 0.3591035 0.47627464 0.38850546 0.54531413 0.41483802 0.35939005
0.48438624 0.33384484 0.4840318 0.5103283 0.45233113 0.3982968 0.51366854 0.3179724
0.33164343 0.5237207 0.55689496 0.3933958 0.33070546 0.3865292 0.6043319 0.315941
0.36462334 0.35498837 -0.06614523 0.57409775 0.46264508 0.4739995 0.52665186 0.41215852
0.4591265 0.42379716 0.45244214 0.30486384 0.46909288 0.48995867 0.24634571 0.4436616
0.43480647 0.3421829 0.4589282 0.573115 0.30016574 0.34034443 0.5517633 0.4509178
0.45226318 0.66055495 0.4243181 0.29170278 0.40082675 0.5073945 0.50404096 0.53693604
0.14199106 0.40553924 0.4042778 0.32959187 0.36637995 0.4106647 0.57194424 0.52231073
0.40359476 0.43704426 0.38223135 0.41800445 0.44035915 0.50751686 0.7313166 0.20460752
0.46701744 0.22433344 0.44834283 0.36222193 0.3985112 0.58757997 0.4487574 0.45398906
0.39469868 0.32279238 0.35477197 0.52300954 0.51674336 0.44271484 0.63379925 0.41794717
0.52902323 0.3821057 0.5032885 0.5906505 0.38727805 0.4049363 0.48683834 0.37296295
-0.011359258 0.15948728 0.03702568 0.019261248 -0.030374574 0.14665537 0.018177792 -0.07966047
0.21917427 0.028999116 0.11507317 0.21578221 -0.018415947 -0.10478975 0.10417915 0.112085916
0.026799098 0.014751797 -0.025714895 0.03300119 0.12104125 -0.024816006 0.061844192 -0.040512472
-0.015651308 -0.033113368 0.09901411 0.10075074 0.07732752 -0.001746383 -0.022489898 0.03791284
0.12137669 0.20938557 -0.044131566 0.14080982 0.090060286 -0.08739825 0.06465507 -0.07005437
0.2196993 -0.11061652 -0.12757884 0.21977422 0.049177893 0.15702924 -0.029278956 0.09790129
-0.002976651 0.002359843 -0.06144027 0.20906594 0.09230083 0.06338335 0.039151926 -0.04680325
0.21540648 -0.11070703 -0.20048898 0.12500696 0.014098652 0.006669253 0.21946537 0.053517632
0.010299876 0.0927917 0.12525079 -0.030149547 0.012940737 0.036240075 -0.07138433 -0.047783967
-0.0056870827 0.09327566 0.005546699 0.13301484 0.07958243 0.0052589965 0.053941224 0.25518933
0.029934568 -0.01877582 0.08433015 -0.11907238 -0.0055546034 0.12646806 0.1332717 0.039022557
-0.24832936 0.07255954 -0.106869146 -0.019612558 -0.052016456 0.1342081 0.046618816 0.119690314
0.06861507 -0.09288626 0.10001217 -0.045826875 0.1398789 -0.013634367 0.08349528 0.06807257
0.12662695 -0.009909906 -0.031431645 0.024172755 0.09097406 0.23311202 0.14875244 0.05804692
0.06994732 0.011827526 -0.062046252 0.105484 0.082962714 0.13504004 0.11928316 0.24256538
-0.1638116 0.0062325876 0.010137989 0.046909593 0.10055728 0.122285515 -0.032459475 -0.085232124
00000000: 5f14 043f 6209 c03e f53e bc3e e54b e53e
00000010: 5a31 a43e ac01 a53e 45c8 d83e ae36 063f
00000020: cf79 f83e ab7b fa3e beb5 f83e 1498 2c3f
00000030: 7df1 2d3e 33f6 153f 4a14 0c3f 8e29 d03e
00000040: 46cd cc3e e428 9d3e 704c 013f 965c ca3e
00000050: 9362 e93e fb71 f93e ac63 df3e 9e24 de3e
00000060: 21ab c93e e838 3f3e e959 0a3f 4090 dc3e
00000070: 7173 263f fa9d 0d3f 1c11 a63e 0a43 083f
00000080: a2d7 113f 5537 e73e 6adc b73e 45da f33e
00000090: 30ea c63e b599 0b3f a665 d43e f901 b83e
000000a0: 7901 f83e b6ed aa3e 04d3 f73e e0a4 023f
000000b0: f297 e73e 8fed cb3e c87f 033f 47cd a23e
000000c0: 2bcd a93e 8f12 063f ab90 0e3f 2d6b c93e
000000d0: 3a52 a93e 28e7 c53e 7fb5 1a3f 05c3 a13e
000000e0: e9af ba3e 09c1 b53e 2677 87bd 12f8 123f
000000f0: d1df ec3e 10b0 f23e a8d2 063f 7106 d33e
00000100: a112 eb3e f1fb d83e 7fa6 e73e 1d17 9c3e
00000110: f12c f03e dddb fa3e 0d42 7c3e 9d27 e33e
00000120: f49e de3e 9932 af3e a3f8 ea3e aab7 123f
00000130: 53af 993e a041 ae3e 5c40 0d3f b3de e63e
00000140: 0a8f e73e 211a 293f 3940 d93e 115a 953e
00000150: 2a39 cd3e 9be4 013f d408 013f a474 093f
00000160: 1b66 113e d7a2 cf3e 80fd ce3e 44c0 a83e
00000170: 2796 bb3e a542 d23e f06a 123f 28b6 053f
00000180: f9a3 ce3e 44c4 df3e d4b3 c33e ae04 d63e
00000190: c176 e13e a0ec 013f 9137 3b3f a284 513e
000001a0: e91c ef3e aab7 653e 318d e53e 2775 b93e
000001b0: a909 cc3e a46b 163f 88c3 e53e 4171 e83e
000001c0: f215 ca3e 0b45 a53e aca4 b53e f4e3 053f
000001d0: 4b49 043f 85ab e23e ab40 223f 2cfd d53e
000001e0: 116e 073f 5ca3 c33e 84d7 003f df34 173f
000001f0: 4f49 c63e d053 cf3e e042 f93e 00f5 be3e
00000200: 2e1c 3abc a250 233e 3da8 173d c4c9 9d3c
00000210: 19d4 f8bc d32c 163e 98e9 943c 0725 a3bd
00000220: 386f 603e 8e8f ed3c 7bab eb3d 03f6 5c3e
00000230: 0add 96bc 029c d6bd e15b d53d 4d8d e53d
00000240: c889 db3c 85b1 713c 0ba8 d2bc 412c 073d
00000250: 7ae4 f73d f04a cbbc 5650 7d3d 68f0 25bd
00000260: 2c37 80bc e2a1 07bd e9c7 ca3d 6756 ce3d
00000270: e45d 9e3d e4e6 e4ba bc3c b8bc 7e4a 1b3d
00000280: 5894 f83d 2c69 563e 4dc3 34bd 7330 103e
00000290: 8771 b83d dbfd b2bd e169 843d aa78 8fbd
000002a0: daf8 603e ea8a e2bd 07a4 02be 7e0c 613e
000002b0: c26e 493d 46cc 203e 6cda efbc 7980 c83d
000002c0: eb13 43bb 99a7 1a3b cba8 7bbd 6215 563e
000002d0: 3808 bd3d 21cf 813d c55d 203d c4b4 3fbd
000002e0: 8493 5c3e 5eba e2bd fc4c 4dbe d301 003e
000002f0: 08fe 663c c089 da3b 88bb 603e 4e35 5b3d
00000300: d0c0 283c 9309 be3d be41 003e 2ffc f6bc
00000310: 6305 543c 7970 143d f331 92bd 1fb9 43bd
00000320: b55a babb 4f07 bf3d 15c1 b53b 0b35 083e
00000330: 1dfc a23d a953 ac3b 79f1 5c3d 2da8 823e
00000340: 5739 f53c c0cf 99bc 49b5 ac3d 38dc f3bd
00000350: 6403 b6bb d880 013e 6078 083e 1ed6 1f3d
00000360: 0d4a 7ebe 199a 943d 36de dabd 84aa a0bc
00000370: 350f 55bd d96d 093e 5ff3 3e3d 3220 f53d
00000380: 0f86 8c3d 273b bebd 2ed3 cc3d f6b4 3bbd
00000390: 6a3c 0f3e ae62 5fbc 93ff aa3d a269 8b3d
000003a0: 7faa 013e 295d 22bc 78be 00bd f105 c63c
000003b0: 9c50 ba3d ebb4 6e3e 8f52 183e 9bc2 6d3d
000003c0: 8a40 8f3d 3dc8 413c 3624 7ebd ff07 d83d
000003d0: 5be8 a93d f047 0a3e bb4a f43d 0f63 783e
000003e0: 3abe 27be bc3a cc3b cf19 263c 4624 403d
000003f0: faf0 cd3d d470 fa3d 3af4 04bd 2e8e aebd
