model_epochs_50_input_13_batch_64_layers_3_output_1.pt (torch, 103631 bytes, 15 tensors)

lstm.weight_ih_l0 f4 [128, 13]
1.6407021 1.4848258 1.4557589 1.8079821 -0.09470472 0.029396284 0.085524596 0.12084736
0.05951788 0.08630513 0.029972838 0.09679651 0.02425519 1.5748663 1.4755739 1.5204159
1.8014594 -0.14211643 0.07603185 0.041796647 0.26216787 0.12910636 0.037384883 -0.11746786
0.12155666 -0.010356427 0.4342699 0.6421323 0.73422617 0.5973871 0.05239518 -0.061872058
0.059594873 -0.027972419 -0.01603833 -0.020846544 0.113328196 -0.05860289 -0.11626691 -0.86534756
-0.7429205 -0.7381809 -0.9250851 -0.063576356 0.027143162 -0.01906664 -0.0011002161 -0.03823577
0.014755651 -0.0020960136 0.005631207 -0.03891803 -0.9242731 -0.87141174 -0.7513652 -1.0123686
-0.022525404 -0.0658035 0.054153528 -0.053747017 0.01496062 0.013212719 0.06546649 0.010560547
0.009131512 -0.89855677 -0.94295925 -0.9053465 -0.8145305 0.039675884 0.044398215 -0.04877803
-0.09526535 0.003601248 -0.028610308 0.025811192 -0.042433415 0.011912342 1.4582574 1.4881907
1.5506463 1.6753334 0.037877247 -0.06244862 -0.068713024 0.2289055 -0.24141137 -0.03835659
0.04042949 0.033079986 0.039358616 0.86322963 0.59464145 0.86663514 0.6978192 0.010155386
-0.05520481 0.03631621 -0.048690755 -0.011959521 0.065288894 0.09149134 -0.1474287 -0.02465663
-0.67760366 -0.947324 -0.79152656 -1.0504398 0.079438455 0.051076274 -0.035592802 -0.10092361
0.02788791 -0.036932692 0.06334382 0.029174129 0.056069322 -0.44987735 -0.5173908 -0.40683594
-0.50490665 0.03322109 0.02683178 -0.021241775 0.019432023 -0.0030128623 -0.02889493 0.028712109
0.003153376 0.013917808 1.8169112 1.6764518 1.7860256 1.6850001 0.10344756 -0.1989808
-0.018816598 0.06980189 -0.21571362 0.00046833555 -0.012515854 -0.008952751 -0.04417499 0.56741256
0.8657983 0.6844561 0.768177 -0.041851033 -0.034338124 0.035922308 0.08923597 0.011806963
-0.04741195 0.0053311693 0.1288621 0.06421827 0.048374187 0.13226947 -0.08989336 -0.15606698
0.32055935 -0.050186902 0.0010817966 0.22457884 0.027094353 0.074173994 -0.19519325 0.15084639
0.07847524 1.1398417 1.244948 1.0531532 1.2488122 0.040231876 0.11903239 -0.1184074
0.079251334 -0.030279996 0.17249961 -0.0051967595 0.182457 0.08928733 -0.10384347 0.034337357
0.0861963 -0.10011457 0.7126642 -0.11653992 -0.06793392 0.32128537 0.0041245916 -0.20694515
0.08501033 -0.0056611327 -0.18214321 0.47361693 0.7214918 0.5829563 0.6690366 -0.031204065
-0.22784567 0.13077162 -0.04903551 0.13352232 0.028018313 -0.08446577 0.06454146 0.09445163
0.6683765 0.8661853 0.62317944 0.7652904 -0.015089152 0.11331584 -0.097540684 -0.103278615
-0.03944758 0.018217018 -0.029839836 -0.059098784 0.033356607 0.4388508 0.5616192 0.5579537
0.6498396 -0.014615934 0.016092442 -0.027234472 -0.027558867 0.038578507 -0.056218017 -0.059951257
0.035698023 -0.025149707 0.5707627 0.3964356 0.5433297 0.466666 -0.020038467 -0.012426701
-0.054476075 -0.034679055 0.041672055 0.038702004 -0.022843197 -0.04365194 0.042783342 2.1259887
1.9489212 2.1121256 1.8703527 0.066683605 0.02219277 -0.0034400823 0.019828796 -0.054361206
00000000: 8702 d23f c60e be3f 4f56 ba3f f56b e73f
00000010: 8cf4 c1bd 7ad0 f03c 8527 af3d d27e f73d
00000020: 05c9 733d bec0 b03d 9989 f53c 403d c63d
00000030: d2b2 c63c 3895 c93f 9bdf bc3f fd9c c23f
00000040: 3996 e63f f886 11be 96b6 9b3d f632 2b3d
00000050: de3a 863e 7534 043e e420 193d fd92 f0bd
00000060: b3f2 f83d 01ae 29bc a058 de3e c862 243f
00000070: 3ff6 3b3f 5cee 183f 549c 563d 8e6d 7dbd
00000080: c119 743d 6a26 e5bc d162 83bc 5fc6 aabc
00000090: 9d18 e83d 9609 70bd 591d eebd 6b87 5dbf
000000a0: 0a30 3ebf 6cf9 3cbf 61d2 6cbf 5234 82bd
000000b0: 565b de3c a431 9cbc 2035 90ba 1c9d 1cbd
000000c0: b0c1 713c 465d 09bb fd85 b83b 8368 1fbd
000000d0: 299d 6cbf d714 5fbf 7859 40bf 4b95 81bf
000000e0: 3287 b8bc fcc3 86bd 17d0 5d3d d525 5cbd
000000f0: 631d 753c 297a 583c 4c13 863d 2506 2d3c
00000100: 569c 153c d107 66bf c765 71bf cac4 67bf
00000110: 1285 50bf 2e83 223d e7da 353d 79cb 47bd
00000120: 7b1a c3bd ea02 6c3b 2a60 eabc fe71 d33c
00000130: a9ce 2dbd fc2b 433c 2ea8 ba3f 087d be3f
00000140: 947b c63f 5371 d63f 2c25 1b3d 20ca 7fbd
00000150: 6ab9 8cbd 3466 6a3e 8b34 77be cd1b 1dbd
00000160: 6599 253d e17e 073d 8036 213d 9efc 5c3f
00000170: 6c3a 183f cddb 5d3f 47a4 323f c762 263c
00000180: 701e 62bd 4ec0 143d f56f 47bd def1 43bc
00000190: 2fb6 853d d05f bb3d 8df7 16be b3fc c9bc
000001a0: 6f77 2dbf d383 72bf 7ca1 4abf d074 86bf
000001b0: a1b0 a23d 5b35 513d c2c9 11bd 0ab1 cebd
000001c0: 3075 e43c bc46 17bd 68ba 813d 95fe ee3c
000001d0: f2a8 653d 5356 e6be b973 04bf cd4c d0be
000001e0: 9041 01bf d612 083d 52ce db3c 3b03 aebc
000001f0: e82f 9f3c 7173 45bb 0fb5 ecbc a835 eb3c
00000200: dfa8 4e3b 8507 643c 8c90 e83f f995 d63f
00000210: 7d9c e43f 15ae d73f 50dc d33d 9fc1 4bbe
00000220: 4425 9abc 4bf4 8e3d 08e4 5cbe ef8a f539
00000230: 4c0f 4dbc 8fae 12bc d6f0 34bd f341 113f
00000240: f5a4 5d3f 8438 2f3f 3fa7 443f fd6b 2bbd
00000250: 22a6 0cbd 4523 133d 59c1 b63d fe71 413c
00000260: 0833 42bd 17b1 ae3b 6df4 033e de84 833d
00000270: 0324 463d a671 073e 031a b8bd 06d0 1fbe
00000280: 5b20 a43e c890 4dbd 12cb 8d3a fff7 653e
00000290: faf4 dd3c 89e8 973d bde0 47be 7a77 1a3e
000002a0: a0b7 a03d 55e6 913f 755a 9f3f b9cd 863f
000002b0: 14d9 9f3f 2eca 243d 41c7 f33d 947f f2bd
000002c0: 864e a23d c10d f8bc bda3 303e 9449 aabb
000002d0: 02d6 3a3e 47dc b63d e3ab d4bd 54a5 0c3d
000002e0: b087 b03d de08 cdbd 2971 363f 7bac eebd
000002f0: f020 8bbd 847f a43e 9527 873b 6ee9 53be
00000300: e519 ae3d 0681 b9bb c083 3abe eb7d f23e
00000310: b0b3 383f a03c 153f fc45 2b3f ab9f ffbc
00000320: 6050 69be ffe8 053e 75d9 48bd 13ba 083e
00000330: a986 e53c 64fc acbd 502e 843d db6f c13d
00000340: b91a 2b3f 52be 5d3f b088 1f3f 12ea 433f
00000350: 7e38 77bc 2312 e83d 69c3 c7bd bd83 d3bd
00000360: c993 21bd db3b 953c ac72 f4bc 9111 72bd
00000370: f0a0 083d 0db1 e03e 47c6 0f3f 0ed6 0e3f
00000380: e35b 263f ac77 6fbc 4cd4 833c d41a dfbc
00000390: 22c3 e1bc 7f04 1e3d dd44 66bd 738f 75bd
000003a0: 1738 123d c206 cebc 811d 123f 9bf9 ca3e
000003b0: a817 0b3f d9ee ee3e b627 a4bc 5d99 4bbc
000003c0: 4e22 5fbd a00b 0ebd 51b0 2a3d fe85 1e3d
000003d0: a821 bbbc 60cc 32bd 963d 2f3d 3310 0840
000003e0: 4076 f93f 112d 0740 b867 ef3f 6a91 883d
000003f0: 9dcd b53c 0173 61bb 0070 a23c dba9 5ebd

lstm.weight_hh_l0 f4 [128, 32]
0.045572937 0.089808896 0.096392885 -0.0855757 0.06228143 0.08789633 -0.14497025 0.034526482
-0.10004248 -0.037671372 0.17651598 -0.09694091 0.09579305 0.119284466 -0.061258085 -0.025275901
0.10444917 0.037110284 -0.04150781 0.17389517 -0.095804945 -0.13230152 -0.05413004 0.013510317
0.06784521 0.05566311 -0.13143434 0.111372426 -0.08048889 0.021882057 -0.12362174 -0.08857432
-0.067079365 0.011020392 0.010831714 -0.15371302 -0.1132584 0.012405172 0.09398045 -0.0055042505
0.078820094 -0.17107825 -0.06381821 -0.07080047 0.029125005 0.15996869 -0.06832931 -0.052728467
0.07132085 -0.056692928 -0.10396431 0.16172712 -0.1481272 0.030267254 0.026772961 -0.07836418
0.10103132 -0.055118933 0.043857694 -0.04611127 0.10783227 -0.117357284 -0.10676726 0.03893602
-0.06237398 -0.14566582 0.15211122 -0.1437849 -0.02914147 0.027371421 -0.052079365 -0.1487345
0.084708735 0.12602292 0.03249027 -0.10871651 -0.03468354 0.09118761 -0.15874507 0.13255404
0.10649441 -0.08057299 -0.035403863 0.16056262 -0.16428435 -0.13000524 0.073852405 0.11130519
0.037726656 0.100615636 0.037447155 -0.12467242 0.03289035 0.056228116 -0.15607943 0.17176645
-0.14045171 -0.0786111 0.10798176 -0.10590449 0.15856816 0.15458442 -0.11344738 0.14607812
0.069585666 -0.17666511 0.011832893 0.019260392 0.13413806 0.07517652 0.043768346 0.033293813
-0.02308385 0.108479634 0.12691443 0.068125665 -0.043793485 -0.021424219 0.024817333 0.015214682
0.17056756 0.039270446 -0.16706425 -0.056461416 -0.12294938 0.011672422 0.0187148 -0.08358759
-0.03480622 -0.16140133 0.058524624 0.01459372 0.03327483 -0.04217589 -0.039658368 -0.018371478
0.0041977614 -0.049299628 0.112509534 -0.103694014 -0.09269856 -0.10576587 0.15129061 -0.0803482
0.009503797 0.04397452 -0.018767819 -0.07183117 0.10859223 0.11009149 0.0042676628 0.042139307
0.12913136 -0.035582587 0.07887842 0.14841028 -0.07496582 -0.058352627 -0.14262097 0.09816457
-0.17013521 0.071823955 -0.04621257 0.014295772 0.09429596 -0.16744791 -0.04315661 -0.11461169
0.17177056 0.09259336 -0.15589684 0.042434588 0.08935784 -0.029882923 -0.12976821 -0.024214312
-0.07446465 -0.0837138 -0.04627967 0.032110468 -0.0809249 0.116597936 -0.027499959 0.16882445
-0.17242008 0.1504068 -0.116880834 -0.124074504 0.112372056 0.13001604 0.060528338 -0.0033893287
-0.14654306 -0.055790856 0.117178455 0.006868586 0.012575224 -0.13384554 0.021812737 0.112468496
-0.14071503 0.06648667 -0.047253534 0.016825423 0.06258683 -0.02153112 -0.00847207 -0.070109576
-0.04296717 0.1590295 -0.011501536 0.15226404 0.03610581 -0.09682307 0.09494783 0.15377726
-0.12628251 0.043930918 0.09654443 -0.08260487 -0.030294076 0.011072859 0.035745353 -0.06822985
0.016407743 0.14196901 -0.023631275 -0.021472171 0.12437464 0.0088806 0.037161425 -0.05060275
-0.10156522 -0.053504243 -0.15734115 -0.11341959 0.014891848 -0.17247725 -0.02684027 0.1523651
-0.16066119 -0.13613573 0.01584801 -0.004191309 0.0008445978 0.14402674 0.051360577 -0.0693162
0.09805821 -0.12729976 -0.08466452 -0.10831112 0.028336942 -0.023682252 -0.04001601 0.025841668
00000000: b0aa 3a3d baed b73d a269 c53d 5042 afbd
00000010: d01a 7f3d fe02 b43d 1573 14be a46b 0d3d
00000020: 12e3 ccbd 4c4d 1abd 9bc0 343e f588 c6bd
00000030: 262f c43d 6a4b f43d c2e9 7abd 680f cfbc
00000040: 72e9 d53d f400 183d 1804 2abd 9311 323e
00000050: 6235 c4bd 0d7a 07be 76b7 5dbd 605a 5d3c
00000060: 6ef2 8a3d 00ff 633d b996 06be 3a17 e43d
00000070: 5cd7 a4bd 0042 b33c 652d fdbd 7466 b5bd
00000080: e860 89bd e08e 343c 8077 313c f266 1dbe
00000090: 05f4 e7bd 103f 4b3c d278 c03d 005d b4bb
000000a0: 6e6c a13d 232f 2fbe 1fb3 82bd d6ff 90bd
000000b0: 9097 ee3c d5ce 233e 3df0 8bbd cef9 57bd
000000c0: aa10 923d d836 68bd 3deb d4bd cb9b 253e
000000d0: a8ae 17be 08f3 f73c f852 db3c 667d a0bd
000000e0: 82e9 ce3d 64c4 61bd 20a4 333d 2cdf 3cbd
000000f0: 2ad7 dc3d 0459 f0bd cba8 dabd 607b 1f3d
00000100: dc7b 7fbd 6c29 15be 0bc3 1b3e 593c 13be
00000110: 18ba eebc 083a e03c 2c51 55bd db4d 18be
00000120: c67b ad3d 270c 013e 8414 053d c3a6 debd
00000130: 5410 0ebd 92c0 ba3d 118e 22be 3fbc 073e
00000140: be19 da3d 7403 a5bd a403 11bd 876a 243e
00000150: 283a 28be 1820 05be ee3f 973d faf3 e33d
00000160: 4487 1a3d 920f ce3d 3062 193d 4154 ffbd
00000170: 08b8 063d 744f 663d 49d3 1fbe 8be3 2f3e
00000180: 93d2 0fbe dbfe a0bd 8a25 dd3d 74e4 d8bd
00000190: b15f 223e 614b 1e3e 1a57 e8bd 8195 153e
000001a0: ee82 8e3d b3e7 34be c0de 413c f8c7 9d3c
000001b0: 7d5b 093e 26f6 993d 7046 333d 185f 083d
000001c0: 581a bdbc 922a de3d dbf5 013e 7885 8b3d
000001d0: cc60 33bd d881 afbc b84d cb3c 0047 793c
000001e0: 43a9 2e3e 0cda 203d e412 2bbe 1644 67bd
000001f0: e2cc fbbd b03d 3f3c c84f 993c f82f abbd
00000200: f890 0ebd 6446 25be 84b7 6f3d 801a 6f3c
00000210: 304b 083d a0c0 2cbd d070 22bd c87f 96bc
00000220: 608d 893b 68ee 49bd 666b e63d 875d d4bd
00000230: bed8 bdbd c79b d8bd edeb 1a3e 998d a4bd
00000240: d0b5 1b3c a01e 343d f8be 99bc 381c 93bd
00000250: 9a65 de3d a677 e13d c0d7 8b3b 449a 2c3d
00000260: 033b 043e 0cbf 11bd 028b a13d ddf8 173e
00000270: ae87 99bd 2a03 6fbd 3b0b 12be 820a c93d
00000280: ed37 2ebe 7018 933d 6449 3dbd d038 6a3c
00000290: 3e1e c13d 7777 2bbe fcc4 30bd 89b9 eabd
000002a0: 9fe4 2f3e 96a1 bd3d 6ca3 1fbe e4cf 2d3d
000002b0: 3e01 b73d 08cd f4bc f5e1 04be 185d c6bc
000002c0: ec80 98bd 2472 abbd c08f 3dbd 4486 033d
000002d0: f4bb a5bd e6ca ee3d 9847 e1bc 51e0 2c3e
000002e0: e48e 30be 3d04 1a3e 385f efbd c61a febd
000002f0: 5223 e63d ed22 053e 90ec 773d 801f 5ebb
00000300: 620f 16be f484 64bd 42fb ef3d e011 e13b
00000310: 5008 4e3c ce0e 09be a0b0 b23c e255 e63d
00000320: 9a17 10be 2a2a 883d ec8c 41bd 78d5 893c
00000330: 862d 803d 0862 b0bc 70ce 0abc 9c95 8fbd
00000340: 58fe 2fbd a1d8 223e f070 3cbc 1beb 1b3e
00000350: b0e3 133d 2c4b c6bd 0274 c23d c977 1d3e
00000360: 3450 01be e8f0 333d 16b9 c53d be2c a9bd
00000370: 482b f8bc f06a 353c b869 123d 17bc 8bbd
00000380: 8869 863c 5360 113e 6096 c1bc 68e6 afbc
00000390: 22b8 fe3d f07f 113c 9436 183d d444 4fbd
000003a0: 6d01 d0bd 4427 5bbd 0a1e 21be 8848 e8bd
000003b0: f0fc 733c e09d 30be 20e0 dbbc 9905 1c3e
000003c0: 5e84 24be 2a67 0bbe b0d3 813c 4057 89bb
000003d0: 0068 5d3a bf7b 133e 785f 523d a7f5 8dbd
000003e0: bed2 c83d de5a 02be 9864 adbd 38d2 ddbd
000003f0: e022 e83c 4801 c2bc d4e7 23bd e8b1 d33c

lstm.bias_ih_l0 f4 [128]
0.6116906 -0.50198907 -0.9420246 2.1870894 2.3955407 2.5153182 -0.10485086 -1.4945352
2.2724047 0.33250147 0.9425281 -0.8846621 0.5209297 -0.77141064 0.9685482 -1.2263443
-1.2607323 -1.1433806 -1.0119947 1.5965712 -1.0319489 0.5414254 -1.0683978 0.91140777
1.9805385 -0.16045526 1.9029686 -1.1683226 2.1824229 -0.9350769 0.58355707 -1.2664846
-0.054987937 -0.029351577 -0.110867284 -0.15432209 -0.03884901 -0.16959746 -0.042362064 0.072774306
-0.1744543 0.0336767 -0.1415002 -0.060038164 0.10092135 0.04230857 0.14876984 0.16643856
0.088788584 -0.021227106 0.09476824 0.11888988 -0.03659512 0.14822055 -0.05261212 -0.13560116
0.078770384 -0.14741091 -0.14389126 0.09697078 -0.006406069 0.003187716 0.124924704 0.09546371
0.5795991 -0.5928958 0.24286959 0.284955 0.301682 0.40690088 -0.6386916 -0.2781958
-0.23513353 0.2922314 0.5128588 -0.7183027 -0.61755425 -0.75305206 0.915128 -0.3691886
-0.41898885 -0.3282527 0.16298446 0.82024276 -0.34085736 0.43524224 0.279669 0.49632987
0.3685217 -0.829055 -0.57401824 1.0092576 0.482644 -0.31183887 -0.96090937 -0.3063505
-0.8497764 -1.2274777 -1.1586688 2.2828553 2.597697 2.762691 -0.8718996 -1.3133991
2.5062253 0.7779788 1.6692059 -0.9382081 0.029147346 -1.4654943 0.0012264246 -1.144835
-1.1729871 -1.1801354 -1.0579118 1.9815491 -0.9999996 -0.49759525 -0.39733708 1.2254492
2.0713565 -1.4120052 2.006829 -1.3199704 2.2501616 -0.6387801 0.020380473 -1.1692616
00000000: c197 1c3f 5b82 00bf 8628 71bf 46f9 0b40
00000010: 8a50 1940 f9fa 2040 0cbc d6bd ee4c bfbf
00000020: 146f 1140 a23d aa3e 8649 713f 3779 62bf
00000030: a65b 053f 2b7b 45bf c6f2 773f daf8 9cbf
00000040: ad5f a1bf 4c5a 92bf 0b89 81bf 725c cc3f
00000050: e716 84bf db9a 0a3f 42c1 88bf 0552 693f
00000060: 4982 fd3f 624e 24be 7a94 f33f 988b 95bf
00000070: d1ac 0b40 3361 6fbf ff63 153f 2b1c a2bf
00000080: 083b 61bd b872 f0bc 630e e3bd 9c06 1ebe
00000090: 2420 1fbd f5aa 2dbe d883 2dbd b20a 953d
000000a0: 26a4 32be 94f0 093d 6ee5 10be 94ea 75bd
000000b0: daaf ce3d c04b 2d3d 1f57 183e df6e 2a3e
000000c0: cad6 b53d 78e4 adbc da15 c23d 8a7c f33d
000000d0: c4e4 15bd 21c7 173e ce7f 57bd 08db 0abe
000000e0: 5e52 a13d e3f2 16be 3b58 13be 9e98 c63d
000000f0: 00ea d1bb 00e9 503b 86d8 ff3d 7a82 c33d
00000100: 9b60 143f 05c8 17bf ceb2 783e 9fe5 913e
00000110: 1076 9a3e 5055 d03e 4b81 23bf ae6f 8ebe
00000120: d8c6 70be 5b9f 953e b74a 033f b0e2 37bf
00000130: 0918 1ebf 05c8 40bf d445 6a3f 4a06 bdbe
00000140: b585 d6be bd10 a8be 66e5 263e 6efb 513f
00000150: db84 aebe 12d8 de3e c630 8f3e f31e fe3e
00000160: e0ae bc3e f33c 54bf dcf2 12bf 5a2f 813f
00000170: 1d1d f73e 58a9 9fbe 28fe 75bf f9d9 9cbe
00000180: f28a 59bf fd1d 9dbf 424f 94bf 4d1a 1240
00000190: ab40 2640 eecf 3040 d034 5fbf 761d a8bf
000001a0: ff65 2040 9e29 473f 8aa8 d53f 682e 70bf
000001b0: 6ac6 ee3c 5195 bbbf fbbf a03a f489 92bf
000001c0: 7124 96bf ad0e 97bf a769 87bf 67a3 fd3f
000001d0: f9ff 7fbf cec4 febe c46f cbbe 85db 9c3f
000001e0: 1b91 0440 96bc b4bf e36f 0040 caf4 a8bf
000001f0: a602 1040 1887 23bf f3f4 a63c 5daa 95bf

lstm.bias_hh_l0 f4 [128]
0.48852953 -0.47302616 -1.2114272 2.034219 2.4024243 2.401378 0.025897563 -1.2269851
2.4280906 0.49897105 1.0680717 -0.7319286 0.36440125 -0.73012054 0.9621512 -1.1672091
-1.2009641 -0.88569254 -0.9944083 1.5751699 -0.998842 0.5548324 -1.0352949 0.8448219
2.0888956 -0.02200548 2.1461802 -1.3428986 2.1653051 -0.71420145 0.5404834 -1.2335218
0.02262576 -0.016889974 0.10598041 -0.00440681 -0.094554745 -0.0011237413 -0.04370925 0.096624956
-0.06403113 -0.0333025 -0.17615111 0.1427492 -0.00469324 -0.08570897 -0.08936611 0.07349385
-0.08098346 -0.03835018 -0.10982965 -0.047325134 -0.10452336 -0.103075914 -0.019985884 -0.063403614
-0.13494855 0.13432686 -0.11694142 0.06513277 -0.10893531 -0.094065 0.07463084 0.020316422
0.4973278 -0.34903207 0.38481784 0.43978545 0.48774064 0.32957807 -0.40869972 -0.43742946
-0.4752851 0.37207997 0.60777336 -0.5017562 -0.63883024 -0.8058595 0.964585 -0.2302688
-0.2698842 -0.27171722 0.38095874 0.5271073 -0.22529863 0.71542156 0.27948928 0.2867093
0.4460511 -0.6512733 -0.31159195 0.7418308 0.49301234 -0.23753177 -0.95040643 -0.31561166
-0.70471984 -1.2099535 -1.1692168 2.3037908 2.4198587 2.451947 -0.9395982 -1.1450531
2.4597113 0.84190303 1.7262794 -0.97157073 0.07167697 -1.4247866 -0.18856247 -1.1553205
-1.3445064 -1.1577859 -0.8392604 1.8573587 -1.0649291 -0.4885465 -0.3424398 1.2139864
2.341967 -1.4615612 2.1847854 -1.226159 2.2633386 -0.7362458 0.024987394 -1.0972313
00000000: 8b20 fa3e 7c30 f2be 0c10 9bbf a530 0240
00000010: 52c1 1940 2db0 1940 2027 d43c d90d 9dbf
00000020: d665 1b40 2279 ff3e 93b6 883f ac5f 3bbf
00000030: cd92 ba3e 2ee9 3abf 8b4f 763f 1c67 95bf
00000040: 31b9 99bf bfbc 62bf 8b91 7ebf 2b9f c93f
00000050: 1cb4 7fbf 7f09 0e3f 8b84 84bf 3f46 583f
00000060: 77b0 0540 d644 b4bc 045b 0940 1ae4 abbf
00000070: 5c94 0a40 e8d5 36bf 1f5d 0a3f 0be4 9dbf
00000080: a859 b93c d85c 8abc 420c d93d 0067 90bb
00000090: eba5 c1bd 804a 93ba 7808 33bd 4ee3 c53d
000000a0: c122 83bd 3468 08bd f560 34be d92c 123e
000000b0: c0c9 99bb 2f88 afbd 9405 b7bd f283 963d
000000c0: a8da a5bd 1415 1dbd 5eee e0bd 00d8 41bd
000000d0: 5810 d6bd 7719 d3bd 70b9 a3bc c1d9 81bd
000000e0: f42f 0abe fb8c 093e fc7e efbd 5464 853d
000000f0: 7a19 dfbd 27a5 c0bd 0ed8 983d a06e a63c
00000100: c0a1 fe3e 55b4 b2be d806 c53e 8f2b e13e
00000110: 24b9 f93e 75be a83e 1741 d1be c1f6 dfbe
00000120: 9258 f3be 4481 be3e 0997 1b3f 1873 00bf
00000130: 618a 23bf cf4c 4ebf 0bef 763f 96cb 6bbe
00000140: 432e 8abe 851e 8bbe 060d c33e 81f0 063f
00000150: afb4 66be de25 373f 3819 8f3e 90cb 923e
00000160: cf60 e43e d9b9 26bf fb88 9fbe a0e8 3d3f
00000170: 1d6c fc3e 873b 73be d64d 73bf da97 a1be
00000180: 8568 34bf c2df 9abf e5a8 95bf 4f71 1340
00000190: f7de 1a40 b3ec 1c40 8289 70bf 1a91 92bf
000001a0: e96b 1d40 f586 573f b9f6 dc3f dcb8 78bf
000001b0: 60cb 923d 685f b6bf 8516 41be 8be1 93bf
000001c0: c918 acbf 5432 94bf c5d9 56bf eebd ed3f
000001d0: 994f 88bf c422 fabe 4554 afbe e863 9b3f
000001e0: cae2 1540 7014 bbbf 86d3 0b40 c7f2 9cbf
000001f0: 8ada 1040 9b7a 3cbf 5db2 cc3c 1372 8cbf

lstm.weight_ih_l1 f4 [128, 32]
-0.050821226 0.035404954 0.0020188394 -2.4096804 -1.3196295 -1.4378481 -0.0033564446 -0.016246064
2.1915193 -0.5373902 -0.113974124 -0.032114472 0.21527013 0.63352305 -0.12349116 -0.07131008
-0.04688909 -0.03963455 0.0070839915 -3.4317462 -0.07795257 -0.04649646 0.020515472 -0.9455959
-2.6687639 0.9920855 2.6197598 0.08316071 -4.5213037 0.010479898 0.26548776 0.026631672
0.2414597 5.995055 1.6134953 -0.16806516 0.031087566 -0.06874751 -0.0895896 -2.199094
-0.006773029 -0.2909269 -0.03405653 0.16419956 0.09663447 -0.20188656 -0.0023596226 -1.9028434
-2.0153503 -1.9534807 1.7561705 -0.17238545 -1.7150569 0.22270562 0.87049556 -0.27820998
-0.09989075 -0.16207986 -0.03390673 0.43754944 -0.18109958 -0.9936474 0.11920203 -1.8663459
-6.164146 0.19605906 0.15743874 -0.29511923 -0.27998546 -0.31809568 1.5373971 -0.18722892
0.3881213 -0.8803831 -2.5001154 0.07690644 2.3930643 0.018174209 -0.016456192 -0.25915402
-0.198902 -0.19200495 0.39432186 -0.07453667 -0.3584739 -8.023335 0.25289556 -0.6881998
-0.3064197 -0.089433625 0.35165527 -0.08627297 -0.21199016 -0.3181374 0.11827787 -0.23771831
1.0214689 -0.44455725 0.7147395 -0.03225309 0.066747256 -0.015158618 -1.4869535 -1.6957059
-0.13599868 0.0796112 0.09901747 -1.4738597 -0.1389876 -3.2579954 0.5005339 -0.93969214
-1.7014221 -0.6124332 0.029041743 0.032979272 -0.15208139 0.6422681 -0.50457186 0.0027646644
-0.017978167 -2.4296916 0.0050967163 6.0440984 0.044133384 0.5379844 -0.3995721 -1.3123165
-1.709728 0.04790277 0.19922534 -0.018786337 -0.15567364 -0.096275225 3.5577493 -0.2625481
0.086451665 -0.10953685 -0.26128593 5.27637 0.5349189 0.13044003 -0.1368491 -0.25263348
-0.21351245 -0.285913 0.22802062 -0.105797336 -0.32532105 -0.9572892 0.31776553 -0.07161784
-0.1412061 0.050901484 0.23885977 0.06521426 -0.189363 -0.1509277 0.05922154 -0.26868883
0.6633136 0.20294984 0.1794694 0.016707875 0.06383239 0.12057188 -0.8522961 -1.141421
-0.006023459 0.22471584 0.3089321 -0.66072106 -0.42436123 -2.4059277 1.096539 -0.25561783
-1.247171 -0.13882785 -0.3481371 0.5245081 0.102833115 0.50762373 -0.40241715 0.0696274
0.2193057 -1.9748574 -0.18604654 6.0876575 -0.13768753 0.33133227 -1.0350721 -0.72616696
-0.037244927 -0.034297563 0.12428309 -3.0009964 -3.3867445 -2.0316505 0.068022445 0.021887397
1.0506902 -1.1494819 -0.08371191 0.026914235 0.10518698 0.66707164 -0.10671741 0.012772878
0.066156566 0.0036663057 0.042124465 -3.1039767 -0.022162482 -0.0617092 0.1037886 -1.4424855
-3.5655568 0.9013512 3.892368 -0.03223087 -2.264195 -0.10411061 0.03651465 -0.039726943
-0.34176522 0.1627115 0.22407494 -2.1509674 -2.1894295 -1.9259435 0.3999803 -0.25397375
2.2719064 -1.6640134 -0.31811315 0.21885544 0.5269231 0.61216855 -0.22758372 -0.37021086
-0.21035753 -0.293935 0.26290756 -1.6352074 -0.40257075 -0.41008553 0.23212692 -1.6231565
-2.106708 0.5713741 2.4992416 -0.12480451 -2.2244816 -0.29006296 0.35394177 -0.16273445
00000000: eb29 50bd c904 113d 814e 043b 3438 1ac0
00000010: 9fe9 a8bf 680b b8bf ccf7 5bbb 7716 85bc
00000020: da41 0c40 6792 09bf 446b e9bd 778a 03bd
00000030: c66f 5c3e 912e 223f efe8 fcbd 050b 92bd
00000040: c60e 40bd d757 22bd d420 e83b bba1 5bc0
00000050: 99a5 9fbd 1273 3ebd 1010 a83c 9312 72bf
00000060: 07cd 2ac0 51f9 7d3f 25aa 2740 2a50 aa3d
00000070: 85ae 90c0 e1b3 2b3c 03ee 873e aa2a da3c
00000080: 3641 773e 7ed7 bf40 0487 ce3f 4619 2cbe
00000090: 5aab fe3c 7fcb 8cbd c17a b7bd f5bd 0cc0
000000a0: 49f0 ddbb 5ff4 94be dc7e 0bbd ee23 283e
000000b0: 4be8 c53d 5abb 4ebe e6a3 1abb 5f90 f3bf
000000c0: 80fb 00c0 a80b fabf 32ca e03f d085 30be
000000d0: fc86 dbbf f10c 643e ccd8 5e3f 8a71 8ebe
000000e0: 8693 ccbd 43f8 25be c9e1 0abd 7b06 e03e
000000f0: 2b72 39be ad5f 7ebf 3220 f43d 6ce4 eebf
00000100: af40 c5c0 b5c3 483e 9f37 213e de19 97be
00000110: 415a 8fbe 70dd a2be 6ec9 c43f f0b8 3fbe
00000120: d6b7 c63e c960 61bf e401 20c0 2081 9d3d
00000130: f727 1940 14e2 943c 23cf 86bc d6af 84be
00000140: f7ac 4bbe f29c 44be 8ee4 c93e afa6 98bd
00000150: e489 b7be 955f 00c1 877b 813e dd2d 30bf
00000160: 0be3 9cbe fa28 b7bd 290c b43e e2af b0bd
00000170: f313 59be e8e2 a2be ab3b f23d 6e6c 73be
00000180: 7ebf 823f 029d e3be 2bf9 363f d11b 04bd
00000190: c9b2 883d da5b 78bc 7e54 bebf e40c d9bf
000001a0: 3d43 0bbe 320b a33d acc9 ca3d 6fa7 bcbf
000001b0: c452 0ebe ff82 50c0 fd22 003f aa8f 70bf
000001c0: 33c8 d9bf 6cc8 1cbf f3e8 ed3c 4615 073d
000001d0: 39bb 1bbe af6b 243f 9f2b 01bf 5f2f 353b
000001e0: f346 93bc 1180 1bc0 5b02 a73b 4169 c140
000001f0: 35c5 343d 58b9 093f b794 ccbe fdf9 a7bf
00000200: 5ed8 dabf b235 443d ba01 4c3e cee5 99bc
00000210: e968 1fbe f22b c5bd 2ab2 6340 b46c 86be
00000220: 920d b13d db54 e0bd 45c7 85be 06d8 a840
00000230: 72f0 083f 1292 053e 2c22 0cbe 2d59 81be
00000240: 02a3 5abe 3063 92be 3d7e 693e 46ac d8bd
00000250: 7b90 a6be e810 75bf 2ab2 a23e 60ac 92bd
00000260: 5598 10be 137e 503d a897 743e 0e8f 853d
00000270: 60e8 41be ca8c 1abe 4992 723d 9591 89be
00000280: ecce 293f 15d2 4f3e d4c6 373e f4de 883c
00000290: 8eba 823d 64ee f63d 1430 5abf 151a 92bf
000002a0: 7060 c5bb e91b 663e 592c 9e3e 0425 29bf
000002b0: e045 d9be b8fa 19c0 645b 8c3f 57e0 82be
000002c0: 4da3 9fbf e328 0ebe 073f b2be 2a46 063f
000002d0: 2b9a d23d a1f3 013f 9f09 cebe cf98 8e3d
000002e0: ac91 603e 21c8 fcbf fc82 3ebe 17ce c240
000002f0: f6fd 0cbe 62a4 a93e 3e7d 84bf 14e6 39bf
00000300: 238e 18bd 9a7b 0cbd 2288 fe3d 5310 40c0
00000310: 6cc0 58c0 9006 02c0 5a4f 8b3d 334d b33c
00000320: 047d 863f 3922 93bf 2671 abbd 3e7b dc3c
00000330: 456c d73d 35c5 2a3f a88e dabd 5545 513c
00000340: 187d 873d 6746 703b b48a 2c3d 8ea7 46c0
00000350: 188e b5bc c9c2 7cbd 1e8f d43d 5da3 b8bf
00000360: 1532 64c0 f4be 663f 8f1c 7940 8404 04bd
00000370: 92e8 10c0 f237 d5bd 6390 153d b8b8 22bd
00000380: dafb aebe d89d 263e e773 653e 73a9 09c0
00000390: 9d1f 0cc0 5185 f6bf 38ca cc3e d908 82be
000003a0: ea66 1140 64fe d4bf badf a2be a41b 603e
000003b0: 6fe4 063f 14b7 1c3f b50b 69be 478c bdbe
000003c0: f767 57be a67e 96be d29b 863e 7a4e d1bf
000003d0: c11d cebe bbf6 d1be aeb2 6d3e 98c3 cfbf
000003e0: 4ed4 06c0 9345 123f 93f3 1f40 8299 ffbd
000003f0: e85d 0ec0 2283 94be db37 b53e dca3 26be

lstm.weight_hh_l1 f4 [128, 32]
-0.16936721 0.16456772 0.07494713 0.059671 -0.15889677 -0.045664296 0.11870442 0.1535907
-0.17572759 0.17124937 -0.11661887 0.028509513 0.03700961 -0.09721845 0.043006957 0.05584331
-0.040326 -0.048613265 -0.13745192 0.13208444 -0.15447551 -0.12282239 -0.0121269375 -0.13052332
0.12139298 0.012280449 -0.16415162 0.112737074 -0.08837707 0.0073610693 -0.009987101 -0.047499433
0.03956729 0.06592928 0.15495853 0.021448866 0.10957216 -0.06369809 0.10020955 -0.037030265
0.06844349 0.11784585 0.0326142 0.0019295663 0.0077025443 -0.049505606 -0.069795646 0.091876104
0.15139006 -0.060716793 -0.16271184 0.06889206 0.1159396 -0.10788807 0.0077781975 0.05810772
0.14317451 0.12594078 0.17028935 -0.018365383 0.09104757 -0.12198742 0.08114077 -0.03435278
-0.16721562 0.14681308 0.12693106 0.00010329485 -0.11398008 -0.12020531 -0.15711936 -0.023672849
0.060955405 0.07933079 0.11028166 0.01703611 -0.14265865 -0.064831674 0.11927028 0.079614714
-0.16266018 0.118470296 0.109052286 -0.04628837 0.09112196 -0.1475967 -0.1033309 -0.10343498
-0.120216385 0.0015569627 -0.09997179 0.0048807263 -0.13227826 0.08418764 0.061885208 -0.14235714
0.15899266 0.15379043 0.020344943 -0.13718945 -0.07913113 -0.14556687 -0.03008221 0.12119155
0.08902486 -0.14930333 -0.13891199 -0.0063863844 -0.027150154 0.07277374 -0.09863553 0.09876035
-0.16385695 0.00946483 0.16132112 -0.10103196 -0.16587788 0.068602994 0.07462834 -0.028912365
0.17048074 0.041758403 0.090816006 0.09352945 -0.13156986 0.12738092 0.14767416 0.173395
0.14765893 -0.034590304 0.08798556 0.09894736 -0.002704367 -0.13745122 -0.043869182 0.116068766
-0.14661907 -0.16548511 0.04097329 -0.016225338 0.10048373 0.11925821 0.022173792 -0.10228913
0.090641215 0.037166208 0.0036610365 -0.053439148 0.021983907 -0.018163875 0.052671313 -0.06815
-0.045495197 0.13333584 -0.17173958 -0.0130598545 0.117976114 0.06940183 0.019970506 -0.12402376
-0.019448683 0.0014977157 0.10592459 -0.117114395 0.10494615 0.15529864 -0.011650845 0.05379595
0.09367566 -0.17651525 -0.120202705 0.16784807 -0.12500875 0.13459809 0.0770513 -0.0031457543
-0.09396374 0.049487248 -0.034537256 -0.09857286 -0.0716905 0.126087 -0.11514662 -0.07846694
-0.13099653 -0.04113479 0.16760923 0.15642227 -0.17059194 0.16351737 0.03166938 -0.060597308
-0.049549818 -0.17640102 -0.14781386 0.059916064 0.08483808 -0.14524512 0.13790451 0.10399933
0.060034648 -0.086852364 -0.12796514 -0.13929725 -0.02888818 0.0018206388 -0.08409468 -0.066365756
0.05319211 -0.018934622 -0.10690255 0.15318172 0.14548607 0.064915076 -0.010247812 -0.16241497
0.03434208 0.08042635 -0.124538645 0.14283629 -0.1735655 0.02963227 0.02583623 -0.15492448
0.1618992 -0.060693234 0.17648007 0.030202404 -0.10241151 -0.093730375 0.03369938 0.10761334
-0.098128796 0.13743033 -0.026061714 -0.030798808 0.028773785 -0.16589493 -0.029759511 -0.12251625
0.029614225 0.16858445 0.055250823 -0.083860636 0.17122863 -0.15104528 -0.05702517 0.06349395
0.005745843 -0.053193137 -0.076490015 0.13218902 0.07171309 -0.14314522 -0.12025646 -0.008418724
00000000: 996e 2dbe 7184 283e e27d 993d 9469 743d
00000010: d6b5 22be 7c0a 3bbd 4e1b f33d e146 1d3e
00000020: eff1 33be ff5b 2f3e e0d5 eebd c88c e93c
00000030: 6497 173d 771a c7bd 1028 303d f4bb 643d
00000040: e02c 25bd b41e 47bd 32c0 0cbe 2541 073e
00000050: d42e 1ebe 4e8a fbbd 10b0 46bc e8a7 05be
00000060: e29c f83d f033 493c 5d17 28be b2e2 e63d
00000070: 0aff b4bd 2035 f13b f0a0 23bc c48e 42bd
00000080: 5011 223d ee05 873d 73ad 1e3e 88b5 af3c
00000090: 5e67 e03d 2574 82bd aa3a cd3d 0cad 17bd
000000a0: 1a2c 8c3d 2a59 f13d 7896 053d 80e9 fc3a
000000b0: a065 fc3b 64c6 4abd 05f1 8ebd 8a29 bc3d
000000c0: ff05 1b3e 2cb2 78bd ef9d 26be 4817 8d3d
000000d0: be71 ed3d 6cf4 dcbd 40e0 fe3b 5c02 6e3d
000000e0: 579c 123e 9ff6 003e 5560 2e3e 0073 96bc
000000f0: 2677 ba3d 8ad4 f9bd 222d a63d 80b5 0cbd
00000100: 923a 2bbe 2b56 163e 37fa 013e 00a0 d838
00000110: 636e e9bd 342e f6bd e6e3 20be 90ed c1bc
00000120: 60ac 793d 2e78 a23d 5adb e13d 508f 8b3c
00000130: 1c15 12be 78c6 84bd fa43 f43d 0a0d a33d
00000140: 6490 26be 8ea0 f23d ce56 df3d e098 3dbd
00000150: 269e ba3d 9723 17be 279f d3bd b8d5 d3bd
00000160: 0234 f6bd 0013 cc3a 03be ccbd 80ee 9f3b
00000170: f473 07be 926a ac3d 587b 7d3d 12c6 11be
00000180: f9ce 223e 3d7b 1d3e 70aa a63c 647b 0cbe
00000190: 800f a2bd 7b0f 15be f86e f6bc 4633 f83d
000001a0: aa52 b63d f9e2 18be f23e 0ebe e044 d1bb
000001b0: 006a debc 660a 953d 6d01 cabd de42 ca3d
000001c0: 1eca 27be 6012 1b3c 5d31 253e d8e9 cebd
000001d0: e4db 29be ba7f 8c3d bed6 983d a0d9 ecbc
000001e0: 8192 2e3e dc0a 2b3d befd b93d 5e8c bf3d
000001f0: 40ba 06be 2570 023e e537 173e 758e 313e
00000200: e733 173e 90ae 0dbd c631 b43d eaa4 ca3d
00000210: c03b 31bb 03c0 0cbe 2cb0 33bd 76b5 ed3d
00000220: 4f23 16be ee74 29be 9cd3 273d 00eb 84bc
00000230: 6aca cd3d a63d f43d d0a5 b53c f77c d1bd
00000240: 1aa2 b93d 983b 183d 00ee 6f3b 02e3 5abd
00000250: 9817 b43c 68cc 94bc e0bd 573d 3a92 8bbd
00000260: 2c59 3abd 3189 083e 80dc 2fbe 00f9 55bc
00000270: 769d f13d 8c22 8e3d 3099 a33c 2b00 febd
00000280: d852 9fbc 004f c43a feee d83d acd9 efbd
00000290: 02ee d63d 9b06 1f3e 30e3 3ebc 2459 5c3d
000002a0: 06d9 bf3d 6ac0 34be d62c f6bd 5de0 2b3e
000002b0: 4b02 00be 15d4 093e 12cd 9d3d 0029 4ebb
000002c0: 1070 c0bd 24b3 4a3d f076 0dbd 91e0 c9bd
000002d0: 78d2 92bd f31c 013e fed1 ebbd 46b3 a0bd
000002e0: f423 06be f47c 28bd c1a1 2b3e 292d 203e
000002f0: a7af 2ebe 1971 273e c0b7 013d e234 78bd
00000300: c0f4 4abd 78a2 34be 845c 17be 8c6a 753d
00000310: 96bf ad3d 23bb 14be d736 0d3e 9afd d43d
00000320: e4e6 753d a7df b1bd 4b09 03be f0a3 0ebe
00000330: e8a6 ecbc 80a2 ee3a d539 acbd c5ea 87bd
00000340: f8df 593d c81c 9bbc b9ef dabd abdb 1c3e
00000350: 4dfa 143e 32f2 843d 70e6 27bc 1c50 26be
00000360: 48aa 0c3d 92b6 a43d 1e0e ffbd ad43 123e
00000370: 28bb 31be 60bf f23c 80a6 d33c 86a4 1ebe
00000380: e7c8 253e 7899 78bd 31b7 343e 086b f73c
00000390: 20bd d1bd b6f5 bfbd 5c08 0a3d 6264 dc3d
000003a0: c0f7 c8bd 89ba 0c3e 607f d5bc c84d fcbc
000003b0: 00b7 eb3c 5ce0 29be 38ca f3bc cde9 fabd
000003c0: 8899 f23c 67a1 2c3e b04e 623d 20bf abbd
000003d0: 8f56 2f3e 9dab 1abe 3a93 69bd 1e09 823d
000003e0: a047 bc3b 0ce1 59bd cca6 9cbd 8f5c 073e
000003f0: 50de 923d a994 12be 0549 f6bd b0ee 09bc

lstm.bias_ih_l1 f4 [128]
-0.12934662 -0.6496025 -0.74956477 -0.64960295 -0.258178 -0.6561714 -0.16697612 -0.3360517
0.22122808 -0.80639815 -0.89873296 -0.7983526 0.15540113 -0.3919719 -0.1848082 -0.6756392
0.05586243 -0.6768462 0.328566 -0.27942207 -0.54054165 -0.6960993 -0.29048514 0.049917817
-0.8133544 -0.22175698 -0.90127456 -0.17273867 -1.0070838 -0.6192945 -0.41289547 -0.5127687
-0.06288581 0.021512136 0.04493752 0.16677465 -0.111988895 -0.12101003 -0.106968425 -0.11189767
-0.13764769 0.026155382 -0.041177392 -0.02573052 -0.08722166 -0.045491725 -0.092715986 0.025419354
-0.16093972 -0.07893009 -0.08051837 0.15464221 -0.11532122 -0.1460826 -0.08277999 -0.13969244
-0.031805396 -0.080539845 -0.058860183 -0.031041786 0.11974339 -0.16409306 0.16412093 -0.02759175
-0.061994884 -0.03352104 -0.08535934 0.0034933377 -0.06635397 0.11558264 -0.16343041 -0.15381414
0.14194424 0.30817842 0.06382445 -0.14658426 -0.036836766 -0.13915597 -0.24381869 -0.04268229
0.046026956 0.013964133 0.022178689 -0.017459244 -0.0024050223 0.03968023 0.050564457 -0.09525715
-0.032830417 -0.018093836 -0.08111948 0.068479285 -0.070161365 -0.0373261 -0.093580924 -0.01657958
-0.046023086 -0.84549624 -0.59772074 -0.62211865 0.016587708 -0.68426144 0.059496142 -1.5296748
0.7079886 -0.59679115 -0.93477947 -0.76895803 0.445068 -0.7627636 -0.030773763 -0.6359712
1.1372757 -0.8406053 0.37984514 -0.041428152 -0.42778108 -0.59494317 -0.12133413 0.57865775
-0.7267701 -0.66301346 -0.7329905 -1.113417 -0.99751306 -0.51393735 -0.1755962 -0.5319429
00000000: 7173 04be 594c 26bf 7ae3 3fbf 614c 26bf
00000010: e82f 84be d9fa 27bf cafb 2abe f80e acbe
00000020: 9d89 623e 1c70 4ebf 5d13 66bf d660 4cbf
00000030: 7921 1f3e 8ab0 c8be 5c3e 3dbe b1f6 2cbf
00000040: 01d0 643d cb45 2dbf ce39 a83e 6910 8fbe
00000050: f060 0abf 9033 32bf 78ba 94be a076 4c3d
00000060: fe37 50bf 4314 63be eeb9 66bf 68e2 30be
00000070: 1fe8 80bf 168a 1ebf 0967 d3be cf44 03bf
00000080: 47ca 80bd 383a b03c 6810 383d f9c6 2a3e
00000090: 6f5a e5bd 1bd4 f7bd 4312 dbbd 9b2a e5bd
000000a0: 84f3 0cbe d043 d63c a0a9 28bd d0c8 d2bc
000000b0: 45a1 b2bd 8855 3abd e1e1 bdbd 403c d03c
000000c0: 62cd 24be 19a6 a1bd d1e6 a4bd 875a 1e3e
000000d0: 882d ecbd ad96 15be 8e88 a9bd 890b 0fbe
000000e0: 6046 02bd 13f2 a4bd 6017 71bd 584b febc
000000f0: 063c f53d 0308 28be 510f 283e 1808 e2bc
00000100: 59ee 7dbd 5c4d 09bd e1d0 aebd 7bf0 643b
00000110: 97e4 87bd 97b6 ec3d 4d5a 27be 7481 1dbe
00000120: d559 113e 90c9 9d3e 65b6 823d 2f1a 16be
00000130: 26e2 16bd e77e 0ebe 9bab 79be a0d3 2ebd
00000140: c386 3c3d d2c9 643c 15b0 b53c b006 8fbc
00000150: 949d 1dbb bd87 223d ad1c 4f3d 2e16 c3bd
00000160: 3079 06bd 8639 94bc f821 a6bd de3e 8c3d
00000170: c3b0 8fbd 41e3 18bd 5ba7 bfbd e6d1 87bc
00000180: b482 3cbd 7172 58bf 3a04 19bf 2b43 1fbf
00000190: f2e2 873c c22b 2fbf 3ab2 733d 62cc c3bf
000001a0: be3e 353f 4ec7 18bf b54d 6fbf 6fda 44bf
000001b0: f4df e33e 7a44 43bf 4219 fcbc 02cf 22bf
000001c0: 4092 913f e931 57bf 107b c23e 91b0 29bd
000001d0: 1f06 dbbe 324e 18bf 077e f8bd ea22 143f
000001e0: 9b0d 3abf 40bb 29bf 44a5 3bbf 7384 8ebf
000001f0: 045d 7fbf 6691 03bf 7ecf 33be 692d 08bf

lstm.bias_hh_l1 f4 [128]
-0.1168663 -0.7746326 -0.64894027 -0.66099507 -0.079651 -0.99295115 0.0019947018 -0.20887686
0.1120948 -0.687942 -0.79334414 -0.7861585 0.026090749 -0.59350204 -0.27468163 -0.6097011
0.09287931 -0.48653382 0.101689875 -0.12435215 -0.4496495 -0.69901264 -0.1306978 -0.0035062134
-0.9024984 -0.22464857 -0.7907602 -0.28194934 -1.1471527 -0.4240807 -0.33943003 -0.8381148
-0.0154245645 -0.021973804 -0.09628551 0.05375892 -0.090646535 -0.04928772 -0.10654217 0.13924919
-0.12200969 0.14197163 0.11883326 -0.16853753 0.022306457 -0.0021835864 0.07158649 -0.03524968
0.10579996 0.14302082 0.15178446 -0.02820827 0.08336173 0.12533481 -0.08212806 -0.11313609
-0.01827909 -0.027329475 0.07613592 -0.09909274 -0.04885912 0.0012556314 0.13431193 -0.092152104
-0.3473791 0.021552708 0.10454786 -0.024227953 0.06255156 -0.09337619 -0.0034599432 0.06135558
-0.12652473 0.17059764 -0.038692653 0.16111718 0.036382426 0.065553494 0.019324394 0.088226244
-0.0095724715 -0.020755466 -0.03520287 0.022967437 -0.008047237 -0.03590035 0.00020266758 0.094599135
0.0053058965 -0.3331872 0.056954563 0.047778495 -0.022562357 0.14847831 0.053771317 -0.002744147
-0.071211204 -0.7261091 -0.40977308 -0.78279215 0.104950055 -0.92044955 -0.14663807 -1.4730304
0.44041708 -0.5588992 -0.667034 -0.69009584 0.51676536 -0.70782083 0.0032730466 -0.66039705
1.1763872 -0.7153373 0.2283834 -0.044582307 -0.43329585 -0.54886466 0.006856764 0.39814907
-0.85443056 -0.63266575 -0.60843086 -0.875792 -0.8608358 -0.8057755 -0.4022444 -0.5990322
00000000: 9957 efbd 524e 46bf f320 26bf f936 29bf
00000010: 1020 a3bd 0c32 7ebf 8bb9 023b d1e3 55be
00000020: f591 e53d f81c 30bf 9a18 4bbf af41 49bf
00000030: 44bc d53c c0ef 17bf 12a3 8cbe 5f15 1cbf
00000040: 8237 be3d f61a f9be c842 d03d 57ac febd
00000050: 7638 e6be 7ef2 32bf a5d5 05be 80c8 65bb
00000060: 230a 67bf 460a 66be 436f 4abf aa5b 90be
00000070: e6d5 92bf 1b21 d9be c6c9 adbe b18e 56bf
00000080: 50b7 7cbc 6802 b4bc 5631 c5bd 5032 5c3d
00000090: e4a4 b9bd ece1 49bd c832 dabd 5797 0e3e
000000a0: 37e0 f9bd 0361 113e da5e f33d 1a95 2cbe
000000b0: 08bc b63c 801a 0fbb f09b 923d f861 10bd
000000c0: a6ad d83d 0d74 123e 636d 1b3e 0815 e7bc
000000d0: 8eb9 aa3d c557 003e c232 a8bd e5b3 e7bd
000000e0: 08be 95bc 10e2 dfbc 26ed 9b3d 22f1 cabd
000000f0: 8020 48bd 0094 a43a 1189 093e 3eba bcbd
00000100: acdb b1be 4e8f b03c 301d d63d b379 c6bc
00000110: 081b 803d 043c bfbd 37c0 62bb fd4f 7b3d
00000120: b38f 01be 26b1 2e3e 307c 1ebd e7fb 243e
00000130: bd05 153d e940 863d 314e 9e3c f6af b43d
00000140: dbd5 1cbc 5e07 aabc e230 10bd 3526 bc3c
00000150: 8fd8 03bc 3f0c 13bd 2a83 5439 31bd c13d
00000160: 16dd ad3b 8397 aabe 3049 693d 62b3 433d
00000170: b1d4 b8bc b30a 183e 503f 5c3d 26d7 33bb
00000180: 2ed7 91bd 49e2 39bf c7cd d1be 1165 48bf
00000190: 0ef0 d63d 95a2 6bbf 4a28 16be 438c bcbf
000001a0: 597e e13e 0514 0fbf bdc2 2abf 1faa 30bf
000001b0: bc4a 043f bf33 35bf 9c80 563b c80f 29bf
000001c0: db93 963f 5820 37bf 57dd 693e f09b 36bd
000001d0: f4d8 ddbe 6582 0cbf b5ae e03b 32da cb3e
000001e0: f6bb 5abf 62f6 21bf 20c2 1bbf e833 60bf
000001f0: bc5f 5cbf 4e47 4ebf faf2 cdbe 2d5a 19bf

lstm.weight_ih_l2 f4 [128, 32]
-0.90185595 1.4602873 -0.07280875 0.30768853 0.46435994 -0.33999607 1.040334 -0.2452894
-1.7959592 0.06076476 -1.7332258 -1.5320492 0.22919299 0.762071 -0.93555367 -0.088402934
0.1266696 -0.47359222 1.1766367 -0.7415114 0.5771126 -1.3288324 1.647918 0.30797216
0.94539636 -0.20987196 0.3863661 0.99586606 0.6674642 -2.3926485 -1.9597701 0.57187784
-0.43995386 0.03479178 -0.03676456 0.097447075 -0.007236273 0.024526864 -0.5205204 -1.3983176
0.76236695 0.31188565 0.006060487 -0.07268186 -0.044280183 -1.3229651 -0.72724074 0.2198572
-0.17853981 0.28679442 -0.15830418 -0.123178795 0.039727136 -0.057984836 0.5130754 -0.025664162
0.0764812 -0.36791888 0.05633248 1.2818274 -0.6236025 1.1111441 -1.3032341 0.11769984
7.4252253 -0.45121548 -12.695626 0.399317 3.5834017 -0.18509497 5.433329 -3.0911527
-4.1902966 -7.95132 0.42066363 0.4425127 12.770057 4.5576415 3.6607704 -7.9594836
12.986317 -0.12012985 6.227611 -2.4818738 1.0325154 -0.11067357 -5.8288975 10.768928
-0.26122168 8.307536 0.36506128 3.4142656 -2.8576243 -5.4626627 5.5697308 -0.2977853
0.5629565 0.21457879 -0.8678974 -0.0967966 1.7910186 -0.07785765 0.7066914 -1.6904098
-1.5307896 -0.63922375 -0.3728272 -0.16619547 1.1544635 4.1300287 -0.48471835 -0.7098119
0.28021342 0.40918538 1.0562882 -1.2469406 1.5200133 -4.963064 -0.14668365 0.9075512
-0.25039363 0.3607131 -0.33988032 1.3032761 -0.18438117 0.3605925 -1.3151383 -0.27026564
-0.19280611 1.877453 0.056878526 0.262715 0.35522017 -0.3164696 -1.1220264 -1.6748627
-1.7040762 0.104159325 -2.3194897 -1.9925814 0.60624456 1.8628415 -1.3873591 0.19348663
-0.1573524 -0.3955659 0.7794213 -0.71401703 0.5411586 -1.624764 0.6183132 0.77358115
1.1026192 -0.16416952 0.314784 0.2115371 0.23562221 -0.6585194 0.43935388 0.55827606
0.35621843 0.42167264 -1.9596603 1.005515 3.9862564 0.3189824 0.7021871 -4.364452
-1.3838488 -0.91105795 -0.7001336 -0.33337075 2.1196468 1.8185743 1.8521603 -1.0412791
3.866365 0.24535419 0.82848364 -2.6327224 2.6369998 -1.8304912 -4.984551 2.74438
0.3673328 0.9810806 0.024840737 4.185831 -4.7170863 -2.2279935 1.3515232 0.9700068
1.5438303 7.62438 -5.270885 7.980457 4.7838755 -8.663896 0.96210086 -1.3340698
-1.4032294 -4.7296915 -8.737341 -8.579378 5.3515935 1.8738319 3.316546 -3.4798203
3.232006 -1.4976768 0.8873222 -4.4995685 6.8445206 -8.044957 -0.7867948 4.063597
8.307361 3.672359 8.0645485 1.7833066 -0.3774119 -1.4195337 3.15057 7.7465363
3.9872558 10.626246 -5.2851353 9.19188 2.852354 -9.743933 4.4317446 -0.15850483
-4.1247067 -7.4463425 -10.94654 -11.811938 3.1824334 4.943817 3.2412 -4.282035
4.3227196 -3.3004594 2.7711935 -3.160637 8.078134 -11.002153 -4.2043858 1.584593
10.365625 6.6257243 9.31751 3.2458372 -2.6969914 -6.2970243 4.4569373 8.710802
00000000: 08e0 66bf b2ea ba3f c11c 95bd 5a89 9d3e
00000010: 96c0 ed3e f713 aebe aa29 853f 252d 7bbe
00000020: fee1 e5bf 78e4 783d 58da ddbf 301a c4bf
00000030: 91b1 6a3e 1617 433f 7280 6fbf 990c b5bd
00000040: adb5 013e ae7a f2be 089c 963f b1d3 3dbf
00000050: a7bd 133f 2e17 aabf faee d23f 87ae 9d3e
00000060: 7f05 723f ade8 56be c7d1 c53e 14f1 7e3f
00000070: efde 2a3f 2721 19c0 bfd9 fabf 9666 123f
00000080: a241 e1be d381 0e3d 6f96 16bd 5592 c73d
00000090: 421e edbb 90ec c83c d340 05bf 12fc b2bf
000000a0: 7b2a 433f 7aaf 9f3e 0d97 c63b 3ada 94bd
000000b0: 235f 35bd ec56 a9bf 732c 3abf 3f22 613e
000000c0: 24d3 36be b8d6 923e 7e1a 22be 2a45 fcbd
000000d0: ecb8 223d 8281 6dbd e958 033f a63d d2bc
000000e0: 2da2 9c3d dd5f bcbe e3bc 663d ec12 a43f
000000f0: 6aa4 1fbf f839 8e3f 60d0 a6bf 9d0c f13d
00000100: 729b ed40 b705 e7be 4921 4bc1 4773 cc3e
00000110: 7456 6540 8989 3dbe d5dd ad40 72d5 45c0
00000120: e916 86c0 3771 fec0 3961 d73e 0691 e23e
00000130: 2752 4c41 33d8 9140 104a 6a40 17b4 fec0
00000140: f4c7 4f41 a406 f6bd 9748 c740 05d7 1ec0
00000150: 7729 843f d3a8 e2bd 5486 bac0 874d 2c41
00000160: d9be 85be abeb 0441 50e9 ba3e 5483 5a40
00000170: 51e3 36c0 22ce aec0 3c3b b240 5177 98be
00000180: eb1d 103f 8bba 5b3e 862e 5ebf 4c3d c6bd
00000190: 1940 e53f d573 9fbd bae9 343f 595f d8bf
000001a0: eaf0 c3bf 2ba4 23bf 35e3 bebe 252f 2abe
000001b0: 76c5 933f 3229 8440 012d f8be 3cb6 35bf
000001c0: 2278 8f3e bf80 d13e 7434 873f c09b 9fbf
000001d0: cc8f c23f 6cd1 9ec0 3d34 16be 4755 683f
000001e0: 9833 80be 63af b83e cb04 aebe c0d1 a63f
000001f0: 6bce 3cbe 959f b83e 7456 a8bf 4260 8abe
00000200: f76e 45be 6150 f03f 75f9 683d 9582 863e
00000210: 6bdf b53e 4e08 a2be 909e 8fbf e761 d6bf
00000220: 2b1f dabf 7c51 d53d 8572 14c0 e80c ffbf
00000230: d832 1b3f 9771 ee3f fc94 b1bf 5c21 463e
00000240: fd20 21be 9d87 cabe 2888 473f d2c9 36bf
00000250: 5f89 0a3f 44f8 cfbf c649 1e3f 6a09 463f
00000260: a022 8d3f 0e1c 28be 5e2b a13e 2e9d 583e
00000270: f346 713e ba94 28bf fef2 e03e 2eeb 0e3f
00000280: 4362 b63e 7ae5 d73e 26d6 fabf b7b4 803f
00000290: d31e 7f40 a951 a33e 89c2 333f 97a9 8bc0
000002a0: f521 b1bf 183b 69bf f53b 33bf 92af aabe
000002b0: 4ba8 0740 0bc7 e83f 9713 ed3f a248 85bf
000002c0: 8672 7740 213e 7b3e 8117 543f 867e 28c0
000002d0: 9bc4 2840 894d eabf 7181 9fc0 eca3 2f40
000002e0: 0b13 bc3e 1928 7b3f cd7e cb3c 54f2 8540
000002f0: 5ff2 96c0 7297 0ec0 b6fe ac3f 5e52 783f
00000300: 3b9c c53f ecfa f340 17ab a8c0 e75f ff40
00000310: 8215 9940 519f 0ac1 3e4c 763f cdc2 aabf
00000320: 059d b3bf a259 97c0 26cc 0bc1 2245 09c1
00000330: 4140 ab40 b9d9 ef3f 4a42 5440 60b5 5ec0
00000340: 30d9 4e40 e0b3 bfbf 8c27 633f 77fc 8fc0
00000350: 5006 db40 25b8 00c1 626b 49bf fd08 8240
00000360: f3ea 0441 ee07 6b40 6408 0141 6443 e43f
00000370: 223c c1be 48b3 b5bf f0a2 4940 a0e3 f740
00000380: 332f 7f40 1b05 2a41 d41f a9c0 f111 1341
00000390: f88c 3640 26e7 1bc1 dad0 8d40 174f 22be
000003a0: 99fd 83c0 7048 eec0 0725 2fc1 b3fd 3cc1
000003b0: fdac 4b40 c033 9e40 d26f 4f40 6e06 89c0
000003c0: b853 8a40 ba3a 53c0 3c5b 3140 e047 4ac0
000003d0: 0940 0141 d208 30c1 548a 86c0 f2d3 ca3f
000003e0: 9ad9 2541 ef05 d440 8514 1541 ccbb 4f40
000003f0: 829b 2cc0 3981 c9c0 3b9f 8e40 725f 0b41

lstm.weight_hh_l2 f4 [128, 32]
-0.051970705 -0.15049785 0.13995577 -0.14113452 0.09107734 -0.022959664 -0.052003898 -0.044376284
-0.026292041 -0.12324716 -0.16190621 0.14084817 0.16076092 -0.0719771 0.093380556 0.099181846
0.1324717 -0.043173164 -0.04228878 -0.047030658 -0.08780455 0.05272354 0.040157557 0.14024808
-0.15645581 0.036325037 0.16411273 -0.1390482 -0.051765054 0.03592351 5.941093e-05 -0.04686998
-0.020235837 0.09723084 0.13955502 0.14014454 -0.022338256 -0.005427927 -0.023921385 -0.15045348
-0.13385685 -0.17068279 0.06726742 0.17157681 0.15049376 -0.04093367 0.15285362 0.077170596
-0.16696608 -0.06568911 0.081438646 -0.1625818 0.15239103 0.10077368 0.02653879 -0.1195154
0.053640336 0.052529916 -0.0005888492 0.044568896 0.017078921 0.09381546 0.114036664 -0.11747049
-0.0015685409 0.120067045 0.029232904 -0.086070605 0.099522516 -0.028835565 -0.1736858 -0.06708173
0.075348094 0.13015349 -0.09220508 0.1622174 0.14317866 -0.10808833 0.1604224 -0.15841046
0.122438625 -0.07789167 -0.052279137 -0.15000564 0.09875922 0.12546937 0.08003093 0.122969314
-0.11013582 0.012738511 0.12014438 -0.038042307 0.03987193 -0.1139236 0.016053066 -0.103284456
0.08596124 0.07030876 -0.122500636 -0.09925304 0.12357952 -0.011525795 -0.11011313 -0.0024401098
0.10043244 0.12817462 0.01786898 0.14270823 0.118492916 0.07959999 -0.13895524 -0.0355919
-0.03414288 -0.007257521 -0.121526286 -0.012996763 -0.058678232 -0.13969225 -0.12658472 0.042589366
-0.12955458 -0.041194946 -0.14458044 -0.148794 -0.121564195 -0.048702583 0.13543518 0.05855605
-0.06510407 -0.12991956 -0.021581307 0.13164066 0.09388487 0.14478867 0.06431289 -0.028808638
-0.052620173 -0.05654259 -0.04956086 0.09449197 -0.05215375 -0.02150537 0.15541278 -0.015984893
-0.10118786 -0.060230985 -0.06225439 -0.13950196 0.1632355 0.16150044 -0.09608727 0.14415021
0.17185406 0.025481865 -0.17125382 -0.10263183 -0.08730589 -0.1237165 0.026068166 0.1469797
0.012954891 -0.14692672 0.11757775 0.09544949 0.12283935 -0.037844956 -0.089536384 0.15591882
-0.008080587 -0.045657575 -0.033680305 0.123940215 0.12236343 0.017370269 -0.11455931 -0.06757444
-0.0014438629 -0.038318247 -0.11153938 -0.11570452 -0.005581543 -0.09408287 0.015834257 -0.05354715
0.08056991 0.014495686 0.042321444 0.088752285 0.17539631 0.011423349 0.043431804 0.070676014
0.015061423 -0.007395819 0.15115999 -0.13871297 0.05936949 -0.16920798 -0.0019401014 -0.023290798
0.027685463 -0.04005839 0.09231515 0.15854101 0.12032695 0.061281964 0.07095972 0.059052095
-0.051059574 -0.107185274 0.16516523 -0.12615635 0.07573344 0.030563042 -0.08373828 0.012948066
0.10326685 0.1561759 -0.11106291 0.12854905 -0.16632636 -0.1351505 -0.07960579 0.16455443
0.12791403 0.05652377 -0.13377564 -0.03453268 0.105496034 -0.07907073 0.17015396 0.03155853
0.094540074 0.095470354 0.03520161 -0.0636402 0.01771611 0.042252302 -0.006553471 0.078614935
0.078078434 0.15613823 -0.108875655 0.13873462 0.10697813 -0.101328544 -0.06770164 0.06396462
0.16900046 -0.0330441 -0.14789149 -0.0065957755 0.031369984 0.05758494 -0.055476822 -0.12646398
00000000: 3cdf 54bd 1c1c 1abe 9150 0f3e 9185 10be
00000010: c286 ba3d e815 bcbc 0a02 55bd e8c3 35bd
00000020: 6862 d7bc 0269 fcbd beca 25be 813a 103e
00000030: 839e 243e bb68 93bd 4e3e bf3d da1f cb3d
00000040: a9a6 073e 58d6 30bd 0037 2dbd 38a3 40bd
00000050: dfd2 b3bd a4f4 573d 407c 243d 319d 0f3e
00000060: f435 20be 90c9 143d 2b0d 283e a762 0ebe
00000070: 9807 54bd 8824 133d 0030 7938 bcfa 3fbd
00000080: a0c5 a5bc f620 c73d 83e7 0e3e 0d82 0f3e
00000090: b8fe b6bc c0dc b1bb c8f6 c3bc 7a10 1abe
000000a0: c511 09be 78c7 2ebe 80c3 893d d5b1 2f3e
000000b0: 091b 1a3e 10aa 27bd a985 1c3e 9e0b 9e3d
000000c0: 28f9 2abe 0388 86bd 4ec9 a63d d87b 26be
000000d0: 650c 1c3e 6e62 ce3d e067 d93c 7dc4 f4bd
000000e0: f8b5 5b3d 9c29 573d 005d 1aba e08d 363d
000000f0: 18e9 8b3c 5222 c03d 0e8c e93d 5e94 f0bd
00000100: 8097 cdba b6e5 f53d d879 ef3c c945 b0bd
00000110: 76d2 cb3d 9038 ecbc b1da 31be 2562 89bd
00000120: 1a50 9a3d f546 053e 04d6 bcbd 511c 263e
00000130: 6d9d 123e 6a5d ddbd c545 243e 5a36 22be
00000140: 1ac1 fa3d ab85 9fbd a622 56bd 149b 19be
00000150: 4642 ca3d 0b7b 003e 42e7 a33d 56d7 fb3d
00000160: e48e e1bd 30b5 503c 420e f63d 40d2 1bbd
00000170: c050 233d c750 e9bd b881 833c cd86 d3bd
00000180: 720c b03d 0afe 8f3d 9de1 fabd 2e45 cbbd
00000190: 4217 fd3d b0d6 3cbc fe82 e1bd 40ea 1fbb
000001a0: 86af cd3d 3540 033e f861 923c 1b22 123e
000001b0: 6aac f23d 5205 a33d 484a 0ebe d0c8 11bd
000001c0: 68d9 0bbd 80d0 edbb c6e2 f8bd 60f0 54bc
000001d0: 9658 70bd 7c0b 0fbe 6d9f 01be 3072 2e3d
000001e0: f5a9 04be 08bc 28bd e50c 14be 745d 18be
000001f0: a6f6 f8bd 5c7c 47bd 85af 0a3e 78d8 6f3d
00000200: 4855 85bd a209 05be 48cb b0bc cfcc 063e
00000210: b646 c03d 7b43 143e 7ab6 833d 1800 ecbc
00000220: 4088 57bd 3499 67bd 5400 4bbd 0285 c13d
00000230: 2c9f 55bd 082c b0bc 8724 1f3e c0f2 82bc
00000240: 953b cfbd c4b4 76bd 76fe 7ebd 9ad9 0ebe
00000250: 3527 273e 5f60 253e 67c9 c4bd 1d9c 133e
00000260: 83fa 2f3e 58bf d03c 295d 2fbe a330 d2bd
00000270: 6ecd b2bd 145f fdbd e88c d53c d981 163e
00000280: c040 543c f573 16be 9acc f03d 067b c33d
00000290: 3293 fb3d 5003 1bbd da5e b7bd 2fa9 1f3e
000002a0: 7064 04bc 7003 3bbd 5cf4 09bd 5ed4 fd3d
000002b0: ae99 fa3d 184c 8e3c 129e eabd 7864 8abd
000002c0: 0040 bdba 98f3 1cbd c26e e4bd 7ef6 ecbd
000002d0: 60e5 b6bb 85ae c0bd d8b6 813c 4254 5bbd
000002e0: d601 a53d 507f 6d3c 4059 2d3d c2c3 b53d
000002f0: 179b 333e 0029 3b3c 8ce5 313d 96be 903d
00000300: 30c4 763c a058 f2bb afc9 1a3e c60a 0ebe
00000310: 6c2d 733d db44 2dbe 004b feba 58cc bebc
00000320: a0cc e23c 4414 24bd ba0f bd3d 9358 223e
00000330: fa6d f63d cc02 7b3d 5453 913d 9ce0 713d
00000340: d823 51bd f483 dbbd 1321 293e 212f 01be
00000350: 221a 9b3d 585f fa3c fa7e abbd 2024 543c
00000360: 927d d33d 93ec 1f3e f374 e3bd 5da2 033e
00000370: 7551 2abe e564 0abe 5c08 a3bd f580 283e
00000380: e5fb 023e 7885 673d 7bfc 08be 2472 0dbd
00000390: 4e0e d83d d6ef a1bd d73c 2e3e 8443 013d
000003a0: 3a9e c13d f685 c33d 902f 103d cb55 82bd
000003b0: 6021 913c c010 2d3d 80be d6bb de00 a13d
000003c0: 96e7 9f3d b3e2 1f3e 33fa debd 7310 0e3e
000003d0: 5a17 db3d 5785 cfbd 28a7 8abd e2ff 823d
000003e0: 750e 2d3e 4059 07bd de70 17be 6021 d8bb
000003f0: d07d 003d 30de 6b3d aa3b 63bd c67f 01be
