model_150_13_32_64_8_1.pt (torch, 274180 bytes, 35 tensors)

lstm.weight_ih_l0 f4 [128, 13]
000000 3b ef 5a 3e 4a da 8b 3e 09 1c a7 3e 56 58 19 3e
       0.21380322 0.2731498 0.32638577 0.14975104
000010 4e 9c b3 bc a9 ba c4 3c 28 79 25 bd 2e a9 6a bc
       -0.021925118 0.024014788 -0.040398747 -0.014322562
000020 c9 ab b2 bc d8 fa 74 bd f0 60 e8 3d 7b b4 00 be
       -0.02181043 -0.059809536 0.11346614 -0.12568848
000030 f8 98 07 be 7d 1b 4e 3e ab a6 9f 3e c4 e5 47 3e
       -0.13241947 0.20127673 0.31181845 0.19521242
000040 e3 d2 86 3e aa 46 ee bd e2 62 2b 3d 2c a1 ac bc
       0.2633277 -0.11634572 0.04184235 -0.021072946
000050 d9 13 c0 bd 26 c3 0a bd 7f 47 6e bb 7c 62 ec bc
       -0.09378786 -0.033877514 -0.0036358533 -0.028855555
000060 bf f8 eb bc 80 cd 16 bc 63 e0 1f 3e 08 41 7a 3e
       -0.028805135 -0.009204268 0.1561294 0.2443887
000070 8a 3d c0 3e a1 5b 4b 3e d6 c1 b9 bd da cb ba 3d
       0.3754695 0.19859172 -0.090701744 0.09120913
000080 6e f4 63 bd 7a b1 49 bd c1 67 c1 bc 35 ca 08 bd
       -0.05565303 -0.04924152 -0.023609044 -0.033395965
000090 d1 76 72 3c c8 ca db bc 2f b2 85 bd 29 dc bb 3d
       0.014798836 -0.026830092 -0.065281264 0.091728516
0000a0 24 10 ab 3e 1c 39 b9 3e 6a da ba 3e 67 eb f9 3d
       0.33410752 0.36176383 0.36494762 0.122031026
0000b0 73 cf 1e be b2 c1 12 3e 4c e4 1f 3d cf 41 be 3d
       -0.15508823 0.14331701 0.03903608 0.09289896
0000c0 e3 70 1c be 11 6b 06 bd 81 ea 9c bd ef 5c 8c 3d
       -0.15277438 -0.03281695 -0.076619156 0.06853663
0000d0 68 51 ba 3e 29 1b af 3e 8e 44 e3 3d f5 87 3c 3e
       0.36390233 0.3420041 0.1109706 0.18411238
0000e0 b0 0b 3d bc a4 ee 89 3d 4d 74 81 bd 69 72 4c 3d
       -0.011538431 0.0673497 -0.06321011 0.049913798
0000f0 32 ec 0f 3d eb 09 a7 bd 46 7c 20 bc 2a b8 a5 3d
       0.035137363 -0.081561886 -0.009795254 0.08091767
000100 41 e5 f8 bb 86 fe b0 3e 5e 42 9d 3e ee 56 1a 3e
       -0.0075956886 0.34569186 0.30714697 0.15072224
000110 18 44 1f 3e c9 01 c8 bd a8 32 a8 bc d6 89 95 bd
       0.1555332 -0.097659655 -0.020531967 -0.07301681
000120 fa 26 2c 3d ca 89 c2 3a d9 a6 34 ba aa 81 eb 3d
       0.04202936 0.001484209 -0.00068913173 0.11499341
000130 82 3e 05 be 5c c7 fc bd 8a 3a 8c 3e 8c 6e b5 3e
       -0.13012126 -0.12342712 0.27388412 0.35435903
000140 07 0b 10 3e 8a 63 df 3d 84 67 9f bd e8 81 be 3d
       0.14066707 0.109076574 -0.07783416 0.093021214
000150 c8 50 82 3b db 76 9b 3d d8 d6 e5 bd 92 76 68 bd
       0.003976915 0.07591029 -0.11222619 -0.056753702
000160 cf a9 14 3d 81 1f d3 3d f4 f2 14 3e 98 de ab 3e
       0.036294755 0.10308743 0.14545804 0.33568263
000170 81 5d 42 3e da 65 a1 3e 44 85 db 3d c9 7c f2 3b
       0.18980981 0.3152302 0.10718778 0.0074001295
000180 2f 55 07 be 3f 5c af 3d 98 c4 88 3d aa 56 a6 3c
       -0.13216089 0.085625164 0.06678122 0.020304997
000190 65 d6 8c bb 91 37 84 3d d1 be 63 bd 20 c1 ee bd
       -0.0042980188 0.06455911 -0.0556019 -0.116579294
0001a0 27 8d a5 be 90 97 c9 be 3b 75 ed be e7 11 03 bf
       -0.32334253 -0.39373446 -0.46378502 -0.5119919
0001b0 42 c8 1a be c6 00 13 be dd c6 8a 3d 20 5a cf 3c
       -0.15115455 -0.14355764 0.067762114 0.02531153
0001c0 d6 cf 17 3d 34 b2 7c 3c 39 29 26 3c 53 c0 2f bd
       0.037063442 0.015423346 0.010141664 -0.042908024
0001d0 44 db 01 bd f7 d9 00 bf ba b3 d7 be 31 91 9d be
       -0.03170325 -0.5033259 -0.42129308 -0.30774835
0001e0 b0 9b c3 be 02 f9 44 bd 7f 0a b6 bd 10 2c 13 3e
       -0.38204718 -0.048089035 -0.08888721 0.14372277
0001f0 82 ee f9 3d f4 a8 4e bd 03 02 8b 3d fb 1a ca bd
       0.12203695 -0.050454095 0.06787493 -0.09868427
000200 d5 f8 48 bd 47 0a 98 bd 37 dc d7 3e bb 97 6f 3e
       -0.04906543 -0.07423835 0.42160198 0.23397724
000210 d9 a0 0f 3e 40 c6 fb 3d 5d ea 81 bd 44 ca 7c bd
       0.14026202 0.122936726 -0.063435294 -0.061716333
000220 37 b0 9a 3d 0c 99 73 bd 11 e5 17 bd b1 47 c0 bd
       0.075531416 -0.05947213 -0.03708369 -0.09388674
000230 f8 ad aa 3d d7 ab ce bc a6 ec 98 bd 22 97 33 3e
       0.08333963 -0.025228424 -0.07467012 0.17538121
000240 0c d5 88 3e 5a 95 6f 3e 7d a0 94 3e 9b 15 0c bc
       0.26725042 0.23396817 0.29028693 -0.008550073
000250 bc f2 23 3d d7 b0 c0 bd fd 30 86 bd 19 81 f4 bc
       0.04002641 -0.094087295 -0.065523125 -0.029846715
000260 9e 4b eb 3d 69 37 14 be 05 98 07 3e 57 88 a0 bd
       0.11489032 -0.14474262 0.13241585 -0.07838505
000270 98 2e 9f 3e d4 7d dd 3e f9 4a 99 3e 78 39 7a 3e
       0.31090236 0.43260062 0.29940012 0.24435985
000280 12 5d 14 bd 95 47 a4 3c b6 41 a8 bd d3 c5 82 bb
       -0.03622157 0.020053664 -0.08215658 -0.0039908676
000290 87 2d cb 3d 0a b5 11 3d bd 0d 65 3d db 88 29 3e
       0.09920793 0.035573043 0.055921305 0.16556112
0002a0 f5 65 aa 3d be ee 08 3f 69 10 17 3f 96 65 3a 3f
       0.08320228 0.5348929 0.59009415 0.7281126
0002b0 d4 21 1b 3f 5f 2e 03 3e 63 04 d1 bd dd eb 05 bd
       0.6059849 0.12810658 -0.10205915 -0.03269564
0002c0 10 1e 4a 3d f8 11 5a 3d f5 5d c8 bb a8 79 8a 3d
       0.049345076 0.053239793 -0.006114716 0.06761485
0002d0 42 28 a7 3d b7 6b 45 bd 53 74 73 3d 40 47 a7 3d
       0.081619754 -0.048198428 0.059437107 0.08167887
0002e0 42 92 ab 3e 82 54 de 3d e6 ad 2d bd ea d7 90 bc
       0.33510023 0.10855962 -0.04240217 -0.01768108
0002f0 9c b1 26 3d b6 ad 2d 3d 1f 2e 1e bd 8a 91 61 39
       0.040696725 0.04240199 -0.038618203 0.0002151189
000300 33 4c 0a 3d bc b5 26 bd 44 90 1a 3e 0e ef a0 3e
       0.033764075 -0.04070066 0.15094095 0.31432384
000310 bd c2 18 3e f2 3f cf 3e 96 1e 2f 3e 99 33 18 bb
       0.14918037 0.40478474 0.17101511 -0.0023224114
000320 16 82 b3 3d 75 20 05 bd b2 c4 50 3e 9d b5 a2 bc
       0.08765046 -0.032501657 0.20387533 -0.01986199
000330 df 23 58 3b 46 e2 bc bd 65 52 2d 3d 2d a4 8c bc
       0.0032980365 -0.09222846 0.042314906 -0.017168129
000340 b7 87 73 3e 0a b3 cf 3e 14 e7 9f 3e 4e 73 f7 3d
       0.2378224 0.40566283 0.31230986 0.120825395
000350 bf 7c bc bd 72 07 c2 3d d9 aa 4f be 50 09 d1 3b
       -0.09203481 0.09474076 -0.20280017 0.006379284
000360 f3 29 60 3d 8c ce 98 3c 81 59 db bd 0b 6e 0a 3e
       0.054727506 0.018653177 -0.10710431 0.1351854
000370 d0 85 96 3c 5e 29 8d be 5f ba cb be fb 47 d4 be
       0.018374354 -0.27570623 -0.39790627 -0.41461167
000380 5c 6e 96 be a0 d1 00 bc e7 6e 4e be 6c 4d 05 3e
       -0.29381073 -0.0078624785 -0.20159493 0.13017815
000390 93 1d cd 3d 1d 30 ad 3d 3a e5 f7 3c 1d d5 04 be
       0.100154065 0.084564425 0.03026067 -0.12971921
0003a0 5f a3 1a bc ae 11 70 bd cb 18 5b 3e c5 c5 43 3e
       -0.009438365 -0.05861061 0.21396177 0.19118412
0003b0 ac 80 00 3e 55 ff 79 3e 19 26 96 3d 1e 96 c0 3c
       0.12549084 0.24413808 0.07331485 0.023509081
0003c0 53 c7 fc bc 04 ba db bd e4 90 ac 3b 35 51 8a 3d
       -0.030856764 -0.10728839 0.0052662957 0.0675377
0003d0 c7 77 94 3c d2 63 9a bd f7 24 91 3c f6 d4 fc 3d
       0.01812352 -0.075385705 0.017717822 0.123453066
0003e0 18 c9 bc 3e dc 40 9e 3d de f9 b1 3e e9 e3 97 bd
       0.36872172 0.07727215 0.34760946 -0.07416517
0003f0 89 a4 5c bd d1 ff 03 3d 12 12 c9 3b f1 09 97 3c
       -0.05386785 0.032226387 0.0061361874 0.018437358

lstm.weight_hh_l0 f4 [128, 32]
000000 42 11 df 3d 0b 9f 20 be e8 28 4e 3d 3e cc 33 be
       0.108919635 -0.1568567 0.05033198 -0.17558381
000010 b6 b4 c3 3d 38 b0 6c bd 4a f5 e3 bd 79 2a c3 bd
       0.09555952 -0.057785243 -0.111307696 -0.095295854
000020 59 60 0b be f2 bc ac 3d 60 10 dd bc 1a b3 f1 3d
       -0.13610972 0.08434476 -0.026985347 0.11801739
000030 04 24 39 bd 41 13 08 3e ca bc 6d bd 3e cf 9b 3d
       -0.045200363 0.13288595 -0.05804137 0.07607888
000040 66 02 cd 3d 58 d8 53 3d 80 52 1a bb de 5a 05 be
       0.10010223 0.051719993 -0.002354771 -0.13022944
000050 52 af bd bd 92 32 cc 3d 24 15 1b be 5a ab ec bd
       -0.09261955 0.09970583 -0.15144783 -0.1155612
000060 31 39 0a be 90 ce 68 bc ff 3d e9 bd 30 ef 04 3c
       -0.1349838 -0.014209405 -0.11388778 0.008113667
000070 42 21 a8 bd 8c fc 34 be 5f 3e 00 be 01 1d a4 bd
       -0.082094684 -0.17674464 -0.12523793 -0.080133446
000080 1a e1 bf 3d 1c 72 2d bd d0 2c c4 3c 86 4c b5 3d
       0.093691066 -0.04234515 0.02394715 0.08852486
000090 54 ed 77 bd b1 8f 8a bd d7 63 8e bd df 07 2d 3e
       -0.060529068 -0.06765688 -0.06952637 0.16897534
0000a0 c9 19 b1 bd 6c 29 06 be 18 95 2b 3d 9f f0 a5 bd
       -0.08647496 -0.13101739 0.041890234 -0.081025355
0000b0 7c 1c 28 3d 8e eb 0a be 01 73 8b bd 62 63 ad 3d
       0.04104279 -0.1356642 -0.06809045 0.084662214
0000c0 00 7c 2e bc 10 b1 ff bd ed dc 13 3e 9e 7d b6 3d
       -0.010649681 -0.12484944 0.14439745 0.08910678
0000d0 b9 2d 29 3e 72 ff aa 3d b2 e1 0a be 30 bf 09 bd
       0.16521348 0.083495036 -0.13562658 -0.033629596
0000e0 a0 23 25 be 21 95 8c bd ae 8b f6 3d 14 13 5e 3d
       -0.16126871 -0.068643816 0.120383605 0.054217413
0000f0 d6 29 fc 3d 1d e9 23 3e 86 d1 a1 3d 90 f1 28 bd
       0.12312667 0.16006894 0.079012915 -0.041245997
000100 2d 7a 2c be 60 65 98 bb 55 b2 09 be 0a 3c 9a 3d
       -0.16843481 -0.0046507567 -0.13446935 0.07530983
000110 68 70 57 3d 5a d2 ca 3d 72 56 c3 bd 84 94 4d 3d
       0.052597433 0.099034026 -0.095379725 0.050190464
000120 54 65 8a 3d 1c a6 33 3d 2a c8 c2 bd f6 39 6f bd
       0.06757608 0.043859586 -0.095108345 -0.058404885
000130 ba ae c3 3d f7 13 23 3e 00 68 fa 39 48 1e 4e 3d
       0.09554811 0.15925585 0.00047761202 0.050321847
000140 c0 6f 2d bd 29 09 8f bd a8 42 01 be fc 5c 4e 3d
       -0.0423429 -0.06984169 -0.12623084 0.050381646
000150 b6 0d b1 bd 30 5d e8 bc 49 3b b7 bd 82 b4 d4 3d
       -0.08645193 -0.028364748 -0.089468546 0.10385992
000160 50 7c 0f bc bd e3 02 3e 6e b2 e4 3d f1 ff 16 be
       -0.008757666 0.12782188 0.11166845 -0.14746071
000170 53 74 33 be ee 7c 8c 3d 78 23 73 3d d9 f6 95 bd
       -0.17524843 0.06859766 0.059359998 -0.07322473
000180 f8 5e f9 bd 46 ab 9b 3d 85 5f 11 3e 05 60 09 3e
       -0.12176317 0.07601027 0.14196594 0.13415535
000190 bf 3a 1f 3e 48 c9 5f 3d 64 6c 81 3d 5a d7 c9 bd
       0.15549754 0.054635316 0.06319502 -0.09855528
0001a0 68 43 1f bd 6e 27 c0 3d 50 b7 ff bd 24 6f 40 bd
       -0.038882643 0.093825206 -0.12486136 -0.046980992
0001b0 ec 24 8f 3d 09 fb 12 3e a5 59 15 be d0 0b 32 bc
       0.06989464 0.14353575 -0.14584978 -0.010867074
0001c0 b0 15 fd bd ac 30 08 bd de bb 03 be 40 c1 67 3c
       -0.12357652 -0.033249542 -0.12864634 0.0141451955
0001d0 54 76 83 3d 16 ee 96 3d ff d4 b2 bd 44 65 b6 bd
       0.06419054 0.0736963 -0.08732032 -0.08906034
0001e0 47 49 1a be c4 84 cf bd 5e 1e 23 be d8 f5 7f 3d
       -0.15067016 -0.10132745 -0.15929553 0.062490314
0001f0 1f 37 1d be 15 aa 95 bd 52 51 eb bd 48 a9 04 3d
       -0.15353058 -0.07307831 -0.1149012 0.032388
000200 7e 69 de 3d e1 d5 31 3e 01 82 1f 3e d0 4e 2a 3c
       0.10859965 0.17366745 0.15576936 0.010394767
000210 41 ff 05 3e b2 ed ac 3d 2c a7 30 bd 34 55 f7 bd
       0.13085653 0.08443774 -0.043128178 -0.12076798
000220 1b a4 34 3e 48 2f 82 3d e9 f8 14 3e 1e 73 f8 bd
       0.17640726 0.063566744 0.14548077 -0.12131332
000230 2e f9 9c 3d d2 68 be 3d 40 20 47 3d bc f7 9b bd
       0.07664715 0.09297337 0.04861474 -0.07615611
000240 a2 6b 57 bd 27 d4 14 3e ef 6e 11 be aa b4 b4 3d
       -0.05259288 0.14534055 -0.14202474 0.088235214
000250 5e 3a ed 3d 58 a2 0b bd 82 e6 26 be 20 98 a6 bb
       0.11583398 -0.03409037 -0.16298869 -0.0050840527
000260 00 3d 37 3b 83 99 15 3e 30 84 05 bc 36 d5 c0 3d
       0.0027959943 0.14609341 -0.008149192 0.09415667
000270 b5 8b 9c bd c6 38 a0 3d 00 fc 10 bb 22 e6 aa 3d
       -0.076438345 0.07823329 -0.002212286 0.083446756
000280 0c 42 1f 3d 15 b7 27 be c7 ef 10 3e 32 e9 b0 3d
       0.038881347 -0.16378434 0.14153968 0.086382285
000290 74 15 4c 3d f1 70 1d 3e b0 03 be bd 68 8a 85 3d
       0.049825147 0.15375115 -0.09278047 0.065205395
0002a0 64 ea 66 3d a0 24 22 be 3d cb 06 3e a4 b3 64 3d
       0.056375876 -0.15834284 0.13163467 0.05583538
0002b0 57 93 29 3e a9 bf d0 bd c4 e5 30 be e9 57 96 bd
       0.16560112 -0.10192806 -0.17275149 -0.07340986
0002c0 64 9a 0b bd 7a 7a f7 3d 3b a7 f2 bd e3 b9 1d 3e
       -0.034082785 0.120839074 -0.11848303 0.15402941
0002d0 5f d7 22 3e 0c 46 02 bd a0 59 31 3c 6e 67 d8 3d
       0.1590247 -0.031805083 0.010824591 0.10566603
0002e0 a9 a8 0b 3e 8f 4e 07 be d9 3a 09 be 7a de f5 bd
       0.13638557 -0.13213561 -0.13401355 -0.12005325
0002f0 7f 65 2a 3e b3 11 06 3e 13 c4 01 3e e5 c1 07 be
       0.1664028 0.13092689 0.12672453 -0.13257559
000300 30 ed e5 3c e0 2f 9b bd b0 4b 52 3c f3 17 14 be
       0.028067201 -0.07577491 0.012835428 -0.14462261
000310 18 aa b1 3c 00 39 32 bc 13 3a aa bd 8a 5f f2 3d
       0.021687552 -0.010877848 -0.08311858 0.11834629
000320 b4 56 92 bd 9f 6b 1d be 86 30 a2 3d f8 56 52 bd
       -0.071454436 -0.15373085 0.07919411 -0.05135247
000330 ef 7e 1c be 4a 91 c6 3d 60 72 76 bc bd 6b 12 3e
       -0.15282796 0.096956804 -0.015041918 0.14298911
000340 2c 02 4a 3d 98 c2 a0 bc de 0d b4 3d 94 4e 73 3d
       0.049318478 -0.01962404 0.087917075 0.05940111
000350 43 bc c5 bd e4 ae c3 bd 27 30 27 be c0 c1 8c 3d
       -0.09655049 -0.09554842 -0.16326962 0.068728924
000360 f0 31 f7 bc 2a e3 ac 3d 34 19 47 3d 2e f5 be 3d
       -0.03017518 0.084417656 0.04860802 0.09324108
000370 94 d5 94 3d f4 f6 54 3d 5f 96 31 3e 48 10 28 be
       0.07267299 0.051993325 0.17342518 -0.16412461
000380 b9 92 29 3e 20 97 fe bb 00 51 65 bd c0 6b 96 3c
       0.16559877 -0.0077694803 -0.05598545 0.018361926
000390 40 10 16 bc 98 0c 80 3d c0 d6 d6 3c 72 e1 1b be
       -0.009159148 0.06252402 0.026225448 -0.1522272
0003a0 80 ee 3a bc 00 b6 98 3a c8 5a 21 be 48 e9 89 bc
       -0.011409402 0.001165092 -0.15757287 -0.01683487
0003b0 4a 18 66 bd 43 6f 2f be 07 85 07 be 7e c2 b7 3d
       -0.056175508 -0.17132287 -0.1323434 0.08972643
0003c0 3e 01 c5 3d 90 6f e0 bd ee 41 f3 bd 75 3a 13 3e
       0.096193776 -0.10958779 -0.118778095 0.14377768
0003d0 bc 7a 90 bd 96 ca 0f be 66 49 95 3d b6 bc 8a 3d
       -0.0705466 -0.14042124 0.0728939 0.06774275
0003e0 9c c3 eb bd b5 68 23 3e f3 21 af bd 31 6f ca bd
       -0.11511919 0.15957911 -0.08551397 -0.09884489
0003f0 ac b4 00 bd 53 85 0d 3e 58 31 84 3d c0 f1 5d bb
       -0.031422302 0.1382039 0.06454724 -0.0033866018

lstm.bias_ih_l0 f4 [128]
000000 b8 de e2 be b0 8f 07 bf b0 d2 f4 be 2f 7e 94 be
       -0.44310546 -0.52953625 -0.47816992 -0.2900252
000010 f7 72 63 be 18 a2 1e bf aa 28 be be 81 e0 b8 be
       -0.22211824 -0.61966085 -0.371404 -0.36108783
000020 19 da be 3e c0 39 b3 3e fd 26 d8 be 05 4e 97 be
       0.3727577 0.35004997 -0.42217246 -0.29551712
000030 f2 24 b6 bd 82 0b 17 bf 48 90 28 be d4 1a 5d be
       -0.088937655 -0.59001935 -0.16461289 -0.21592265
000040 78 1b cc be af d3 8a 3e e5 f1 b8 be 9f 4d f5 be
       -0.39864707 0.27114627 -0.3612205 -0.47910783
000050 fe d3 c5 3e ef 92 1f be 9d 46 b1 be b9 2a 8c 3e
       0.386383 -0.15583394 -0.34624186 0.27376345
000060 a3 e6 24 bf 4d 4d 1d bd aa 46 b5 3e 4a 21 a4 be
       -0.64414424 -0.038403798 0.35405475 -0.32056648
000070 bd dd 71 be 47 bb 1b be 85 1e f4 be ef 6a 32 3e
       -0.23619743 -0.1520816 -0.47679535 0.17423604
000080 14 e4 88 bd 2a c7 ea 3d b7 28 04 3e 40 26 f2 bd
       -0.066841274 0.11463769 0.12906156 -0.11823702
000090 cf 3b 00 3e 96 8e a8 3d a8 03 d6 3c c4 3b 31 be
       0.12522815 0.08230321 0.02612479 -0.17307955
0000a0 94 41 19 bd 7b 52 1e 3e 52 38 94 bd ed 32 10 3e
       -0.037416056 0.15461151 -0.07237305 0.14081927
0000b0 a1 97 06 be a0 12 10 bd 12 43 bf 3d 5f 59 0f be
       -0.1314378 -0.035174012 0.093389645 -0.13998936
0000c0 34 04 26 bd f3 74 25 3e 0e 94 8e 3d 74 01 88 bd
       -0.040531352 0.16157894 0.06961833 -0.06640902
0000d0 71 ce 8b bd 18 c2 f4 3c 12 6a 2b be ff f3 28 3e
       -0.06826485 0.029877707 -0.16739681 0.16499327
0000e0 95 c8 0c 3e b7 65 2e 3e c2 26 a0 bd a0 7f 36 3c
       0.13748391 0.17030989 -0.078198925 0.011138827
0000f0 a0 25 b6 3c 92 2b 96 bd e3 2f 0a 3e d2 3c e5 3d
       0.022234738 -0.07332529 0.1349483 0.11193241
000100 ea 68 21 be 3c a3 02 be b9 a5 00 3d b3 b2 b0 3d
       -0.15762678 -0.12757581 0.031408045 0.08627834
000110 96 a4 af be aa 5a fa 3c d2 04 04 3e 4f 0e 20 be
       -0.34305257 0.03056081 0.12892464 -0.15630458
000120 31 33 77 be 10 70 73 be d7 e3 c4 3c 42 5c a0 be
       -0.24140622 -0.23773217 0.024034424 -0.31320387
000130 26 d2 d0 3e e3 e9 ee be fa 4d f1 bd d8 6d 24 be
       0.4078533 -0.46662816 -0.11782451 -0.16057527
000140 85 72 1f be 3d bb 74 be 3e 48 0d be 36 6d 03 be
       -0.1557103 -0.2389955 -0.1379709 -0.1283463
000150 d7 80 d7 be 33 cf 7a be 04 d1 cf 3b 0a 85 d8 be
       -0.42090484 -0.24493103 0.0063420553 -0.42289
000160 ce 0f 65 be 93 13 26 3e 5a 0c ba be 59 61 40 3e
       -0.2236931 0.16218404 -0.36337548 0.18787135
000170 e7 18 aa 3e 94 13 af 3b 36 3b 9e 3d b6 99 8e 3e
       0.33222124 0.00534291 0.07726137 0.27851647
000180 69 92 d9 be 72 a9 1f bf f1 b4 ab be 00 13 09 bf
       -0.42494515 -0.6236793 -0.33536485 -0.53544617
000190 50 2d a4 be 0d 14 b5 be 14 9a bc be 74 56 80 be
       -0.3206582 -0.3536686 -0.36836302 -0.25065958
0001a0 68 1d da 3e b9 d1 b2 3e 05 ef 81 be 15 47 e8 be
       0.4260056 0.3492563 -0.2537767 -0.4536673
0001b0 92 ca 2d bc a3 83 16 bf d1 54 b4 bd c9 7f ea bb
       -0.010607379 -0.5879461 -0.0880524 -0.0071563465
0001c0 ac 16 cd be e7 4c a1 3e ad db 8e be cc ce 63 be
       -0.4005636 0.31503984 -0.27901974 -0.22246855
0001d0 59 cd 24 3f 0c ea 46 be 53 a1 c9 be e0 d0 0d 3f
       0.64375836 -0.1942522 -0.39380893 0.5539684
0001e0 ca 1b 05 bf 38 20 93 be 68 03 9a 3e f4 c3 32 be
       -0.5199553 -0.28735518 0.30080724 -0.17457563
0001f0 7e 60 3e be 27 42 89 be 26 e1 0d bf fb c3 bb 3e
       -0.18591496 -0.26808283 -0.55421674 0.3667296

lstm.bias_hh_l0 f4 [128]
000000 d8 ec 66 be c9 22 e4 be 8b 87 dc be d4 df 8d be
       -0.22551286 -0.4455779 -0.4307216 -0.2770983
000010 fa 81 f3 be 4e 1e c8 be a5 b6 e2 be b8 13 dd be
       -0.47560102 -0.3908562 -0.44279972 -0.43179107
000020 18 da 96 3e ee b0 be 3e 4a a6 93 be 18 44 e1 be
       0.29463267 0.37244362 -0.28837806 -0.43997264
000030 28 d6 4a be f0 16 c9 be b0 f6 71 be ed 58 4f be
       -0.19808257 -0.39275312 -0.2362926 -0.20248766
000040 69 29 9c be 16 30 91 3e 94 a7 2b be d4 2c a2 be
       -0.30500343 0.28357 -0.16763145 -0.31674826
000050 98 49 90 3e 27 3d a7 be 74 12 03 bf e2 e5 06 3f
       0.28181148 -0.32663843 -0.5120003 0.52694523
000060 bc c4 10 bf d5 df fe bc 32 16 85 3e 53 bf 3a be
       -0.5655019 -0.03111259 0.25993496 -0.18237047
000070 f5 15 14 be 18 f8 94 be 54 58 a5 be c6 0c db 3e
       -0.14461501 -0.2909553 -0.32293952 0.42783183
000080 dd 1f 16 3e 60 e9 60 3c a0 ef 0f be 00 3f 58 3a
       0.14660592 0.013727516 -0.14056253 0.0008249134
000090 74 6e 0e bd 33 10 28 be 2e ad 56 bd 67 23 11 3e
       -0.034773305 -0.1641243 -0.05241125 0.14173661
0000a0 9e cb 10 be f8 72 c8 3c 4c 3b 01 3d b0 5b 8d 3c
       -0.14140174 0.024468884 0.03155069 0.017255634
0000b0 98 8c d0 bd 68 4c b2 bc 60 57 76 bc b8 2c f5 bd
       -0.10183066 -0.021764949 -0.01503548 -0.1197142
0000c0 97 f3 06 3e 04 6e 31 be e8 b0 4e bd 56 0a de 3d
       0.1317886 -0.17327124 -0.05046168 0.10841815
0000d0 e8 6b ba 3c 50 ab 72 3d 3d 61 2e 3e 38 f9 b9 bc
       0.022756532 0.059245408 0.17029281 -0.022701845
0000e0 d8 90 32 3d 60 47 59 3c 14 f2 39 bd 38 32 68 3d
       0.043595165 0.013261646 -0.04539688 0.056688517
0000f0 10 f5 b0 bc 68 ab cc bc c4 cf 94 3d 88 ea 31 bd
       -0.02160123 -0.024984077 0.07266191 -0.043436557
000100 cb 94 40 3d 20 65 2d 3d c8 57 ff bd 91 84 db 3e
       0.0470169 0.04233277 -0.12467915 0.42874578
000110 4e 68 74 be d4 54 81 3d c2 eb 94 bb f0 6d 36 3d
       -0.23867914 0.06315008 -0.004544706 0.04453844
000120 d9 55 ba be b2 2a c6 be b0 77 d0 3d 97 18 80 be
       -0.36393622 -0.3870445 0.101790786 -0.2501876
000130 b4 cb 60 3e d1 a3 e6 be 0b d2 ac bc 4d d9 8b be
       0.21952707 -0.45046857 -0.02109625 -0.27314225
000140 50 c5 72 be 06 ad 77 be dd 47 92 3b 0b 47 f1 3c
       -0.23708081 -0.24187097 0.004464133 0.029452821
000150 d9 08 f2 be 28 bc 52 be b4 d2 f0 bd c1 83 11 be
       -0.47272375 -0.20579588 -0.117589384 -0.14210416
000160 bd 36 91 3c 26 0b f4 bc c0 4f 33 be a9 98 67 3e
       0.017726297 -0.029790472 -0.17510891 0.22616829
000170 a8 a4 23 3e 98 85 e6 bd 2d 0a 29 be 26 d2 6c 3e
       0.1598078 -0.1125595 -0.16507788 0.2312704
000180 12 51 6d be 6b 1a f3 be 07 b5 d5 be c0 bb f6 be
       -0.23175457 -0.47481093 -0.41739675 -0.48190117
000190 eb a5 39 be d0 a1 07 bf 03 ce ea bd 73 9c 27 be
       -0.18129699 -0.5298128 -0.11465075 -0.16368274
0001a0 06 70 b9 3e 94 67 9c 3e 05 f1 a8 be 20 58 62 be
       0.3621828 0.30547774 -0.32996383 -0.2210393
0001b0 c2 36 20 3d 1f 66 02 bf de 1b 98 be b7 d4 89 be
       0.03911472 -0.50937074 -0.2970876 -0.269201
0001c0 40 91 60 be 71 55 71 3e 1a 77 63 be b7 1e 4a be
       -0.21930408 0.2356775 -0.22213402 -0.1973828
0001d0 21 0c 23 3f 04 3e 4c be 70 43 b9 be 3b 78 88 3e
       0.6369038 -0.19945532 -0.36184263 0.2665423
0001e0 e3 aa d1 be c4 b0 a6 be f4 25 51 3e 0f 41 18 be
       -0.4095069 -0.32556736 0.20424634 -0.14868568
0001f0 b3 70 ec bd a0 5f 45 be f2 e9 af be 65 15 b2 3e
       -0.11544933 -0.1927476 -0.34358174 0.34781948

lstm.weight_ih_l1 f4 [128, 32]
000000 29 a0 e9 3d f7 34 2c be 02 a3 cb 3b 03 29 4e bf
       0.11407501 -0.1681708 0.0062145004 -0.8053133
000010 5b 01 48 3f 89 1b 66 3e b4 c4 7b be 53 fd 8b bd
       0.7812707 0.22471441 -0.24586755 -0.06835427
000020 f6 7d 93 3e e0 d2 b4 3e 5d 47 54 bc 2a 7c 2b 3f
       0.28807038 0.35317135 -0.012956467 0.66986334
000030 4d a8 b4 be 7d 4d 18 3f b3 65 9e 3c e7 62 e4 3e
       -0.35284653 0.5949324 0.019335603 0.44606707
000040 6f d1 10 3f c7 d4 80 3e a1 44 08 be 25 a3 1e be
       0.5656957 0.25162336 -0.1330743 -0.15491922
000050 4b 1b 86 3e c9 59 1c 3f 55 86 da 3d 77 d3 27 3e
       0.26192698 0.610745 0.10670153 0.16389261
000060 d6 37 6e 3e 01 2b ed 3c cd 84 44 3f 5b ab d9 be
       0.23263487 0.02895117 0.7676514 -0.42513546
000070 00 1f 1e bf 5e 91 1c 3e 27 cc cf 3c f2 73 d4 be
       -0.6176605 0.15289828 0.025365902 -0.4149471
000080 27 4a e0 3c 3a 80 12 be 99 19 91 3d b7 97 1c bf
       0.027379109 -0.14306727 0.070849605 -0.61169
000090 c3 b2 30 3f d7 d9 ba 3c 01 5b f6 3d b8 e9 82 be
       0.6902277 0.022808952 0.12029076 -0.25568938
0000a0 36 82 96 3e c2 43 c2 3e dc 58 81 bd 9a b6 0b 3f
       0.29396218 0.3794232 -0.06315777 0.545755
0000b0 80 cf 2a bf 53 a6 2e 3f 2c eb bc 3d 1d e3 a5 3e
       -0.6672287 0.6822254 0.09224543 0.32399836
0000c0 da dd b3 3e 69 a5 cf 3e 62 b1 d5 3d c4 40 25 be
       0.35130197 0.40555885 0.10434224 -0.16137987
0000d0 d6 dc a4 3e a6 f7 da 3e ab 1f 0a 3e 2a 19 99 3e
       0.32199734 0.42767066 0.13488643 0.2990201
0000e0 d7 c9 2a 3e 4c 98 ae 3d ba 25 92 3e 12 e3 08 bf
       0.16678558 0.08525142 0.28544408 -0.5347148
0000f0 83 e9 99 be 8c 1c 1e be 57 ec 3f be f7 6f af be
       -0.30060968 -0.15440577 -0.187425 -0.3426511
000100 27 d8 fa 3d 03 cb 5d be ea 70 1c bc 4a 99 2f bf
       0.12248259 -0.21659474 -0.009548405 -0.68593276
000110 e7 a6 56 3f e6 f3 74 3d d4 0b 94 bc 75 1f 2f 3e
       0.8384842 0.059802912 -0.018072046 0.17101844
000120 60 84 26 3f c0 74 42 3f 59 59 eb 3c 39 19 c6 3e
       0.6504574 0.75959396 0.028729128 0.38691118
000130 dd 1b 4b bf 6c 4e 77 3f 86 b3 8a 3e db d8 e3 3e
       -0.7933939 0.9660404 0.2709009 0.44501385
000140 ee f9 e8 3e 8a 23 18 3f 3c 86 c2 3d e5 fa 39 b9
       0.4550318 0.5942923 0.094982594 -0.0001773644
000150 ff 66 2c 3f f4 42 22 3f 08 de df 3c 51 96 0d 3f
       0.6734466 0.6338341 0.027327552 0.5530749
000160 00 2a e7 3d 00 50 2a 3e 4f 70 30 3f b5 eb cf be
       0.11287308 0.1663208 0.6892137 -0.40609518
000170 17 51 90 be e4 a6 9e 3d a8 aa d2 bd c1 5a 58 bf
       -0.28186867 0.077466756 -0.10286456 -0.8451348
000180 20 95 01 3d 35 67 04 3a 41 c3 ce bd 5c 6b 4b bf
       0.031636357 0.00050507794 -0.100958355 -0.7946069
000190 c8 25 39 3f 87 c8 50 3e ff 14 b2 bd b7 78 21 3d
       0.72323275 0.20388995 -0.08695411 0.039421763
0001a0 a1 88 2f 3f a4 58 31 3f 89 3a 4b be 90 76 49 3f
       0.68567854 0.6927588 -0.19846548 0.78696537
0001b0 e3 0b c5 be 46 a4 25 3d 69 6f ab 3d bd a2 35 3f
       -0.3848563 0.040439866 0.08370859 0.70951444
0001c0 e4 e3 83 3f 97 0e 24 3f 70 84 ae bd 59 4a 08 3e
       1.0303922 0.6408476 -0.08521354 0.13309611
0001d0 48 d9 19 3f a3 04 5b 3f 55 53 5c 3e a0 12 0f 3f
       0.6009717 0.8555395 0.21516164 0.55887794
0001e0 d6 02 15 3f 84 08 72 3d ce 97 ea 3e 7a 67 25 bf
       0.5820745 0.059090152 0.45818943 -0.6461102
0001f0 06 bf 50 bf 4c 59 a2 bd 6c 65 d9 bd 02 81 13 bf
       -0.8154148 -0.07927188 -0.10615048 -0.57618725
000200 75 7c 4c 3e d3 aa 3d 3d f2 60 8e bd c7 87 82 bf
       0.19969352 0.04630549 -0.069520846 -1.0197686
000210 4c 6e 82 3f a9 81 0a 3e 23 d8 c1 b9 9c 79 2f 3b
       1.018991 0.13526024 -0.00036972863 0.0026775366
000220 cd b8 5c 3f 2f fc b2 3f 12 c7 bc bd b6 5a 05 3f
       0.86219484 1.398321 -0.09217657 0.5209154
000230 68 3f 80 bf 23 80 b2 3f b6 90 77 3d 41 45 d6 3e
       -1.001935 1.3945354 0.06044074 0.41849712
000240 7f 56 0b 3f 79 b5 78 3f 62 b9 22 3e 60 9f d3 3d
       0.5442886 0.97151905 0.1589103 0.10333133
000250 85 8f af 3f 0e 07 f6 3e f0 02 55 3d 19 66 98 3f
       1.3715674 0.48052257 0.052004755 1.1906158
000260 ff ef ab 3e f6 85 f9 3d d6 fd 9f 3f ff a6 ac be
       0.3358154 0.12183754 1.249934 -0.33721158
000270 d2 8f 04 bd 5a 9c 14 3e e9 cb 01 3e b4 d9 96 bf
       -0.03236372 0.14512768 0.12675442 -1.1785188
000280 af 84 ac bd 18 42 b2 bd f2 46 8e 3d dd be 6c bf
       -0.08423745 -0.08704013 0.069471255 -0.92478734
000290 fa fe 79 3f 35 54 bb bd d0 f1 a0 bd a9 19 0c 3e
       0.9765469 -0.091469206 -0.07858622 0.13681664
0002a0 6d 46 2c 3f 32 1f 76 3f 21 fd 37 be bc 9e 26 3f
       0.6729496 0.9614135 -0.17967655 0.6508596
0002b0 79 c4 36 bf d2 75 58 3f 30 cd 27 3e 66 ee e9 3e
       -0.71393543 0.8455478 0.16386867 0.45689696
0002c0 e5 99 17 3f 43 6c 50 3f 67 69 17 3e a0 3d 1b bd
       0.592192 0.81415194 0.14786302 -0.037900567
0002d0 d6 c5 5e 3f 56 9c 12 3f 79 b8 e2 bd e0 ba f6 3e
       0.87020624 0.572698 -0.110703416 0.4818945
0002e0 b6 67 2a 3e cc 60 91 3b ab 74 77 3f de 1e d9 be
       0.16641125 0.004436588 0.96662396 -0.42406362
0002f0 25 96 b2 be 1a f2 a4 bd 04 a5 f9 bd 05 f2 6c bf
       -0.34880176 -0.0805399 -0.12189677 -0.9255679
000300 c0 f2 5e 3d c0 f4 41 be 15 e8 5a bd ac 85 44 bf
       0.054430723 -0.18941021 -0.053443987 -0.7676647
000310 bd ea 18 3f 1f a6 ea bd c5 c1 04 be 36 bf a8 3c
       0.5973318 -0.11457466 -0.12964542 0.020598989
000320 49 13 cb 3e 89 99 2e 3f 54 ac e4 bc 2a 59 27 3f
       0.3966315 0.68203026 -0.027914204 0.6537043
000330 ea d4 fa be 58 b9 da 3e 87 b3 84 3e f7 e7 04 3f
       -0.48990566 0.4271953 0.25918218 0.5191645
000340 fa 08 25 3f 0b 38 b6 3e ce 4e 03 3e c2 26 5c bd
       0.6446682 0.35589632 0.1282303 -0.0537479
000350 61 f4 40 3e 11 b4 2c 3f a5 67 d7 bc 3c fe be 3e
       0.18843223 0.6746226 -0.026294539 0.3730334
000360 eb fd 5c 3e 71 e9 0f bd 82 7a 3a 3f fa b4 1a bf
       0.21581237 -0.035134736 0.7284318 -0.604324
000370 f4 86 0f bf 31 3f 82 bd 60 a0 b6 bd b3 4b 98 be
       -0.560653 -0.06359709 -0.08917308 -0.29745254
000380 80 ad a2 3e cd 0e 4c 3e 68 52 b7 3e a6 86 31 be
       0.31772995 0.19927521 0.35805058 -0.1733652
000390 29 38 f3 bc 16 eb c8 be 22 b3 c5 be 9c 63 bb 3e
       -0.029689865 -0.39241856 -0.3861323 0.36599433
0003a0 20 1c 81 3f 87 40 ab 3f 91 22 cb be c9 61 85 3d
       1.0086708 1.3379067 -0.3967481 0.06512792
0003b0 bc 6a cb 3d 10 22 8d 3e f9 e9 03 3f 5e 81 ce be
       0.09932467 0.2756505 0.5152889 -0.40333074
0003c0 ad 28 37 bf 3e 85 10 3f 59 f0 db 3e 93 14 c9 3e
       -0.7154644 0.5645331 0.42956808 0.3927351
0003d0 76 48 b8 3f 2e dd d4 be 57 5c 4c 3e 22 a7 8a 3f
       1.4397113 -0.41574997 0.199571 1.0832255
0003e0 6a 34 1b bf 90 4d ec be 11 4d a9 3f 6a bd 19 3f
       -0.6062685 -0.46152925 1.3226644 0.6005465
0003f0 c2 3c ab 3e 70 03 cb 3e e6 72 dd 3e ce d8 78 bf
       0.33444792 0.3965106 0.43251723 -0.9720582

lstm.weight_hh_l1 f4 [128, 32]
000000 ea 60 c0 3d b8 af 29 be de 7b e1 bd 3e bd ea 3d
       0.09393485 -0.16570938 -0.11009954 0.11461876
000010 be 34 7d bd 7e e9 b4 bd 7c c0 0f bd 5c 30 4b bd
       -0.061817877 -0.088335976 -0.035095677 -0.049606666
000020 53 80 81 bd f5 f3 90 bd 0c c8 06 bd 40 59 84 bc
       -0.06323304 -0.07077781 -0.032905623 -0.016155839
000030 4f 65 2d be ea 33 d4 3d b9 88 2c 3e 60 0b 76 bc
       -0.16933177 0.10361464 0.1684903 -0.01501736
000040 0c d3 3e bd 80 a1 d8 bd 4b cb d0 bd 46 a1 2f be
       -0.04658799 -0.10577679 -0.10195025 -0.17151365
000050 c5 3d 04 be 00 e8 1a bd e1 84 0f 3e 2a 1b 92 3d
       -0.12914188 -0.03781891 0.14015533 0.071340874
000060 b8 29 d2 3c 68 75 87 bc d0 0e 73 3d 44 5f 74 3d
       0.025654659 -0.016535476 0.0593403 0.059661165
000070 48 cd 86 bc b8 a2 8c 3d 1e ac f6 3d f6 56 a6 3d
       -0.016455308 0.06866974 0.120445475 0.08122055
000080 46 23 ce 3d b8 5b a4 bc 38 83 d4 bc 00 1c 7a 3c
       0.100653216 -0.020063266 -0.025941476 0.015265465
000090 6c 38 8f 3d fa 28 61 bd 3e d8 08 be e8 44 cd bc
       0.069931835 -0.05497072 -0.1336374 -0.025057271
0000a0 bc db 1c 3d 82 0a bf 3d 40 8e b9 bb 04 f3 12 be
       0.038295493 0.09328176 -0.0056627095 -0.14350516
0000b0 68 7a 83 bc 6d 8d 06 3e 36 e8 99 bd 68 2b 0a bd
       -0.016049579 0.13139887 -0.07514994 -0.0337328
0000c0 c7 cf 30 be 40 61 49 3d ce 37 92 3d cb 98 00 be
       -0.17266761 0.04916501 0.0713955 -0.12558286
0000d0 a0 ca 71 bc 04 f9 1b 3d ec 85 4b bd 84 2d e4 bd
       -0.014757782 0.038079277 -0.049688265 -0.11141494
0000e0 98 e3 63 3d ca e7 a6 bd 78 b6 97 bc bc 0a 29 3d
       0.055636972 -0.08149679 -0.018519625 0.041270003
0000f0 58 95 18 bd db d2 1d 3e 18 47 f4 3c f0 22 be 3c
       -0.0372518 0.15412466 0.029819056 0.023210019
000100 ae b6 d1 3d 3c ca 8f 3d 0b fe 25 3e 90 22 c7 3c
       0.102399215 0.07020995 0.16210191 0.024308473
000110 00 f4 b5 bc c7 b9 10 3e a0 aa f2 bd 0b 89 be bd
       -0.022211075 0.14133368 -0.118489504 -0.093034826
000120 8e e9 34 be 11 0b 15 be 72 01 89 bd ae 7d 58 bd
       -0.17667219 -0.14555003 -0.06689729 -0.052854232
000130 8a e3 dc 3d d6 88 6e bd 3e 85 85 bd 90 57 e5 3c
       0.10785587 -0.058235966 -0.065195546 0.027995855
000140 0e 1f 1b be be c8 5c bd 13 4b af bd dc 82 1b bd
       -0.15148565 -0.05390238 -0.08559241 -0.037966594
000150 c7 41 19 3e da 9f c7 3d 82 d8 a5 3d a0 75 ed 3c
       0.14966498 0.09747286 0.08097936 0.028986752
000160 2a 1b e9 3d 80 24 3f 3d 64 3e 3b bd 49 c5 93 bd
       0.11382134 0.04666567 -0.045713797 -0.072153635
000170 32 de 85 3d 5e 4d d2 3d 20 6d d9 bd 40 f2 7e bc
       0.06536521 0.10268663 -0.10616517 -0.015560687
000180 6d ea 1c 3e 9e 9a 16 be 60 0c 20 3d b0 d6 60 bc
       0.15323801 -0.1470742 0.0390743 -0.0137230605
000190 30 c3 61 3c e7 f3 ba bd 9d c4 30 3e 5c 50 14 3d
       0.0137794465 -0.09128552 0.17262502 0.03620945
0001a0 c0 d8 e3 3c 62 5d fd 3d aa 84 be 3d 90 a3 81 3c
       0.027813315 0.12371327 0.093026474 0.015825063
0001b0 90 59 03 3d c0 ff 81 bc 25 d6 e7 bd b0 e7 37 bc
       0.032067835 -0.015869021 -0.11320142 -0.011224672
0001c0 56 c9 7f bd 88 df da bc 3b 4f 24 3e 00 e1 ff 3b
       -0.06244787 -0.026717916 0.16045849 0.0078088045
0001d0 2c 35 16 bd b8 97 28 be 44 b1 1e 3d ea 95 f3 3d
       -0.036671802 -0.16464126 0.038743272 0.11893828
0001e0 a8 6b 85 bc 10 f9 d1 bc ee b0 06 be ea 69 de 3d
       -0.016286686 -0.025631458 -0.13153431 0.10860045
0001f0 5a d4 f6 3d f8 24 07 bd 33 e3 25 3e 4e cb bb bd
       0.120522216 -0.03299424 0.16199951 -0.09169637
000200 10 23 10 be b0 c1 8a 3d 56 fc df bd a0 1f 45 bc
       -0.14075875 0.06775224 -0.10936801 -0.012031466
000210 98 5a 48 bd bb 6f 31 be 80 bf d7 3c 13 01 09 3e
       -0.048914522 -0.17327778 0.026336432 0.13379316
000220 cf 62 01 be 0e 7b db 3d d0 88 f8 bd 6c cf 17 bd
       -0.12635349 0.1071683 -0.1213547 -0.037063047
000230 5d 7a 14 3e 14 d3 be bd 7e 25 88 3d 96 43 c9 3d
       0.14499803 -0.09317604 0.06647776 0.09827344
000240 ac 20 8f 3d c7 8d 28 3e 36 52 0b be 38 06 f0 3c
       0.069886535 0.16460334 -0.1360558 0.02929984
000250 08 32 e1 3c 74 21 30 3d a0 9a 90 3c 80 1f 29 bc
       0.027489677 0.043000653 0.017651856 -0.010322452
000260 4a 8f f9 3d d0 51 81 3c 00 e9 5f ba 11 56 c0 bd
       0.12185533 0.015786082 -0.00085414946 -0.09391416
000270 45 52 19 be c0 94 f7 bc 54 77 0d 3d f2 f4 fc 3d
       -0.1497279 -0.030222297 0.03453763 0.12351407
000280 18 74 5b 3d 54 a0 51 3d c9 04 03 be cc b8 9a bd
       0.053577513 0.05117829 -0.12794794 -0.075547785
000290 d1 d2 c8 bd d8 ff 10 be 2b a3 02 3e 98 34 ee 3c
       -0.09805835 -0.14160097 0.12757556 0.029077813
0002a0 b3 52 1c 3e ee de 92 3d cd 02 0f be 16 60 28 be
       0.15265922 0.07171427 -0.13965912 -0.16442904
0002b0 9b f6 18 3e 77 f1 17 3e fa 69 9f 3d 3b be 26 be
       0.14937823 0.14838205 0.07783885 -0.16283505
0002c0 c8 84 a6 bd 74 4e 31 be f4 03 1f bd cb 38 12 3e
       -0.08130795 -0.17315084 -0.03882213 0.14279477
0002d0 b8 0c 48 3d 36 c0 f3 3d 4e 8a c8 3d 21 3e 29 be
       0.048840255 0.11901896 0.097920045 -0.16527607
0002e0 1d d2 28 3e 2a 7a 9d 3d c5 77 da bd 24 35 2c be
       0.16486402 0.076893166 -0.106673755 -0.16817147
0002f0 24 47 44 3d 00 f6 c7 bd 03 15 23 3e 00 8d 22 3a
       0.047919407 -0.09763718 0.15925984 0.000620082
000300 98 1d e4 bd 3c 49 62 bd 14 62 2a 3d 36 e2 d0 3d
       -0.11138457 -0.055245623 0.04159744 0.10199396
000310 14 68 18 3d be 55 c7 bd 54 89 4c bd 50 f9 e8 3c
       0.03720863 -0.09733151 -0.049935654 0.028439194
000320 d8 d5 16 bd 36 60 63 bd 90 7e 4c 3d 97 96 0e 3e
       -0.03682503 -0.055511676 0.049925387 0.13924633
000330 25 bd 2d 3e 14 fe 31 3d 3e a7 89 3d c0 8b 92 3d
       0.16966684 0.0434552 0.06721352 0.071555614
000340 d1 48 01 be e0 a7 2a 3c 44 ed 48 3d 88 8d 13 3d
       -0.12625434 0.010416001 0.0490544 0.036023647
000350 ff 1e 0e be a0 65 88 3b 28 93 3b bd be 34 70 bd
       -0.13879012 0.0041625053 -0.045794636 -0.05864405
000360 69 f6 1e 3e 24 85 85 3d 27 0d 16 3e b8 e1 d5 bd
       0.15523686 0.06519535 0.14653455 -0.10443443
000370 a3 10 bc bd 2d 03 34 3e 42 6a 9b bd 70 de 2e bd
       -0.09182861 0.17579336 -0.075886264 -0.0426926
000380 5e a7 97 3d ca 45 b6 3d f1 b7 1b 3e 20 f1 62 bc
       0.0740497 0.0890003 0.15206887 -0.013851434
000390 44 e4 09 be 16 a9 ea bd ee 81 af 3d 7f 7c 1e 3e
       -0.13465983 -0.11458032 0.08569704 0.15477179
0003a0 78 9b cc bc 0e 10 96 3d c8 f4 88 bc e0 86 fd bd
       -0.024976477 0.07327281 -0.016718283 -0.12379241
0003b0 38 35 c5 3c d8 66 da bc 22 2d fd 3d 86 76 ac 3d
       0.024073228 -0.026660368 0.12362124 0.08421044
0003c0 a0 34 36 3c b2 58 13 be a8 05 91 3c 7b 9c 34 3e
       0.011120945 -0.14389303 0.017702892 0.17637818
0003d0 82 c7 a6 3d a0 de 74 bc 0a c0 ca 3d 08 12 3e bd
       0.08143522 -0.014945656 0.0989991 -0.046403915
0003e0 e9 bb 02 3e cb b3 13 3e c8 78 6b 3d 8e 93 d2 bd
       0.12766995 0.14424054 0.057488233 -0.1028205
0003f0 db 97 34 3e 9e 20 b6 3d d6 09 9b bd 2f 8e f2 bd
       0.17636053 0.0889294 -0.075702354 -0.118435256

lstm.bias_ih_l1 f4 [128]
000000 f8 cf 04 be 7a 7a 94 be 12 05 ac be c0 76 8a be
       -0.12969959 -0.28999692 -0.33597618 -0.27043724
000010 dc 45 e0 be cb d1 c7 be e3 44 13 be 57 30 32 3e
       -0.43803298 -0.39027247 -0.14381747 0.17401253
000020 da a0 a4 be 99 3f af be ed 26 00 bf 47 16 d0 be
       -0.3215397 -0.3422821 -0.50059396 -0.40641996
000030 a5 b1 e5 be 6c 8b df bd a0 a8 65 3b 93 da f4 bd
       -0.44862095 -0.109152645 0.0035043135 -0.11955752
000040 98 ee 04 be 90 db 1f be 11 14 58 bd b6 3a a8 be
       -0.12981641 -0.156111 -0.05275351 -0.32857293
000050 1d bf 15 bf a6 ae 34 bd ec 2d a4 bb 26 6c e0 3c
       -0.5849474 -0.04411187 -0.005010357 0.02739532
000060 f1 0d c2 be 99 4e 0b be 1c b6 54 be 0e f8 5d be
       -0.3790126 -0.13604201 -0.20772594 -0.21676657
000070 3b 70 07 be 4c ca 68 3e 46 77 3c be 8e 3c 4d be
       -0.13226406 0.2273342 -0.18404874 -0.20042631
000080 cb fa 82 bd fc cd f1 bd 04 6a 58 bd 7d 8a 1c 3e
       -0.06395491 -0.118068665 -0.05283548 0.15287204
000090 50 45 18 3d 90 62 87 bd 37 84 e8 bd 14 a3 3a bd
       0.037175477 -0.06610596 -0.11353343 -0.04556568
0000a0 7b 76 e6 bd 34 eb 25 bd d4 ce 18 3d 92 6b 98 3d
       -0.11253067 -0.04050751 0.03730662 0.074423924
0000b0 10 35 e4 bc 5a 5e b0 3d d1 9b 33 3e 24 71 2f 3d
       -0.027857333 0.08611746 0.17539908 0.04283251
0000c0 0a 4b eb 3d a2 d5 bd 3d f0 f8 64 3d da 02 03 be
       0.11488922 0.09269263 0.055901468 -0.12794057
0000d0 c8 61 ef bd 40 fd d6 bc 1d cf 33 3e 32 5b 97 3d
       -0.11688572 -0.026243806 0.17559476 0.07390441
0000e0 c0 4b 9d bc d0 39 33 bd fc 5d 11 bd 00 72 03 3c
       -0.01920116 -0.043756306 -0.03549002 0.008022785
0000f0 0e c4 05 be fe 9b 0d be 8c 73 80 3d 88 b5 55 3d
       -0.1306307 -0.13829038 0.06272039 0.052175075
000100 d1 7d 9f bd 45 49 08 be 1a ac 88 bd 17 8f 8c bd
       -0.077876695 -0.133092 -0.06673451 -0.0686323
000110 5c dd ed 3d 69 0c 68 3d 2f fc c3 bd cc 59 bf bb
       0.116144866 0.05665246 -0.095695846 -0.005839562
000120 3d 69 01 be e4 f3 44 3c 9c 83 98 3d 38 40 ea 3b
       -0.12637801 0.012021039 0.074469775 0.0071487688
000130 10 2e 8c 3d f5 3a eb bc f1 7e 9f 3d e7 f7 3b bc
       0.06844723 -0.028714636 0.07787884 -0.011472679
000140 c9 a2 8f bb 7f 15 98 3d 7a b8 19 3d 88 ca f4 3c
       -0.004383419 0.07425975 0.037529446 0.02988173
000150 93 3c 15 3e 3b 02 5e 3e 2f c1 a9 3d 34 b0 2e 3d
       0.14573888 0.21680538 0.082888 0.04264851
000160 4c 04 9a bd f1 31 5a 3d 5d 92 59 bd e9 69 df bd
       -0.07520351 0.053270284 -0.0531181 -0.10908873
000170 b0 fe c5 3c 5d 6e 13 bd 55 46 65 3d b1 ea 04 be
       0.024169296 -0.035993923 0.055975277 -0.12980153
000180 41 4f 29 be 72 5a 98 be 4a 66 36 be 20 47 35 be
       -0.16534139 -0.29756504 -0.17812458 -0.17702913
000190 53 9a d1 be e3 40 be be fe f7 a3 be ac 60 54 3d
       -0.40938053 -0.3715888 -0.3202514 0.051850006
0001a0 b1 91 a3 be 7a cc 57 be 0a 85 eb be b2 44 08 be
       -0.3194709 -0.21074095 -0.45999938 -0.13307455
0001b0 0d a7 7f be 60 b6 24 be 90 f6 e4 bd 35 4d 3e be
       -0.24966069 -0.16085196 -0.111798406 -0.1858414
0001c0 6a cf 38 bd 1f f4 07 be e6 00 33 be 5b 45 c3 be
       -0.04511968 -0.13276719 -0.17480811 -0.38138852
0001d0 96 d3 c5 be 41 22 7e bd 0d bd 88 3d b6 0f 2f 3e
       -0.3863799 -0.062044386 0.066766836 0.17095837
0001e0 f1 2a f3 be 93 ea b0 bd 59 71 4d bd 99 65 19 be
       -0.474937 -0.086384915 -0.050156925 -0.14980163
0001f0 c4 86 3a 3c f0 47 67 3e 8d aa 26 be 73 23 9d bd
       0.01138467 0.22586036 -0.16275997 -0.07672777

lstm.bias_hh_l1 f4 [128]
000000 a3 59 8f be b2 25 98 be 63 5c b0 be b4 9d 06 be
       -0.27998075 -0.2971626 -0.34445485 -0.13146096
000010 7f ce bf be 06 01 7f be b8 2f 5a be ff c4 9e bc
       -0.37462232 -0.24902734 -0.21307266 -0.019381044
000020 98 35 96 be b0 ba 74 be 68 55 8f be 37 17 86 be
       -0.29337764 -0.2389934 -0.27994847 -0.26189587
000030 5c f8 eb be 73 91 56 be 4b 3c 05 be 28 15 9b be
       -0.4608792 -0.20953922 -0.13011281 -0.30289578
000040 46 ee e6 bd 71 8c 45 be 03 32 12 be e4 07 ce be
       -0.11275916 -0.19291855 -0.1427689 -0.40240395
000050 df 8b ea be df 17 6f be 50 54 5e 3e 88 47 13 bd
       -0.45809838 -0.2334895 0.2171185 -0.03595689
000060 9a d1 95 be c8 0f 81 bd 6e 5a d4 3d 03 fc 9c bd
       -0.29261476 -0.06301838 0.103688106 -0.07665255
000070 df 45 13 3d d3 00 91 3d 99 a8 31 be 5b 84 c9 bd
       0.035955306 0.07080235 -0.17349471 -0.09839698
000080 cf cb 11 3e 4c ec 50 3d fc 6a 7d 3d e2 66 74 bd
       0.14237903 0.0510066 0.061869606 -0.05966843
000090 54 ee 95 bd cc 37 03 3d 90 35 c4 bc 6e 27 e6 3d
       -0.07320848 0.032035634 -0.023951322 0.11237989
0000a0 58 30 2c be c6 1f dc 3d b5 4a 89 bd d6 0b ae 3d
       -0.16815317 0.10748248 -0.06703702 0.08498351
0000b0 79 87 17 be c6 fb a3 3d e7 9f 00 be 8e 12 f0 3d
       -0.14797772 0.08007006 -0.12560998 0.11722289
0000c0 60 1e d2 3b b7 03 1c 3e bf ff cb bd 6f 61 d9 bd
       0.0064123124 0.15235792 -0.09960889 -0.10614287
0000d0 46 0f c5 3d f0 e1 88 3d 74 ca 60 3d f1 64 29 be
       0.09622054 0.06683719 0.054880574 -0.16542412
0000e0 41 f4 0e 3e 8f be 26 3e 43 61 d6 bd d0 8c 64 bc
       0.13960363 0.1628363 -0.1046777 -0.013949588
0000f0 ea 1e 89 bd 4e 81 ba 3d 15 65 1d be 4b cf db bd
       -0.066953495 0.09106694 -0.15370591 -0.10732897
000100 92 f5 a8 3d 87 cb 0d 3e 61 42 81 3d 48 c7 7c 3d
       0.08249964 0.13847171 0.06311489 0.061713487
000110 a4 74 d3 bd 93 c4 65 bd e3 ab d3 3d 98 de 95 3c
       -0.10324982 -0.05609567 0.10335519 0.018294618
000120 f8 71 f9 3d ef 23 7d bc 16 0d 91 bd 27 2b 7c bc
       0.12179941 -0.015450462 -0.07082574 -0.015391148
000130 07 4d 82 3e c0 2c 2a 3d ae d3 65 bd df 78 8c 3c
       0.25449392 0.041546583 -0.056110077 0.01714748
000140 88 ef 07 bb 25 15 ad bd b4 6a 2d bd 6b 87 b7 bc
       -0.0020742137 -0.084512986 -0.04233809 -0.02240344
000150 cc 14 13 be 76 8c 4e 3e 7a e2 c0 3d 44 cb ea 3d
       -0.14363402 0.20170769 0.09418197 0.11464551
000160 e0 ce a4 3d 37 30 99 bd 12 25 8d bb 15 59 03 3e
       0.08047271 -0.074798994 -0.0043073976 0.12826951
000170 05 cb 43 3d ee bd 71 bd 77 06 3f bd af 43 fb 3d
       0.047801036 -0.05901902 -0.046637025 0.12268769
000180 70 de 9c be b8 20 9d be fa a5 de be 3f 31 14 be
       -0.30638456 -0.30689025 -0.43486005 -0.14471911
000190 2a b7 f8 be 17 d6 0c be 61 cd f8 bc 21 00 f7 3d
       -0.48577243 -0.13753544 -0.03037137 0.120605715
0001a0 05 52 42 be b2 de ee bd 36 eb 9f be 2f 59 bc bd
       -0.189766 -0.116635695 -0.3123414 -0.09196698
0001b0 a3 78 dc be bf 70 83 bd d4 76 6a be 3a a5 4c be
       -0.4306079 -0.06417989 -0.22896892 -0.19984904
0001c0 fb 10 81 be 39 eb 14 bd c7 3b 76 be 08 fa 08 bf
       -0.25208268 -0.03635714 -0.24046241 -0.5350652
0001d0 b1 0a d0 be 7e 5a 12 bb 10 00 c2 3d 0b 34 de bd
       -0.40633157 -0.002233177 0.09472668 -0.1084977
0001e0 a8 9d c3 be 7e 56 61 bd 29 74 fc bd 38 1b ef 3d
       -0.3820622 -0.055014126 -0.12326843 0.116751134
0001f0 82 57 55 3c 56 b3 23 3e 1f 5b 9a be 15 9a 95 be
       0.013021352 0.1598638 -0.30147645 -0.29219118

lstm.weight_ih_l2 f4 [128, 32]
000000 fb b6 e4 bd e5 5e 83 be 0f 71 dc 3d 97 40 09 bd
       -0.11167713 -0.25658336 0.10763752 -0.033508863
000010 cb c4 07 bf de 82 d3 bd 3e 14 66 bc c2 18 de 3f
       -0.5303466 -0.10327695 -0.014042912 1.7351305
000020 d8 9c 75 3e 4d 2d c1 3e ba cd 44 be 96 0d cd 3c
       0.23985612 0.37729874 -0.19219103 0.025030892
000030 28 82 c2 bf 76 10 13 bd 90 99 f6 bd 95 03 02 3e
       -1.519597 -0.03590437 -0.120410085 0.12696679
000040 5d 6c fc 3d 11 24 90 3d 42 27 15 3e 52 34 00 3f
       0.12325356 0.07038129 0.14565757 0.50079834
000050 f6 3b cb be 57 cf 3f c0 e2 07 67 3f ba c0 38 3f
       -0.39694184 -2.99703 0.90246403 0.7216908
000060 97 71 99 be 12 4e 20 bd a0 c2 b0 be 20 78 f9 3d
       -0.29969475 -0.039136954 -0.34523487 0.12181115
000070 7f 44 08 3f e5 db f2 be 11 e4 e5 bd 59 4b 68 3e
       0.53229517 -0.4743339 -0.11225141 0.22684993
000080 ab 3e 3f be 1e 06 77 be 6b 66 21 3e 8d 42 c2 bd
       -0.1867625 -0.24123427 0.15761726 -0.0948535
000090 01 c1 eb be 4e 51 af be 2a 73 38 be 81 fd 58 3f
       -0.46045688 -0.34241718 -0.18012682 0.84761816
0000a0 e9 5b 7e 3e 52 ef 2f 3e 47 49 a9 be e8 41 40 3d
       0.24839748 0.17181137 -0.3306372 0.046937853
0000b0 3b 35 23 bf 11 5a 8c bd 7b 5b fd bd f5 d5 f7 bd
       -0.637531 -0.06853116 -0.12370964 -0.12101356
0000c0 7f 2a 26 3e ec 6a 4a 3e 98 15 8a 3e 7e 4f 19 3f
       0.16227148 0.1976735 0.269696 0.5988692
0000d0 c3 5a ed be 83 08 9c bf 52 69 11 3f c7 f4 a5 3e
       -0.46358308 -1.2190098 0.5680133 0.32413313
0000e0 8b e2 0f be 6c 62 93 bc 6a 84 8a be d6 34 53 3c
       -0.14051263 -0.017991267 -0.2705415 0.012891015
0000f0 76 a6 7a 3e dc b6 d8 be a9 c2 88 bd c4 f8 a6 3d
       0.24477562 -0.4232701 -0.066777535 0.08152917
000100 d8 5a c9 bd 7a bd 40 be 30 b5 db 3b d3 50 c9 be
       -0.0983178 -0.1882228 0.006704949 -0.39319476
000110 95 b1 75 3d 8e a6 44 3e f6 33 e2 3c 58 98 89 3f
       0.05998381 0.1920416 0.027612668 1.0749617
000120 cd 6e 4e be 42 7f 32 3e 97 42 2c 3e c3 5c 2d 3d
       -0.20159455 0.17431358 0.16822277 0.042324793
000130 9b e7 aa 3f d0 94 ed bd 7c d5 43 3d e3 1c 44 3e
       1.335193 -0.11600649 0.047811016 0.19151644
000140 24 bb 63 3d 52 72 2e be 27 fe f7 3d cb f7 b0 be
       0.055598393 -0.17035797 0.121090226 -0.3456405
000150 e7 6e 92 3e 63 da 90 bf a8 7b 81 3f cd b2 18 3f
       0.28600237 -1.1316646 1.0115862 0.5964783
000160 06 92 31 3e f6 c8 9a be 10 d3 3f be b9 e4 8e 3d
       0.1734086 -0.30231446 -0.18732858 0.06977219
000170 3d 07 31 3c 6b cb c9 be 31 a6 6d 3e 4d 17 dd bc
       0.010804948 -0.39413008 0.23207928 -0.02698865
000180 ae 33 69 bf e5 d3 9a bf fb 13 73 3f 87 60 0d 3f
       -0.9109448 -1.2095915 0.9495236 0.55225414
000190 67 c5 8a bf d7 53 6a bf 3f 73 eb be a1 12 15 3e
       -1.0841492 -0.9153418 -0.45986363 0.14557888
0001a0 95 3e 69 3f 01 7d 5a 3f e6 ec a5 bf fd f8 52 3f
       0.9111112 0.8534699 -1.2962921 0.82411176
0001b0 f1 6e c4 3e 54 ea fe be 6c 04 e8 be 02 5d ee be
       0.38365892 -0.49788153 -0.45315874 -0.46555334
0001c0 57 89 05 3f 66 f7 f8 3e 92 6d 56 3f c5 fc 8d 3f
       0.5216269 0.4862625 0.8376094 1.1092764
0001d0 52 e8 8d bf 2b 1f d7 be 11 85 af 3e 1d 59 cd 3d
       -1.1086524 -0.42015967 0.3428121 0.10026763
0001e0 0f 24 96 bf 7b ce a4 3e e6 8c f6 3d d8 99 0c bf
       -1.1729754 0.32188782 0.12038593 -0.54922247
0001f0 1c 50 91 bd db 39 9a bd f4 95 28 bf 48 3c 11 3f
       -0.07095358 -0.07530566 -0.6585381 0.56732607
000200 78 ad 1d bf 27 fb 42 bf 46 4e 38 3f 74 9d 80 3e
       -0.6159282 -0.7616448 0.71994436 0.25120127
000210 bc db 2a bf cb 2f f0 be a5 2b ed be 4d 55 0b 40
       -0.6674154 -0.46911463 -0.4632236 2.1770813
000220 cf 6c 1c 3f 37 51 36 3f 89 3c 23 bf a1 4e cb 3e
       0.6110353 0.71217674 -0.63764244 0.39708427
000230 28 d2 ac bf ed 9e fe be fb 79 a7 be f8 53 b5 be
       -1.3501635 -0.49730626 -0.3271025 -0.35415626
000240 1e eb 48 3f 09 4c c0 3e 62 8f 0e 3f 99 3b 8e 3e
       0.7848376 0.3755801 0.55687535 0.27779844
000250 14 c1 f9 be a0 40 25 c0 8f 4a 15 3f 15 d2 80 3e
       -0.4878012 -2.5820694 0.5831689 0.2516028
000260 f7 dc 33 bf a4 ee 29 3e 70 a1 87 3e 2c 0d 02 bf
       -0.7025904 0.1659494 0.26490355 -0.5080135
000270 fd 29 53 be 0e 0c 5a bd 71 ed 13 bf ef ba 03 3f
       -0.20621486 -0.053234152 -0.5778418 0.51457113
000280 e2 27 b8 bd 4c 88 9b be 35 a6 b1 3d 11 1f 61 3d
       -0.08991982 -0.30377424 0.086742796 0.054961268
000290 94 f8 98 bd 37 92 8b be 3a 56 07 3e 84 de 8e 3f
       -0.074692875 -0.2725999 0.13216487 1.1161656
0002a0 e7 3b e8 3c ea 9d 1b 3e 53 c8 7d be eb 3e 30 3e
       0.028348876 0.15196958 -0.24783449 0.17211501
0002b0 cc d7 4a 3f a7 f7 8f bd ff 71 d1 bc 62 eb 96 be
       0.7923553 -0.07029658 -0.025567053 -0.29476458
0002c0 c7 9f 87 3e 70 ec 80 3e 3e 34 96 3d c9 b8 cf 3e
       0.26489088 0.25180387 0.07334183 0.40570667
0002d0 b6 9a bb be fc 4c 20 bf b1 21 82 3f d3 52 3f 3f
       -0.36641473 -0.6261747 1.0166532 0.74735755
0002e0 d9 51 c8 be d1 d2 0f 3c 8c 22 92 bd 97 eb 75 3d
       -0.39124945 0.00877829 -0.071354955 0.06003913
0002f0 23 2a 79 3e 69 9b c5 be 83 e4 d1 bd 5f a5 39 3e
       0.2433248 -0.3859513 -0.10248663 0.1812949
000300 ce 49 61 be 7d 54 77 be b0 a0 ad 3e 66 75 1f 3e
       -0.2200081 -0.24153323 0.33911657 0.15572128
000310 d6 b3 e1 be 22 3e 1a be 1f 8c 1d be d1 07 86 3f
       -0.44082516 -0.15062764 -0.15385483 1.0471135
000320 e1 54 7f 3e 91 9f 67 3e df 7d fa be ea b3 1b 3c
       0.24934722 0.22619464 -0.48924157 0.009503344
000330 3b 38 1c bf b6 fc af bd 87 6d 56 bd 97 b0 f5 bd
       -0.610233 -0.08593123 -0.052350547 -0.119965725
000340 07 70 4e 3e d7 b2 d4 3d 00 a0 29 3e f2 f3 02 3f
       0.20159923 0.103856735 0.16564941 0.5115348
000350 82 9d 42 bf a7 d0 a9 bf 87 a3 48 3f 9d 0b 54 3f
       -0.7602159 -1.3266801 0.7837452 0.8283022
000360 43 af 51 be 34 37 aa 3c eb 1b 9b be 49 00 96 3d
       -0.20477013 0.020778276 -0.30294737 0.07324273
000370 dd 85 b7 3e 6c be 9c be eb 0f 2a 3d 76 f7 18 3d
       0.35844317 -0.3061403 0.041519087 0.037345372
000380 4b 3a a1 bd 62 c7 a1 be 89 cc d0 3e d4 ba bc bc
       -0.078724466 -0.3159743 0.40781048 -0.023038305
000390 73 a1 ad be f9 61 98 bd 90 89 4d bc f0 d7 60 3f
       -0.33912238 -0.07440562 -0.0125450045 0.87829494
0003a0 72 98 98 3e b4 73 6b 3e 6d ef ec be 39 a1 ce 3d
       0.29803807 0.22993356 -0.46276417 0.100893445
0003b0 7d 10 62 bf 2f 31 a1 bd 90 52 15 be 99 bb ce bd
       -0.8830641 -0.07870709 -0.14582276 -0.10094375
0003c0 6f 99 32 bd b8 3a 53 ba eb 77 1f 3e 29 9a f6 3e
       -0.043603357 -0.0008057761 0.15573089 0.4816449
0003d0 d3 e7 17 bf 09 28 bb 3b 6b 14 5e 3f 82 78 ba 3e
       -0.5933811 0.0057115597 0.86749905 0.36420065
0003e0 df 94 98 be f2 a4 37 be 87 e5 28 be 54 61 30 3d
       -0.2980108 -0.17934015 -0.16493808 0.04306157
0003f0 eb 6b a0 3e 0e f4 3c be 51 57 0e be 24 8a 1f 3e
       0.31332335 -0.18452474 -0.13900496 0.1558004
