rnn_model1.pt (torch, 506133 bytes, 19 tensors)

rnn.weight_ih_l0 f4 [128, 8]
000000 65 2c c2 bc 6d e1 e1 3c 7d 19 cf 3b b5 43 3c be
       -0.02370281 0.027573312 0.006320177 -0.18385203
000010 33 4d 81 bd e7 54 cb bb e5 23 06 3d 1c fd 54 3c
       -0.06313553 -0.0062051895 0.032749075 0.012999799
000020 c6 65 6c bd 35 2c 75 3d b3 77 13 3c e8 99 b3 3b
       -0.057714246 0.059856612 0.0090007065 0.0054809935
000030 2b 5f 07 3c b2 f3 6d ba 58 9b a3 3a da ab b9 3b
       0.008262436 -0.0009077146 0.0012482209 0.0056662383
000040 ee 0b f9 bc 2e 2e 37 3d 67 a9 cc 3c 87 91 f8 3e
       -0.030401196 0.044721775 0.024983121 0.4854853
000050 78 e0 9f bd dd db 36 bd 03 70 56 3d a9 a9 fb bc
       -0.07806486 -0.04464327 0.052352916 -0.030720549
000060 6c 79 a1 3c ec da 19 bb fa 88 dd 3c d2 79 9e be
       0.019711219 -0.0023476435 0.027042855 -0.30952317
000070 f1 bf 64 bd 5b 19 30 3b 53 2f 70 3d c8 99 bd 3b
       -0.055847112 0.0026870582 0.058638882 0.0057861544
000080 31 74 0f 3d fd 97 f6 bc b1 7b 9b 3a 95 4a 26 3c
       0.035022918 -0.03010177 0.0011862424 0.010149618
000090 17 91 7d 3a cd d7 02 bd b5 e7 68 bc e8 55 6a 3c
       0.0009672804 -0.031944085 -0.0142153995 0.014302708
0000a0 a0 5c 83 3c 9c 35 39 bc df 1d 7b 3b b0 ad 51 be
       0.016035378 -0.011304285 0.0038317365 -0.20476413
0000b0 4d 32 cf bc 6a a9 1d bd ce 86 1a bd b7 e7 46 3c
       -0.02529254 -0.038491644 -0.037726216 0.012140206
0000c0 84 bf 28 3c 20 95 bb bc d4 d6 8f 3b e7 5c 96 be
       0.010299567 -0.022898257 0.004389623 -0.29367754
0000d0 7a cb ed bb 9e 57 65 bd 9f 92 f4 bc 8e d4 4f bc
       -0.0072569223 -0.05599176 -0.02985507 -0.012684954
0000e0 0e 1a 5f bc b9 07 20 bb 0f 99 c7 3b 1a 60 51 be
       -0.013617052 -0.0024418666 0.006091244 -0.20446816
0000f0 dd 4f 84 3c fc 7c 6d 3d 26 9a ea 3c b3 0c f4 3b
       0.016151363 0.057980523 0.028637957 0.007447803
000100 39 d5 7e 3c 12 e4 0c bc 5d d3 8e bb 04 56 e6 bd
       0.015553766 -0.008599298 -0.0043586926 -0.11246875
000110 a8 8f b0 bc 85 81 1a bc 19 ed 7c bc e4 07 fe 3b
       -0.021552876 -0.009430294 -0.015437388 0.0077524055
000120 03 36 22 3d 9e 2d 0d bd a6 ba ca ba 31 62 e2 3b
       0.03960229 -0.034467332 -0.0015467003 0.006908678
000130 ac da 77 3c d5 99 8a bc 49 97 f4 bb 79 6c 20 3c
       0.015127819 -0.016919056 -0.0074643237 0.009791487
000140 1b 9f 5f 3b 21 d4 cb 3b fd bd b8 bc 74 86 26 bc
       0.0034121934 0.006220356 -0.022551531 -0.010163892
000150 cd df 21 bc 44 eb 9c 3c f8 74 64 3b 18 2e 66 3c
       -0.009880018 0.019155152 0.0034859758 0.014049076
000160 9b 8d f9 ba 93 6b a4 bc 5e 3f dd 3b 20 65 6f bb
       -0.0019039394 -0.020070827 0.0067519387 -0.003652878
000170 cb 1f c5 bc 2f e8 4f 3b cf 26 10 3b 40 38 1d bc
       -0.024063012 0.0031724086 0.0021995788 -0.009595931
000180 a4 47 46 3b 1e 6e 9f bb 93 2a 29 bc 2d dc 04 bc
       0.0030255103 -0.004865422 -0.010325092 -0.008109135
000190 6a 32 97 bc 44 ee 15 3d 79 d7 11 3c 26 5c c6 3a
       -0.018456656 0.03660418 0.00890147 0.0015133664
0001a0 38 77 7b 3d 33 42 89 bd 08 0b 22 bb dc ec 2f be
       0.061392993 -0.067020796 -0.0024725813 -0.17180198
0001b0 d1 57 29 bc 27 2c 80 3c 7b a4 93 3a e3 28 61 3c
       -0.0103358785 0.015646053 0.0011264229 0.013742658
0001c0 e1 c9 0e 3c dd 9c 30 3c ed 48 70 39 17 96 4a 3e
       0.008715124 0.010779587 0.0002291535 0.19783817
0001d0 15 58 14 3c 61 bd 0b 3d 2c 2f 50 3d 05 3e db bc
       0.0090542035 0.034116153 0.050826237 -0.026762972
0001e0 1d 2d 72 bd 03 d5 a1 3d 86 99 16 bb ed 88 59 bb
       -0.059125055 0.07901957 -0.002297969 -0.0033193186
0001f0 5f 9b cd bb 71 4c 23 3c e2 ef 3e 3c 12 0d 8f bb
       -0.006274625 0.0099669555 0.011653872 -0.004365572
000200 5d 91 48 3d 2e 19 71 bd e2 93 fe bb 54 4c 68 bb
       0.048966754 -0.058861904 -0.007769094 -0.0035445886
000210 07 cf 36 3c 0f f0 3e bc ff 1b 83 bc 28 4e 00 bc
       0.011157758 -0.011653914 -0.01600456 -0.007831134
000220 3f 5b 7f 3d 45 6f 27 bd 9d 58 1c 3c 92 c8 a0 be
       0.06234288 -0.0408776 0.009542611 -0.31403023
000230 3d 19 0c bd d5 9c 37 bd 8d ab 86 bc 7e 8a b0 3c
       -0.034203757 -0.0448273 -0.016439224 0.021550413
000240 80 f6 b2 bb 90 cb eb 3b 44 27 ae 39 e1 60 ab bb
       -0.005461514 0.0071958974 0.0003321712 -0.0052300547
000250 2f bf fb bb 16 de 99 bb 19 fe 3a 3c c6 ce 8c 3c
       -0.007682703 -0.004695664 0.011413121 0.017188441
000260 fd ff b8 39 6e 5c 60 3c 53 78 5d 3c 00 31 81 3b
       0.0003528594 0.013693912 0.013517457 0.003942609
000270 51 83 c8 3c c6 80 83 bc b4 fc 28 bc 03 f7 30 3c
       0.024476679 -0.016052615 -0.010314155 0.01080108
000280 5a 97 81 bd 31 4c 7b 3d 70 30 2b ba 12 17 24 3b
       -0.06327696 0.06135196 -0.000653035 0.0025038165
000290 9f c4 56 bc df ac 21 3d 2f 9a 80 3c a3 c3 21 bb
       -0.013108402 0.039471503 0.01569852 -0.002468326
0002a0 5d 15 84 bc f4 7e cf 3c 41 e8 4a bc 56 ea 2e 3b
       -0.016123468 0.02532909 -0.012384475 0.0026689968
0002b0 d4 9b 64 3c cf 35 02 bc c0 51 8b ba 19 00 25 3c
       0.013953168 -0.007947399 -0.0010629222 0.010070824
0002c0 48 e2 55 3c e5 fc e2 bb 28 ba f3 3b f0 c1 fe 3a
       0.013054438 -0.00692712 0.007437963 0.001943646
0002d0 6f 73 a8 3c 49 be 76 bc 78 e1 1c bd a1 12 d1 3c
       0.020562856 -0.015060016 -0.03830096 0.025521578
0002e0 e5 76 88 bd e2 b1 9d 3d 06 e2 79 3c 03 cc ba ba
       -0.06663302 0.07699944 0.015251642 -0.0014251474
0002f0 e4 67 18 3c 10 7f d4 3c 24 bf ca 3c 10 6d 08 bd
       0.009302113 0.025939494 0.024749346 -0.033307135
000300 82 cd 34 bd 47 f7 90 3c 80 6d f9 3b 7b 53 10 bf
       -0.0441413 0.017696036 0.0076119304 -0.5637738
000310 8c 4d a0 3b 0e 87 2e 3b c8 03 63 3d bc 14 fe bc
       0.004892057 0.0026630792 0.055423528 -0.031015746
000320 b6 e1 31 bc 34 df e3 3a eb 74 39 bb 03 18 30 bc
       -0.010857036 0.0017385245 -0.0028298448 -0.010747912
000330 2a 91 54 bc d0 e7 08 3b e3 31 9a 3c 2e c8 be 39
       -0.012974063 0.0020890124 0.018822616 0.0003638877
000340 58 10 4a 3c 4f 4f 03 bd 6d 50 02 3d 9a 12 c8 bb
       0.012332998 -0.032058056 0.03181498 -0.006105733
000350 22 6b d5 bb 37 fe bf 3c d2 a4 36 3c c6 e9 c1 bc
       -0.0065130154 0.023436649 0.011147695 -0.023671042
000360 cd 79 7d bc 06 58 9c 3c b9 b5 1c 3c 38 14 60 be
       -0.015470934 0.019084942 0.00956481 -0.21882713
000370 51 a3 c5 bb b1 ba 18 bd dc 77 01 bd 41 ee 56 3c
       -0.0060314317 -0.037287418 -0.031608447 0.013118328
000380 57 11 97 bd 39 51 41 3d e9 8d 7e 3c d1 e2 85 3b
       -0.07376354 0.0471966 0.015536764 0.0040858765
000390 34 f2 42 3c c2 60 86 3c f5 e0 e6 bb ab cf 03 3d
       0.011898566 0.01640356 -0.00704586 0.03218047
0003a0 3d 75 a7 3c a7 10 ed bc 68 e3 08 3b 3b b2 a5 bb
       0.020441646 -0.028938605 0.0020887498 -0.005056647
0003b0 96 43 e5 bc fa 83 ed bb 2f 0e e7 3a 7a ed a2 bc
       -0.027986329 -0.007248399 0.0017628128 -0.019888628
0003c0 46 3b 52 bc 4d cd 52 ba 9a 68 39 3b 45 f5 2f bc
       -0.012831515 -0.00080414565 0.0028291107 -0.010739629
0003d0 78 43 3d bc f0 ee f6 3b 46 c4 2c 3c 1a 69 81 bc
       -0.01155173 0.007535808 0.010544842 -0.015797187
0003e0 04 c3 45 3d 79 f4 04 bc 25 50 9f 3c 0b 4a 7b be
       0.048281685 -0.008114927 0.019447396 -0.24539964
0003f0 7f 69 ca bb 9d 04 fe 3c 1d eb 1a 3d 5d 49 ab 3b
       -0.006177127 0.03100806 0.037821878 0.0052272514

rnn.weight_hh_l0 f4 [128, 128]
000000 6c f3 96 bd c5 2b c0 bc 0f 28 8e bd 7f 46 4e 3c
       -0.07370648 -0.023458371 -0.06941234 0.01259005
000010 9d 6d 73 3c f0 bf 01 3d 55 5f 1e bc d8 6d 71 bd
       0.014857677 0.031677186 -0.009666284 -0.058942646
000020 57 05 c1 3d af 5f 09 3d 5a 99 b6 bd 82 2c 13 3d
       0.094248466 0.033538517 -0.08915968 0.035931118
000030 10 88 dc bc 93 44 1f bd 1c e7 db bc c6 fd 13 bd
       -0.026920348 -0.038883757 -0.0268436 -0.03613069
000040 da 48 fa 3b 01 b9 a3 3c 2c 82 bd bc 83 78 68 3b
       0.007638079 0.019985678 -0.02313336 0.0035472221
000050 81 23 a5 bc a0 2d 3f 3d c2 97 39 bd 34 ac 40 3d
       -0.020158531 0.04667437 -0.045310743 0.047039226
000060 73 15 c4 3c 58 e3 71 bd 7e 19 25 bd 8b f3 86 3d
       0.023936009 -0.059054703 -0.040307514 0.06589421
000070 8e 47 46 3d 43 18 04 bd a2 45 e2 bd ce 21 a0 bd
       0.048408084 -0.0322497 -0.11048438 -0.07818948
000080 9f 05 e6 bc fc 88 47 3d da 87 c2 bc af 34 4a 3d
       -0.028078852 0.048714623 -0.02374642 0.04936665
000090 22 e1 83 3d 6c cb 87 3d e4 af 21 3d cf 61 74 bd
       0.06439425 0.066305965 0.039474383 -0.05966359
0000a0 7d 6e 46 3d 94 b7 4c 3b 86 60 97 3c a2 3e 5e 3d
       0.048445214 0.003123735 0.018478643 0.05425895
0000b0 54 1b bd bd 50 78 40 bd ce cc 55 bd 88 a9 5c bb
       -0.09233728 -0.04698974 -0.05219727 -0.0033670384
0000c0 69 15 53 bd ff 94 c3 3c 30 06 de bc 50 a4 3d 3d
       -0.05153409 0.023874758 -0.02710256 0.04629928
0000d0 eb a3 d9 bd ec ac 07 3d 5d 21 52 bd 32 55 9f 3d
       -0.10626968 0.033123896 -0.05130135 0.077799216
0000e0 09 2b a2 bd 3f 2b 1e 3d d9 98 9e 3d fe 59 76 bd
       -0.079183646 0.03861546 0.07743997 -0.060144417
0000f0 a0 74 a0 3b d1 95 12 bd 58 6f 04 3d de db 02 bd
       0.0048967153 -0.035787407 0.03233275 -0.031947963
000100 40 3e 61 bd 60 42 2c 3d 03 1a 9c bd 76 e2 31 bd
       -0.054991007 0.042055488 -0.07622149 -0.04342886
000110 55 19 e1 3c d6 74 18 3d 1f c2 a1 bc d5 fd 14 3c
       0.0274779 0.0372208 -0.019745884 0.009093721
000120 be 49 32 bc 3b d4 56 3d 1a 3c f3 3c 5b 9e 17 3c
       -0.010881839 0.052448492 0.029691745 0.0092540635
000130 e4 13 bd bc 32 7e ab bd 02 eb 82 bb 26 d4 03 bc
       -0.023080774 -0.08373679 -0.0039953003 -0.008046186
000140 1b 0f 89 3d ac 35 a9 3d 00 66 9a 3d 16 18 0c bd
       0.06692334 0.0826219 0.07538986 -0.034202658
000150 f7 e4 a4 3c db 10 3f bc 63 7d 0b bd 90 4c c0 3d
       0.02012871 -0.0116617335 -0.034055125 0.09389603
000160 8c 30 bc 3c 05 9c b9 3c 88 de 2d bd fd 14 a9 3d
       0.022972368 0.022657404 -0.04244855 0.08255956
000170 c1 18 09 3d d3 b9 8a 3d 92 55 17 bd cd 99 2c 3b
       0.033470873 0.067737244 -0.03694684 0.002633679
000180 80 14 aa 3b 48 70 d1 3c f5 3f 4e bd 23 dc 4d bd
       0.005190432 0.025566235 -0.050353963 -0.050258767
000190 f5 b7 67 3d 5e 0f f3 3c 96 1b 8a 3a 29 ec 76 3b
       0.05657192 0.029670414 0.0010536786 0.0037677384
0001a0 73 b2 8b bd 84 f8 37 3c 52 f4 2b 3d f3 c6 4a 3c
       -0.06821146 0.011228684 0.04198105 0.012376535
0001b0 14 57 86 3c 7a 7e 58 bd 79 1b 1f 3d e3 82 72 3c
       0.016398944 -0.052854992 0.03884456 0.014801714
0001c0 fa ca 0b bd 6d d3 47 3c 94 0c fa 3b 76 25 13 bd
       -0.03412912 0.012196404 0.007630894 -0.035924397
0001d0 09 52 72 bc a8 c9 09 3e 50 c7 86 bd 2f b9 0f bd
       -0.0147900665 0.13455832 -0.065809846 -0.035088714
0001e0 cd 75 52 3d 08 9a 27 bc 28 64 8a 3b d0 72 32 bd
       0.051381875 -0.010229595 0.0042233653 -0.043566525
0001f0 d8 ba 6e 3d 14 ef 67 3d ed b2 e7 3c 58 bb 18 3c
       0.058283657 0.056624487 0.02828356 0.00932201
000200 07 18 2a 3c 49 68 5b be e2 61 89 bc 90 7b a0 3d
       0.010381705 -0.214265 -0.016770307 0.07836068
000210 a2 eb 66 3c 13 78 3c bc 2b a9 72 3c 97 5d 66 3d
       0.014094265 -0.011503237 0.014810841 0.056241598
000220 ff 9b f3 bb fd fb 8e 3c d9 c3 c8 bc ce 4b ba bb
       -0.0074343677 0.017454142 -0.02450745 -0.005685306
000230 67 92 21 3d 1c 69 a5 3c 2d 21 b6 bc d7 61 28 bc
       0.03944626 0.020191722 -0.022232616 -0.010277233
000240 1d d6 4a bd 97 bf 86 bd b1 2d aa 3c b5 fa fe 3c
       -0.0495206 -0.065795116 0.02077374 0.031125406
000250 6b e0 ab 3b 6c 13 90 bc 94 94 84 bc 59 3b 87 bc
       0.0052452586 -0.017587386 -0.016184129 -0.016507791
000260 00 ff 0c bd 56 f6 99 3d 82 39 d3 3c d0 a9 21 3d
       -0.034422874 0.07517688 0.025784258 0.039468586
000270 42 08 64 bc 80 98 1a 3d 7f 22 08 3d 33 b9 00 3d
       -0.013917984 0.03774309 0.033236023 0.03142662
000280 73 ba 66 3d bd 87 ea 3a 84 d3 97 bc 49 af 81 bc
       0.056330156 0.0017893236 -0.018533476 -0.015830653
000290 e7 9b df 3c ab 1a 1d 3d 55 10 2f bd ad d7 a1 bb
       0.02729602 0.03835551 -0.042740185 -0.0049390406
0002a0 26 e3 cf bb c3 59 b9 3b 09 9a 55 bd 1d 23 11 3c
       -0.006344217 0.0056564524 -0.052148852 0.008858469
0002b0 24 d2 28 bd d2 a3 48 bc b0 35 1d 3d 63 b7 63 bd
       -0.04121603 -0.012246089 0.03838128 -0.055594813
0002c0 80 9f 5c bc d0 06 a7 bc 7a 75 23 3d f5 32 75 3c
       -0.013465762 -0.02038899 0.039906956 0.014965762
0002d0 30 2b 95 3c c1 3c 85 bd cf 3c 9d bd be 32 18 3d
       0.01820907 -0.065057285 -0.07677614 0.037157767
0002e0 bf d8 21 3d f1 6a 70 3c f8 42 18 bd f4 a1 ab bd
       0.039513346 0.014673934 -0.03717324 -0.083804995
0002f0 fc a0 ea 3c a5 94 47 3b b2 3f 0a bd 2f e4 30 3d
       0.028641216 0.003045359 -0.03375215 0.043186363
000300 f3 7a 5b bd 85 38 44 bc 56 41 ee ba 3a f3 17 3d
       -0.05358405 -0.011976366 -0.0018177431 0.037097193
000310 d1 29 48 3c 53 e2 b3 bc 7a 16 a6 3c 1b 47 a6 bc
       0.012217001 -0.021958506 0.02027439 -0.020297578
000320 6b 6e 50 bd f6 bf d1 3b 38 d5 9f 3d 6c d1 49 bd
       -0.050886553 0.0064010574 0.0780434 -0.049271986
000330 2b 4a 67 3d d2 24 8f 3d 48 5c 5a 3d 17 c2 cd 3c
       0.056467216 0.06989445 0.053310663 0.025116963
000340 eb 28 46 3d 7d fe 02 bd 91 30 57 bc 2b 33 a1 bc
       0.048378866 -0.03198098 -0.013134138 -0.01967772
000350 b6 f1 ff 3c 98 54 2e 3d b1 d0 b1 3c 7b a8 5a 3b
       0.031243186 0.042561144 0.021705957 0.0033364582
000360 de 1a b4 3c dc 78 8b 3d 0f 52 78 ba d2 a6 b9 ba
       0.021985468 0.068101615 -0.0009472677 -0.0014164096
000370 85 d0 a0 bd 0d f7 94 3c ae 3d 8b bc 5f 91 39 3c
       -0.07852272 0.01818421 -0.016997185 0.011326163
000380 ed a9 4a bd 1f 7f b9 bb 49 bb a1 bc 9a ae 03 3c
       -0.04947846 -0.005660906 -0.019742625 0.008037234
000390 49 25 01 bd c0 c8 53 bc a2 e9 56 3d 00 72 3c 3d
       -0.0315297 -0.0129262805 0.052468903 0.046007156
0003a0 47 38 17 3d 2c 54 c6 3c 95 ec 0b bd 27 84 03 bd
       0.036918905 0.024210058 -0.03416117 -0.032108452
0003b0 16 c8 47 3d 61 57 13 bb 4b 2e 5a 3b 7d a2 b7 bd
       0.0487748 -0.0022482502 0.0033291753 -0.08966539
0003c0 0e 0d 57 bc 2a 50 3c bd b9 26 bd 3c af 5b 6a 3b
       -0.013125671 -0.045974888 0.023089753 0.0035760214
0003d0 4b 74 bc bb 35 f9 8a 3d d7 61 f4 3b ec d7 02 bc
       -0.005751168 0.06785814 0.0074579525 -0.00798605
0003e0 fe 36 01 3c a5 ad 49 3c e8 26 da bc a7 b6 3e bc
       0.007886646 0.0123094665 -0.02662988 -0.011640227
0003f0 ef d9 8a bd db cb 89 bc 1c f6 84 3b d4 36 2e bd
       -0.06779849 -0.016820839 0.004057659 -0.042532757

rnn.bias_ih_l0 f4 [128]
000000 59 42 bc b9 fd c4 d6 3c 8a 97 60 3d ea bd 79 bc
       -0.00035907587 0.026216978 0.05483202 -0.015243033
000010 9a d6 1d bd ce 3f 9d 3d ac e1 7c 3d 0e 85 33 bc
       -0.038534738 0.076781854 0.061738655 -0.010957016
000020 6f 53 bb 3d 87 64 20 3e bb 43 02 be 93 34 37 bc
       0.09146773 0.15663348 -0.1272115 -0.011181968
000030 9f 05 de bd c3 65 1c 3d f0 b7 05 be 91 da c8 bc
       -0.10840916 0.038182985 -0.13058448 -0.024518283
000040 77 36 35 3d 86 03 44 3e f1 7c 3c 3d ae ad 2f 3e
       0.044241395 0.19141969 0.04601759 0.17156097
000050 1a 0a 69 bd 98 76 4d 3c 51 2d 8c bc cd 2e 83 3d
       -0.0568944 0.012540482 -0.017111452 0.06405411
000060 7e 5e 6e bd 7c 52 b8 bb a1 82 7f bd 8c 2c ca 3d
       -0.058195584 -0.0056250673 -0.062380437 0.09871778
000070 42 03 11 3e ee c9 c1 bd ba 61 17 be 00 fc 7a 3d
       0.14161399 -0.09462343 -0.14783373 0.061275482
000080 43 02 b2 bd ac 0a aa 3d 2d a3 a8 3d 2c 9f ba 3d
       -0.08691838 0.08302817 0.08234248 0.09112391
000090 62 8d 58 3d dd 57 2b 3d 7c 46 b4 3c ff 75 70 3d
       0.05286921 0.04183184 0.022006266 0.05870628
0000a0 1c b1 35 bc 9e 76 a5 bd e2 73 f3 3c 87 08 14 be
       -0.011089589 -0.08079265 0.029718343 -0.14456378
0000b0 47 ab 23 be d8 9d fa 3c 2d 7c 52 bc 73 cf 40 bd
       -0.15983306 0.030592844 -0.012846989 -0.04707284
0000c0 25 49 9c 3d 6a d7 40 bd 34 eb 44 bd 81 0f b8 bc
       0.07631139 -0.047080435 -0.04807587 -0.02246833
0000d0 69 73 6a bd c1 64 57 3c c1 38 5b bd 2e e2 d1 bc
       -0.05723897 0.01314658 -0.05352092 -0.025620546
0000e0 a3 d6 e8 bd a1 c4 1a 3d 9b 2f 2e 3e e8 08 b8 bc
       -0.11369064 0.037785176 0.17010348 -0.022465184
0000f0 e8 ab e0 3d 9b 46 a3 3c 02 71 86 bd 19 f3 d9 bd
       0.109702885 0.019931128 -0.06564523 -0.1064207
000100 65 ee 0a 3e d0 0e 5f 3d 79 3e a8 3b cd 35 b3 3d
       0.13567503 0.054457486 0.0051344004 0.08750496
000110 30 72 24 3e 7d b6 13 bd 2d 1c ab 3b a8 6c 50 3a
       0.16059184 -0.036062706 0.0052218647 0.00079507614
000120 65 57 f1 3c 6b e9 f5 ba 2d a9 cf bd e0 d4 fd bc
       0.029460618 -0.001876158 -0.101396896 -0.030985296
000130 2b 19 cf bd 0c 0a a1 3d 06 40 76 3c ca 94 6b 3d
       -0.10112222 0.078632444 0.015029913 0.057514943
000140 1d 50 16 3e 78 6e a1 3d 9c 03 00 3b 85 24 0f be
       0.14678998 0.07882398 0.0019533401 -0.13978775
000150 6e eb 36 3d 16 a9 e8 3c 5b a6 8a bc cb ba 5b 3d
       0.044658117 0.028400939 -0.016925028 0.053644937
000160 4c 9f 06 3c 3d d9 1e 3e b4 09 c7 3c 55 7e c5 3d
       0.00821669 0.15512557 0.024296619 0.096432365
000170 b1 30 17 3c 8a e8 94 3d fb d7 c3 bc af d4 17 be
       0.0092279175 0.07270916 -0.023906698 -0.14827226
000180 da be 83 bd 07 ba c5 3d 5c f8 a4 bd ca ab d2 bd
       -0.064328864 0.096546225 -0.08055183 -0.102866724
000190 2a 21 27 3d 16 e2 3b be 36 47 c2 3c d7 a5 a5 bd
       0.040803112 -0.18347964 0.023715597 -0.08088272
0001a0 86 ff 79 3d 22 d2 07 be 21 44 3a 3c 09 af 60 bd
       0.0610347 -0.13263753 0.011368782 -0.054854427
0001b0 16 e7 dd bd 0d 94 9a 3d 73 38 cb bd b6 77 81 3c
       -0.10835092 0.0754777 -0.09922876 0.015804153
0001c0 bb 24 0f 3c 52 2b d2 3d f4 d0 0c 3d d5 cb b3 3c
       0.008736785 0.10262169 0.03437896 0.02194778
0001d0 a6 30 dc bd d5 97 a4 be 67 86 b3 bd a9 f8 b5 bc
       -0.107514665 -0.3214709 -0.087658696 -0.022213297
0001e0 d1 43 7a 3c 8a 21 48 3c 51 85 34 3d fb 92 11 3e
       0.015274958 0.012215028 0.044072453 0.14216225
0001f0 18 19 a3 ba 66 e2 29 be 84 a1 7c be 81 44 ee bd
       -0.0012443392 -0.1659027 -0.24670988 -0.1163416

rnn.bias_hh_l0 f4 [128]
000000 d8 f1 b1 3d 66 a7 1f 3d 14 77 ca bc 2e 0e fa 3d
       0.08688706 0.038978003 -0.024714984 0.12209736
000010 23 bb 8d 3d 61 d2 00 3d d6 9f 3b bd e3 1a 6a bc
       0.06920459 0.031450633 -0.04580673 -0.014288637
000020 6b df 3a bd cc de 0e 3e 84 09 aa bd c1 ba 30 3d
       -0.045623224 0.13952178 -0.08302596 0.043146852
000030 a6 5c ef bc 07 ba 21 bc ae 36 6d bb 7b ec 6a 3d
       -0.029218983 -0.0098710125 -0.0036195922 0.05735443
000040 23 71 b4 bc 11 2b 0b 3e 55 b6 d3 3d f9 e1 1b 3e
       -0.022026604 0.13590647 0.103375115 0.1522292
000050 0d 06 2d 3c 39 1c e7 bd d4 9f 27 3d 8e 59 97 3d
       0.010560525 -0.1128468 0.04092391 0.07390128
000060 50 17 c4 bc d8 2f f1 bc fd ce cd 3d ce 44 20 3e
       -0.023936898 -0.029441759 0.100492455 0.15651247
000070 56 8d 08 3e 5c 8f a4 bd e6 8c 2a be 9c 64 c8 3d
       0.13335165 -0.08035156 -0.16655311 0.09784815
000080 1f 14 85 bd 5a 5f f1 bc 2e 75 d6 bc 1e fc 36 bd
       -0.064979784 -0.029464412 -0.026178923 -0.04467403
000090 9e d3 86 3d 2c 30 83 bc fe 7d 7a 3d 8e 99 3c bc
       0.065833315 -0.016014181 0.06115531 -0.01151122
0000a0 00 08 a5 bc 6d 52 be bc 5f 3e e7 bd e0 dc 8e bd
       -0.020145416 -0.023232663 -0.11291193 -0.06975722
0000b0 4f 35 15 bd 8c 5d d5 3c db dc 53 3b 3e be 25 3d
       -0.036427792 0.026045583 0.0032327685 0.040464632
0000c0 ce 71 1f 3e 13 1a 23 3d f7 de 8a 3d 4e 29 71 3d
       0.15570757 0.03981979 0.067808084 0.05887728
0000d0 ff 9e 55 bd ec 80 97 3d 05 08 f6 bd c6 7c 7f 3d
       -0.052153584 0.07397637 -0.12013248 0.062374853
0000e0 49 2d da bd 86 28 eb 3c ef b3 3b 3e ae f3 7c 3d
       -0.10653169 0.028705847 0.18330358 0.06175583
0000f0 00 16 22 3c 2b 31 0b be d0 5d ab bc c4 e3 d0 bd
       0.0098929405 -0.13592975 -0.020918757 -0.10199693
000100 f2 7d f8 3d df fb 76 3d 26 e2 6c bd 01 41 5f bd
       0.12133397 0.060298797 -0.05783286 -0.054505352
000110 b5 5b 82 3d f5 92 59 bc 3f 96 a6 3d 59 0e b7 bd
       0.06365148 -0.013279666 0.08134126 -0.089382835
000120 49 a9 0d bd a7 0f 66 3c c3 74 d2 bd 66 1c 69 bc
       -0.03458527 0.014041818 -0.10276177 -0.014227962
000130 10 65 b0 bc 83 34 72 3d 8b 3f 37 bb 93 14 41 bd
       -0.021532565 0.05913211 -0.0027961459 -0.04713876
000140 76 77 1b 3e 1e 25 ec 3d 05 45 9e 3d 47 9a 9d bd
       0.1518229 0.11530517 0.07728008 -0.07695442
000150 9d a9 e5 3c ee 44 6e 3d 4b 43 85 bd c5 21 02 3e
       0.02803498 0.058171205 -0.06506976 0.12708195
000160 f0 27 ba bd 63 d6 29 3e f0 8b 82 3c fa 32 ec 3d
       -0.09089649 0.16585688 0.015935868 0.115331605
000170 0c 22 c6 3d fd 31 92 bd 3b 51 2d bd 93 e7 de bd
       0.09674463 -0.07138441 -0.042313796 -0.10884013
000180 6b 50 c4 bd 50 96 b7 bc c8 fd 4e bd f2 0c d1 3c
       -0.09585651 -0.022410542 -0.050534993 0.025518868
000190 5a 63 d7 3d 9d 18 20 be 4e f7 9f 3c b0 63 25 be
       0.10516997 -0.15634389 0.019527104 -0.16151309
0001a0 8c cf d5 bc 29 01 97 bd 8d ec cc bd de 97 10 3c
       -0.026099943 -0.07373268 -0.10006056 0.00882527
0001b0 77 9c 3d be b7 c1 87 bd c5 50 da bd 55 01 04 3c
       -0.18516718 -0.06628745 -0.10659937 0.008056958
0001c0 fb 54 c2 3d 34 7e 88 3d 1e 2c c6 3d 03 d7 d4 3c
       0.09488865 0.06664696 0.096763834 0.025981432
0001d0 d1 79 71 3c 18 ab a4 be 90 04 d3 bd bf 62 af 3d
       0.014738516 -0.32161784 -0.103036046 0.08563756
0001e0 06 ca d7 3d 98 3b b4 3c b9 50 bd ba e9 69 bb 3c
       0.1053658 0.022001073 -0.0014443613 0.02287765
0001f0 3c a9 3b 3d a0 8d 86 bb 74 7e ad bd 0f f4 a8 bd
       0.04581569 -0.0041062385 -0.08471385 -0.082496755

rnn.weight_ih_l1 f4 [128, 128]
000000 b0 f6 8f 3d 66 f7 21 3d ad 8e 27 3d 2a 71 21 3d
       0.07029474 0.03954258 0.04090755 0.039414562
000010 94 ba 22 3d 3d eb c0 bc e1 f5 bf bc 86 84 33 3d
       0.039728716 -0.02354967 -0.023432674 0.043827556
000020 26 da ab bc 18 8e 88 bd 2d ac 81 bd 93 e8 38 bb
       -0.020978045 -0.06667727 -0.06331668 -0.0028214797
000030 54 16 3e 3c 87 42 d9 3c 81 d0 03 be ae 4a 24 be
       0.011602003 0.02652098 -0.12872507 -0.16044113
000040 df 94 17 bb da a2 5b bd 6c 41 a3 3d 15 2e 30 3d
       -0.0023129506 -0.053622104 0.079714626 0.043012697
000050 25 f3 c0 3d 0e a6 9b 3d b8 9d 11 bd c7 fc 81 bd
       0.09421376 0.07600032 -0.035550803 -0.063470416
000060 4a 33 b3 3d 4e 94 50 3b af 2d 05 be 30 9e f5 3d
       0.08750017 0.0031826678 -0.13005708 0.119930625
000070 43 6f bd 3d 0e b3 32 be 98 af 54 3d 38 d3 89 3d
       0.09249737 -0.17451116 0.05192527 0.0672974
000080 22 3d 8e bd 8a d6 d1 bd e8 27 8a 3d f9 20 bf 3c
       -0.06945254 -0.10245998 0.06745893 0.023331152
000090 29 ac f2 3a 17 23 62 bd 1e 02 a0 bb 9e 50 0d 3c
       0.0018514442 -0.055209246 -0.004883065 0.008625178
0000a0 a7 dd 19 bc 67 49 d5 3b cf 73 92 bd 3d 37 2f be
       -0.009391225 0.0065089944 -0.07150995 -0.17110915
0000b0 dc cc 8b bd 27 d0 9b 3d 35 0f 0d 3d 7c 88 01 3d
       -0.06826183 0.07608061 0.03443833 0.031624302
0000c0 68 11 07 bc 26 de af ba 1d b9 99 bd 04 d4 97 3c
       -0.008243896 -0.0013417646 -0.07506011 0.018533714
0000d0 14 cd 84 bd c9 a3 2f be e6 7a 27 3d 14 0d a0 bd
       -0.06484428 -0.17152323 0.04088869 -0.078149945
0000e0 bb ed db 3d 3a 01 e5 bd 5e d7 a6 bd a6 91 6b 3d
       0.10738703 -0.111818746 -0.08146547 0.057511948
0000f0 22 1a 77 bd fa 6c dd bd ed 6a df 3c 34 c4 e9 bc
       -0.060327657 -0.10811801 0.027272666 -0.02853594
000100 18 15 e9 bd 86 32 90 ba fd 05 e7 3c 85 43 2c bc
       -0.113809764 -0.0011001385 0.028201098 -0.010514145
000110 bf a7 06 3d 84 06 39 3d 1c 28 dd 3d 84 64 0e 3e
       0.03287482 0.04517223 0.10798666 0.13905531
000120 7a 51 37 bd 04 b9 6f 3d 9e 6b 5d 3d 60 25 fa bc
       -0.044755436 0.058526054 0.05405771 -0.0305354
000130 9b 91 c7 bd 32 d4 83 bb 78 ba 65 bd 6d b1 32 3d
       -0.09744569 -0.0040230984 -0.056086034 0.043626238
000140 62 fc 03 3e a9 29 f8 bc c5 85 83 3a 5c 4a 33 bd
       0.12889245 -0.030293303 0.0010034373 -0.043772087
000150 08 4f c7 3d ed ba 95 bd 5a 80 7d 3d 9d 10 92 3b
       0.09731871 -0.07311044 0.061889984 0.004457547
000160 0f c0 11 bd 25 12 39 bd 12 f9 93 3d e5 53 31 bd
       -0.035583552 -0.04518332 0.07225241 -0.0432929
000170 c5 11 99 bc d5 7c 98 bd b8 4c b9 3c 0d c8 b5 3d
       -0.018685231 -0.07445685 0.02261959 0.08876047
000180 5d 00 81 3a a0 96 43 3d 66 fe a7 3c 6a 85 20 be
       0.0009842027 0.04775107 0.020507049 -0.15675893
000190 94 b7 78 3d 4c f6 26 3e 99 f0 11 bd 63 1a 1d bd
       0.06072195 0.16304892 -0.035629842 -0.038355242
0001a0 b7 90 3f bd 7c fb 81 3d 74 53 9f bb 12 64 31 3b
       -0.04676887 0.06346795 -0.0048622433 0.0027067703
0001b0 84 6e d8 bc ed 02 f2 3b 81 be 02 bd 77 a1 e1 3c
       -0.026419885 0.0073856027 -0.03191996 0.027542813
0001c0 8e dd 32 be c9 35 7b 3d 50 e8 00 bd 5a b8 34 3e
       -0.17467329 0.06133059 -0.03147155 0.1764845
0001d0 31 34 3c bc 13 f6 79 bb 78 1d 1e bd 02 1d 82 3d
       -0.011487053 -0.0038141056 -0.038602322 0.06353189
0001e0 48 ee 25 bd 81 b3 86 bd de 9c 36 3c 25 19 fa 3b
       -0.040510446 -0.065772064 0.0111457985 0.007632392
0001f0 f1 f3 37 3a a2 cf 78 bd f5 e5 c9 3d c3 5f b7 3c
       0.0007017246 -0.06074489 0.09858314 0.02238453
000200 4a cc 66 be b3 fc da 3b c7 77 53 3e c6 13 90 be
       -0.22538868 0.006682956 0.2065116 -0.28140086
000210 26 7d 1b 3c f6 69 16 be b3 9d 6a be 51 c5 57 be
       0.009490287 -0.14688858 -0.2291172 -0.21071364
000220 18 c7 c5 bd 86 2f e8 ba c0 f7 17 bd ce 1b a9 bc
       -0.09657115 -0.0017714358 -0.037101507 -0.020643141
000230 9a 78 fe bd 3c f6 6c be 27 e8 21 3e 3f 0e 2c 3d
       -0.12425347 -0.23140806 0.15811215 0.042005774
000240 02 83 9a bc 89 0a cd be d7 6f 0e bd f7 d8 ef bc
       -0.018861298 -0.400471 -0.034774628 -0.029278262
000250 0a 70 f4 bd fa 26 cf bc 32 df 8d bd 03 88 72 3d
       -0.11935432 -0.02528714 -0.06927337 0.059211742
000260 e4 95 cc bb 28 3a b8 3c 0f 7e 6d 3d 65 d0 bc be
       -0.0062434543 0.022488669 0.057981547 -0.36877742
000270 4d db d0 3d c9 b5 ca bd fe 73 b4 bc 2d 20 c9 be
       0.10198078 -0.09897954 -0.022027966 -0.3928236
000280 12 9b a1 bd c7 7d 19 3d 92 31 9f 3d 72 14 e6 3d
       -0.078909054 0.037473466 0.07773127 0.112343684
000290 e2 3a 8e 3c cf 9f 06 be 81 17 92 bd 45 f7 f2 3b
       0.017362062 -0.131469 -0.07133389 0.0074147307
0002a0 56 3a 20 3d b5 83 d0 3d 54 df 87 3e 49 2d a6 bd
       0.039118133 0.10181371 0.26537573 -0.08114106
0002b0 e8 a6 c9 3d d7 6a be 3b b4 99 38 3b a7 0a e0 3d
       0.09846288 0.005811076 0.0028167786 0.10939532
0002c0 e6 d2 7c 3d 44 30 28 bb 85 02 37 be 0a 2d 9c be
       0.061724566 -0.0025663534 -0.17872055 -0.30503112
0002d0 53 ea 0a bc 7f 44 e4 3a cc 59 c4 3d 25 90 80 be
       -0.008478719 0.0017415433 0.0958744 -0.25109974
0002e0 7f 55 04 3c ad e8 95 bd 48 d7 ef 3d b2 e8 17 3c
       0.0080770245 -0.0731977 0.117109835 0.0092717875
0002f0 c6 39 a1 be fa 42 c0 3c 38 04 e2 bb 27 6b 9d bc
       -0.3148939 0.023469437 -0.0068974756 -0.019216133
000300 c5 d6 84 be e4 79 30 3e d7 bc 87 3e 5d 4b d5 bd
       -0.25945106 0.17233998 0.2651126 -0.10414765
000310 e4 32 2a be 63 88 87 3e 2a bf d4 3d d0 34 b6 bc
       -0.16620976 0.26471242 0.10388024 -0.02224198
000320 57 67 ca bb 7d 27 a3 bd 13 bf 89 bd d2 57 9f bd
       -0.00617687 -0.07966516 -0.06725898 -0.07780422
000330 ac a5 6f 3c 2d 55 59 bd 51 44 5d bc f4 ca 72 3c
       0.014626902 -0.053059746 -0.013505057 0.014818896
000340 c1 64 db 3d 14 4c c7 3d 8c 50 b0 3d 03 a8 62 bd
       0.10712577 0.097313076 0.08609113 -0.05533601
000350 53 c9 cd bd 86 2e 3d 3e 98 07 10 be f4 98 c7 3d
       -0.10048165 0.18474779 -0.14065397 0.0974597
000360 e3 cd 85 3d 75 12 c1 3d ac 04 00 3d 87 b8 a2 bd
       0.065334104 0.094273485 0.031254455 -0.07945352
000370 56 76 4d 3d a7 10 5c bc 32 b5 1b be 00 c3 42 be
       0.050161682 -0.013431705 -0.1520584 -0.19019699
000380 03 3d 10 3d 1f 7c 01 bd 30 95 ed bd da 6a 96 3c
       0.035214435 -0.03161251 -0.11600721 0.018361498
000390 14 8d ab be e9 ee 2b be 61 fe 76 3c a0 4c fe 3d
       -0.33506072 -0.16790356 0.015075297 0.12416959
0003a0 b1 3d c5 3b 96 70 95 bb 5b 4f 8f bd c0 11 2b 3e
       0.006019317 -0.0045605404 -0.06997558 0.1670599
0003b0 83 59 d1 3e 85 47 69 3c 24 1e d9 3d 55 70 ff bd
       0.40888605 0.014238243 0.10601452 -0.124725975
0003c0 fd cd 4e 3b 28 d3 53 3d 9e 2c 85 bc f8 86 99 3d
       0.0031555884 0.051715046 -0.016256627 0.07496446
0003d0 92 28 9b 3d e0 b2 47 3f 38 36 61 bd 1f 08 99 bd
       0.075760975 0.78007317 -0.054983348 -0.07472252
0003e0 41 e9 f8 3c cf 20 4a 3d 34 44 d9 bc 4e bf 9b be
       0.030384662 0.049347695 -0.02652178 -0.3041939
0003f0 45 8c 2a bc 19 1c 6e 3d 54 82 ff 3e d1 2b 0a 3e
       -0.010409419 0.058132265 0.4990412 0.13493277

rnn.weight_hh_l1 f4 [128, 128]
000000 14 ee cf be 50 1d d3 bc d7 fc 40 3d 2d 68 ad bd
       -0.40611327 -0.025770813 0.047116127 -0.084671356
000010 c5 86 b4 bd dd f7 07 3d c9 86 cb bd 87 82 49 3d
       -0.08814768 0.033195365 -0.099378176 0.049196746
000020 09 3b 2d bd f9 73 9c 3d 2e 95 08 3d 74 a3 28 bb
       -0.04229263 0.076393075 0.033345394 -0.0025732191
000030 19 45 81 3d 0a fa 9b 3b c0 c5 ad 3d 49 a6 98 3d
       0.063120075 0.0047600316 0.084849834 0.074535914
000040 c4 c0 58 3c 94 a2 fe ba 3f c2 c6 3a 63 d8 fd bc
       0.013229553 -0.0019427114 0.0015164091 -0.03098697
000050 2a cf 2c bd 77 52 f5 3c ce 2a 68 3c 01 75 44 3d
       -0.042189755 0.029946549 0.014170362 0.047963146
000060 b6 41 5e 3d 3e 86 4c 3d a2 93 ab bc 2f 01 8e 3c
       0.054261886 0.04993271 -0.02094442 0.017334549
000070 03 72 99 3d 01 30 a1 3c da 6f 5b bc 2a a0 89 3d
       0.07492449 0.01967621 -0.013393367 0.06720002
000080 63 bb 3a 3d 13 18 b1 bc 1b f3 79 bd 80 13 6e bd
       0.045588862 -0.021617925 -0.06102286 -0.058124065
000090 cc f8 94 bd 58 0e bb 3c 14 97 6f 3d 09 ea 7f 3d
       -0.07274017 0.022833988 0.05849369 0.062479053
0000a0 9e 54 ef bc 59 8d 64 3d e0 80 8b 3d 67 79 62 bd
       -0.029215153 0.055798862 0.0681169 -0.05529156
0000b0 3b 06 18 bd 34 2c 3f 3d e8 b0 82 3d 62 88 b3 3d
       -0.037115317 0.046673015 0.063813984 0.08766247
0000c0 52 58 7c 3b 8a 38 d4 3a da 91 95 bd 48 56 0e bc
       0.0038504791 0.0016191166 -0.073032096 -0.008687563
0000d0 e0 17 a8 3c e1 f9 b6 bd 46 f7 da 3c 7d 71 54 3d
       0.020519197 -0.08934379 0.026729237 0.051866043
0000e0 ea 7f 93 3b 79 4c 65 3c bf d3 b0 bc 90 b2 41 3c
       0.0045013325 0.013995283 -0.021585343 0.011822358
0000f0 fe dd 54 3d 20 0d a4 3d 9d e6 8a 3d 52 5a 6c bd
       0.05196952 0.08010316 0.06782267 -0.057703324
000100 5c 1f ba 3b 6f 1c a3 3c 38 f1 d2 bc b1 dd 77 bc
       0.005680008 0.01991102 -0.025749788 -0.015128539
000110 51 21 af 3d 91 56 c9 3d 76 bc 7d 3c 36 e1 61 bd
       0.085512765 0.09830964 0.015486827 -0.05514642
000120 1a be 46 3d 52 30 34 3d a0 9c 79 3d 4f 12 d4 bd
       0.04852114 0.043991394 0.060940385 -0.103550546
000130 ef e7 31 3d 50 66 49 bc 3a 8c 07 3e a1 52 78 bd
       0.04343408 -0.01229246 0.13237086 -0.060625676
000140 2e 79 82 3d 8b 76 07 3c 61 98 86 bd df 08 2b bd
       0.063707694 0.008268009 -0.06572033 -0.041756507
000150 db 6e 3c bd 01 e8 9f 3b ef fc 0b bd cc e4 9a 3d
       -0.046004158 0.004879952 -0.034176763 0.07563171
000160 a0 82 2e bc 75 fd e0 bd 69 80 ab 3d 2d 8c 4d bd
       -0.010651261 -0.10985843 0.08374102 -0.05018251
000170 c7 0d 4a bd c5 dd 1f 3d 78 32 ab bd 25 0b 4f 3d
       -0.049329545 0.039029855 -0.083592355 0.050547738
000180 38 40 95 bd a7 60 80 bd 42 e0 88 3b bb 82 33 bc
       -0.072876394 -0.06268435 0.0041771242 -0.010956462
000190 df b3 9f bd c9 32 be bc b5 c7 25 3d 82 c8 dc 3a
       -0.077979796 -0.023217576 0.04047366 0.0016844424
0001a0 42 9c 4d 3d ca dd be 3c a1 39 d5 3c cd 60 c3 bc
       0.050197847 0.023299117 0.026028456 -0.02384987
0001b0 da 95 b7 3d 70 06 46 3d 6a 17 43 3b 5d cf b4 3d
       0.08964129 0.048345983 0.0029768595 0.08828614
0001c0 4b ad 41 3d 61 8f 8d bd b8 df 8b bd 0b a5 12 bd
       0.047284406 -0.06912113 -0.0682978 -0.03580193
0001d0 f2 f2 94 3d 2b 0e 96 bb be 62 32 3d 16 c8 b5 3c
       0.07272901 -0.0045793257 0.0435512 0.022190135
0001e0 76 94 0b bd 62 a7 85 3d 1c 16 92 3b 8a 06 59 bd
       -0.03407713 0.06526066 0.004458202 -0.05298475
0001f0 bd dd 4f bd 07 84 bc 3b 0f 96 a4 bd ad 83 3a bd
       -0.050748575 0.0057530436 -0.08036434 -0.045535732
000200 13 fc 50 bd 5f 6f 8c bd b8 8c 9b bd ea 50 80 3d
       -0.051021647 -0.0685718 -0.07595199 0.06265433
000210 90 38 0a 3e de d7 8d bd d7 48 a7 bd ac 68 0a 3d
       0.1349814 -0.06925939 -0.0816819 0.03379123
000220 5f de 14 be 7d fe 02 3e 47 88 a2 bd d4 51 3a be
       -0.14537953 0.12792392 -0.07936149 -0.18195277
000230 08 6a 03 be ae 8b f2 3b 6a ed 35 3d 5f 77 11 bd
       -0.12833416 0.007401905 0.04441587 -0.03551423
000240 55 3a 57 bd 92 2f 93 bd f0 37 a1 3c d7 1f 16 3d
       -0.052545864 -0.07186808 0.019679993 0.03665146
000250 a5 84 34 3e ba 91 e9 3b 43 c6 09 3d 6a 98 5f 3b
       0.17628725 0.0071279677 0.033636343 0.0034117945
000260 83 50 9a bd 52 3e 35 3d e3 a6 13 3e 7d a4 bf bb
       -0.07534888 0.044248886 0.14419131 -0.005848466
000270 ec 8e 79 3d c8 a8 bb bd 28 e9 d8 bd f6 46 5b 3e
       0.060927317 -0.09163052 -0.10591346 0.21413788
000280 20 97 e4 3d 6e 29 09 3d 97 ed 10 be 60 4f 3f 3d
       0.11161637 0.033486776 -0.14153133 0.046706557
000290 7d 16 00 bd dc d6 bc 3c 7c c4 8e bd 40 bd d4 3d
       -0.031271446 0.023051672 -0.0697107 0.10387659
0002a0 18 a0 57 3c ee 75 b9 bd fe c3 6b be 8a dd 86 bc
       0.013160728 -0.090556964 -0.23023984 -0.01646306
0002b0 88 0b 51 be 46 81 07 bd 57 0e e6 3d 5e 56 36 be
       -0.20414555 -0.03308227 0.11233204 -0.17806384
0002c0 a3 cf 38 bd 0b 7a 90 3c d7 bc bd 3d 72 72 f4 bc
       -0.045119893 0.01763632 0.09264534 -0.029839728
0002d0 21 bc 90 3d b3 3b 45 be 59 b8 09 3d 50 0b 28 3e
       0.07067133 -0.19261055 0.033623073 0.16410565
0002e0 88 cf 2e 3d 79 6a 99 3d b2 2d d5 bc e4 46 e8 3d
       0.042678386 0.07491011 -0.026022766 0.11341646
0002f0 d0 96 51 3d e5 ef 91 bc 80 fd 20 3e 3f 92 41 3e
       0.051169217 -0.017814586 0.15721703 0.18903445
000300 15 3d 62 bd ea c1 fd bc 4b a4 ef 3c 02 5f ab bd
       -0.055234034 -0.030976254 0.029253146 -0.08367731
000310 9d 6f 15 3b 22 52 47 bd 26 32 8d bd 63 36 93 bc
       0.0022802122 -0.048662312 -0.06894331 -0.01797027
000320 72 0a 24 3d c7 e3 5e 3c b9 8b 1c bb 5c 81 35 3d
       0.040049024 0.013604111 -0.0023886992 0.04431282
000330 c6 19 6b 3d b5 12 49 3d 0a 9f 49 3d a1 9a dd 3d
       0.057397626 0.049090106 0.049223937 0.10820509
000340 9a ba 0b 3e 0d 50 9e 3d 15 72 9a bd d0 dc 46 bd
       0.13645402 0.07730112 -0.07541291 -0.048550427
000350 23 46 a9 3d 0c 8a 0e bd 66 83 75 3d 08 ec b1 3b
       0.08265331 -0.03479962 0.059939764 0.0054297484
000360 a3 6a 48 bd a1 85 cf 3c 36 07 30 3e f1 29 31 be
       -0.04892982 0.025332274 0.17190251 -0.17301156
000370 ae e1 bb 3d f0 7f 75 be 8e a3 b8 3c 88 8b d6 3d
       0.09173904 -0.23974586 0.022538926 0.10475832
000380 79 d6 4d bd b3 48 32 be 9b 93 dd 3c dd 42 0c be
       -0.050253365 -0.17410545 0.027047923 -0.13697381
000390 a5 c8 02 be f7 56 f3 3d e6 a1 50 be 26 59 8a bd
       -0.12771852 0.118818216 -0.2037426 -0.06755285
0003a0 28 0f f0 3c fb 39 6a bc 71 11 2e 3d 9f 35 a6 3d
       0.029304102 -0.01429605 0.042497102 0.08115696
0003b0 08 58 86 bd e0 bd 85 bd fd d1 99 bd 3f 6e 6e 3d
       -0.065597594 -0.065303564 -0.07510755 0.058210608
0003c0 b5 9e 09 3e a0 c3 84 bd de 75 d1 bd 45 29 79 bd
       0.13439448 -0.06482625 -0.102275595 -0.060830373
0003d0 da 11 04 3e 2b 79 a7 3d dc cb 41 3e 92 a3 0f 3d
       0.12897435 0.08177408 0.18925422 0.035068102
0003e0 f1 7b ee 3c 87 88 f6 3b 49 0c fd bb 5b 89 a9 bd
       0.029111834 0.0075235995 -0.007722412 -0.082781516
0003f0 cf e2 ac 3d 89 1c 56 3d 9f 48 9e bb f9 71 5c 3c
       0.08441698 0.052273307 -0.0048304345 0.013454908

rnn.bias_ih_l1 f4 [128]
000000 18 24 76 3d 67 13 bd be d4 ea 67 3e 50 3d 6e 3d
       0.060093015 -0.36928865 0.22648174 0.05816394
000010 b9 08 88 bf 50 5f 4f 3e 2c 8a 8f 3f 5e 6b 87 be
       -1.0627662 0.20251203 1.1214042 -0.26449102
000020 d6 de 91 3f 49 83 12 bf d9 de a5 3d ac 84 d0 3e
       1.1396129 -0.57231575 0.080991454 0.4072622
000030 bb d4 aa be 31 15 87 3e 20 91 2f be fa 70 d1 bd
       -0.33365425 0.26383355 -0.17145205 -0.10226627
000040 fd 66 a3 3e 40 33 01 3f 95 a6 ac 3e 29 9d 74 be
       0.3191451 0.50468826 0.33720842 -0.23888077
000050 a3 8d da be 6a 02 17 3e 92 29 fa ba 58 27 d2 bd
       -0.42686185 0.14747015 -0.0019085875 -0.102614105
000060 16 b2 79 3e c0 2f b6 3e bc ae 84 be 9c 4d 61 3e
       0.2438434 0.35583305 -0.25914562 0.22002262
000070 40 8d 2d be 4d 16 80 3e 3c d3 10 be 12 ec 91 bf
       -0.16948414 0.25017014 -0.1414308 -1.1400168
000080 52 0c 95 be e6 28 b6 be f8 d5 97 3e 79 34 98 3e
       -0.29110962 -0.35578078 0.29655433 0.29727533
000090 c5 3e 18 3e 52 01 d5 bd 79 cd 9f 3d d8 a5 90 bd
       0.14867695 -0.104006425 0.07802863 -0.07062882
0000a0 93 d2 25 3e 67 87 2b be c7 65 80 3f 23 46 9d 3d
       0.16193609 -0.1675087 1.003106 0.07679393
0000b0 c0 48 89 3f 0c e3 8e 3d 9a 55 72 be e3 9c 9c 3e
       1.0725327 0.069768995 -0.23665467 0.30588445
0000c0 0d f6 4f bd 96 26 48 3e 49 7a ce be 10 38 6a be
       -0.05077176 0.1954597 -0.4032767 -0.22872949
0000d0 3e 8d 85 be cf c2 86 3e f0 53 17 be 7a 66 fe be
       -0.26084322 0.26320502 -0.14778113 -0.49687558
0000e0 f3 55 00 be 47 b6 34 3e bc cf 36 be 8a df af be
       -0.12532787 0.17647658 -0.17852682 -0.34350234
0000f0 8a e5 83 be 1a 69 65 3e 3d f5 d5 be 77 e6 cd be
       -0.25761062 0.22403374 -0.41788664 -0.40214893
000100 df a6 47 3e 05 e7 50 3e 62 2e 31 3e d5 c3 15 3f
       0.1949725 0.20400627 0.1730285 0.5850194
000110 96 fd 8f 3e 05 94 a4 3e ce 3e a5 be 1f 11 60 be
       0.28123158 0.3214418 -0.3227448 -0.21881531
000120 50 20 43 be 6e 4a 1c bf e9 27 20 be 4b c8 b4 be
       -0.19055295 -0.6105107 -0.15640225 -0.3530906
000130 e2 03 f9 bd a2 81 40 bb 22 2d f9 bd aa fe 0b be
       -0.12158944 -0.0029374142 -0.121668115 -0.13671365
000140 3f 90 41 be 07 77 2e 3e b6 a6 6c 3f e6 41 b1 bd
       -0.18902682 0.17037593 0.9244188 -0.08655147
000150 da 45 9a be 22 4b 9b 3d ea fe be be 3e 1f 04 3e
       -0.30131418 0.0758269 -0.3730386 0.12902543
000160 54 87 29 3d 06 25 a5 be cd 95 7f bf 2f 8b c3 3e
       0.041388825 -0.3225481 -0.9983795 0.38192126
000170 eb 88 d0 be 32 a5 83 3f 3a 6b 2b be d1 98 61 3e
       -0.4072946 1.0284789 -0.16740122 0.22030951
000180 d1 a0 9a 3e 6b b0 86 3f 98 9e ad bd 1b fd 41 3e
       0.30200818 1.0522588 -0.08477515 0.18944208
000190 cf fa 72 3e 0e a1 87 be 18 d4 89 3f 2f ec fe bd
       0.23728488 -0.26490062 1.0767851 -0.12447392
0001a0 2f f6 23 3d 30 26 cb 3c ab e1 2a be 8d d8 82 be
       0.0400297 0.024798483 -0.16687648 -0.2555584
0001b0 46 0f e9 3d c4 f9 4a bd cd 36 de bd 17 50 7e be
       0.11379866 -0.0495546 -0.10850296 -0.2483524
0001c0 4c ba b7 be ad fa 3a 3e 5a e6 06 be c6 cf 3a be
       -0.3588432 0.18259688 -0.1317381 -0.18243322
0001d0 a3 bb 87 be 04 4f ed bd b4 63 8a bf ce e2 00 3d
       -0.26510343 -0.11587337 -1.0811677 0.031466298
0001e0 72 4c 84 3e 85 3d 2d 3e 0c 28 38 3e 5f 30 a8 bd
       0.25839573 0.16917999 0.17984027 -0.08212351
0001f0 b2 bc 76 bd 14 02 1d 3b fa 99 7e be 81 a3 11 3e
       -0.060238548 0.0023957537 -0.24863425 0.14222528

rnn.bias_hh_l1 f4 [128]
000000 a3 12 f2 3d 41 d7 88 be 57 af aa 3d 19 24 26 bc
       0.11819961 -0.26726726 0.08334225 -0.010140442
000010 3f 2f 8e bf 6b 5d 6e 3e e7 9c 86 3f d9 47 2a be
       -1.1108168 0.23277824 1.0516633 -0.1662897
000020 1f 97 83 3f 2a 25 11 bf 6f 91 aa bc f4 77 c2 3e
       1.0280493 -0.5669733 -0.020821301 0.37982142
000030 e2 b5 c3 be 46 3b b5 3e df de 33 be 9d 9c 2d be
       -0.38224703 0.35396785 -0.17565487 -0.16954274
000040 5e 46 91 3e 62 2d d9 3e 6c 56 82 3e d5 be 82 be
       0.28373998 0.42417437 0.2545656 -0.25536218
000050 30 4a d3 be 5e dc 50 3e 38 3c 13 3e 0f 58 1e be
       -0.41267538 0.20396563 0.1437844 -0.15463279
000060 9a 83 88 3e cc 55 b4 3e c3 2a 8e be e1 97 20 3e
       0.26662904 0.35221708 -0.27767 0.15682937
000070 f4 4b 8e bb 5f 72 39 3e 40 64 06 bd 13 fc 80 bf
       -0.0043425504 0.18110035 -0.03281045 -1.0076927
000080 b5 91 99 be c6 42 c5 be d8 ca 40 3e 52 52 9b 3e
       -0.29993978 -0.38527507 0.18827379 0.30336243
000090 a7 dc 61 3e 36 50 d9 bd 06 c5 3e 3e 37 e8 47 be
       0.22056828 -0.10611002 0.18629846 -0.19522177
0000a0 68 fd da 3d b9 c9 5d be 68 82 8c 3f 08 e1 f2 3d
       0.10692865 -0.21658982 1.0977297 0.118593276
0000b0 14 ca 8e 3f 34 1a 1a 3c 92 99 79 be 80 a6 a9 3e
       1.1155419 0.009405661 -0.24374989 0.33134842
0000c0 84 09 85 bc f7 a4 b0 3d 99 b1 97 be a8 54 72 be
       -0.016239889 0.086252145 -0.29627684 -0.23665106
0000d0 63 70 a0 be 09 06 9c 3e 97 de 8b bd ff 06 db be
       -0.31335744 0.30473354 -0.06829565 -0.42778775
0000e0 06 eb 92 be fd 0a 3e 3e 68 f7 dc bd 2d aa c1 be
       -0.28694934 0.18558879 -0.107893765 -0.37825146
0000f0 b5 79 78 be 92 21 11 3e e3 9c e5 be 1d 76 a4 be
       -0.24265178 0.14172962 -0.44846258 -0.32121363
000100 05 d8 9b 3e 04 be 32 3e 5d 77 66 3e cf 76 e7 3e
       0.30438247 0.17455298 0.22506471 0.4520783
000110 3f 29 84 3e 2b 91 46 3e e6 a7 6c be f6 6f 70 be
       0.25812718 0.19391315 -0.23110923 -0.2348021
000120 dd d4 bd bd 7c fa 0d bf b9 1d 79 be 84 3f a2 be
       -0.09269116 -0.55460334 -0.24327745 -0.31689084
000130 6f d6 7e be cb af 86 bd aa 35 c8 bd 50 09 33 be
       -0.24886487 -0.065764986 -0.097758606 -0.17484021
000140 5f 47 8a be ec 9f 35 3d 2f 9b 5e 3f 0c c1 16 3d
       -0.27007577 0.044341967 0.8695554 0.036805198
000150 d8 05 d7 be 53 02 75 3e d2 c0 b9 be 4d 7a 40 3e
       -0.41996646 0.23926668 -0.36279923 0.18796654
000160 f2 b8 85 3d 96 3c 90 be 7c 54 7d bf 37 c1 ff 3e
       0.06529416 -0.28171223 -0.9895704 0.499521
000170 c4 4b a8 be 91 15 86 3f 6b 3e 76 be c3 ef 85 3e
       -0.32870305 1.0475332 -0.24047248 0.26159486
000180 a7 e5 88 3e 3a 44 85 3f b4 98 6c be c3 d8 55 3e
       0.2673771 1.0411446 -0.23105127 0.2088347
000190 fc 94 dd 3d 3f 85 95 be c3 c3 8b 3f c0 5f d2 b9
       0.10819432 -0.2920322 1.0919117 -0.0004012566
0001a0 00 d7 0e 3d e7 30 36 bd 89 df 55 be 7a 06 9a be
       0.03487301 -0.04448023 -0.20886053 -0.30083066
0001b0 19 fc 6e 3e 94 11 4c bd 5a 6d 15 be 56 ea 60 be
       0.23338355 -0.04982145 -0.14592496 -0.21964392
0001c0 44 ef e0 be e7 10 e7 3d 20 ac 35 be 81 05 13 be
       -0.43932545 0.11282521 -0.17741442 -0.14357568
0001d0 20 7f ad be 77 91 a0 bd d6 24 89 bf 56 cb e5 bd
       -0.3388605 -0.07840245 -1.0714366 -0.11220424
0001e0 af 11 cf 3d bc 93 ed 3d a7 f9 65 3e 10 6a e6 bc
       0.10110795 0.11600444 0.22458516 -0.028126746
0001f0 a4 f2 fd bd 1a b6 a7 bd 0f ae 81 be 7a 09 04 3e
       -0.12399796 -0.0818903 -0.2532811 0.1289424

rnn.weight_ih_l2 f4 [128, 128]
000000 a5 17 01 bd 85 9a e2 be 13 05 00 3e a7 2e 0b bd
       -0.03151669 -0.44258514 0.12501936 -0.033980038
000010 05 75 ba bd a8 3e 44 3e e4 df 12 3d a3 80 1a be
       -0.09104351 0.19164526 0.03585805 -0.15088134
000020 7f 5e 9a 3d 83 2d d9 bd d2 49 74 3c 03 91 c6 3e
       0.07537555 -0.10604384 0.014910178 0.3878251
000030 1b 10 20 be 7d 2f 50 3e d9 f0 3c be 3c 92 b9 bd
       -0.15631144 0.20330615 -0.18451251 -0.09061095
000040 70 8c 41 3e 93 66 1a 3d d2 a3 b7 3d 85 85 a2 bc
       0.18901229 0.03769548 0.08966793 -0.019839058
000050 06 fd f6 be 44 e2 2a 3e 08 c9 4f bd 3f 08 14 be
       -0.48239917 0.16687876 -0.050728828 -0.1445627
000060 f2 9c b8 3d ae 29 c2 bd 2f 76 3b bf f6 45 22 3e
       0.0901431 -0.09480606 -0.7322721 0.15847
000070 42 86 8c bd 4b f0 c6 bc a8 6c 86 3d 8b 45 6f bd
       -0.06861545 -0.024284502 0.06563693 -0.05841593
000080 17 31 92 be ba eb d4 be 0e aa 53 3d 66 b9 35 3d
       -0.28553078 -0.41586095 0.05167585 0.044366263
000090 03 b9 44 3e d2 8d 6d bd 4d 2f d2 3d 02 b6 1c be
       0.19211201 -0.05799658 0.10262928 -0.15303805
0000a0 58 6a 39 3e 5e ff 4a bd d8 0f ab 3c 50 70 36 bb
       0.18106973 -0.049559943 0.020881578 -0.002783794
0000b0 5b 2f a9 3d 29 e6 f0 bc 0e 0e 86 bd 5a 18 a5 3e
       0.082609855 -0.029406624 -0.065456495 0.3224514
0000c0 e9 08 fa 3c 3a 35 06 bd 7b 0c 09 bf df b4 31 be
       0.030521827 -0.032765605 -0.5353467 -0.17354153
0000d0 44 82 b4 be 03 50 be 3e e7 28 cd ba 3a 68 e0 bd
       -0.35255635 0.3717042 -0.0015652449 -0.1095738
0000e0 33 2d 79 be e6 12 bf 3d d3 15 93 bc f5 a4 ed be
       -0.24333648 0.093297765 -0.017954743 -0.46414915
0000f0 9c 58 25 be 93 db 84 bd ce 4e 1d bf 1e ff 10 bf
       -0.16147083 -0.06487193 -0.6144837 -0.5663928
000100 97 23 0d 3d db 5b 00 3e 9e c8 33 3d 81 7e a3 3d
       0.03445777 0.1253504 0.043892495 0.07983113
000110 3a 17 3c 3d 2c 98 19 3d 79 50 7b 3d 9c 9a 12 bf
       0.045920588 0.037498638 0.06135604 -0.57267165
000120 c2 48 22 bd ce 23 7a bd 93 bc 4a bd 0c 80 d5 be
       -0.03962017 -0.061069302 -0.049496245 -0.41699255
000130 bc e7 1b be 0f d7 54 bd b3 f1 03 be e1 bb fe bd
       -0.15225118 -0.05196291 -0.1288517 -0.12438179
000140 04 a5 12 be ea 02 80 bb 09 a9 70 b9 c6 55 3e 3c
       -0.14320761 -0.0039065974 -0.00022951154 0.01161713
000150 5b 51 5d bd 90 4c df 3c 48 b9 ab bb e0 04 6e 3d
       -0.054032665 0.027258188 -0.005240593 0.058110118
000160 83 e0 87 3c d7 ba 37 ba bd 14 b2 3b c7 ce 8b 3e
       0.016586548 -0.00070087373 0.005434601 0.27306196
000170 8a f9 5e bf 61 d5 02 3e a0 3e 0f be 27 ec 91 3d
       -0.87099516 0.1277671 -0.13988733 0.071251206
000180 5b 0e 54 3e 18 58 16 bb d2 a3 10 be 3f cc 02 3e
       0.20708601 -0.0022940692 -0.14124992 0.12773226
000190 4c d5 ad 3d 02 a5 27 be 1f e8 bc 3d 24 66 22 3c
       0.08487949 -0.16371539 0.09223961 0.009912048
0001a0 cb 59 03 bd b3 40 fa 3c 1c 26 f1 bc 8f 73 78 bf
       -0.032068055 0.03054843 -0.029437117 -0.9705133
0001b0 ca d0 e6 3e 26 b0 20 bd 4d 26 53 be 9d f6 c8 bd
       0.45081168 -0.03923049 -0.2062008 -0.09812663
0001c0 65 52 0e bf 4a 51 98 3d b0 7b 03 3d 2d 53 d7 3d
       -0.55594474 0.0743738 0.03210038 0.105139114
0001d0 56 18 17 bf ea 1b 33 be d1 16 2f be f8 b5 aa 3b
       -0.5902151 -0.17491117 -0.17098548 0.0052096806
0001e0 e4 18 b5 3d 0c 2b 2b 3c de bd cd 3d 25 34 3f bd
       0.08842638 0.010447275 0.1004598 -0.04668059
0001f0 eb 8e a6 bd 8e 33 8c bd ae 2f b6 bd 97 e3 29 bd
       -0.08132728 -0.06845771 -0.08895813 -0.041476812
000200 21 9d 72 3d f2 2d 13 bf b1 f1 9c bc 4c 8b 06 bd
       0.05923188 -0.5749198 -0.019158216 -0.032847688
000210 12 7c 0e be 28 66 0e 3e ed 07 c9 3c b0 f2 f9 bd
       -0.13914517 0.13906157 0.024539912 -0.12204492
000220 96 40 c7 3d 54 0a e3 bd 0c 87 d8 3c 9f d1 14 3f
       0.09729116 -0.11085954 0.026431583 0.58132356
000230 1b d2 f4 bd 24 04 57 3e 04 50 99 bd 4b 10 12 3b
       -0.11954137 0.20997673 -0.07485965 0.0022287543
000240 09 6d 26 3e 2a a6 2a 3e 46 de 29 3d 62 bb 1e 3d
       0.16252531 0.16664949 0.041471742 0.03875292
000250 e9 d2 28 bf 6c 52 01 3e 83 90 88 3c 0b 1d e5 bd
       -0.65946823 0.12629098 0.016670471 -0.1118718
000260 90 15 89 3d c1 11 14 bc 80 37 36 bf 7a 2d 8f 3d
       0.06693566 -0.009037436 -0.71178436 0.06991096
000270 e5 8d be 3b 8b 1c fb 3d e1 dc c6 3b 29 05 a2 bd
       0.005815255 0.122613035 0.0060688113 -0.079111405
000280 94 2a d1 bd c8 3c e8 be d3 cf 87 3d 28 2e d6 3d
       -0.10213199 -0.45358872 0.06631436 0.10458022
000290 75 d4 ad 3d 93 7b 51 bc a7 50 44 3e 66 35 3b 3d
       0.084877886 -0.01278581 0.19171391 0.04570522
0002a0 ec 1e cf 3d 7d 9d 20 be 46 77 00 3e e8 4b 80 3d
       0.1011332 -0.15685077 0.12545499 0.06264478
0002b0 21 28 24 3d 4e ce 99 3c 5e 15 c6 bd da df 01 3f
       0.040077332 0.018775132 -0.09672044 0.50732195
0002c0 c2 2b cd 3d 4c 5a 33 bd 94 46 0d bf 85 5c 84 be
       0.10018112 -0.043787286 -0.5518582 -0.25851837
0002d0 1c 11 9e be 17 ba 7f 3e 38 9f 1c 3c 43 c7 9b bc
       -0.30872428 0.24973331 0.009559445 -0.019015914
0002e0 50 bf 2a bd 6b 5e 22 3d 8f 4f 7a 3c 13 76 de be
       -0.041686356 0.039640825 0.015277757 -0.43449458
0002f0 54 0c d6 3c 04 07 8e 3d 85 b8 1a bf a6 a2 37 bf
       0.026128925 0.06934932 -0.60437804 -0.71732557
000300 b2 7b 33 3e c1 bc 2c 3e 1c 70 c9 3c 96 ae 36 3e
       0.17527655 0.16868879 0.02458959 0.17840037
000310 1c 11 20 bc a8 76 e7 3d f1 12 f4 bd 07 93 00 bf
       -0.009769704 0.11301929 -0.11917675 -0.50224346
000320 6e af 9e 3d ab c5 7f bd 4e 0e 87 bb 4e 89 d7 be
       0.07748304 -0.06244437 -0.0041215783 -0.42096943
000330 fc 79 e3 bd d4 e1 11 bd ef 2e 27 bc 2e ae 13 3d
       -0.11107251 -0.035615757 -0.010204061 0.036054783
000340 44 90 68 be 2d 01 e5 3b 90 2f 20 3e c3 72 d8 bd
       -0.22711283 0.0069886656 0.15643144 -0.10568764
000350 6a 84 61 3d a8 b8 04 3d 2f 8d 17 be 6c f2 f4 bd
       0.05505792 0.032402664 -0.14799951 -0.11960301
000360 73 ed 25 bd db 48 ab bd 28 2b bb bc 16 62 e9 3e
       -0.040509652 -0.083635055 -0.022847727 0.45582646
000370 bc d9 6b bf b7 e5 20 3d b8 0b 3f be b8 31 26 bd
       -0.9212911 0.039281573 -0.18656814 -0.04057476
000380 cf f8 d9 3d 54 e0 9c 3c 3d c1 96 bd 4a 39 3a 3d
       0.106431596 0.019149937 -0.07361076 0.04546479
000390 10 d9 43 3d 81 3c ae bd d2 c3 87 3c 37 5c 86 3d
       0.04781443 -0.08507634 0.016572867 0.06560557
0003a0 2b a6 fc ba 8e af db bd b7 04 59 bd c1 65 2e bf
       -0.0019275596 -0.10726844 -0.052983012 -0.68124014
0003b0 df 38 18 3f 40 7a d5 3c d7 be 3c be 0d 24 30 be
       0.5946178 0.02605927 -0.18432175 -0.17201252
0003c0 fe 5d 4f bf 68 30 81 3d 0e bb a8 3d 82 d3 ef 3d
       -0.81002796 0.06308061 0.08238803 0.11710264
0003d0 dc a5 11 bf e0 b1 85 3d 35 32 39 bd e8 ca 83 3d
       -0.56893706 0.065280676 -0.045213897 0.06435186
0003e0 c8 ef da 3c 65 4b 2e bc 73 24 81 3b 0a 3a 6d bd
       0.026725665 -0.010638093 0.0039411127 -0.05791668
0003f0 83 22 b8 3c 64 03 44 bd 4b 93 04 be df fe 79 3c
       0.022477394 -0.047854796 -0.12946813 0.01525852
