save/best_model_29_32_8_0.2.pt (torch, 303055 bytes, 47 tensors)

lstm.weight_ih_l0 f4 [128, 29]
2.1389415e-27 4.1598608e-27 -3.1279885e-07 3.667712e-29 -8.6688e-06 1.939678e-09 5.602978e-17 -1.8073264e-09
-0.001396682 -0.00034681623 3.3502337e-27 -9.239767e-26 2.5300804e-05 7.243238e-05 -5.31778e-10 2.1371867e-27
-0.0013528599 0.00034844156 -0.0006827772 1.6806673e-05 0.000768852 2.5934675e-27 2.1611611e-27 -3.194894e-20
4.3221515e-08 -0.000695024 1.2777442e-05 0.00011589569 3.946657e-28 -1.891804e-27 -3.5373444e-27 -2.4979845e-27
-6.8654924e-07 1.2007104e-06 1.0554281e-19 -3.782036e-27 -9.81144e-13 7.273839e-05 -2.3834739e-27 9.791098e-05
-0.0001802779 3.0783396e-24 1.4576024e-07 1.9161138e-07 0.00014027802 -3.6623992e-27 1.7857555e-08 -1.65368e-05
-2.2126889e-26 -3.689045e-27 5.8615925e-11 -0.0009045201 -4.791279e-28 -2.4014162e-05 -1.5496165e-05 -1.9053856e-15
-7.123302e-06 -0.0001070409 -1.6083664e-26 -5.550526e-26 -6.9992755e-27 0.00019232207 -2.4988602e-17 4.1794383e-21
-1.6540173e-26 -1.5845075e-27 -1.8256244e-19 0.0011820561 4.449086e-16 6.5191784e-06 5.5215516e-16 -4.0822887e-28
0.0010622864 -7.368275e-27 -7.1063194e-27 3.4950489e-12 -5.2069948e-28 -8.666502e-08 -7.049041e-27 -9.4607265e-07
-1.07756984e-10 -3.6135916e-06 0.0011461732 -2.4268926e-27 -2.443983e-19 0.00020460559 -2.1098285e-07 3.7600438e-07
-6.8697744e-05 1.1240249e-26 3.670523e-28 -9.524204e-05 0.00020406616 3.943471e-07 5.205286e-12 3.607268e-05
0.00061947893 1.1271665e-09 -1.4330662e-15 8.338984e-08 9.9908204e-05 -5.6438127e-15 2.350419e-26 0.0002939127
8.760157e-22 2.4571797e-05 9.3921356e-27 -4.713587e-05 1.1695032e-26 -2.301393e-11 1.6054922e-27 0.00013120809
9.30661e-27 0.0011562901 0.0011190805 -0.0003971678 4.0273867e-06 0.0011272011 -2.9866773e-26 -1.5578264e-08
-0.0001918036 7.6266276e-18 -1.0812511e-06 6.282909e-05 -1.5310616e-26 -1.22181566e-26 -1.6804825e-26 0.00012143158
-1.4187344e-26 9.095667e-08 -1.23219966e-26 -3.855401e-08 8.915855e-08 1.3005442e-15 -0.00011697889 -0.00019459303
7.477325e-22 1.7719544e-24 -1.2890689e-26 -2.7562758e-27 -4.4691563e-18 2.826394e-07 -7.034584e-27 5.3736778e-05
0.00042036758 -3.2529704e-05 -9.637845e-05 -9.96061e-16 -5.9396034e-15 -8.880959e-26 -0.00021101716 -6.477867e-26
5.7439296e-17 -2.2831088e-09 -3.4554317e-26 4.3233053e-05 -1.8029833e-11 0.00092062325 4.736693e-27 -3.7338044e-26
-4.7819455e-09 -0.00042006816 -0.0004359772 1.0736109e-09 9.327595e-06 0.0003468992 2.9276814e-07 0.00091509806
0.00027251497 2.2851302e-05 -0.001213515 -1.4821535e-26 1.39282e-05 -0.0011655308 1.3370137e-05 -1.520091e-26
6.4824354e-11 -5.2515377e-28 5.696599e-11 0.00021308963 5.2955947e-05 1.0729759e-06 -0.00037675197 0.00021478899
-1.0121872e-26 0.0006998314 -8.293634e-27 -1.7063626e-07 -1.3173927e-25 -0.00010319686 0.0010097845 1.5030914e-06
1.7264241e-12 4.3620112e-17 0.00030792516 -2.265595e-14 -8.5553506e-27 -0.00024949564 -1.8207039e-15 5.2931962e-05
-4.9510155e-27 -4.032805e-27 3.706364e-12 6.9779354e-20 -3.484343e-07 0.00019763976 -3.116571e-05 5.5407287e-05
-1.0386551e-05 -6.899531e-06 1.2387631e-05 1.7840042e-05 -2.3347338e-05 0.00077041733 -5.4260295e-27 -4.034602e-27
3.74552e-08 -0.00016501085 -3.883899e-27 0.0004183997 -2.2590586e-05 -0.0002264202 -1.9094519e-27 -5.1158764e-07
-1.1726105e-14 2.785607e-06 1.1632105e-05 -1.3763077e-27 -1.925882e-05 -8.5818485e-28 -4.8837467e-28 0.0001109554
1.3354372e-23 -0.00050709787 -8.654324e-11 -0.00028429547 -5.2272454e-27 2.0214738e-07 6.911502e-14 3.5500675e-11
-0.000662623 -0.0012901055 -0.0002891669 3.7537342e-07 0.00013986748 -4.681866e-28 -3.5235443e-27 -8.879254e-09
-1.1105227e-07 -4.321724e-27 1.3054868e-16 -0.0009369109 -5.3350917e-27 -9.268319e-27 -1.2815592e-06 -5.094857e-28
00000000: e376 2913 00ca a413 bfee a7b4 a0f9 3910
00000010: 3670 11b7 2d4b 0531 2532 8124 a565 f8b0
00000020: df10 b7ba e3d4 b5b9 68b7 8413 fbc3 e495
00000030: 103d d437 d7e6 9738 8d2c 12b0 4c53 2913
00000040: 7252 b1ba 09af b639 67fc 32ba 0efc 8c37
00000050: c98c 493a c579 4d13 8e39 2b13 e6df 169f
00000060: 8fa2 3933 4532 36ba b25e 5637 060d f338
00000070: 2c26 fa11 58e2 1593 ef20 8c93 25e9 4593
00000080: 4e4b 38b5 1828 a135 b734 f91f 67d2 9593
00000090: 7015 8aab 208b 9838 98d6 3c93 8f55 cd38
000000a0: fb08 3db9 cc2c 6e18 4582 1c34 bcbd 4d34
000000b0: 9817 1339 2415 9193 2e65 9932 82b8 8ab7
000000c0: 5422 db94 5c23 9293 d5e5 802e 511d 6dba
000000d0: 79d7 1792 0572 c9b7 c3fd 81b7 294c 09a7
000000e0: b304 efb6 257b e0b8 ef48 9f94 a36c 8995
000000f0: 8ba2 0a94 10aa 4939 ab7a e6a3 0ce5 9d1d
00000100: 52ce a394 4313 fb92 1d88 57a0 39ef 9a3a
00000110: 763c 0026 51bf da36 dc25 1f26 765f 0192
00000120: 6b3c 8b3a 98f1 1194 52c1 0c94 34f1 752c
00000130: 2904 2592 991c bab3 e29e 0b94 9ef5 7db5
00000140: caf5 ecae 0881 72b6 313b 963a 3b47 4093
00000150: 6d44 90a0 658b 5639 868a 62b4 a6dd c934
00000160: d211 90b8 d5a2 5e14 a4a5 e811 aebc c7b8
00000170: 98fa 5539 a7b6 d334 0c25 b72c bf4c 1738
00000180: 8764 223a a5ea 9a30 d086 cea6 0d14 b333
00000190: cf85 d138 fc56 cba7 33c6 e814 4b18 9a39
000001a0: 3761 841c 881f ce37 c907 3a14 c1b3 45b8
000001b0: dba4 6714 c36e caad 8066 fe12 e794 0939
000001c0: 1e56 3814 a88e 973a 1cae 923a f63a d0b9
000001d0: fd22 8736 98be 933a a2e4 1395 f7d0 85b2
000001e0: e31e 49b9 bbaf 0c23 811f 91b5 1cc3 8338
000001f0: 06a1 9794 6a01 7294 4b6d a694 15a9 fe38
00000200: 3181 8c94 f553 c333 f20f 7494 9596 25b3
00000210: 6e77 bf33 9d6d bb26 9052 f5b8 ab0b 4cb9
00000220: 00fd 611c 2c19 0918 8f53 7f94 ea5f 5a93
00000230: fde1 a4a2 aabd 9734 9455 0b94 6d63 6138
00000240: c864 dc39 8170 08b8 c91e cab8 2a8c 8fa6
00000250: 2cff d5a7 c4e1 db95 7d44 5db9 5c62 a095
00000260: 2d72 8424 e0e4 1cb1 cd1a 2b95 2355 3538
00000270: 9397 9ead fb55 713a c6a3 bb13 98e3 3895
00000280: 704e a4b1 983c dcb9 df93 e4b9 538e 9330
00000290: b77d 1c37 06e0 b539 bf2d 9d34 31e3 6f3a
000002a0: 57e0 8e39 ccb0 bf37 ce0e 9fba 0ec9 9294
000002b0: 2aad 6937 b9c4 98ba 4d50 6037 e38a 9694
000002c0: de8c 8e2e 896d 2692 018a 7a2e d070 5f39
000002d0: 041d 5e38 2c03 9035 cb86 c5b9 fb38 6139
000002e0: fd7b 4894 e474 373a b845 2494 2338 37b4
000002f0: d715 2396 646b d8b8 bf5a 843a d4bd c935
00000300: fcf8 f22b 8a29 4924 0471 a139 1011 cca8
00000310: c874 2994 bdce 82b9 0f32 03a7 4303 5e38
00000320: 4321 c493 80c1 9f93 f667 822c 08c3 a41f
00000330: 7210 bbb4 853d 4f39 edb7 02b8 1f65 6838
00000340: e641 2eb7 8582 e7b6 78d4 4f37 33a7 9537
00000350: 07da c3b7 d5f5 493a 7af2 d693 bad3 9f93
00000360: 6ede 2033 c306 2db9 6adb 9993 a85c db39
00000370: ea80 bdb7 366b 6db9 4948 1793 0954 09b5
00000380: 1d3d 53a8 5df0 3a36 8327 4337 ac15 da92
00000390: 008e a1b7 1dfc 8792 a9c5 1a92 bab0 e838
000003a0: d327 8119 c3ee 04ba 834f beae 7e0d 95b9
000003b0: 9112 cf93 d90d 5934 19a2 9b29 3522 1c2e
000003c0: e0b3 2dba c218 a9ba 539b 97b9 ee86 c934
000003d0: 64a9 1239 cf5f 1492 fc94 8b93 5f8b 18b2
000003e0: a27b eeb3 7d33 ab93 2b83 1625 079b 75ba
000003f0: 4258 d393 f693 3794 0a02 acb5 6476 2192

lstm.weight_hh_l0 f4 [128, 32]
-1.3310782e-06 -0.00046412015 -2.7148234e-25 3.2433529e-12 0.00012222613 -2.959173e-10 2.3707692e-06 7.8593143e-10
6.041527e-06 -1.5176311e-05 0.00038106233 -1.5595028e-30 -2.123267e-31 -8.135382e-07 1.9639508e-14 7.632678e-05
5.5839257e-05 2.2932208e-30 4.594485e-14 1.16105e-30 0.00023920834 7.4175434e-05 -1.1221505e-06 -1.35136315e-17
1.1615864e-30 1.1112392e-06 -3.1927891e-31 -0.00015612363 8.749795e-08 -0.0010534013 8.8990906e-05 2.1283142e-11
-3.3610534e-10 -0.0009401246 3.977507e-06 5.1320193e-31 3.554274e-05 -1.6349027e-07 1.3816611e-30 -0.00015423352
1.3109896e-31 -2.8110005e-30 -6.151566e-19 1.0779107e-30 2.437951e-05 3.4366594e-09 -2.4921718e-30 1.8449568e-23
5.277862e-07 0.0003559645 3.6649235e-05 -6.4592446e-06 3.2631394e-31 -5.465996e-17 0.00031949574 4.151819e-30
1.6407346e-05 -6.6462286e-31 -0.00037191965 -1.7578641e-13 0.0004435322 -2.0019734e-31 -2.7542434e-31 5.3096097e-05
-5.528713e-31 -6.732615e-30 -2.0006084e-05 0.0013096848 2.4874345e-05 -2.1626088e-10 7.389935e-06 -1.4833483e-17
4.1226595e-31 -9.337324e-30 1.7263453e-08 -3.9457335e-12 1.430061e-07 0.0010785398 -3.7123915e-19 -1.0897783e-29
-2.6167158e-06 4.72012e-20 4.3477616e-19 1.062283e-11 -0.0001460459 -2.4131953e-06 -6.358258e-30 -2.64284e-05
-0.0013179273 -1.7766054e-29 0.0009815552 -8.757223e-09 0.0005212996 2.9516636e-05 2.9478218e-05 -2.791132e-05
6.4533344e-07 6.9440925e-05 -1.2199055e-29 0.00039975936 1.0144851e-30 -0.0009786899 1.0712433e-14 -1.5148721e-06
-9.850546e-20 -4.8598245e-06 5.7170083e-30 -1.9960246e-30 -4.3598233e-05 -3.5383306e-05 7.215185e-30 1.8012135e-10
2.7541929e-30 -0.00037349426 2.6836724e-05 2.5035262e-28 -7.16941e-08 7.193454e-05 -1.9894703e-24 3.4279582e-30
-5.223645e-20 3.3661274e-09 1.0580403e-29 -1.26094914e-29 8.63624e-06 2.5822555e-09 9.917236e-16 9.0264955e-05
1.2992717e-09 -2.3091152e-29 -0.0005673863 -0.00012139971 3.4000194e-10 3.0973449e-21 3.176519e-30 1.4117685e-14
3.5825825e-25 -1.9606354e-09 -1.2861269e-05 -2.4391262e-26 6.416416e-29 5.1126448e-05 1.3075277e-05 -8.092209e-30
-0.000102104656 3.8372844e-05 5.3888993e-08 -1.1216948e-05 8.644348e-06 7.436089e-08 -5.4583445e-11 -3.31517e-05
-2.3076858e-29 5.4775866e-30 -2.2262735e-29 5.1093447e-30 1.9926864e-29 -7.822291e-09 -0.00010552402 1.3297127e-29
-1.562069e-10 -0.00017314777 -1.766016e-08 1.23198865e-29 -6.0676074e-12 -3.6812398e-06 3.1773168e-29 -6.631352e-30
5.9537225e-21 5.712008e-05 2.8671468e-10 7.347351e-08 -8.282829e-06 -8.9625806e-05 -9.433876e-10 -0.00057489105
-0.000406384 -4.2449412e-07 3.215792e-06 -4.0209734e-29 1.093563e-19 -3.8834134e-08 -5.3427e-29 2.1951611e-20
-5.289379e-29 -5.7343487e-29 1.5661193e-19 -0.00091153657 9.3239216e-29 2.2695113e-07 5.409572e-29 1.7682744e-11
-3.9853407e-05 -5.6710982e-05 -0.00015976466 2.541932e-08 1.6587722e-07 1.54745e-29 -9.684523e-06 -1.3471031e-30
0.0011286573 0.00021703087 -6.2139998e-30 3.0438719e-30 2.2455636e-30 -3.8611427e-11 -2.6000404e-05 -7.997504e-08
-3.675135e-30 1.1085156e-06 1.9556942e-30 7.3843976e-06 8.6240085e-05 1.0925781e-30 -4.8095685e-06 -0.00057864934
-4.745562e-15 3.1287889e-06 0.00017350446 1.3451964e-18 -0.00028492472 -0.00067751616 -6.277147e-06 1.746018e-05
-3.294334e-08 -4.2013007e-10 7.064903e-31 1.4539258e-16 -9.367461e-10 8.968351e-30 5.601609e-16 -1.978089e-06
1.7186612e-09 -1.276038e-05 -4.8287243e-30 5.1613804e-18 4.2467446e-31 5.8567683e-05 -9.177557e-10 -0.00022078746
4.4357934e-22 -4.7092163e-17 9.736654e-07 -1.8683443e-30 1.9195752e-06 3.5217115e-31 6.3655375e-10 2.002812e-30
0.0009697202 -1.680146e-07 -0.0002292624 -5.299557e-12 2.5858262e-13 -7.557414e-31 4.0152315e-31 -2.0691228e-19
00000000: 80a7 b2b5 2755 f3b9 180a a896 0d3b 642c
00000010: d429 0039 a8ae a2af 8119 1f36 0209 5830
00000020: 52b8 ca36 c29d 7eb7 52c9 c739 360b fd8d
00000030: d3ce 898c eb61 5ab5 9fe5 b028 a111 a038
00000040: f234 6a38 550c 3a0e ceea 4e29 2164 bc0d
00000050: 00d4 7a39 a28e 9b38 cc9c 96b5 5248 79a3
00000060: 697a bc0d e325 9535 4f39 cf8c 1eb5 23b9
00000070: 82e6 bb33 4812 8aba a1a0 ba38 6035 bb2d
00000080: 9fc6 b8af b272 76ba 8676 8536 268b 260d
00000090: ba13 1538 dd8b 2fb4 f52f e00d bfb9 21b9
000000a0: 1a2d 2a0c 320e 648e eb8f 35a1 a9e6 ae0d
000000b0: 9982 cc37 5a2a 6c31 6230 4a8e eb6e b219
000000c0: 31ad 0d35 bfa0 ba39 d1b7 1938 7dbc d8b6
000000d0: 34ca d30c 1713 7ca4 fe81 a739 f46a a80e
000000e0: 82a2 8937 b5ae 578d 36fe c2b9 fcea 45aa
000000f0: e289 e839 7def 818c b8c2 b28c 80b3 5e38
00000100: c06a 338d bc8d 088f bdd2 a7b7 bba9 ab3a
00000110: 40a9 d037 07c8 6daf 0ff7 f736 92d0 88a3
00000120: b7c9 050d 2862 3d8f bc4a 9432 02d4 8aac
00000130: 388d 1934 ca5d 8d3a 1324 dba0 8608 5d8f
00000140: d69a 2fb6 c0e6 5e1f c252 0021 f9e0 3a2d
00000150: e623 19b9 61f2 21b6 f7f5 008f 8fb2 ddb7
00000160: 4dbe acba 502b b48f 87a7 803a ad72 16b2
00000170: d3a7 083a 7e9a f737 fe47 f737 1a23 eab7
00000180: fa3a 2d35 d0a0 9138 1d6d 778f cb96 d139
00000190: 109c a40d 6247 80ba 61fa 4028 9c52 cbb5
000001a0: e696 e89f 9311 a3b6 cfe8 e70e cfef 218e
000001b0: 3fdd 36b8 8968 14b8 6257 120f a70b 462f
000001c0: 5972 5f0e 8dd1 c3b9 6d1f e137 09ae 9e11
000001d0: 40f6 99b3 90db 9638 85ed 1998 f40d 8b0e
000001e0: fead 769f 8a51 6731 9898 560f 39c0 7f8f
000001f0: 5ee4 1037 8573 3131 25ec 8e26 a14c bd38
00000200: 0f92 b230 0f2c ea8f a6bc 14ba f997 feb8
00000210: 05eb ba2f 5d07 6a1d dcda 800e 5552 7e28
00000220: 49c0 dd16 ddbb 06b1 bbc6 57b7 328f f194
00000230: ecac a210 9b70 5638 e35d 5b37 2721 248f
00000240: 0521 d6b8 87f2 2038 9373 6733 6d30 3cb7
00000250: 3107 1137 55b0 9f33 7f0f 70ae 5e0c 0bb8
00000260: f306 ea8f 8332 de0e 5dc5 e18f 7842 cf0e
00000270: 1915 ca0f cd62 06b2 c74c ddb8 51d9 860f
00000280: 55c0 2baf 008f 35b9 1ab3 97b2 82e0 790f
00000290: 267c d5ac 380b 77b6 ee1b 2110 f37f 068f
000002a0: dfec e01d 3894 6f38 819f 9d2f 7dc8 9d33
000002b0: 7bf6 0ab7 7df5 bbb8 80a8 81b0 49b4 16ba
000002c0: f00f d5b9 07e6 e3b4 e3ce 5736 38e3 4b90
000002d0: ea1a 0120 95ca 26b3 1b74 8790 bd53 cf1e
000002e0: 081a 8690 0d62 9190 0de5 3820 2ff4 6eba
000002f0: b663 ec10 daaf 7334 2126 8910 008a 9b2d
00000300: 4528 27b8 f4dc 6db8 8086 27b9 ad59 da32
00000310: fc1b 3234 19ee 9c0f b67a 22b7 7994 da8d
00000320: 74ef 933a c892 6339 dd11 fc8e bff2 760e
00000330: 882e 360e 9ad0 29ae 711b dab7 bebe abb3
00000340: c914 958e 4ec8 9435 2eaa 1e0e 7ec7 f736
00000350: cbdb b438 eb47 b10d e161 a1b6 80b0 17ba
00000360: 15fa aaa7 2ff8 5136 c0ee 3539 1584 c621
00000370: f361 95b9 579b 31ba 48a0 d2b6 7377 9237
00000380: 967d 0db3 0df8 e6af eb44 650d 51a0 2725
00000390: d3be 80b0 57e6 350f 9474 2126 4fbf 04b6
000003a0: 0436 ec30 6a15 56b7 57e0 c38e dc6b be22
000003b0: 93d0 090d 92a6 7538 5145 7cb0 2f83 67b9
000003c0: 4a10 061c 9d2c 59a4 e3ae 8235 fe93 178e
000003d0: 0dd2 0036 7892 e40c 7df9 2e30 c77c 220e
000003e0: d234 7e3a 8067 34b4 2866 70b9 2a76 baac
000003f0: af91 912a 8a40 758d 3d4d 020d 6647 74a0

lstm.bias_ih_l0 f4 [128]
-1.1005132e-10 -5.5815276e-27 1.7758622e-07 2.3754252e-23 -4.1267798e-10 0.0011025625 -1.3127026e-26 2.7225613e-10
0.0011177715 0.00039692287 -1.5728613e-23 2.7971497e-10 -6.251784e-27 -1.0585642e-12 -1.8585137e-11 9.1722256e-26
1.7472149e-07 0.0011808852 -5.317133e-27 -0.0004970414 -9.37191e-09 4.2325095e-08 1.9511279e-05 -6.7236615e-06
1.4921725e-06 7.230015e-26 -2.0566264e-18 1.6645656e-05 -0.00044628792 1.2630412e-08 1.0605701e-17 -1.0510902e-06
7.675421e-28 4.0807752e-10 -2.2210267e-27 0.00047284795 3.8667505e-10 -0.00039819712 4.8426465e-13 -1.9668634e-07
-2.0278361e-05 0.00042866083 -0.0011341363 -0.0006384394 -6.6077015e-27 -5.2215366e-13 -7.522945e-18 0.0011984553
-1.2144929e-08 3.2286313e-27 0.00012453017 5.7689398e-08 1.11450484e-26 -1.398898e-26 -6.7769756e-10 0.00019979276
0.00030317024 3.1907378e-26 -2.0744401e-22 5.5711775e-05 0.0013123456 3.8437617e-14 -5.644254e-05 0.0003916465
-0.00016002166 0.0013894851 -4.127671e-05 -6.8543865e-11 0.00014893584 2.1980158e-09 1.9230137e-10 -0.000104347375
-4.9192458e-08 1.2697572e-05 1.0028929e-23 3.8852598e-11 -3.711063e-05 -8.1809716e-23 -9.448807e-09 3.3968953e-23
-5.527829e-23 8.084294e-06 -0.00092764193 2.5498608e-07 -4.114185e-23 7.8936e-23 2.424133e-06 7.29639e-26
0.00039012704 -8.864183e-14 1.2624456e-19 1.1388926e-22 -4.734221e-06 -0.000111561 3.2346587e-21 3.0530737e-07
-4.810918e-09 6.443783e-05 -4.0599733e-12 1.8639232e-26 -8.019858e-06 -4.542851e-09 1.2913426e-06 -5.2287085e-08
1.307177e-07 -0.00041110942 7.231994e-08 3.6559903e-26 -0.00021368085 -0.00010830331 -4.4255617e-06 -3.5524234e-15
-2.9614408e-26 3.3410255e-27 1.389445e-08 -6.750982e-06 3.4331065e-14 -1.2046425e-26 0.0003005248 -6.4664505e-07
-2.3610313e-26 -1.6428454e-05 -1.925611e-26 1.1908104e-15 -0.00027212524 -5.3356526e-27 0.0009394077 5.459087e-23
00000000: 6301 f2ae 6a1b dd93 87ae 3e34 aebc e519
00000010: 43df e2af dc83 903a f700 8294 a5ac 952f
00000020: 3082 923a 161a d039 291e 9899 62c6 992f
00000030: 9fa8 f793 cbfa 94ab 027a a3ad e317 e315
00000040: 149b 3b34 efc7 9a3a 22a2 d293 e24b 02ba
00000050: 1902 21b2 efc8 3533 27ac a337 d09b e1b6
00000060: a846 c835 aa01 b315 93c0 17a2 46a2 8b37
00000070: c0fb e9b9 24fd 5832 02a4 4323 2f13 8db5
00000080: 6a3e 7312 ce57 e02f c6f7 2f93 94e8 f739
00000090: ad93 d42f 1dc5 d0b9 f24e 082b bb30 53b4
000000a0: 731b aab7 e2bd e039 4da7 94ba f15c 27ba
000000b0: 07e1 0294 23f9 12ab 1ac6 0aa3 7d15 9d3a
000000c0: f6a5 50b2 6ccc 7f13 5094 0239 2ac6 7733
000000d0: 1cc0 5c14 478a 8a94 ba48 3ab0 767f 5139
000000e0: d2f2 9e39 68ff 1d15 d0c8 7a9b 10ac 6938
000000f0: 0303 ac3a 8e1b 2d29 b7bc 6cb8 e755 cd39
00000100: 7dcb 27b9 621f b63a 8820 2db8 c4ba 96ae
00000110: a92b 1c39 e70b 1731 0670 532f 12d5 dab8
00000120: ae47 53b3 a807 5537 dafc 4119 23e0 2a2e
00000130: 3ca7 1bb8 c3cd c59a 4b54 22b2 8743 241a
00000140: 9ba7 859a c7a1 0737 ff2c 73ba 05e5 8834
00000150: 25f3 469a 04db be1a 4aae 2236 5ea6 b415
00000160: f789 cc39 899a c7a9 140b 1520 05af 091b
00000170: a6da 9eb6 dbf5 e9b8 6667 741d 20e9 a334
00000180: 484d a5b1 cc22 8738 fdd8 8eac 1198 b814
00000190: 078d 06b7 5717 9cb1 3252 ad35 4292 60b3
000001a0: 685b 0c34 2c8a d7b9 4f4e 9b33 2f09 3515
000001b0: 840f 60b9 e620 e3b8 497f 94b6 a5fa 7fa7
000001c0: b9a4 1295 065a 8413 70b4 6e32 7e86 e2b6
000001d0: 069d 1a29 a29a 6e94 c28f 9d39 1c95 2db5
000001e0: 41d3 e994 d6cf 89b7 0ab4 be94 269d ab26
000001f0: 08ac 8eb9 f25d d393 9542 763a 1dfe 831a

lstm.bias_hh_l0 f4 [128]
0.0006977068 5.4600005e-14 -2.989792e-27 -1.3086326e-11 -5.6856745e-08 -5.7710284e-26 -3.8013137e-20 3.7702508e-11
-0.0005921798 0.000558809 1.6869325e-07 0.00021810918 2.6117315e-05 -0.0015554394 -5.1543247e-26 4.4771107e-07
8.087048e-12 -7.892537e-05 -6.0920635e-27 -0.00010663536 -1.5216921e-09 -1.4638303e-09 -6.353613e-15 -3.8472583e-13
-2.3013869e-26 3.178834e-07 1.1499417e-05 -5.884515e-26 8.626052e-10 -8.409437e-12 3.5540187e-27 -4.1231473e-26
-9.768912e-10 -1.3414544e-21 0.0007643562 3.911445e-26 -6.389626e-14 -5.5228177e-26 -6.498357e-15 -1.6691954e-08
0.0006656427 2.0363191e-09 4.2432905e-27 3.058636e-05 0.00088003837 1.830163e-26 0.00036657733 -7.012005e-18
-1.7679861e-07 -0.00020490939 1.8381295e-10 -4.6337975e-27 -1.5231662e-06 -1.1708783e-20 3.543107e-26 3.8679368e-28
7.890884e-07 2.7278428e-26 -2.293848e-26 -0.0010348549 -0.00016415288 -5.902134e-27 2.8308911e-27 -9.753344e-26
-7.231991e-24 -5.7244453e-24 -1.4757572e-06 -5.5669094e-23 -6.6346723e-07 -0.0012942938 5.033022e-06 0.0004827347
7.714229e-13 -1.1830801e-06 1.0429788e-25 6.0820807e-06 -4.6856625e-05 -1.6087739e-11 1.3714849e-14 2.4747952e-23
-1.4668654e-22 -0.00024382531 -8.919996e-05 3.7448375e-05 1.0758805e-09 9.7731946e-23 2.3361797e-11 3.0515737e-10
0.00082762324 -2.066415e-08 0.0011759101 -0.00089530286 -0.0015222171 1.7300244e-13 -1.9489949e-13 1.7139303e-23
1.0445887e-09 -5.7378747e-05 1.6765067e-05 0.0007116898 -2.6332362e-26 -5.948065e-26 1.02940774e-10 1.04762095e-10
-0.00021077873 -6.689028e-26 -3.976016e-26 -0.0005231343 -5.2491603e-05 1.8288776e-09 -1.7003462e-05 -0.0010560728
1.2600663e-15 4.0140667e-06 -4.0027796e-27 -4.8065203e-27 -1.4343216e-07 -9.225008e-27 7.1635386e-26 -7.851975e-06
-2.3489058e-26 2.9955327e-08 -2.9981058e-05 -8.2221875e-26 -7.19276e-27 -3.936747e-05 0.0013418547 -4.2129604e-26
00000000: 50e6 363a 85e5 7529 30e0 6c93 9337 66ad
00000010: a732 74b3 3de2 8e95 1083 339f 40d1 252e
00000020: 833c 1bba 0a7d 123a 0c22 3534 3db4 6439
00000030: 8216 db37 e3df cbba d43a 7f95 f15c f034
00000040: d444 0e2d bc84 a5b8 dd54 f193 6ca1 dfb8
00000050: c823 d1b0 f32f c9b0 bde9 e4a7 d694 d8aa
00000060: 17eb e394 90a9 aa34 9fed 4037 8bb1 9195
00000070: 721c 6d30 bdf0 13ad 08ca 8c13 1a2b 4c95
00000080: 4e43 86b0 01b7 ca9c 145f 483a 75af 4115
00000090: b0e1 8fa9 04bd 8895 c420 eaa7 ff61 8fb2
000000a0: 877e 2e3a 4eef 0b31 1418 a813 db49 0038
000000b0: 60b2 663a 2540 b514 2d31 c039 4259 01a3
000000c0: 08d6 3db4 f2dc 56b9 bf1a 4a2f 4a90 b793
000000d0: 986f ccb5 332c 5d9e 3872 2f15 dd28 f511
000000e0: bed1 5335 8413 0715 f52b e394 f8a3 87ba
000000f0: 7420 2cb9 c0ce e993 4b49 6013 297b f195
00000100: 16e3 0b99 2974 dd98 a212 c6b5 8099 869a
00000110: 1f19 32b5 4ba5 a9ba 54e1 a836 8e17 fd39
00000120: e122 592b 53ca 9eb5 511d 0116 ad14 cc36
00000130: eb87 44b8 5e82 8dad 9410 7728 f658 ef19
00000140: 4955 319b 5cab 7fb9 dd10 bbb8 e311 1d38
00000150: 2ede 9330 254d ec1a 177e cd2d 15c3 a72f
00000160: dbf4 583a f280 b1b2 ff20 9a3a c2b2 6aba
00000170: 2185 c7ba 8fc8 422a f46f 5baa dcc2 a519
00000180: 3391 8f30 f6a9 70b8 b5a2 8c37 b290 3a3a
00000190: 3c64 0295 5744 9395 815e e22e d15f e62e
000001a0: 7c04 5db9 c09c a595 fee1 4495 f322 09ba
000001b0: 6e2a 5cb8 e95b fb30 a8a2 8eb7 ec6b 8aba
000001c0: 3e98 b526 92b0 8636 0291 9e93 e867 be93
000001d0: 5502 1ab4 59b8 3694 525c b115 fabb 03b7
000001e0: d69f e894 3ba8 0033 d57f fbb7 4e92 cb95
000001f0: a077 0e94 801e 25b8 2ce1 af3a 9e9d 5095

lstm.weight_ih_l1 f4 [128, 32]
1.8108332e-15 1.6934706e-08 9.599849e-11 9.494302e-05 6.456505e-06 -5.069547e-05 8.1844e-09 3.9219785e-06
2.6330181e-11 -0.00017214807 -4.848697e-16 0.0003601415 -2.2160364e-06 -3.0099514e-07 0.00057973963 1.6947137e-05
-3.622898e-05 -5.6703643e-06 -1.3912596e-30 2.2655577e-07 -1.0592033e-05 2.1741958e-05 -0.0001489824 3.4041983e-07
5.3140906e-30 1.984252e-31 -0.00015634904 -5.3823453e-05 -0.00012011307 -1.4489062e-06 -0.0006223877 -2.1799787e-25
-5.8938414e-30 1.9378047e-30 -5.21097e-30 -3.7739383e-06 7.4128005e-30 5.0136617e-10 -4.182376e-05 -2.4745776e-12
-0.0005567285 -1.609187e-30 -0.0003270861 2.4569686e-30 -4.5475675e-30 0.00012855872 3.132713e-07 -8.6285984e-10
0.00085170596 1.9208639e-07 -4.9304067e-09 2.4262796e-30 -2.0369262e-05 -6.830887e-31 -8.893955e-06 2.5767167e-06
0.0001755653 3.250418e-30 1.7358282e-16 3.974823e-07 2.608652e-25 -0.0006795334 0.00038678703 1.4483913e-30
9.099957e-09 -7.24875e-27 8.0086393e-28 -1.5105055e-05 1.0767944e-26 1.0099378e-20 -1.1559503e-06 0.00061877456
2.2908374e-18 3.2779994e-11 0.00063433807 -0.00013336744 -4.912629e-11 1.4853398e-20 -2.1727713e-09 0.00028146757
-3.9602932e-27 2.480244e-13 -1.4885256e-11 4.5539413e-13 2.7188422e-27 -3.167908e-13 -5.1594365e-27 2.3281593e-06
2.1615134e-12 -6.1922457e-27 -2.6390383e-06 -4.911129e-05 -8.9234445e-06 -1.9572117e-27 9.937848e-28 0.0008507548
-1.5917724e-28 2.1967013e-07 -2.1398952e-28 0.00027293866 -0.00085168047 1.5017284e-11 2.1780654e-11 -4.6204867e-05
0.0002574138 -1.3069801e-10 0.0011587646 -4.894809e-28 -3.09734e-28 -3.3949398e-28 1.786699e-27 -2.8388646e-08
7.7314224e-28 -3.1419992e-07 -6.217464e-05 -0.00046284773 2.8090313e-05 1.2375678e-05 -8.916987e-05 -4.5163683e-28
-1.8741738e-21 -4.567297e-05 3.3169682e-28 5.224279e-05 -1.4896596e-27 2.0834325e-14 0.00021409402 1.5159892e-05
0.00040926583 0.0008870709 -1.6251006e-06 9.507705e-06 -2.4005373e-10 0.0008322659 -0.0005027929 5.3626146e-31
-3.9924582e-23 -3.2994222e-07 2.808574e-07 0.0003610596 4.117938e-06 4.129491e-08 6.0020342e-05 1.2723844e-16
8.5326875e-23 -0.0015315975 -1.6509215e-05 2.162182e-06 3.774883e-06 -6.3893974e-19 0.000571132 -4.0925213e-10
-5.06775e-20 -6.488035e-30 6.479297e-07 1.8562726e-30 -9.054988e-07 -1.9320019e-30 -5.4319634e-07 3.2752534e-05
1.4585016e-06 3.4337674e-05 -0.00031392596 -0.00044217065 9.556704e-06 -6.287638e-06 6.6046865e-05 -8.455347e-06
-7.0708767e-29 -1.7512115e-11 -3.9709494e-08 1.8219189e-06 -2.181207e-09 0.0013228914 3.358436e-13 -0.00012661993
0.00042125193 1.5217783e-27 2.1997066e-12 -3.5514806e-21 0.00032985327 -2.348639e-28 0.00029867716 2.1255191e-08
-4.279892e-05 -8.318444e-11 -1.28526215e-17 4.2314534e-09 0.0008494661 6.170171e-28 8.77491e-06 -3.2109306e-27
1.1842902e-11 7.714911e-06 8.211532e-30 -1.4612551e-06 0.00018276379 2.0757259e-29 5.1560765e-08 -5.4994746e-07
5.3869306e-18 -1.02440575e-29 -1.02275494e-29 1.408965e-13 -3.765453e-08 8.255299e-31 -0.00041775405 -0.00030240425
4.2951995e-10 -0.00018313514 5.2498575e-30 -5.1234906e-08 -1.5892274e-08 -8.099222e-06 9.6676655e-24 4.246628e-09
-1.5076175e-29 -4.431824e-31 -1.9360328e-05 -8.9113996e-08 1.3018304e-29 5.2410346e-17 1.4897136e-17 -1.0843646e-10
1.0904689e-27 -5.7133868e-05 -4.230113e-05 -0.00019506544 -6.5177272e-09 -0.00096789206 8.155921e-09 -0.00081496476
3.8838864e-28 4.3599818e-21 -9.099401e-27 4.532873e-27 -0.00030702722 -0.00016931284 4.9776118e-06 -4.4178367e-05
-0.00038025348 0.00043721776 1.4535487e-05 -0.0013193944 2.546127e-27 -8.070181e-05 7.2856374e-06 -8.0744e-06
1.2707084e-06 0.0006462238 5.6746147e-05 -6.7761946e-10 -0.001377661 -1.4138293e-06 1.2386955e-27 1.4490426e-26
00000000: fa7b 0227 d077 9132 581a d32e 251c c738
00000010: f5a4 d836 d9a1 54b8 5f9b 0c32 8a99 8336
00000020: 4c9a e72d a582 34b9 12c1 0ba6 60d1 bc39
00000030: 37b7 14b6 7598 a1b4 abf9 173a b329 8e37
00000040: 92f4 17b8 0f44 beb6 aabe e18d 2d43 7334
00000050: 6fb4 31b7 8062 b637 2938 1cb9 f2c2 b634
00000060: ac90 d70e 0bc9 800c a0f1 23b9 7ec0 61b8
00000070: 37e5 fbb8 0a78 c2b5 bb27 23ba 24ef 8696
00000080: 2615 ef8e a136 1d0e ce61 d38e c443 7db6
00000090: 7659 160f 82d0 0930 ec6b 2fb8 0722 2eac
000000a0: 6bf1 11ba 828d 028e c17c abb9 3e55 470e
000000b0: a478 b88e b8cd 0639 ae2f a834 5d2e 6db0
000000c0: 0545 5f3a 4e40 4e34 5168 a9b1 dbd7 440e
000000d0: a8de aab7 caac 5d8d 3f37 15b7 a8eb 2c36
000000e0: f417 3839 45da 830e 9b20 4825 8d65 d534
000000f0: be77 a116 b722 32ba adc9 ca39 d203 eb0d
00000100: 0956 1c32 8793 0f94 cdcd 7d12 b86b 7db7
00000110: f647 5514 98c5 3e1e 2626 9bb5 4235 223a
00000120: b208 2922 fe2a 102e b549 263a 8dd8 0bb9
00000130: 490f 58ae 5049 8c1e cc4f 15b1 f091 9339
00000140: 25e2 9c93 15a0 8b2a 9eee 82ad 9b2e 002b
00000150: ac68 5713 5e56 b2aa e762 cc93 793d 1c36
00000160: 5d1a 182c d54c f593 551a 31b6 d9fc 4db8
00000170: e7b5 15b7 f810 1b93 b378 9d12 3005 5f3a
00000180: f8c7 4991 77de 6b34 c9a1 8791 3519 8f39
00000190: 4f43 5fba eb17 842d ac95 bf2d 19cc 41b8
000001a0: 7ff5 8639 38b4 0faf b0e1 973a 691f 1b92
000001b0: 3751 c491 0c2e d791 908e 0d13 4bdb f3b2
000001c0: c004 7512 4faf a8b4 c163 82b8 5faa f2b9
000001d0: 7da3 eb37 22a1 4f37 b600 bbb8 2221 0f92
000001e0: cb9b 0d9d fa90 3fb8 e33c d211 451f 5b38
000001f0: c60b ec92 afa8 bb28 6d7e 6039 3e57 7e37
00000200: bb92 d639 528a 683a 081e dab5 4883 1f37
00000210: 8ff8 83af 6b2c 5a3a dccd 03ba dc06 2e0d
00000220: 3d10 419a ea22 b1b4 bfc8 9634 994c bd39
00000230: d12c 8a36 3c5c 3133 5abe 7b38 29b2 1225
00000240: c74e ce1a e2bf c8ba 457d 8ab7 011a 1136
00000250: ff53 7d36 ec94 3ca1 05b8 153a 1efd e0af
00000260: 5751 6f9f ce97 038f 64ed 2d35 4699 160e
00000270: 6711 73b5 1cbe 1c8e 2bd0 11b5 c45f 0938
00000280: bcc1 c335 cc05 1038 6e96 a4b9 24d3 e7b9
00000290: bb55 2037 66fa d2b6 a482 8a38 70db 0db7
000002a0: 9d44 b390 c709 9aad 0d8d 2ab3 a888 f435
000002b0: 33e4 15b1 df64 ad3a 2a10 bd2a 47c5 04b9
000002c0: 7adb dc39 a922 f112 64ca 1a2c d02b 869d
000002d0: 28f0 ac39 d9dc 9491 c597 9c39 a994 b632
000002e0: fe82 33b8 adec b6ae ca16 6da3 4264 9131
000002f0: b4ae 5e3a 608a 4312 f437 1337 6965 7e93
00000300: b057 502d 4a6f 0137 b68c 260f 5820 c4b5
00000310: 48a4 3f39 ed80 d20f a973 5d33 1aa0 13b5
00000320: 1fbe c622 30c6 4f8f 7970 4f8f a7a2 1e2a
00000330: 98b9 21b3 2cf3 850d 0006 dbb9 038c 9eb9
00000340: 8f21 ec2f f707 40b9 a3f5 d40e 600d 5cb3
00000350: 7b83 88b2 e5e1 07b7 f6ff 3a19 bce9 9131
00000360: fde3 988f 27d2 0f8d fd67 a2b7 f05e bfb3
00000370: 7305 840f 37b3 7124 de66 8923 4d74 eeae
00000380: acca ac12 06a3 6fb8 7e6c 31b8 7b8a 4cb9
00000390: 89f2 dfb1 23ba 7dba 1f1e 0c32 5ca3 55ba
000003a0: a92b f611 28b7 a41d 723b 3494 cb90 b313
000003b0: 7ff8 a0b9 9289 31b9 5c05 a736 294c 39b8
000003c0: c25c c7b9 603a e539 71dd 7337 88ef acba
000003d0: 97b9 4913 743e a9b8 2677 f436 4977 07b7
000003e0: 358d aa35 5867 293a b602 6e38 3b43 3ab0
000003f0: a292 b4ba cec2 bdb5 7647 c412 9881 8f14

lstm.weight_hh_l1 f4 [128, 32]
3.946802e-33 -2.0146972e-33 3.0248078e-08 -3.190378e-31 0.0012124901 -3.8265455e-07 2.1217354e-15 0.0004824786
-0.00017877987 -1.272332e-14 1.5969393e-07 -0.00039843604 7.9997044e-08 1.0741016e-32 -4.952313e-30 -0.00086492795
9.875548e-31 0.0015098562 2.3193465e-30 3.6386587e-32 -0.00037401862 -3.5239886e-05 1.1815523e-16 -4.688454e-14
0.00019095602 2.8828775e-33 -0.0004976629 -1.7504548e-13 1.1529438e-32 0.00085769175 -2.118482e-05 6.326284e-13
0.00037153793 0.00028044143 -1.0689043e-30 1.5341342e-09 1.25041715e-05 -6.41607e-31 1.0374988e-14 -2.163653e-08
4.287636e-11 -4.5238178e-08 1.0925168e-30 3.6353144e-05 2.7832144e-07 3.8698846e-33 9.6415264e-05 0.00071200274
0.00010388639 -0.0013302356 2.3407736e-05 -5.024684e-05 -3.1736996e-05 3.479276e-08 4.4173242e-21 1.702595e-06
-0.00013775555 3.3516656e-07 2.4143762e-32 0.0014964626 -1.5512362e-10 1.698562e-05 -5.1985057e-06 -0.00060822815
-2.0489722e-05 -4.4676647e-30 -8.149182e-05 -1.4505054e-08 7.083037e-05 -1.4678181e-20 1.6445416e-08 -4.338408e-28
6.5059845e-05 -0.00045200283 8.214203e-12 -5.0271845e-19 -0.0014870543 1.8786046e-16 2.9340247e-27 7.659696e-06
-6.225377e-11 0.0013662077 -8.991611e-08 0.00044610567 -1.936147e-10 4.1164276e-05 -3.0502736e-27 4.5971472e-05
-5.0805146e-28 -4.3797492e-05 -4.3013442e-06 2.6044706e-06 -7.690149e-15 -5.073049e-29 7.476241e-05 1.4082801e-12
0.00027196022 -1.7679128e-10 5.6072934e-23 0.00032455695 -4.0248374e-10 3.6871866e-09 0.00042758844 1.2512891e-28
0.00062499335 1.9369926e-28 1.6965793e-20 -1.3279641e-31 -2.4614389e-08 0.00016433625 0.0010107002 4.065759e-20
5.3748137e-29 -1.9212877e-05 6.79069e-05 -0.00043203944 7.0475177e-22 -2.0421973e-08 0.00024177009 0.0003411436
0.00018483086 2.751853e-28 2.063133e-30 -0.00043178184 -1.1204938e-30 1.9959885e-15 0.00019496835 -1.6515642e-12
0.00014787407 -8.8889415e-08 -4.1460098e-05 1.5924171e-06 -1.1816457e-05 0.00026115024 0.00016121104 6.6466714e-06
-2.6671484e-33 1.1979553e-30 0.0014073391 -1.1932787e-05 1.855009e-07 5.020709e-28 -3.1936537e-07 2.5132598e-32
-9.596906e-07 1.5130254e-33 6.447319e-31 -0.00038087962 0.0014339339 2.167031e-06 0.0011344162 -2.2062174e-09
5.3183674e-05 -0.00029567073 6.259603e-13 1.7559481e-33 0.0004732903 2.7498476e-05 0.00020075434 -4.5046053e-31
7.2783845e-31 3.5228714e-15 -3.629859e-07 0.000516542 -0.0006867404 0.00013759352 -1.6878705e-05 -1.6513287e-11
-1.2564783e-05 0.00017501577 0.00084553537 -8.140156e-26 1.8729377e-30 -1.2251591e-11 6.9963826e-05 1.6275125e-29
1.0100998e-05 0.000639065 -5.2129037e-13 7.9131594e-30 -0.00020825704 0.0010933318 5.1979804e-08 -3.8635456e-30
1.8918224e-28 -1.8101106e-16 -3.1761838e-13 1.2674438e-09 1.844326e-11 -0.0007971188 3.1262032e-10 -1.8957885e-28
-1.7974373e-12 7.640215e-33 2.1000015e-30 8.420687e-31 -6.742629e-33 7.108348e-31 6.192993e-20 -4.1415642e-05
5.402209e-22 0.00027148132 -2.623195e-05 -1.2735544e-08 3.9502073e-32 6.9930184e-06 2.0735696e-11 -0.00020387833
0.00031401616 -8.250689e-34 -2.893756e-30 -0.00016547373 -0.000887439 -2.4191115e-07 -8.1388355e-30 2.2673264e-07
2.9450407e-09 -1.45898075e-05 -1.5202477e-06 -0.00023681995 -0.0010511372 1.7416402e-09 2.3762052e-30 3.4286048e-30
-6.037893e-07 7.1573218e-06 0.00078526704 0.00013836169 -0.0011282823 4.8817672e-11 0.0002303225 -0.00052551704
4.277413e-11 -4.202761e-15 2.0187407e-09 1.2025226e-30 0.0001516985 0.0001761178 -0.0012469636 -9.805432e-29
0.0012061873 -1.4572672e-13 3.5691213e-05 2.0187288e-17 0.0004273296 -2.7110726e-29 2.6607646e-12 -9.308643e-06
1.0385045e-11 5.184099e-30 0.0005564057 0.00078029133 0.00037428262 -5.282383e-12 1.0469592e-27 -0.000700911
00000000: 99f1 a309 df5f 2789 1dea 0133 3f11 cf8c
00000010: 6bec 9e3a a46f cdb4 1ce3 1827 2ef5 fc39
00000020: db76 3bb9 f533 65a8 5578 2b34 2ee5 d0b9
00000030: d7ca ab33 0915 5f0a c2e3 c88e 55bc 62ba
00000040: 6c3d a00d 5ee6 c53a f12a 3c0e 12ee 3c0b
00000050: ee17 c4b9 8ace 13b8 4539 0825 3226 53a9
00000060: 5e3b 4839 0680 6f09 9875 02ba 6d15 45aa
00000070: 0275 6f0a b8d6 603a 0eb6 b1b7 ae11 322b
00000080: faca c239 3608 9339 8c70 ad8d 8cd9 d230
00000090: 02c9 5137 a036 508d 30e6 3a28 3cdb b9b2
000000a0: 7d92 3c2e e74b 42b3 5f45 b10d e479 1838
000000b0: 356c 9534 acbf a009 8d32 ca38 b2a5 3a3a
000000c0: 95dd d938 4d5b aeba bb5b c437 22c0 52b8
000000d0: 571d 05b8 0b6f 1533 bde1 a61d b884 e435
000000e0: 7972 10b9 f1f0 b334 21b9 fa0a f424 c43a
000000f0: 6b8f 2aaf 577c 8e37 d36e aeb6 8071 1fba
00000100: 58e1 abb7 e23a b58e 96e6 aab8 e731 79b2
00000110: c48a 9438 aaa1 8a9e da43 8d32 597d 0992
00000120: bd70 8838 cbfa ecb9 7b81 102d 5560 14a1
00000130: 43e9 c2ba 9f96 5825 1775 6813 2582 0037
00000140: c2e5 88ae 5312 b33a e717 c1b3 4ae3 e939
00000150: b1e1 54af cea7 2c38 e6aa 7193 7ed1 4038
00000160: 0802 2192 33b3 37b8 4454 90b6 77c8 2e36
00000170: 8d88 0aa8 f89d 8090 c3c9 9c38 a332 c62b
00000180: e295 8e39 5262 42af 7793 871a 4c29 aa39
00000190: 8d44 ddaf ac61 7d31 f32d e039 a79e 1e11
000001a0: 98d6 233a 018b 7511 c53c a01e 2d61 2c8c
000001b0: 9d6f d3b2 ad51 2c39 7979 843a 0300 401f
000001c0: 8944 8810 572b a1b7 3d69 8e38 5a83 e2b9
000001d0: 87ff 541c 656c afb2 aa83 7d39 85db b239
000001e0: 28cf 4139 5e6b ae11 9961 270e c760 e2b9
000001f0: 7ecf b58d 7dd3 0f27 6b70 4c39 df6f e8ab
00000200: a50e 1b39 79e3 beb3 71e5 2db8 09bb d535
00000210: 4c3f 46b7 feea 8839 c20a 2939 7906 df36
00000220: f993 5d89 1e61 c20d 7776 b83a ee32 48b7
00000230: 192e 4734 d51c 1f12 3e75 abb4 f47e 020b
00000240: b8ce 80b5 fc64 fb08 3b3a 510d ccb0 c7b9
00000250: d6f2 bb3a 4f6d 1136 b1b0 943a 309c 17b1
00000260: 8911 5f38 4104 9bb9 3131 302b e3e0 1109
00000270: f323 f839 87ac e637 9581 5239 cc2e 128d
00000280: 7432 6c0d 82d9 7d27 67e0 c2b4 8c68 073a
00000290: 5e06 34ba fb46 1039 be96 8db7 9e40 91ad
000002a0: 55cd 52b7 7084 3739 eba6 5d3a 5e8a c995
000002b0: 65f3 170e 4388 57ad 8bb9 9238 a40c a50f
000002c0: 7577 2937 ed86 273a eeba 12ab 797f 200f
000002d0: 935f 5ab9 214e 8f3a 6640 5f33 5ab9 9c8e
000002e0: 26d1 6f11 09b1 50a5 a2cd b2aa 3732 ae30
000002f0: 883a a22d bdf5 50ba 66dd ab2f db51 7091
00000300: 81f7 fcab 5aae 1e0a 535f 2a0e 2aa2 880d
00000310: f709 0c8a d8ad 660d 583a 921f b5b5 2db8
00000320: 9145 231c 9b55 8e39 af0c dcb7 84cb 5ab2
00000330: 431b 4d0b 92a5 ea36 a364 b62d 2cc8 55b9
00000340: 89a2 a439 8d16 8988 f6c4 6a8e 0483 2db9
00000350: 06a3 68ba 04e0 81b4 4013 258f cb73 7334
00000360: b461 4a31 bfc6 74b7 500b ccb5 df52 78b9
00000370: 50c6 89ba 845e ef30 dac7 400e ab14 8b0e
00000380: 1614 22b5 ed28 f036 61da 4d3a 2f15 1139
00000390: dfe2 93ba d0b3 562e ba82 7139 dac2 09ba
000003a0: 641f 3c2e a16b 97a7 10ba 0a31 d61e c30d
000003b0: 4211 1f39 43ac 3839 2871 a3ba e498 f890
000003c0: ee18 9e3a de12 24aa 26b3 1538 e331 ba23
000003d0: 350b e039 bc77 0990 133c 3b2c 512c 1cb7
000003e0: 16b2 362d c34a d20e c1db 113a 778c 4c3a
000003f0: 5d3b c439 7adb b9ac b6e5 a512 57bd 37ba

lstm.bias_ih_l1 f4 [128]
-4.691859e-20 2.0999682e-06 -4.3355216e-24 1.4928206e-24 3.5911552e-27 -1.6804698e-11 2.3965756e-09 -3.9112365e-06
1.1852301e-06 -9.71444e-24 0.00034248992 -0.00066076085 -1.7387185e-05 -3.4597855e-05 1.4995236e-05 -0.00013913661
4.6299093e-08 0.00089715555 -3.499215e-07 -0.00071571185 0.0007131635 -0.0005880341 -1.8110342e-18 -2.9581657e-11
4.190834e-24 -4.0122394e-09 6.481525e-26 -1.2373028e-05 6.9815823e-26 0.0012333745 7.588431e-25 3.057436e-11
5.8488836e-27 -2.7498743e-08 -1.2882308e-21 0.00030714858 0.00022845929 1.5351795e-24 -1.4015021e-26 -8.3157504e-24
4.4503465e-19 -0.0001558929 0.0006254327 2.2092433e-07 -4.1340805e-08 9.3439534e-11 -6.748857e-13 -1.3370677e-21
7.281744e-12 2.986347e-18 -1.468399e-14 0.000112744 -2.499957e-05 -2.012784e-07 0.00050468603 -2.2140868e-26
-9.389407e-10 -6.1027665e-17 3.457579e-09 5.3494055e-06 -8.640136e-11 -9.413499e-05 1.1719131e-24 1.2031992e-23
1.1321399e-20 1.2670595e-09 5.1632454e-05 1.5646403e-05 -2.3266494e-20 -4.5281497e-14 1.461127e-11 -7.683486e-06
2.5761665e-20 1.1586649e-06 -2.3407592e-13 9.791649e-13 -2.805196e-20 -2.0820228e-20 -0.0009930048 2.1969981e-05
0.00016692678 3.223684e-19 0.0004220764 2.617128e-14 -7.481196e-20 2.9467386e-12 0.00036681158 -3.9044553e-21
-0.00019731722 4.1416472e-15 -4.030426e-06 -7.2085236e-20 -3.1816743e-20 -2.3340371e-20 -0.00019270595 -0.00025263202
0.0010543389 1.2663491e-26 -8.564133e-08 1.0698514e-18 -2.984498e-08 1.676459e-24 1.13914674e-14 -7.286208e-24
3.5889094e-05 -0.00022205089 -9.0584135e-10 0.00010013552 -4.3032757e-26 -3.4705335e-26 3.047013e-13 1.0945831e-05
-0.00016150261 6.0936947e-07 -4.253887e-12 4.4047155e-26 7.202044e-22 -3.432771e-07 0.0012193789 7.1232376e-10
-0.00014383937 -7.0006823e-19 3.859535e-14 6.7265945e-12 -1.3163927e-06 1.3841552e-06 1.812384e-24 6.1353448e-24
00000000: 1891 5d9f 2eed 0c36 edb8 a798 b700 e717
00000010: a442 8e13 d1d0 93ad 01b1 2431 443d 83b6
00000020: 3214 9f35 94e7 3b99 3890 b339 e936 2dba
00000030: b2da 91b7 2a1d 11b8 0c94 7b37 33e5 11b9
00000040: 64da 4633 172f 6b3a d8dc bbb4 9c9e 3bba
00000050: 98f3 3a3a 4d26 1aba 78a1 05a2 fc19 02ae
00000060: 0220 a218 08dc 89b1 8c79 a015 c095 4fb7
00000070: 09db ac15 2ea9 a13a bfd9 6a17 ab77 062e
00000080: bab2 e713 6036 ecb2 04ac c29c c908 a139
00000090: 938e 6f39 ba8e ed17 4dcc 8a94 9ad9 2099
000000a0: de59 0321 2f77 23b9 14f4 233a 3837 6d34
000000b0: b28e 31b3 c879 cd2e a4f6 3dab 4d0d ca9c
000000c0: 0f1a 002d 805a 5c22 fa42 84a8 f970 ec38
000000d0: 2bb6 d1b7 fc1e 58b4 e84c 043a c545 db94
000000e0: 0a0c 81b0 60b8 8ca4 5f9a 6d31 0b7f b336
000000f0: a4ff bdae 576a c5b8 4358 b517 8abb 6819
00000100: edda 551e b124 ae30 ed8f 5838 6540 8337
00000110: eebe db9e 03ee 4ba9 a885 802d 52e8 00b7
00000120: e24f f31e 6c83 9b35 e5c5 83aa 22ce 892b
00000130: bd78 049f 39a4 c49e b627 82ba 2d4c b837
00000140: 1109 2f39 ef4a be20 234a dd39 ddba eb28
00000150: 0ea5 b09f b95b 4f2c 9e50 c039 9381 939d
00000160: f0e6 4eb9 f437 9527 193d 87b6 da34 aa9f
00000170: 1540 169f 8e71 dc9e 1c11 4ab9 b273 84b9
00000180: be31 8a3a 87d3 7a14 d2e9 b7b3 d8e1 9d21
00000190: e72e 00b3 b1b5 0118 df35 4d28 8eef 0c99
000001a0: 9f87 1638 55d6 68b9 ebfe 78b0 d9ff d138
000001b0: 8016 5595 3dda 2b95 1688 ab2a fca3 3737
000001c0: 0759 29b9 8d93 2335 9cab 95ac 671c 5a15
000001d0: 1eab 591c a54b b8b4 91d3 9f3a 54cd 4330
000001e0: 96d3 16b9 a99f 4ea1 69d1 2d29 c7ab ec2c
000001f0: e9ae b0b5 36c7 b935 f739 0c18 8359 ed18

lstm.bias_hh_l1 f4 [128]
0.0013410877 4.5751385e-05 0.0015189647 5.088192e-25 3.744403e-27 -1.4060556e-12 -1.416166e-26 4.6102918e-17
4.5304168e-23 -2.1824148e-07 1.4147761e-09 3.547289e-08 -5.4834618e-05 1.7634212e-10 -1.8709129e-23 -5.6735043e-05
6.6769994e-06 -3.5363258e-24 1.5639245e-07 1.4799608e-05 7.358251e-23 -1.7168978e-25 -3.201129e-07 0.00020902003
-0.00013495126 -0.00015942537 1.304016e-25 -6.019054e-26 -4.683959e-06 -1.2285927e-25 -6.4498573e-07 8.515771e-24
5.620272e-27 9.111589e-27 0.00077802944 5.3829176e-25 7.742668e-27 1.2463578e-24 -7.959199e-06 -0.00050307164
-0.00045384525 -1.364458e-23 1.2869107e-07 1.757464e-05 -1.1665651e-06 -1.4315872e-21 3.907802e-19 0.00044948765
-6.0481015e-24 0.0012556487 4.3367683e-07 -2.2187736e-08 2.4147349e-19 4.0771715e-09 -0.0010391774 2.0101039e-13
4.6156117e-24 -0.00033141664 -5.700587e-06 -5.4735015e-26 4.587384e-13 0.00045818344 -4.2192074e-08 -4.5991915e-06
8.0716494e-21 2.1541014e-20 -0.0002918236 -7.537652e-05 -3.496996e-20 -0.000105063154 -3.38386e-18 0.0002449199
-3.0456404e-09 0.0007585735 8.777861e-05 -9.236575e-21 4.840984e-09 -9.997317e-21 -0.00039391872 5.221348e-21
2.1991216e-06 4.107297e-20 -3.692923e-19 1.2307597e-05 -0.0011178864 2.681485e-06 0.0008673448 -5.642078e-07
0.00043316843 3.9578323e-09 8.480333e-06 -9.236774e-20 -3.6500666e-20 1.1875223e-05 -0.00016842168 -4.4188797e-05
1.648099e-26 -0.000103165214 -4.2124368e-24 0.0008545536 4.0694865e-27 -0.00013164342 6.6706143e-09 -0.00044176588
-0.00079591706 -3.2587139e-10 -1.0251647e-07 -1.6913856e-07 -2.372984e-25 -3.0134317e-26 -3.1138024e-06 0.0013001639
-7.357567e-24 1.4634716e-16 7.403617e-06 3.7822543e-26 -4.1578264e-06 -0.0003157554 -1.8485092e-23 -2.2661609e-26
5.349259e-24 5.767825e-09 -0.0012600196 5.0246575e-07 -2.235281e-25 -1.4291416e-26 9.185188e-25 2.007689e-05
00000000: 70c7 af3a 2de5 3f38 ff17 c73a cf78 1d17
00000010: c254 9413 7ee2 c5ab 1340 8c94 b89c 5424
00000020: d813 5b1a c355 6ab4 0272 c230 db5a 1833
00000030: 39fe 65b8 e5e3 412f 8ff1 b499 caf6 6db8
00000040: fd0a e036 13ce 8898 d4ec 2734 d54b 7837
00000050: 5ee9 b11a aa8a 5496 fbdb abb4 632c 5b39
00000060: b481 0db9 6c2b 27b9 eb6d 2116 4906 9595
00000070: e72a 9db6 a817 1896 1523 2db5 0eb8 2419
00000080: 54a4 de13 3f79 3414 acf4 4b3a de97 2617
00000090: fe5b 1914 52dd c017 8088 05b7 91e0 03ba
000000a0: 14f2 edb9 58f6 8399 552e 0a34 416d 9337
000000b0: df92 9cb5 d955 d89c 09ad e620 36a9 eb39
000000c0: 7ff9 e998 9494 a43a 17d4 e834 5997 beb2
000000d0: 718a 8e20 2e17 8c31 0235 88ba 4d51 622a
000000e0: ce8e b218 fdc1 adb9 ab47 bfb6 7084 8795
000000f0: 961f 012b 5738 f039 ad36 35b3 c152 9ab6
00000100: 1a78 181e fa72 cb1e e7ff 98b9 7613 9eb8
00000110: 1624 259f 5a55 dcb8 4faf 79a2 9868 8039
00000120: 794b 51b1 01db 463a c815 b838 5679 2e9e
00000130: bf55 a631 0fd8 3c9e e086 ceb9 c741 c51d
00000140: 9f94 1336 2df6 411f e0fd d9a0 ba7c 4e37
00000150: 0b86 92ba 90f3 3336 865e 633a 1174 17b5
00000160: e21a e339 76fd 8731 c146 0e37 df18 da9f
00000170: 995e 2c9f b23b 4737 5a9a 30b9 5c57 39b8
00000180: 4638 a314 675a d8b8 f4f5 a298 1f04 603a
00000190: 7f35 a113 c309 0ab9 5833 e531 d09c e7b9
000001a0: 17a5 50ba 5226 b3af 0727 dcb3 749c 35b4
000001b0: 6fe1 9296 c937 1595 b8f6 50b6 436a aa3a
000001c0: e850 0e99 0fba 2825 966c f836 c549 3b15
000001d0: 7583 8bb6 f98b a5b9 dfc6 b299 016e e094
000001e0: 7ff0 ce18 532e c631 3e27 a5ba 2fe1 0635
000001f0: 715b 8a96 0b89 8d94 4722 8e17 cb6a a837

lstm.weight_ih_l2 f4 [128, 32]
1.7674506e-27 8.239857e-28 4.2162276e-15 6.8764174e-14 -7.023984e-06 -1.6626659e-09 -2.9998448e-14 3.3429531e-25
0.0014880854 9.490001e-25 0.00013984928 1.07514e-05 -1.2435754e-15 5.914435e-27 -0.00017764588 6.325618e-12
-0.00022632665 -3.5622154e-28 -6.7671744e-09 1.2396781e-26 5.329929e-09 1.3049648e-05 -4.3608028e-10 0.00015858714
2.5780805e-25 -0.00031185016 4.489681e-27 1.170091e-05 -5.3358305e-27 9.391707e-05 -0.00055262685 -8.595052e-16
7.1080884e-14 1.7443859e-09 1.4532636e-05 -0.00010377517 1.1189065e-11 -4.0588208e-25 -1.0765359e-26 9.046393e-05
4.3840456e-09 0.00010321347 4.4672587e-25 -0.0007970771 0.000519603 -0.00019268267 0.0003411371 7.346442e-26
0.00045436426 1.4790022e-24 0.00041412472 -7.6500955e-06 0.00086004526 1.4415176e-06 3.4066548e-24 -8.443951e-09
2.4007547e-12 0.00062631234 -8.553381e-21 2.686078e-26 -2.7220028e-26 7.76693e-06 -1.3067831e-24 -1.7886366e-24
-9.0562724e-05 -2.1229657e-11 2.8383192e-07 4.5646234e-06 7.74626e-05 3.1533249e-28 7.248653e-30 4.3562613e-05
1.0693419e-06 -1.98849e-27 -5.843401e-28 0.0013232928 -1.06890255e-29 -0.00045315313 -0.00037091642 5.57012e-06
-4.4271906e-10 -1.535704e-07 -6.6987472e-18 -1.484857e-18 3.560825e-27 1.4100215e-15 1.8688802e-20 -4.1219253e-05
-5.7661573e-15 0.000394188 -1.7149433e-29 -7.811841e-30 -1.5831314e-20 -4.0303602e-29 5.0459523e-15 -0.0006987712
1.2536578e-26 0.0009074501 -4.6154974e-18 -6.5856046e-25 0.0012135551 3.4586952e-07 -2.1106467e-26 1.8375033e-05
-1.7308849e-27 -7.186399e-06 0.0007754868 2.4624466e-14 3.8526497e-26 -5.813842e-15 4.7761946e-06 -6.216476e-05
1.9943914e-24 0.0002801026 -2.8905058e-06 4.3749137e-14 5.5605783e-06 -2.445026e-06 -1.2601461e-06 -8.399386e-05
-2.8018582e-10 -1.1351912e-12 2.9218521e-05 -1.5313447e-07 -1.0336032e-13 -0.000108468616 -3.5799427e-24 -4.1791165e-24
-1.7353791e-30 0.0013514763 -5.5541722e-08 -3.580525e-05 4.1548117e-16 2.029584e-28 0.0005911964 -0.0010686449
9.005045e-05 -3.3293636e-27 0.00083553867 -0.0012373772 0.00013865205 -0.0009487575 2.62052e-18 1.5286206e-06
-0.0007738787 -9.863218e-06 -1.0215414e-11 0.00026513718 -2.2184043e-19 1.0286343e-19 -1.2821079e-14 -1.5313216e-12
-8.1838436e-07 5.1057966e-20 -0.0005662258 -3.7881635e-30 -0.00045558214 0.00028938206 -8.1659715e-07 -2.2794298e-05
1.7780176e-16 0.0009867892 8.589661e-06 -9.977298e-11 -1.1965336e-05 -1.8635686e-07 0.000355216 2.6509945e-09
-1.937566e-12 1.6301273e-27 -1.9605268e-20 7.4096715e-06 7.2233424e-30 3.0236175e-10 -1.0699062e-08 1.5040885e-09
3.267205e-28 -1.727425e-14 -0.0013460538 2.9817888e-29 -2.9313004e-27 -0.0006291363 -4.592635e-06 1.3694342e-13
3.848449e-28 -3.7647563e-25 8.348984e-06 -6.7930195e-16 -3.2420485e-20 -0.0012186554 2.5434305e-05 -0.00014316554
0.0010363447 0.000108676155 -0.0001328291 2.0620966e-15 2.0639172e-07 0.001458254 -7.623097e-12 -2.6467087e-28
5.5907563e-09 2.8221368e-08 -0.00086999213 0.0002852342 -1.7928513e-06 -1.526233e-29 -3.950203e-06 -5.769334e-29
4.482909e-07 3.5580792e-11 0.00047864 -1.3255903e-06 -0.0010481068 -5.2470575e-09 -8.277509e-05 -4.3665952e-07
2.2747416e-12 -6.49552e-05 -1.2297079e-29 -4.3493065e-30 -4.7298216e-21 -4.051266e-18 9.740558e-25 7.418513e-05
-9.4372185e-28 8.6668547e-07 0.00050457387 -5.8326185e-07 -1.606434e-31 3.7156092e-06 2.0666026e-17 0.000101205595
-3.4021186e-15 -0.0010951146 1.7614537e-28 0.00040089313 8.257641e-07 8.578715e-30 8.54658e-05 -0.00020557348
-5.240875e-21 -6.8733825e-31 -6.7397626e-27 7.737292e-06 5.0866785e-08 2.5251174e-29 9.640263e-20 -0.0009977052
4.1273237e-28 5.9674684e-14 0.0010332636 2.1958293e-30 -0.0005954932 2.0889796e-05 2.8542237e-18 -4.8746186e-20
00000000: 2808 0c13 d590 8212 d6e7 9727 d9d7 9a29
00000010: 90af ebb6 db83 e4b0 db19 07a9 35eb ce16
00000020: dc0b c33a c4d9 9217 81a4 1239 e960 3437
00000030: d637 b3a6 7f4b ea13 7446 3ab9 1a90 de2c
00000040: 1952 6db9 40c8 e191 b284 e8b1 268b 7514
00000050: 8d22 b731 d0ef 5a37 d8bc efaf 694a 2639
00000060: 5193 9f16 d27f a3b9 c6da b113 074f 4437
00000070: c05f d393 58f5 c438 29de 10ba 4abc 77a6
00000080: 570f a029 1fbf ef30 32d1 7337 dfa1 d9b8
00000090: 12d7 442d 953a fb96 db3a 5594 74b7 bd38
000000a0: 79a2 9631 4f74 d838 4541 0a17 f0f2 50ba
000000b0: f835 083a dc0a 4ab9 a6da b239 9ce3 b515
000000c0: bd37 ee39 50dd e417 e11e d939 e958 00b7
000000d0: a974 613a 2b7a c135 e0c9 8318 e410 11b2
000000e0: 27f0 282c 1c2f 243a 9d91 219e 1502 0515
000000f0: 7cc9 0695 b64e 0237 0337 ca97 9963 0a98
00000100: 7eec bdb8 f0bc baad 9061 9834 d129 9936
00000110: 6b73 a238 9fdd c711 2805 130f 00b7 3638
00000120: 4f86 8f35 5e8b 1d93 4d2f 3992 5772 ad3a
00000130: 98cc 588f 2f95 edb9 8f77 c2b9 f7e6 ba36
00000140: 2b63 f3af 1ce5 24b4 e123 f7a2 5020 dba1
00000150: 0e0f 8d13 9d34 cb26 c082 b01e d6e2 2cb8
00000160: 6abf cfa7 05ab ce39 79ea ad8f 6671 1e8f
00000170: c585 959e 115d 4c90 b2cc b527 be2d 37ba
00000180: 0150 7814 f2e1 6d3a 2448 aaa2 89d0 4b97
00000190: 2710 9f3a f2af b934 4007 d194 1524 9a37
000001a0: 8422 0993 b322 f1b6 0a4a 4b3a 27cc dd28
000001b0: 23c6 3e15 3a77 d1a7 3343 a036 745e 82b8
000001c0: fe4e 1a18 bcda 9239 83fa 41b6 5207 4529
000001d0: 0195 ba36 3a15 24b6 4a22 a9b5 dc25 b0b8
000001e0: a608 9aaf 93c3 9fab 4c1a f537 486d 24b4
000001f0: 2bbf e8a9 a579 e3b8 097e 8a98 f7ab a198
00000200: 6aca 0c8e 0524 b13a c58c 6eb3 982d 16b8
00000210: 3382 ef25 e2a3 8011 85fa 1a3a c611 8cba
00000220: 78d9 bc38 c2e3 8393 0d08 5b3a 7d2f a2ba
00000230: 2063 1139 0ab6 78ba 395c 4122 012b cd35
00000240: 1fde 4aba 337a 25b7 22b6 33ad 1c02 8b39
00000250: 94f3 82a0 21e1 f21f caf6 66a8 ad83 d7ab
00000260: f2ae 5bb5 4b1d 711f c56e 14ba 8aaa 998e
00000270: 33db eeb9 34b8 9739 2134 5bb5 6236 bfb7
00000280: d1fd 4c25 2757 813a 501c 1037 3267 dbae
00000290: babe 48b7 6219 48b4 493c ba39 ca2c 3631
000002a0: 1658 08ac e926 0113 a12a b99e 98a0 f836
000002b0: bd81 120f a239 a62f f9ce 37b2 69b8 ce30
000002c0: 6f15 cf11 b597 9ba8 126e b0ba d531 1710
000002d0: d63d 6893 9fec 24ba 6f1a 9ab6 412f 1a2a
000002e0: a8ec f311 f206 e996 9d12 0c37 a3cb 43a6
000002f0: f619 199f 4abb 9fba c15b d537 b51e 16b9
00000300: f5d5 873a 11e9 e338 0a48 0bb9 f896 1427
00000310: 869c 5d34 e222 bf3a 601b 06ad 4ec1 a791
00000320: d018 c031 726b f232 2f10 64ba 7c8b 9539
00000330: e7a1 f0b5 46c7 9a8f fc8b 84b6 1e45 9290
00000340: a2ac f034 697c 1c2e f9f1 fa39 f0ea b1b5
00000350: a160 89ba 9b49 b4b1 8a97 adb8 076e eab4
00000360: 1a12 202c 8f38 88b8 166a 798f c86d b08e
00000370: 07b0 b29d 2077 95a2 53ba 9617 d793 9b38
00000380: e889 9592 2ca6 6835 6145 043a 7391 1cb5
00000390: ed86 508c ae59 7936 469c be23 573e d438
000003a0: 0326 75a7 f389 8fba 714a 5f11 f72e d239
000003b0: 14aa 5d35 3cff 2d0f 1a3c b338 368f 57b9
000003c0: a2fe c59d d40d 5f8d a87e 0594 6bcf 0137
000003d0: 9f78 5a33 e609 0010 d09f e31f 6ec5 82ba
000003e0: d4cc 0212 1d60 8629 936e 873a 9725 320e
000003f0: df1a 1cba 7f3c af37 c39a 5222 8632 669f
