save/best_model_29_64_4_0.1.pt (torch, 522619 bytes, 23 tensors)

lstm.weight_ih_l0 f4 [256, 29]
0	0x3d814e91	0.063138135
1	0x3c03319b	0.008007432
2	0x3d146d31	0.036236946
3	0xbd73f7c4	-0.05956246
4	0x3d03ca75	0.0321755
5	0x3d237aff	0.03991222
6	0x3d14a8fe	0.036293976
7	0x3dbdc94e	0.092669114
8	0x3da29145	0.07937864
9	0x3c836821	0.016040863
10	0x3c231d93	0.0099557815
11	0xbce71401	-0.02820778
12	0x3e0200fa	0.12695685
13	0xbd0d1149	-0.034440313
14	0xbd6370af	-0.055527385
15	0x3dcdec60	0.100548506
16	0xbd395c6f	-0.045254167
17	0xbc1ee010	-0.009696975
18	0x3da3f4c6	0.08005671
19	0xbdb88896	-0.09010427
20	0x3da7f008	0.08200079
21	0x3d8f5db8	0.07000297
22	0x3df37746	0.11887984
23	0x3da8a836	0.08235209
24	0xbd8450a8	-0.064606965
25	0x3db0085f	0.08595347
26	0xbd94ea4f	-0.07271253
27	0xbd0b994e	-0.03408175
28	0xbc84e5d2	-0.016222868
29	0xbd6c0b5e	-0.057628028
30	0x3e074731	0.13210751
31	0xbd1a6d16	-0.03770169
32	0xbbdac595	-0.0066763856
33	0xbb32b42f	-0.0027268042
34	0x3d1a6fc4	0.037704244
35	0x3dd2181a	0.10258503
36	0x3d4b84e7	0.049687292
37	0x3e353124	0.17694527
38	0x3e81df1e	0.25365537
39	0x3d9efac8	0.077626765
40	0x3d0cd553	0.03438313
41	0x3e19eb75	0.15031226
42	0x3da2bb19	0.07945842
43	0x3acf8a5c	0.0015834081
44	0x3b107a4d	0.0022045553
45	0xbc8ed0a5	-0.017433474
46	0x3c3bc0f2	0.011459576
47	0x3dc4518c	0.09585866
48	0xbdaefb9f	-0.08544087
49	0xbda37b98	-0.07982558
50	0x3d2965cd	0.04135685
51	0x3d47cc0b	0.048778575
52	0xbe3f0405	-0.18653877
53	0x3d614887	0.055000808
54	0x3dfd60cc	0.12371978
55	0x3e8d29f2	0.27571064
56	0x3a1d815b	0.000600835
57	0x3ee4330a	0.4457019
58	0xbd6a24cb	-0.057163995
59	0xbce88915	-0.028385678
60	0x3d834124	0.06408909
61	0x3d541aeb	0.051783483
62	0x3d60232a	0.054721035
63	0xbdd74c87	-0.10512643
64	0x3dd22c12	0.10262312
65	0xbc370c57	-0.011172376
66	0x3e55444b	0.20826833
67	0x3e2cd3f3	0.16877727
68	0x3c0402af	0.00805728
69	0x3ddba081	0.10723973
70	0x3dc28b0e	0.09499179
71	0x3c39a311	0.011330382
72	0xbd1b2ee6	-0.037886523
73	0xbd9410b7	-0.072297506
74	0x3c43b50d	0.011945021
75	0x3e0cfcfa	0.13768378
76	0xbe0a5b66	-0.13511428
77	0x3d4dc24f	0.050234135
78	0xbd290cba	-0.041271903
79	0xbdc6d551	-0.097086556
80	0x3dac07cc	0.08399925
81	0xbe15ee0f	-0.14641593
82	0x3d1978fe	0.037468903
83	0x3df0b025	0.11752347
84	0x3e54ee65	0.20794065
85	0x3e10be27	0.14135037
86	0x3e12eba9	0.1434771
87	0xbd1df6cd	-0.038565446
88	0x3ca5632e	0.020188894
89	0xbd03fa82	-0.032221325
90	0xbd02f915	-0.031975824
91	0x3e03c7a0	0.1286912
92	0xbc775a56	-0.015097221
93	0x3da636d2	0.08115925
94	0xbd806b69	-0.06270487
95	0xbb7ff0c6	-0.0039053424
96	0x3cbf46e0	0.023349226
97	0x3df80e06	0.1211205
98	0x3e316e28	0.17327178
99	0x3cad279b	0.02113705
100	0xbd8fe51c	-0.07026121
101	0xbc903564	-0.017603584
102	0xbcc14908	-0.023594394
103	0xbc3a4c6e	-0.011370761
104	0x3d7c291b	0.06156264
105	0x3c118d32	0.008883761
106	0x3b619303	0.0034419901
107	0xbd1d47f7	-0.03839871
108	0x3de09ee4	0.10967806
109	0xbc8e83b2	-0.017396782
110	0x3de1c076	0.11023037
111	0x3d88b127	0.06674414
112	0x3d6a4550	0.057195008
113	0xbd8788ee	-0.06617914
114	0xbd98f118	-0.0746786
115	0x3e15eee0	0.14641905
116	0xbdcc8334	-0.099859625
117	0xbe059c79	-0.13047971
118	0x3bb43faf	0.0055007557
119	0xbc6b9cdf	-0.014380663
120	0x3d83707b	0.06417938
121	0xbdf1e1af	-0.11810624
122	0x3d716a2a	0.058939137
123	0x3d930094	0.07177845
124	0x3d9b4986	0.07582383
125	0xbd7b444b	-0.061344426
126	0xbdc92135	-0.09820787
127	0xbe05e434	-0.13075334
128	0xbe07f146	-0.13275632
129	0xbd12f66f	-0.03587955
130	0xbaddfc39	-0.001693613
131	0xbdd8fb01	-0.1059475
132	0x3dabae75	0.083828844
133	0xbd8e1a0c	-0.06938562
134	0xbcc9cb1d	-0.024632985
135	0x3d1df834	0.038566783
136	0xbd2b059e	-0.041753404
137	0xbe01ce29	-0.126763
138	0xbe138166	-0.1440483
139	0x3c216fac	0.009853285
140	0x3daff554	0.085917145
141	0xbdb2f16a	-0.08737452
142	0xbc2da62f	-0.010598703
143	0xbdc0fcbe	-0.09423207
144	0x3d74de23	0.05978216
145	0x3e1bb3e7	0.15205346
146	0x3d749db8	0.059720725
147	0xbd809d48	-0.06279999
148	0xbda8626e	-0.08221899
149	0x3e0ec71c	0.13943142
150	0xbd09ca57	-0.033640232
151	0xbda2630f	-0.0792905
152	0x3cb447bc	0.022006862
153	0x3ca58d4a	0.020208973
154	0x3d7c61e2	0.061616786
155	0x3e077462	0.1322799
156	0xbd30bee8	-0.043150812
157	0x3ce8add1	0.028403195
158	0xbdf0bca8	-0.11754733
159	0xbcfef4a0	-0.031122506
160	0x3d3d8114	0.046265677
161	0x3df74c84	0.12075141
162	0x3d52967a	0.051413037
163	0xbd7c453a	-0.061589457
164	0xbd068633	-0.032842826
165	0x3bc2a79f	0.005940392
166	0xbd388d35	-0.04505654
167	0x3d1adc6b	0.037807863
168	0x3d900748	0.07032639
169	0xbcd6350f	-0.026148347
170	0x3e314aa9	0.17313637
171	0x3c9fcddf	0.019507347
172	0x3d1bd9ba	0.038049437
173	0x3cc72131	0.02430782
174	0xbd9596ca	-0.07304151
175	0x3d65e8e6	0.056130312
176	0x3ccb6e8f	0.024832992
177	0x3b2c59ed	0.0026298717
178	0xbdb2e14f	-0.087343805
179	0x3d739a9d	0.059473623
180	0xbdf7b6f0	-0.120954394
181	0xbdbf256e	-0.09333311
182	0x3d1544fb	0.036442738
183	0xbc93c4f2	-0.018038247
184	0xbd11d63b	-0.035604697
185	0xbdbfe644	-0.093700916
186	0xbdcf37fd	-0.10118101
187	0xbc434708	-0.011918791
188	0x3d0fec3c	0.0351374
189	0xbdf15457	-0.11783665
190	0xbd99db0c	-0.07512483
191	0xbdb3f4e8	-0.087869465
192	0xbbc84f3e	-0.006112962
193	0xbbab7de6	-0.005233514
194	0xbda7852f	-0.081797
195	0xbd0ae0f9	-0.033905957
196	0xbd90bc8a	-0.07067211
197	0x3d990bda	0.07472964
198	0xbc8716ac	-0.016490303
199	0xbe071714	-0.13192397
200	0xbd131262	-0.035906203
201	0xbd906913	-0.07051291
202	0x3ce6fa0d	0.028195405
203	0x3c9cbe49	0.019133704
204	0x3d961bd6	0.07329528
205	0xbe095d1e	-0.13414428
206	0xbc6a49e3	-0.0142998425
207	0x3ce651af	0.028115122
208	0xbdc8e92d	-0.098101
209	0xbde49fcd	-0.11163292
210	0xbd3f45bc	-0.046697363
211	0xbd9813a9	-0.07425625
212	0xbdc186b2	-0.09449519
213	0xbd35137c	-0.044208035
214	0xbd672cab	-0.056439083
215	0xbdc18955	-0.09450022
216	0xbcf2be4c	-0.029631756
217	0x3d3a8b49	0.04554299
218	0xbd87f975	-0.06639377
219	0xbddd74ea	-0.10813315
220	0xbdd00260	-0.10156703
221	0x3dc07fa0	0.093993425
222	0xbd3ead26	-0.046551846
223	0xbcd5ffbd	-0.026122922
224	0xbd84fa17	-0.06493013
225	0x3d77c27c	0.06048821
226	0xbda42a71	-0.080159076
227	0x3d98c3b3	0.07459202
228	0xbd6bc3c9	-0.057559762
229	0x3e0261c8	0.12732613
230	0xbb061013	-0.0020456358
231	0xbd7d33cd	-0.06181698
232	0xbd1cf057	-0.038315143
233	0xbddddfaf	-0.1083368
234	0xbd33b485	-0.04387333
235	0xbd400316	-0.046877943
236	0x3cefbbec	0.029264413
237	0xbd941414	-0.07230392
238	0xbd75db82	-0.060023792
239	0x3d16dd8a	0.03683237
240	0x3d96f113	0.073702
241	0xbbe5fb42	-0.0070184777
242	0xbd9d327c	-0.07675645
243	0xbdd357a4	-0.103194505
244	0x3d0942b8	0.033510894
245	0x3b77bf46	0.0037803217
246	0x3cc310a3	0.023811644
247	0xbdc33948	-0.0953241
248	0xbdfc2d7d	-0.12313364
249	0xbda05072	-0.07827844
250	0xbe053425	-0.13008173
251	0xbddea8cb	-0.108720385
252	0xbcb37c1a	-0.021909762
253	0x3cc1a00e	0.02363589
254	0xbdbfd6a3	-0.093671106
255	0xbda24922	-0.07924105

lstm.weight_hh_l0 f4 [256, 64]
0	0x3e16e896	0.14737162
1	0xbe00f116	-0.12591967
2	0x3eafbb96	0.34322804
3	0x3db5bdaf	0.0887407
4	0x3e4d329c	0.20038837
5	0x3c39b619	0.011334919
6	0xbe1685d2	-0.14699486
7	0x3dcb41cc	0.09924659
8	0xbe2d0dbd	-0.16899772
9	0xbe23d78d	-0.16000195
10	0xbdeaf33d	-0.11472175
11	0xbc6de580	-0.014520049
12	0xbe299c84	-0.16563612
13	0xbd8f4aa8	-0.069966614
14	0x3d10131b	0.03517447
15	0x3bec9d75	0.007220919
16	0x3d4cdbad	0.050014187
17	0xbdacb59a	-0.08433075
18	0x3d347636	0.044058047
19	0xba4e2138	-0.00078632263
20	0xbde55a4d	-0.11198864
21	0x3e7e0e75	0.24810202
22	0xbe41b90c	-0.18918246
23	0x3d916b6a	0.07100566
24	0x3d1de413	0.038547587
25	0x3e299e37	0.1656426
26	0x3d8f8347	0.07007461
27	0xbcf14dbe	-0.029456016
28	0x3d282604	0.04105188
29	0xbdf8154c	-0.12113437
30	0x3d5ecc59	0.0543941
31	0xbc95a2a4	-0.01826603
32	0xbd1e40e9	-0.038636122
33	0x3e46ed72	0.19426516
34	0x3cf1538f	0.02945879
35	0x3e1594df	0.14607571
36	0xbe7a8d68	-0.24468005
37	0xbcd6bddf	-0.026213584
38	0x3e76d51d	0.24104734
39	0xbdb0262f	-0.08601033
40	0x3e2ad8d3	0.16684274
41	0xbe232d30	-0.15935206
42	0xbed11956	-0.40839642
43	0xbd2c2c2b	-0.04203431
44	0x3cfc9a72	0.030835364
45	0x3e59563c	0.21224302
46	0xbcd4df34	-0.025985338
47	0x3da1161b	0.078655444
48	0xbebd9719	-0.3702934
49	0x3e1b854e	0.1518757
50	0x3c86b918	0.016445681
51	0x3b8261d7	0.0039789486
52	0x3de26f4f	0.11056387
53	0xbdad1344	-0.0845094
54	0xbd88d2ca	-0.0668083
55	0xbdc9f68f	-0.098614804
56	0xbd3950d6	-0.045243107
57	0xbe3d0477	-0.18458734
58	0x3db07ce5	0.08617572
59	0xbe365165	-0.17804487
60	0x3e5f6465	0.21815641
61	0xbd555838	-0.052086085
62	0xbd817c97	-0.06322592
63	0x3d7bbdc5	0.061460275
64	0x3de1848b	0.11011609
65	0xbe30258c	-0.17201823
66	0x3e868690	0.26274538
67	0x3d64f9a7	0.05590215
68	0xbe0a9e05	-0.13536842
69	0x3d064ab8	0.0327861
70	0xbdcd71c9	-0.100314684
71	0x3e2648c2	0.16238692
72	0xbdf5e364	-0.12006262
73	0xbc1d6df9	-0.009608739
74	0xbce948d4	-0.02847711
75	0xbd52b21e	-0.051439397
76	0xbe0a5064	-0.13507229
77	0xbe0a746a	-0.13520971
78	0xbd502fba	-0.050826766
79	0xbd0b99c3	-0.034082185
80	0xbe134a7b	-0.14383881
81	0xbdf1585d	-0.11784432
82	0xbc59ab4d	-0.01328547
83	0x3d96ff27	0.07372885
84	0xbda3f33a	-0.08005376
85	0x3d2ca237	0.042146888
86	0xbe139a66	-0.14414367
87	0x3c4b71eb	0.012417297
88	0xbab4693d	-0.0013764274
89	0xbc94c5e4	-0.018160768
90	0xbe09150d	-0.13386936
91	0xbd8142f3	-0.06311598
92	0x3d0d9ce4	0.03457345
93	0xbda95d49	-0.08269746
94	0xbe168a5f	-0.14701222
95	0xbd8418d9	-0.06450052
96	0x3da10694	0.07862583
97	0xbda41944	-0.080126315
98	0xbd5ce2f6	-0.053927384
99	0x3dd25f21	0.10272051
100	0xbe73ddbb	-0.23815052
101	0xbd395fc2	-0.045257337
102	0x3e36b3b9	0.17841996
103	0xbe072762	-0.13198617
104	0xbd0f9634	-0.035055354
105	0x3b3637a8	0.002780417
106	0xbdee82d5	-0.11646048
107	0xbd935b1b	-0.07195111
108	0x3e283980	0.16428185
109	0xbcfb5fd5	-0.030685345
110	0xbce3ab5f	-0.027791677
111	0x3dfce451	0.123482354
112	0xbe1cf54d	-0.1532795
113	0xbdccfb9f	-0.100089304
114	0x3d890559	0.06690473
115	0x3db1cb94	0.086814076
116	0xbdb7bd57	-0.089716606
117	0xbc2b7dee	-0.010467036
118	0x3de20288	0.11035639
119	0x3e2de065	0.16980131
120	0xbda24a7a	-0.079243615
121	0xbc88edea	-0.016715009
122	0x3d48ca83	0.049021255
123	0xbdc502ec	-0.09619698
124	0x3d3a0924	0.045418873
125	0xbe2c3d15	-0.16820176
126	0xbda7aa1f	-0.08186745
127	0x3c56d93c	0.013113316
128	0x3df15e32	0.117855445
129	0x3c13b871	0.009016142
130	0x3e62a7a7	0.22134267
131	0xbe95ec3f	-0.29281804
132	0xbd957c20	-0.072990656
133	0x3e7aadeb	0.24480407
134	0x3e288d2d	0.16460104
135	0x3dbc963f	0.09208345
136	0xbe03d89e	-0.12875602
137	0x3d9f707b	0.07785126
138	0x3e1a4402	0.15065005
139	0x3c07e1c1	0.00829357
140	0xbd15eaf1	-0.03660101
141	0x3e2ccd05	0.16875084
142	0x3e520db6	0.20513043
143	0x3dcc7f39	0.09985203
144	0xbd945627	-0.07242995
145	0x3e679ebc	0.22619146
146	0x3e109e59	0.14122905
147	0x3e132751	0.14370467
148	0x3c962879	0.018329846
149	0xbe272829	-0.16323914
150	0xbe77fac2	-0.2421675
151	0x3e33d8d6	0.17563185
152	0x3dcc8239	0.099857755
153	0x3cb01be1	0.021497669
154	0xbe3c039f	-0.18360756
155	0x3dadfddb	0.08495685
156	0x3e4ad53d	0.19807906
157	0xbcae0e3e	-0.021247026
158	0xbd3e26a9	-0.046423588
159	0xbdf11024	-0.11770657
160	0xbe661d89	-0.22472204
161	0xbe5ea6de	-0.21743342
162	0xbe50bf9b	-0.20385592
163	0xbe28a871	-0.16470505
164	0xbd36f90d	-0.044671107
165	0xbdb27f9a	-0.08715744
166	0x3e7a8290	0.24463868
167	0xbe054d19	-0.13017692
168	0xbcface3d	-0.03061592
169	0xbdea2dde	-0.1143453
170	0xbcc5ef36	-0.024161916
171	0x3e26b333	0.16279297
172	0x3e8196df	0.25310418
173	0xbe83ad6d	-0.2571825
174	0xbdf1f82f	-0.118149154
175	0xbb8d42f8	-0.004310962
176	0xbe16fcff	-0.14744948
177	0xbd847b8a	-0.06468876
178	0xbe3c0b2f	-0.18363641
179	0xbe487a0e	-0.1957781
180	0x3d82fcba	0.0639586
181	0x3e4d8324	0.20069557
182	0x3d90621c	0.07049963
183	0x3df93ff0	0.12170398
184	0x3df0ebd7	0.11763733
185	0x3d01e7e3	0.031715285
186	0xbcb6f6d8	-0.022334501
187	0x3dcad52a	0.09903939
188	0x3e0462af	0.1292827
189	0xbe778cb5	-0.24174769
190	0xbe5905da	-0.21193638
191	0x3d6af961	0.057366733
192	0xbda8c16a	-0.08240016
193	0xbdfde5cb	-0.12397345
194	0x3da64216	0.08118074
195	0xbe3408d2	-0.1758149
196	0xbd19e427	-0.0375711
197	0xbdcb1be9	-0.09917433
198	0x3d8120d2	0.06305088
199	0xbc9a563b	-0.018839946
200	0xbd688259	-0.056764934
201	0x3a1bcbf0	0.000594317
202	0xbcee063e	-0.02905571
203	0x3db4f345	0.088354625
204	0xbdf5bf7c	-0.11999413
205	0xbdd49f2c	-0.10381922
206	0xbc7141da	-0.014725173
207	0x3e1233c3	0.14277558
208	0xbe388a6e	-0.18021557
209	0xbd981ef9	-0.074277826
210	0x3de0b810	0.10972607
211	0xbd967ac9	-0.07347638
212	0xbe29179d	-0.16512914
213	0xbd1c195f	-0.038110133
214	0xbd93d105	-0.07217602
215	0xbca34131	-0.019928547
216	0x3ca66d1f	0.020315705
217	0xbd86e8a7	-0.06587344
218	0x3c3c95bd	0.01151031
219	0xbdb36ab5	-0.08760587
220	0x3e124377	0.14283548
221	0xbd03ee44	-0.03220965
222	0xbda270b8	-0.07931656
223	0xbdc6c5e1	-0.09705711
224	0x3ce35b4e	0.027753498
225	0x3cc4890e	0.023991134
226	0xbdc28f10	-0.09499943
227	0xbb1d4b29	-0.0024001098
228	0xbd4d30ea	-0.050095476
229	0x3da513c2	0.08060409
230	0x3db16d5a	0.08663435
231	0xbdb44271	-0.08801735
232	0xbd4bdb31	-0.049769584
233	0xbdb916b7	-0.09037536
234	0xbc5b55ee	-0.013387186
235	0x3dc6b9d6	0.09703414
236	0x3daf98fd	0.08574102
237	0x3cc3a95e	0.023884472
238	0xbe212be6	-0.15739402
239	0xbe0a5bbb	-0.13511555
240	0xbdc0f1c1	-0.09421111
241	0xbe06d994	-0.13168937
242	0x3cbdb034	0.02315531
243	0x3ae5f634	0.0017544688
244	0xbb7d67b4	-0.0038666548
245	0x3e0fb7c3	0.14034943
246	0x3d64bd1e	0.05584442
247	0x3cc43e46	0.023955476
248	0xbc12e878	-0.008966558
249	0x3c9f4248	0.019440785
250	0xbccfc200	-0.025361061
251	0x3de9b472	0.1141137
252	0x3e08265b	0.13295881
253	0xbd9bc5d8	-0.07606095
254	0xbd738e64	-0.059461966
255	0xbdfc22d2	-0.12311329

lstm.bias_ih_l0 f4 [256]
0	0xbf86ac60	-1.0521355
1	0xbf2ff982	-0.68740094
2	0xbe7c4c30	-0.24638438
3	0xbf2aa52e	-0.66658294
4	0x3f0bc57e	0.54598224
5	0xbf330c64	-0.6994078
6	0x3f0bcfb4	0.54613805
7	0x3ec34fdc	0.38146865
8	0x3e19776c	0.14986962
9	0xbf25340e	-0.64532554
10	0x3edde0f3	0.43335685
11	0xbf74a1d3	-0.95559424
12	0xbf676c86	-0.9039997
13	0xbef8f271	-0.48622468
14	0xbeb5b5b3	-0.35490188
15	0xbecc29bc	-0.3987559
16	0xbf0972eb	-0.53690976
17	0xba4ef5ab	-0.0007894884
18	0xbf541414	-0.82843137
19	0xbedabd24	-0.42722428
20	0xbf2a618e	-0.66555107
21	0xbf184828	-0.594851
22	0xbf27f7a7	-0.6561226
23	0x3c2b29de	0.010446994
24	0xbe1c2a6a	-0.15250555
25	0xbec60cdd	-0.3868169
26	0xbf38b7e6	-0.72155607
27	0xbf92c08a	-1.1465008
28	0xbf172623	-0.59042567
29	0xbed6c598	-0.41947627
30	0xbf3e9d89	-0.7445913
31	0xbf06537a	-0.52471125
32	0xbf3df758	-0.7420554
33	0xbf6669ac	-0.9000499
34	0xbe8d7249	-0.27626255
35	0xbee13e56	-0.4399287
36	0xbf3f738f	-0.74785703
37	0xbecc1ed5	-0.39867273
38	0xbdf5cc07	-0.12001806
39	0xbf3ac0e0	-0.72950554
40	0xbd4b9c9a	-0.049709894
41	0xbf76ce6a	-0.9640871
42	0x3e638e91	0.22222354
43	0xbf42e743	-0.7613413
44	0xbf14ffb0	-0.5820265
45	0xbf2acdf5	-0.66720515
46	0xbf142d4b	-0.5788161
47	0xbf02a858	-0.5103812
48	0xbe04a86b	-0.12954871
49	0xbebde309	-0.37087277
50	0xbef5321b	-0.4788979
51	0xbf20a3cb	-0.6274993
52	0xbf4f6ebe	-0.81028354
53	0xbeb35617	-0.3502662
54	0xbe830d79	-0.25596216
55	0xbf1fd219	-0.6242996
56	0xbdc8d07c	-0.0980539
57	0x3ea82e4d	0.32847825
58	0xbef95774	-0.48699534
59	0xbf0ec4be	-0.55768955
60	0xbf261515	-0.6487592
61	0xbf05c693	-0.52256125
62	0xbf4f2043	-0.809086
63	0x3eb62de5	0.3558189
64	0x3dcfb8f3	0.10142698
65	0x3e638f01	0.2222252
66	0x3e87b614	0.26506102
67	0xbd6b4217	-0.057436075
68	0xbebbf273	-0.36708412
69	0xbe88f87b	-0.26752076
70	0xbe91d06c	-0.28479326
71	0xbf05857b	-0.521568
72	0xbf09745f	-0.53693193
73	0xbea1395e	-0.3148908
74	0xbed11166	-0.40833586
75	0x3d346167	0.044038203
76	0x3e6b3442	0.22969154
77	0xbe945d18	-0.28977275
78	0xbeb3c98d	-0.3511471
79	0xbf04bcd2	-0.51850617
80	0xbed22117	-0.4104087
81	0xbf23ce91	-0.6398707
82	0x3e3b0f7b	0.18267624
83	0xbe8333be	-0.25625414
84	0x3e3eccdc	0.18632835
85	0xbef69a61	-0.48164657
86	0x3e029132	0.127507
87	0xbf2c7ae9	-0.67375046
88	0xbed6c05c	-0.41943634
89	0xbe6274e2	-0.221149
90	0xbe3aa10d	-0.18225498
91	0xbbee4553	-0.0072714477
92	0x3da7450f	0.08167469
93	0xbee01c82	-0.4377175
94	0xbe2f4323	-0.17115454
95	0xbeb293da	-0.34878427
96	0xbeb600e3	-0.35547552
97	0xbe84dbc2	-0.25948912
98	0xbef251af	-0.47327945
99	0xbee1958d	-0.4405941
100	0x3c7e2737	0.015512279
101	0xbf1e82cc	-0.6191833
102	0x3e893319	0.26796797
103	0xbed4f6f8	-0.41594672
104	0xbf00c91a	-0.50306857
105	0x3e2e4656	0.17019019
106	0x3d953e20	0.0728724
107	0xbea98ac7	-0.3311369
108	0xbe6d052f	-0.23146509
109	0xbe6a1cfa	-0.22862616
110	0xbe07cb5f	-0.13261174
111	0xbf0db35e	-0.5535182
112	0x3e7e6cc7	0.24846183
113	0xbecb148d	-0.39664117
114	0xbef101fb	-0.47071823
115	0xbeb6a608	-0.35673547
116	0x3ed3b834	0.41351473
117	0xbeca0279	-0.3945501
118	0xbe8bff03	-0.27342996
119	0xbe562a61	-0.20914604
120	0xbe871c9a	-0.2638901
121	0xbf091a76	-0.53556
122	0xbecb7204	-0.39735425
123	0xbecc6fb8	-0.39928985
124	0x3d630a30	0.055429637
125	0xbecbab70	-0.39779234
126	0xbe0cc79b	-0.13748018
127	0xbf0ce32f	-0.55034155
128	0xbea935b2	-0.3304878
129	0x3f1a29e7	0.6022019
130	0xbf1e49ea	-0.61831534
131	0x3e0974e6	0.134235
132	0xbe3b1bd7	-0.18272339
133	0xbdc42176	-0.09576695
134	0x3cd17f28	0.025573328
135	0x3e515bef	0.20445226
136	0x3e8c4253	0.2739435
137	0xbd08e2c8	-0.0334194
138	0x3e1f71b4	0.15570718
139	0xbe99a581	-0.30009082
140	0x3eda7dea	0.4267419
141	0xbd67f724	-0.056632176
142	0xbdd64777	-0.104628496
143	0xbe15cf70	-0.14629912
144	0x3da83fe2	0.0821531
145	0xbee2ea9b	-0.44319615
146	0xbe55e4bf	-0.20888041
147	0xbd291332	-0.04127807
148	0x3f11c2bb	0.5693776
149	0x3d97c86b	0.074112736
150	0x3ede4331	0.43410638
151	0xbe3113bd	-0.17292686
152	0x3d7708e0	0.0603112
153	0xbd3f09e8	-0.046640307
154	0x3e7007ca	0.23440471
155	0x3e7a5f77	0.2445048
156	0xbe86d72f	-0.26336047
157	0xbcded4d3	-0.027201092
158	0x3e40b0ee	0.18817493
159	0x3e0dd623	0.13851218
160	0x3e0f67f6	0.14004502
161	0x3e13ced5	0.14434369
162	0x3f123987	0.5711903
163	0xba9ed424	-0.0012117666
164	0x3eb5a69a	0.3547867
165	0x3eb463a6	0.35232276
166	0xbe90c527	-0.28275415
167	0x3e3bfbaa	0.18357721
168	0xbe3b7955	-0.18308003
169	0x3ea657db	0.32488903
170	0x3ed80dc3	0.42198
171	0xbe3abbbf	-0.18235682
172	0xbe03257c	-0.12807268
173	0x3dd8ba7d	0.10582445
174	0x3e969396	0.29409474
175	0x3da47cfd	0.08031652
176	0x3f0bf78d	0.5467461
177	0x3df739bd	0.120715596
178	0x3ca6c82d	0.020359123
179	0x3ddad3ef	0.106849544
180	0x3e1d8bbe	0.15385339
181	0x3d874927	0.066057496
182	0xbdd0f01c	-0.10202047
183	0xbdd3ba8a	-0.10338314
184	0x3df8172b	0.12113794
185	0x3e2553ca	0.16145244
186	0x3e1de5d6	0.15419707
187	0xbe17a7df	-0.14810131
188	0xbece3cda	-0.402808
189	0x3d9d7f8d	0.07690344
190	0x3e6e531a	0.23273888
191	0xbd233bf8	-0.039852113
192	0xbf49dffa	-0.78857386
193	0xbf5878ac	-0.8455913
194	0xbf05446f	-0.52057546
195	0xbf2d4249	-0.6767927
196	0xbc889c41	-0.01667607
197	0xbf04cd64	-0.518759
198	0xbea6bd57	-0.3256633
199	0xbd2b21ef	-0.04178041
200	0x3ad2022e	0.0016022378
201	0xbedc64e8	-0.43045735
202	0xbe84a243	-0.25905046
203	0xbf3a37cf	-0.7274141
204	0xbf75ab50	-0.9596453
205	0xbf17f6a6	-0.5936073
206	0xbec7d67b	-0.39030823
207	0xbf0e4ba8	-0.5558419
208	0xbf086778	-0.5328288
209	0x3db59a07	0.08867269
210	0xbf418fc9	-0.75610024
211	0xbeebc85f	-0.4605131
212	0xbf4bde81	-0.7963639
213	0xbf3306c9	-0.6993223
214	0xbf29a7ba	-0.66271555
215	0x3e02dd73	0.12779789
216	0x3ed1fb41	0.41012004
217	0xbf196f5b	-0.5993554
218	0xbf3671b9	-0.71267277
219	0xbf695fac	-0.9116161
220	0xbf2fa1d6	-0.6860632
221	0xbf126e6f	-0.5719976
222	0xbf337b3c	-0.70109916
223	0xbf295f71	-0.6616126
224	0xbf003f52	-0.5009662
225	0xbf184889	-0.5948568
226	0xbe67bc3e	-0.22630402
227	0xbedc47bb	-0.43023476
228	0xbf43905a	-0.7639214
229	0xbebb3ffd	-0.36572257
230	0xbe8be920	-0.27326298
231	0xbefb6ec0	-0.49107933
232	0x3ecf8fde	0.4053945
233	0xbf5a802e	-0.85351837
234	0x3dabd5e5	0.083904065
235	0xbefabd9a	-0.4897278
236	0xbee2db6e	-0.44308037
237	0xbf00c355	-0.50298053
238	0xbf16154e	-0.5862626
239	0xbf00d580	-0.50325775
240	0xbe414abc	-0.18876165
241	0xbef42c6f	-0.4769015
242	0xbf03a269	-0.51419693
243	0xbef192de	-0.47182363
244	0xbcb45856	-0.022014778
245	0xbec318ec	-0.3810495
246	0xbe8a2cd5	-0.2698733
247	0xbf232cf9	-0.637405
248	0x3e6cfa3b	0.2314233
249	0xbbdf5688	-0.0068157353
250	0xbf1932fa	-0.5984341
251	0xbf176b7c	-0.59148383
252	0xbf518fde	-0.8186015
253	0xbed6ab88	-0.41927743
254	0xbf38e3e2	-0.7222272
255	0x3ca18e59	0.019721197

lstm.bias_hh_l0 f4 [256]
0	0xbf864038	-1.0488348
1	0xbf51af03	-0.8190767
2	0xbe75ec0e	-0.24015829
3	0xbf3ee6b3	-0.7457077
4	0x3ed363d4	0.412871
5	0xbf17a20d	-0.59231645
6	0x3ec796c8	0.38982224
7	0x3edfebc0	0.4373455
8	0xbc1fca65	-0.009752844
9	0xbf1ac838	-0.6046176
10	0x3eadc026	0.3393566
11	0xbf515585	-0.8177112
12	0xbf59e72b	-0.8511836
13	0xbf082a57	-0.53189605
14	0xbedd3b98	-0.4320953
15	0xbee8b89b	-0.45453343
16	0xbf00dc74	-0.50336385
17	0xbc2db71a	-0.010602737
18	0xbf433d64	-0.7626555
19	0xbf078480	-0.52936554
20	0xbf65713b	-0.896259
21	0xbf0cba0b	-0.5497138
22	0xbf1dbcc2	-0.61616147
23	0x3da557e1	0.08073402
24	0xbda80f15	-0.08206002
25	0xbeadf4a9	-0.33975723
26	0xbf47e1e3	-0.7807905
27	0xbf95eaba	-1.1712258
28	0xbf2a5578	-0.66536665
29	0xbefe6fb5	-0.496946
30	0xbf18522d	-0.5950039
31	0xbf27fc9a	-0.65619814
32	0xbf0a1f69	-0.5395418
33	0xbf590912	-0.84779465
34	0xbeb461da	-0.35230905
35	0xbe85834e	-0.2607674
36	0xbf2a4101	-0.6650544
37	0xbefec08b	-0.49756274
38	0xbd8c3581	-0.068461426
39	0xbf1df135	-0.6169618
40	0xbe06ed5b	-0.13176481
41	0xbf606909	-0.8766027
42	0x3dc5b375	0.09653369
43	0xbf200a6e	-0.62515914
44	0xbf1793eb	-0.5921008
45	0xbf355271	-0.7082892
46	0xbf23784d	-0.6385544
47	0xbec13b8d	-0.37740746
48	0xbe88c1fd	-0.267105
49	0xbefe7a75	-0.49702802
50	0xbf044c3f	-0.5167884
51	0xbf138dec	-0.5763843
52	0xbf5216bd	-0.82065946
53	0xbe9d52d4	-0.30727255
54	0xbecf81f4	-0.40528834
55	0xbf4a83eb	-0.7910754
56	0xbdf2dad1	-0.11858142
57	0x3ed3c24f	0.41359183
58	0xbf2f9fdb	-0.68603295
59	0xbec766d2	-0.38945633
60	0xbf5da393	-0.8657772
61	0xbecd745e	-0.40127844
62	0xbf45b3ff	-0.7722778
63	0x3e80ce06	0.25157183
64	0x3e0590cd	0.13043518
65	0x3e3e730a	0.18598571
66	0x3e9d02d0	0.30666208
67	0xbc8e1c07	-0.017347349
68	0xbed12130	-0.40845633
69	0xbe8602c1	-0.26173976
70	0xbecd0bc4	-0.4004804
71	0xbee79706	-0.4523241
72	0xbf09159c	-0.535486
73	0xbeb70e90	-0.35753298
74	0xbeb671c0	-0.3563366
75	0x3e2e4326	0.17017803
76	0x3e58ebb0	0.21183658
77	0xbecdfe3b	-0.40233025
78	0xbe848931	-0.2588592
79	0xbf177e91	-0.591775
80	0xbe9f9ce0	-0.31174374
81	0xbee58348	-0.44826722
82	0x3dd09d79	0.101862855
83	0xbee50452	-0.4472986
84	0x3e271abd	0.16318794
85	0xbecc85d4	-0.39945853
86	0x3de28ff8	0.11062616
87	0xbf34dd24	-0.70649934
88	0xbe8e2a49	-0.27766636
89	0xbe922f40	-0.28551674
90	0xbe7d9427	-0.24763547
91	0x3d892b07	0.0669766
92	0x3dd76135	0.10516588
93	0xbedabe74	-0.4272343
94	0xbe4fbcce	-0.20286867
95	0xbe98ed9f	-0.2986879
96	0xbe990f94	-0.29894698
97	0xbe2dcf98	-0.16973722
98	0xbf206e00	-0.62667847
99	0xbecf5050	-0.4049096
100	0x3c24ca7f	0.010058044
101	0xbed87977	-0.4228017
102	0x3e57b06f	0.21063398
103	0xbe8c5e62	-0.27415758
104	0xbe9f83c8	-0.3115523
105	0x3e38e20e	0.18054983
106	0x3de3c05b	0.11120673
107	0xbe87869d	-0.2646989
108	0xbeb27536	-0.3485505
109	0xbed07359	-0.40713003
110	0xbe384861	-0.1799636
111	0xbed1b260	-0.40956402
112	0x3e362de4	0.17790943
113	0xbea76a41	-0.32698253
114	0xbed27ca3	-0.41110715
115	0xbedce176	-0.43140763
116	0x3ebc5b99	0.36788633
117	0xbea9bac0	-0.3315029
118	0xbecab766	-0.39593047
119	0xbe2c23ca	-0.16810527
120	0xbed6f1c4	-0.41981328
121	0xbf197d88	-0.5995717
122	0xbe9889a9	-0.29792526
123	0xbea05df4	-0.3132168
124	0x3e8fd5e3	0.2809287
125	0xbe64a53c	-0.22328657
126	0xbe9090b4	-0.282354
127	0xbed40d5e	-0.41416448
128	0xbe6c8d4d	-0.23100777
129	0x3f1d2f49	0.61400276
130	0xbf28fb1e	-0.66008174
131	0x3e7d87af	0.2475879
132	0xbd81ad34	-0.06331864
133	0xbe44d4de	-0.19221827
134	0x3e1c43d9	0.15260257
135	0x3b48415d	0.0030556538
136	0x3edc693a	0.43049031
137	0xbb4d2993	-0.0031305298
138	0x3dc83df0	0.09777439
139	0xbec164ec	-0.3777231
140	0x3edb2d25	0.4280788
141	0xbd710cc0	-0.05885005
142	0xbdada193	-0.084780835
143	0xbe5ddeba	-0.21666995
144	0x3da000fb	0.07812687
145	0xbe8b8906	-0.27252978
146	0xbeb82c37	-0.35971233
147	0xbd646c9a	-0.055767633
148	0x3f0d00e0	0.5507946
149	0x3db0cadb	0.086324416
150	0x3ed2b27c	0.41151798
151	0xbe94f12d	-0.29090253
152	0x3e32089d	0.17386098
153	0xbcd3c625	-0.025851319
154	0x3e549d05	0.20763023
155	0x3ecfd852	0.40594727
156	0xbe81403d	-0.25244322
157	0xbd8ee705	-0.06977657
158	0x3e703394	0.23457175
159	0x3e8d49db	0.2759541
160	0x3d52d9e5	0.05147733
161	0x3c9892a2	0.018624607
162	0x3ebdec5d	0.37094393
163	0x3c5570cf	0.013027384
164	0x3ec9fa5c	0.39448822
165	0x3eb708af	0.35748813
166	0xbeaf5f62	-0.3425246
167	0x3e57c73b	0.21072094
168	0xbe43f209	-0.19135298
169	0x3ee9c97e	0.4566154
170	0x3ee0a6ae	0.43877167
171	0x3b575fe5	0.0032863554
172	0xbe1c5508	-0.15266812
173	0x3d374bff	0.04475021
174	0x3e831d26	0.25608176
175	0x3e74ffdc	0.23925728
176	0x3ed75bda	0.42062265
177	0x3cd18704	0.025577076
178	0x3db35ea2	0.08758284
179	0x3df43fdf	0.11926245
180	0x3dc894f0	0.097940326
181	0xbd0e70ab	-0.034775417
182	0xbde80f08	-0.11330992
183	0xbe4f3331	-0.20234372
184	0x3e00c3e5	0.12574728
185	0x3d7c48ed	0.061592985
186	0xbbf78acd	-0.007554388
187	0xbd903c84	-0.070427924
188	0xbeff6205	-0.4987947
189	0x3e2744f1	0.16334893
190	0x3e7fa3d0	0.24964833
191	0xbced932c	-0.029000841
192	0xbf56723e	-0.8376807
193	0xbf7ad0ae	-0.9797467
194	0xbf00da20	-0.5033283
195	0xbf1f89f9	-0.62319905
196	0xbd8aa188	-0.06769091
197	0xbecfb9ee	-0.4057154
198	0xbe91f982	-0.28510672
199	0x3d229a7d	0.039698113
200	0x3e06ff44	0.13183314
201	0xbedf9c61	-0.43673995
202	0xbe172d8a	-0.14763466
203	0xbf3b9df6	-0.73287904
204	0xbf62e0e5	-0.8862441
205	0xbf23cfd0	-0.6398897
206	0xbed46cc9	-0.41489246
207	0xbf1e7aad	-0.6190594
208	0xbf176b1a	-0.591478
209	0x3e3d6db6	0.18498883
210	0xbf64ae74	-0.89328694
211	0xbef19edc	-0.47191513
212	0xbf53ce7b	-0.8273694
213	0xbf2a1794	-0.6644223
214	0xbf1ea045	-0.619633
215	0x3e3e800f	0.18603538
216	0x3e81b2fe	0.25331873
217	0xbf1513ba	-0.58233225
218	0xbf2056b0	-0.62632275
219	0xbf770411	-0.9649058
220	0xbf24e22a	-0.644076
221	0xbee40af7	-0.44539616
222	0xbf375633	-0.71615905
223	0xbf4a5d7f	-0.79048914
224	0xbf1f615d	-0.6225794
225	0xbf2514f6	-0.6448511
226	0xbe29fc2c	-0.16600102
227	0xbe8e8889	-0.27838543
228	0xbf3d39a0	-0.73916054
229	0xbf01b697	-0.50669235
230	0xbe83a733	-0.257135
231	0xbf1c79d7	-0.6112341
232	0x3eacac02	0.33724982
233	0xbf6c2f90	-0.92260075
234	0x3dd3856c	0.103281826
235	0xbf30a98b	-0.690087
236	0xbf278206	-0.65432775
237	0xbf1cff05	-0.6132663
238	0xbf1ecbe6	-0.62029874
239	0xbf13c4af	-0.5772199
240	0xbe217011	-0.15765406
241	0xbf026918	-0.5094161
242	0xbede3bf2	-0.4340511
243	0xbece2f94	-0.40270674
244	0xbe4aa6e4	-0.19790226
245	0xbe90b95e	-0.28266424
246	0xbeb008bc	-0.34381664
247	0xbf10074f	-0.5626115
248	0x3ef2f978	0.47455955
249	0xbe2ef743	-0.1708651
250	0xbf20a76d	-0.6275547
251	0xbf04925d	-0.5178583
252	0xbf492c4a	-0.78583205
253	0xbed3dd4b	-0.4137977
254	0xbf5bdec7	-0.85886806
255	0x3c0e234c	0.008675408

lstm.weight_ih_l1 f4 [256, 64]
0	0x3e1bbf25	0.15209635
1	0xbe8b8146	-0.27247065
2	0x3e6661dd	0.2249827
3	0x3d168ea7	0.036757138
4	0x3eccb7e6	0.39984053
5	0x3b69e69f	0.003569044
6	0xbeac5c7e	-0.33664316
7	0xbee67fe3	-0.45019445
8	0x3e48236a	0.1954476
9	0xbd309fa2	-0.043120988
10	0xbe88a884	-0.26691067
11	0x3de82438	0.11335033
12	0xbe86b378	-0.263088
13	0x3d88df27	0.06683188
14	0xbda915bf	-0.08256101
15	0xbd70daa5	-0.058802266
16	0xbd6324be	-0.055454962
17	0xbe08a2a0	-0.13343287
18	0x3db2cc73	0.08730402
19	0xbd8e6a94	-0.06953922
20	0xbdf4d39d	-0.119544245
21	0xbc857f31	-0.016296001
22	0xbde54a38	-0.11195797
23	0x3eae9541	0.34098247
24	0xbe652b9b	-0.22379915
25	0x3dd52d39	0.10409016
26	0xbd6edc6d	-0.058315683
27	0xbe6cd4a5	-0.23127992
28	0x3c262d2c	0.010142606
29	0xbe3feab1	-0.18741871
30	0xbe4fe16f	-0.2030084
31	0xbd98cf4e	-0.07461415
32	0x3c728093	0.014801162
33	0xbddfbcbe	-0.109246716
34	0x3e1ac341	0.15113546
35	0x3c92d7ec	0.017925225
36	0xbe37cb2b	-0.17948596
37	0x3e7fc555	0.2497762
38	0x3d9accea	0.075586155
39	0xbd3fa5f8	-0.04678914
40	0x3e48cdf7	0.1960982
41	0xbe874d81	-0.26426318
42	0xbe2041f9	-0.15650167
43	0x3e0e2272	0.13880327
44	0x3d8c81cb	0.068606935
45	0xbe0ec15f	-0.13940953
46	0xbd22f186	-0.039781116
47	0xbdc20b9e	-0.09474872
48	0xbde4b19d	-0.111666895
49	0xbe169a63	-0.14707331
50	0xbde750fb	-0.11294743
51	0xbc33bb7f	-0.0109699955
52	0xbdfc94c8	-0.12333065
53	0x3d886393	0.06659617
54	0x3c6952fe	0.014240978
55	0x3e12a364	0.14320141
56	0xbef230e5	-0.4730293
57	0xbec9b538	-0.3939607
58	0x3c5d1ed7	0.013496122
59	0xbd9a1db4	-0.07525197
60	0x3e78a076	0.24279961
61	0x3da560f5	0.08075134
62	0xbdcdae83	-0.10043051
63	0x3eae18a4	0.34003174
64	0x3e6792f1	0.22614647
65	0xbdc85f60	-0.09783816
66	0x3c4e1b05	0.012579684
67	0xbdcb65fb	-0.099315606
68	0x3e3b32a6	0.1828104
69	0xbd6a151c	-0.057149038
70	0xbd93aa70	-0.07210243
71	0xbe0655a2	-0.13118604
72	0xbf14688e	-0.5797204
73	0x3bc16030	0.005901359
74	0xbce1ae55	-0.027548948
75	0x3dd3a2be	0.10333775
76	0xbe52557c	-0.20540422
77	0x3d540132	0.051758952
78	0x3dd91838	0.106003225
79	0x3dff0f65	0.12454108
80	0xbd1853eb	-0.037189405
81	0x3f272e28	0.65304804
82	0x3e010c15	0.12602265
83	0xbd5909c3	-0.052987825
84	0xbe8a8612	-0.27055413
85	0x3d2e2f22	0.042525418
86	0xbe9c5aae	-0.30537933
87	0x3ea36ee7	0.3192055
88	0xbe0ce729	-0.13760056
89	0x3cead4c6	0.028665911
90	0xbd78227b	-0.06057976
91	0xbd90454b	-0.070444666
92	0x3e557b79	0.20847882
93	0x3d386526	0.045018338
94	0xbc535f68	-0.012901165
95	0xbe3dc863	-0.18533473
96	0xbd8bf2c7	-0.068334155
97	0xbdba5157	-0.090975456
98	0xbf4ed579	-0.80794483
99	0x3d71431f	0.058901902
100	0xbe6958c3	-0.22787766
101	0xbef0d69d	-0.47038737
102	0xbc27e1c5	-0.010246699
103	0x3da0e26b	0.07855686
104	0x3e94b457	0.29043838
105	0xbdce40bd	-0.100709416
106	0xbdfe3230	-0.12411916
107	0x3d276361	0.04086626
108	0xbd09c1df	-0.033632156
109	0x3d8d8c35	0.06911508
110	0xbd815ea6	-0.06316881
111	0xbec5e99d	-0.38654795
112	0x3c1be3f3	0.009514797
113	0x3caae05d	0.020858938
114	0xbb9b7f99	-0.0047454354
115	0xbd9c63e2	-0.07636239
116	0xbe191c47	-0.14952193
117	0x3d325625	0.043539185
118	0x3af5e381	0.0018759818
119	0xbd28f052	-0.041244812
120	0xbdfafa30	-0.12254751
121	0xbe928937	-0.28620312
122	0xbdc89b7c	-0.09795281
123	0x3d7d64c8	0.06186369
124	0x3e9bb40c	0.30410802
125	0xbe253a8e	-0.16135618
126	0xbe33f731	-0.17574765
127	0x3e24c8b2	0.16092184
128	0xbd679fdc	-0.05654894
129	0x3dc7e6f0	0.09760845
130	0xbe47bcfb	-0.19505684
131	0xbf4ec294	-0.8076565
132	0x3da8452d	0.08216319
133	0x3e79e395	0.24403222
134	0x3dff1f01	0.124570854
135	0xbda7ae62	-0.08187558
136	0xbefb0ac1	-0.49031642
137	0x3e8f6a9b	0.2801102
138	0xbe04610f	-0.1292765
139	0x3d8e6a01	0.069538124
140	0xbc781a9c	-0.015143063
141	0x3eabe0db	0.3356999
142	0x3e9b29f2	0.3030544
143	0x3e6ef933	0.2333725
144	0xbeda23dd	-0.42605487
145	0x3ef7a892	0.48370796
146	0x3e3925d9	0.18080844
147	0x3ea4af14	0.32164824
148	0xbd11d776	-0.03560587
149	0xbe6dda7f	-0.23227881
150	0xbd187b00	-0.037226677
151	0x3e80b530	0.25138235
152	0x3c58b5bd	0.0132269235
153	0x3df5d413	0.120033406
154	0xbed14d3a	-0.40879232
155	0x3e9b215a	0.30298883
156	0x3f0bef5c	0.5466211
157	0xbdb20993	-0.086932324
158	0xbec07e2a	-0.37596256
159	0xbf051dcc	-0.5199859
160	0xbe5a8421	-0.21339466
161	0xbe0aa0df	-0.1353793
162	0xbf3bca4b	-0.7335555
163	0xbe667cef	-0.22508596
164	0xbedbc1ff	-0.42921445
165	0xbf14e3c4	-0.5816004
166	0x3d56514a	0.052323617
167	0xbd917328	-0.071020424
168	0x3e34edc5	0.17668827
169	0x3d5113d1	0.05104429
170	0xbeaead5a	-0.34116632
171	0x3ea6b005	0.32556167
172	0x3ed8440f	0.42239425
173	0xbe9fa5f6	-0.31181306
174	0xbf0eaf71	-0.5573645
175	0xbdfba160	-0.12286639
176	0x3dedd042	0.11611988
177	0xbe3f9d35	-0.18712313
178	0xbebab06f	-0.36462733
179	0xbdd0b731	-0.10191191
180	0x3e16b4a9	0.14717354
181	0x3dfac291	0.12244142
182	0x3ec2657e	0.37968057
183	0x3f014ae6	0.5050491
184	0x3dda1420	0.1064837
185	0xbe2741bd	-0.16333671
186	0xbeb74e08	-0.3580172
187	0x3d93ba40	0.07213259
188	0x3e974f6a	0.29552776
189	0xbee328d0	-0.44367075
190	0xbea3259c	-0.3186463
191	0xbc186933	-0.009302425
192	0x3e07a35a	0.13245907
193	0xbe6f8dbf	-0.23393916
194	0x3e5426ef	0.20717977
195	0xbd066d7c	-0.032819256
196	0x3dfbd432	0.122963324
197	0x3e33fdde	0.17577311
198	0xbdf55984	-0.119799644
199	0xbe5d1829	-0.21591248
200	0xbf0070f7	-0.5017237
201	0xbda09494	-0.07840839
202	0xbdde631a	-0.10858746
203	0x3e753b78	0.23948467
204	0xbe6ecfe7	-0.23321496
205	0x3d324e2d	0.043531585
206	0xbd68026a	-0.056642927
207	0x3e22d136	0.1590012
208	0xbe01619f	-0.12634896
209	0x3f1b3a2b	0.6063563
210	0x3dca9865	0.09892348
211	0xbdd695e6	-0.104778096
212	0xbe9a8cdf	-0.301856
213	0xbdeb44d9	-0.11487741
214	0xbe32c086	-0.17456254
215	0x3e6f7e99	0.23388137
216	0xbe1cd7ba	-0.15316668
217	0x3e357eed	0.177242
218	0xbe1c3a80	-0.15256691
219	0xbe14c980	-0.14529991
220	0x3e80ffca	0.25195152
221	0xbe791353	-0.24323778
222	0xbe0fdd9d	-0.14049383
223	0xbd029410	-0.031879485
224	0x3d86e42f	0.06586491
225	0xbe236ce6	-0.1595951
226	0xbf18c8cc	-0.5968139
227	0x3cafab27	0.021443916
228	0xbe0d023d	-0.13770385
229	0xbf07e850	-0.53088856
230	0x3db80c4e	0.08986722
231	0x3d32e293	0.04367311
232	0x3ea2a83a	0.31768972
233	0xbe99a2bc	-0.3000697
234	0xbcf20ec4	-0.029548056
235	0xbc86326f	-0.01638147
236	0x3de80a7a	0.11330123
237	0x3c6b7fc7	0.014373726
238	0xbe60f457	-0.21968208
239	0xbe271b41	-0.1631899
240	0xbdd9c9e9	-0.106342144
241	0x3d7e19a1	0.06203616
242	0x3de14ef5	0.11001388
243	0xbb11f948	-0.0022273827
244	0xbe023456	-0.12715277
245	0xbdba5aea	-0.09099372
246	0xbb385c1a	-0.0028131069
247	0x3ce7bbca	0.028287787
248	0xbe9b02ea	-0.3027566
249	0xbe9409a2	-0.289136
250	0xbdcbe543	-0.099558376
251	0xbd476d74	-0.048688367
252	0x3ea21bd2	0.3166185
253	0xbda11cbd	-0.078668095
254	0xbd09ce28	-0.03364387
255	0x3e585692	0.21126774

lstm.weight_hh_l1 f4 [256, 64]
0	0x3a79487f	0.0009509399
1	0xbd6cdeed	-0.057829786
2	0xbe3082da	-0.17237416
3	0x3dd64b44	0.104635745
4	0xbd0aef05	-0.033919353
5	0x3e23dd9d	0.16002508
6	0xbcf61882	-0.030040983
7	0xbdee1340	-0.116247654
8	0xbe00d577	-0.1258143
9	0x3c9fe0e4	0.019516416
10	0xbd0bc057	-0.034118976
11	0x3d86fe33	0.065914534
12	0x3d2257fb	0.039634686
13	0xbd5ebb5a	-0.05437789
14	0xbbb845ac	-0.00562354
15	0xbe05a850	-0.13052487
16	0xbd407bda	-0.046993114
17	0xbd839627	-0.06425124
18	0xbdc04fe9	-0.09390242
19	0x3cce0592	0.02514914
20	0x3d585377	0.052813973
21	0xbd7a7d2b	-0.061154526
22	0x3db55817	0.088546924
23	0x3d62f5af	0.055410083
24	0xbc55c80c	-0.013048183
25	0xbd8bc853	-0.06825318
26	0x3cb0023e	0.021485444
27	0x3d1981c8	0.037477285
28	0xbd465c65	-0.048427958
29	0xbd89a7b4	-0.0672144
30	0xbd88c09d	-0.06677363
31	0x3e1a870d	0.1509058
32	0xbe078168	-0.13232958
33	0x3d324a1a	0.0435277
34	0xbd731a19	-0.05935106
35	0x3e0e71c8	0.13910592
36	0x3de402c2	0.111333385
37	0x3cf0e8a8	0.029407814
38	0x3d9a4ae8	0.075338185
39	0x3a20e786	0.00061380153
40	0x3d5d3b45	0.054011602
41	0x3d804ba2	0.06264426
42	0x3cf7027d	0.030152554
43	0xbcb974a5	-0.022638628
44	0x3b4ca056	0.0031223497
45	0x3ab34a6b	0.0013678794
46	0xbdc4023f	-0.09570741
47	0xbd850e0b	-0.06496819
48	0xbd8ed3e2	-0.06974007
49	0xbd5b5c09	-0.05355457
50	0x3d07ded4	0.03317149
51	0x3d1de408	0.038547546
52	0xbdcfc4f8	-0.10144991
53	0xb7876bb3	-1.6143405e-05
54	0xbd67aa10	-0.05655867
55	0x3d987c6d	0.07445607
56	0xbcf743a8	-0.030183628
57	0x3c320a99	0.0108667845
58	0xbdb4f5ab	-0.0883592
59	0xbd842f00	-0.06454277
60	0xbe058772	-0.1303995
61	0x3c842a5b	0.016133478
62	0x3d914f0c	0.07095155
63	0xbdece063	-0.11566236
64	0x3d05ae50	0.03263694
65	0x3ce14e0e	0.02750304
66	0xbe0b3228	-0.13593352
67	0x3d9afbc4	0.07567552
68	0xbe222b93	-0.15836935
69	0xbda93a70	-0.08263099
70	0x3d688e50	0.056776345
71	0xba85d143	-0.001020946
72	0x3db291e3	0.08719232
73	0x3d8202c4	0.06348184
74	0x3d4d9468	0.05019036
75	0xbdb3be3a	-0.08776517
76	0x3e0c0206	0.13672647
77	0xbdfc0844	-0.12306264
78	0xbd5b2f52	-0.053511925
79	0xbc632f1f	-0.013866215
80	0xba61459a	-0.000859344
81	0xbdbca8c5	-0.09211878
82	0x3d22d5e8	0.03975478
83	0xbde5b90a	-0.11216934
84	0xbd0da20c	-0.034578368
85	0x3e20cb2d	0.15702505
86	0xbd3015ff	-0.042989727
87	0xbd5de2c4	-0.05417134
88	0xbe02abe1	-0.12760879
89	0xbc1cea6b	-0.009577374
90	0x3d55939b	0.05214272
91	0x3cf59fb7	0.029983385
92	0x3db38b5f	0.08766817
93	0x3ccf99a3	0.025341814
94	0xbda96108	-0.0827046
95	0xbd698c63	-0.05701865
96	0xbbc4dbd3	-0.0060076504
97	0xbc7b79b1	-0.015348838
98	0x3c6aea93	0.014338153
99	0x3dfe61bf	0.12420987
100	0x3d29eec6	0.041487478
101	0x3d4409da	0.047860958
102	0xbd9350f4	-0.07193175
103	0x3d7b5dfc	0.061368927
104	0x3cc0a0d7	0.023514194
105	0x3dad8fc8	0.0847469
106	0xbe010506	-0.12599573
107	0xbdbb52fc	-0.091466874
108	0x3db6bb95	0.08922497
109	0xbcc2d7b7	-0.023784501
110	0xbcff0d4b	-0.031134268
111	0x3d0fe161	0.035127047
112	0xbdb422d0	-0.087957025
113	0xbd59f750	-0.05321437
114	0xbe087b56	-0.13328299
115	0x3cc2ed96	0.02379493
116	0x3d26b3d9	0.04069886
117	0xbd93cf60	-0.07217288
118	0x3d8dc950	0.06923163
119	0xbd8cf3ac	-0.06882414
120	0xbd944f48	-0.07241684
121	0xbda9a251	-0.082829125
122	0xbda4d64c	-0.080486864
123	0xbdca93f8	-0.09891504
124	0xbce09def	-0.027419059
125	0x3dca1bae	0.09868561
126	0xbd681a51	-0.056665722
127	0xbe0f612f	-0.14001916
128	0x3dc2139e	0.09476398
129	0x3deffa45	0.11717657
130	0x3d1ef45f	0.03880727
131	0xbddbe676	-0.10737316
132	0x3b63b81e	0.0034747194
133	0xbe0bb476	-0.13643059
134	0x3d2039ab	0.039117496
135	0xbc095ab5	-0.008383443
136	0xbd86495f	-0.06556963
137	0x3d4ee784	0.05051376
138	0x3dacb74f	0.08433401
139	0x3dd24326	0.10266714
140	0x3c91dea9	0.017806368
141	0x3d80868d	0.062756635
142	0x3d6b675b	0.057471614
143	0x3d198c8a	0.037487544
144	0x3ca3309f	0.019920645
145	0x3db0a7a6	0.086257264
146	0xbdb35ed6	-0.08758323
147	0x3d9b2c6b	0.075768314
148	0x3cc36330	0.023851007
149	0xbdd7ca1a	-0.10536595
150	0x3c78a9f3	0.015177238
151	0x3d08de37	0.033415046
152	0x3d84e121	0.064882524
153	0xbde234d2	-0.11045231
154	0x3c2943e0	0.010331124
155	0x3d20f7f0	0.03929895
156	0x3c211f9b	0.0098341955
157	0x3e38af80	0.18035698
158	0xbd5b8868	-0.053596884
159	0x3d080706	0.033209823
160	0x3dbc38e2	0.09190537
161	0xbdd701ff	-0.104984276
162	0x3d91e46a	0.07123645
163	0xbe121ed6	-0.14269575
164	0xbb06857f	-0.0020526347
165	0x3e148d75	0.14507087
166	0x3c1027dd	0.008798567
167	0x3c189c76	0.009314647
168	0x3bdbd994	0.006709287
169	0xbc49c0b5	-0.012314011
170	0xbd821ec9	-0.06353528
171	0x3d05722a	0.03257958
172	0xbc399727	-0.011327541
173	0xbd89dcd0	-0.0673157
174	0x3db94052	0.09045471
175	0xbd8b0945	-0.067888774
176	0xbdd6d854	-0.1049048
177	0xbde8b9af	-0.11363541
178	0x3d9b29e5	0.0757635
179	0xbd03a9fc	-0.03214453
180	0x3dc24e0f	0.09487545
181	0xbd49c544	-0.049260393
182	0x3a94404b	0.0011310665
183	0x3db5af53	0.08871331
184	0x3dc45c16	0.095878765
185	0xbd832e5d	-0.064053275
186	0xbc206d90	-0.009791747
187	0xbdae5066	-0.085114285
188	0xbc94f703	-0.01818419
189	0xbceda882	-0.029011015
190	0xbd973fcd	-0.07385216
191	0xbd1e00c5	-0.038574953
192	0x3d276a2c	0.040872738
193	0x3d067aae	0.03283184
194	0x3d92748d	0.071511365
195	0x3db0fe19	0.08642215
196	0xbe224612	-0.15847042
197	0x3e23d36f	0.15998624
198	0x3dc80a53	0.09767594
199	0x3c87e316	0.016587775
200	0x3d76f7a2	0.060294755
201	0xba888944	-0.0010416885
202	0x3db6fe52	0.089352265
203	0xbde1a225	-0.11017255
204	0x3cbc7c6a	0.023008544
205	0x3d81877e	0.06324671
206	0x3cf64c0a	0.030065555
207	0xbe0aa310	-0.13538766
208	0x3d54f183	0.051988136
209	0xbde5e908	-0.11226088
210	0x3c4ae162	0.012382837
211	0x3d2cf4b3	0.04222555
212	0xbd283813	-0.0410691
213	0x3d4321ab	0.04763953
214	0xbbed602f	-0.007244132
215	0x3e2dd736	0.16976628
216	0xbdb8ed2c	-0.09029612
217	0xbd3ebab5	-0.046564776
218	0x3ddd5cc4	0.10808709
219	0x3dd14d0d	0.102197744
220	0x3dee6284	0.11639884
221	0xbcdb48bb	-0.026768079
222	0xbba2da96	-0.004969905
223	0x3d812692	0.06306185
224	0xbd79cee4	-0.060988322
225	0x3dd3ecfe	0.10347937
226	0xbdf08521	-0.11744142
227	0xbd6e0da8	-0.058118492
228	0x3daac736	0.08338778
229	0xbcf7348f	-0.03017643
230	0xbc2dd23b	-0.010609205
231	0x3e5c3c97	0.21507488
232	0x3d4859cb	0.04891376
233	0x3e16559d	0.14681096
234	0xbddf84d7	-0.10914009
235	0xbd48b2a0	-0.048998475
236	0xbda7b1f3	-0.08188238
237	0x3c633033	0.013866472
238	0xbd45ade8	-0.048261553
239	0xbde2ffba	-0.11083932
240	0x3d011f4c	0.031523988
241	0xbe00231a	-0.1251339
242	0x3d7a89de	0.061166637
243	0x3d89813e	0.06714104
244	0x3e066ff1	0.1312864
245	0x3c8d0fe8	0.017219499
246	0x3e077250	0.132272
247	0x3cf187cf	0.029483704
248	0xbd99efc0	-0.07516432
249	0x3d9c20e6	0.076234624
250	0xbdd6f785	-0.10496429
251	0xbc98a640	-0.018633962
252	0x3db87acf	0.09007799
253	0x3c87a5e9	0.016558604
254	0xbc17b2bc	-0.009258922
255	0xbdf85e36	-0.12127344

lstm.bias_ih_l1 f4 [256]
0	0xbea33be6	-0.31881636
1	0xbe5ab774	-0.21359044
2	0xbe15a47e	-0.1461353
3	0xbe792b71	-0.24332978
4	0xbe47c141	-0.19507314
5	0xbe82cbf3	-0.25546226
6	0xbed0bbba	-0.40768224
7	0xbf02d801	-0.51110846
8	0xbe0a3ffd	-0.13500972
9	0xbebec475	-0.3725926
10	0xbee1e914	-0.44123137
11	0xbe498daa	-0.19682947
12	0xbd6f08e7	-0.0583581
13	0x3d5c2bc7	0.053752687
14	0xbe87d54e	-0.26529926
15	0xbeb88bc0	-0.3604412
16	0xbe7b3b29	-0.24534287
17	0xbe80a1a0	-0.2512331
18	0xbe83e3dd	-0.25759783
19	0xbdc4d81b	-0.09611531
20	0xbd584458	-0.052799553
21	0xbe1d0815	-0.15335114
22	0xbdb79a69	-0.08964998
23	0xbe7c3b3f	-0.24631976
24	0xbe4f7e22	-0.2026296
25	0xbeb6453b	-0.35599694
26	0xbe99a7a9	-0.30010727
27	0xbdf5a137	-0.1199364
28	0xbdd57221	-0.10422159
29	0xbea72ed9	-0.3265293
30	0xbcf85981	-0.030316116
31	0xbd6291a0	-0.05531466
32	0xbe8224c5	-0.25418678
33	0xbe4f9d98	-0.20274961
34	0xbe0d3c1f	-0.13792466
35	0xbe9139a6	-0.28364295
36	0xbe57d066	-0.21075591
37	0xbe7e3685	-0.24825485
38	0xbe6d0d77	-0.23149668
39	0xbef63972	-0.48090702
40	0xbee4dbdf	-0.44698998
41	0xbe1093a0	-0.14118814
42	0xbec5b348	-0.38613343
43	0xbe756bd5	-0.23966916
44	0xbe286eaf	-0.16448472
45	0xbeb556ce	-0.3541779
46	0xbe32d63a	-0.17464533
47	0xbe5cbb6a	-0.21555868
48	0xbd7a7256	-0.061144195
49	0xbe623f85	-0.22094543
50	0xbe96c782	-0.29449087
51	0xbed7cde5	-0.42149273
52	0xbeb7b547	-0.3588049
53	0xbea3ae7c	-0.3196906
54	0xbe58f54c	-0.21187323
55	0xbde41c76	-0.11138241
56	0xbdfb1004	-0.12258914
57	0xbed229d8	-0.4104755
58	0xbe6d1d96	-0.23155817
59	0xbe3d5287	-0.18488513
60	0xbe0f8d24	-0.14018685
61	0xbe240c0e	-0.16020223
62	0xbdbcf81f	-0.09227013
63	0xbe9aded1	-0.3024812
64	0xbe95f00e	-0.2928471
65	0xbea68027	-0.32519647
66	0xbe8f7da6	-0.2802555
67	0xbec7c92e	-0.39020675
68	0xbea428bb	-0.32062325
69	0x3dbd00a2	0.09228636
70	0xbee925ff	-0.455368
71	0xbd4fd6ef	-0.050742086
72	0xbe7301bf	-0.23731135
73	0xbed92e23	-0.42418012
74	0xbeaecf2e	-0.3414244
75	0xbe97bf6b	-0.29638228
76	0xbe6c99d7	-0.2310556
77	0xbe69b833	-0.22824173
78	0xbec68426	-0.38772696
79	0xbec54d0a	-0.3853534
80	0xbef1b9a0	-0.47211933
81	0xbedde5e8	-0.43339467
82	0xbe807961	-0.25092605
83	0xbe77a646	-0.24184522
84	0xbe8270e2	-0.25476748
85	0xbe5a2712	-0.21303967
86	0xbeafad7c	-0.34312046
87	0xbe74e5a4	-0.23915726
88	0xbe92b926	-0.28656882
89	0xbed264f1	-0.41092637
90	0xbe8299d6	-0.25507993
91	0xbe8a651a	-0.2703026
92	0xbe968071	-0.29394868
93	0xbebd6d02	-0.3699723
94	0x3f00aa0c	0.5025947
95	0xbec1f3e7	-0.37881395
96	0xbe8a6bb7	-0.27035305
97	0xbed72bb7	-0.4202554
98	0xbeaef895	-0.34174028
99	0xbf01defb	-0.50730866
100	0xbeb4f125	-0.3534023
101	0xbe678d94	-0.22612602
102	0xbed2468d	-0.4106945
103	0x3e319606	0.17342386
104	0x3dda6e65	0.10665587
105	0xbe6ffce6	-0.23436317
106	0xbe879c2b	-0.26486334
107	0xbea6c695	-0.3257338
108	0xbeb1dfc6	-0.34741038
109	0xbedd6a83	-0.43245324
110	0xbea538d3	-0.32269916
111	0xbe8de2a8	-0.27711987
112	0xbea27e0a	-0.31736785
113	0xbea036d6	-0.31291837
114	0xbe62235c	-0.22083801
115	0xbea5f823	-0.32415876
116	0x3de6a0c8	0.11261135
117	0x3e1f1c8f	0.15538238
118	0xbe926524	-0.2859279
119	0xbea72b2f	-0.32650134
120	0xbe9abc62	-0.3022185
121	0xbecc4553	-0.3989664
122	0xbe9ad47d	-0.3024024
123	0xbe536e3e	-0.20647523
124	0xbe90dd17	-0.28293678
125	0x3e3eb1b9	0.18622483
126	0xbee99841	-0.45623973
127	0xbeb3b9bf	-0.3510265
128	0x3d0da6d6	0.034582935
129	0x3ddf78ba	0.10911699
130	0xbe1ebddc	-0.15502113
131	0xbc5dad24	-0.0135300495
132	0x3d97c750	0.07411063
133	0xbdfb2a45	-0.12263922
134	0xbe8796e1	-0.264823
135	0xbe35a34b	-0.17738073
136	0x3b415575	0.00295004
137	0x3d09eebb	0.033674937
138	0x3d4d7960	0.05016458
139	0x3ddedb15	0.1088163
140	0xbd7bbe5a	-0.06146083
141	0x3be6cb80	0.007043302
142	0xbdfb7888	-0.12278849
143	0x3e8f298d	0.27961388
144	0xbd92451b	-0.07142087
145	0x3c129758	0.008947216
146	0x3d97a5bc	0.07404658
147	0x3da56556	0.08075969
148	0xbd7a7571	-0.061147157
149	0xba38c6a0	-0.00070486404
150	0xbd984fa7	-0.074370675
151	0xbd995abb	-0.074880086
152	0xbe0b9231	-0.13629986
153	0x3cf0efa6	0.029411148
154	0xbd221239	-0.03956816
155	0xbd8f9a39	-0.070118375
156	0x3d654676	0.0559754
157	0xbd8a9610	-0.067669034
158	0x3e1c0b40	0.15238667
159	0xbda8ac1b	-0.082359515
160	0x3e586785	0.2113324
161	0xbd94de89	-0.07269008
162	0x3d171947	0.03688934
163	0xbd95c89d	-0.073136546
164	0xbd01512e	-0.03157156
165	0x3c831aa1	0.016003909
166	0x3d3458db	0.04403005
167	0xb9d310ec	-0.00040257664
168	0xbe0047eb	-0.12527435
169	0xbd09926a	-0.033586897
170	0x3dd22b39	0.1026215
171	0x3c3458d6	0.011007508
172	0xbd8606c8	-0.06544262
173	0xbd476830	-0.048683345
174	0x3da2dce4	0.07952288
175	0x3dc1c1fe	0.09460829
176	0xbd4076e8	-0.046988398
177	0x3d4bee03	0.049787533
178	0x3d2099a3	0.03920902
179	0xbd831703	-0.064008735
180	0xbd5fec94	-0.054668978
181	0x3c766684	0.01503909
182	0xbd8fcb4a	-0.07021196
183	0x3dafeb24	0.085897714
184	0x3d571c70	0.052517354
185	0x3d96a7d8	0.073562324
186	0xbd0a753c	-0.03380321
187	0xbdfbce53	-0.122952126
188	0x3e05ff86	0.13085756
189	0x3dfab626	0.12241773
190	0xbd07ddb0	-0.033170402
191	0x3c68f598	0.01421871
192	0xbe8f6c2f	-0.28012225
193	0xbdf9e67b	-0.12202164
194	0x3d88c48c	0.06678113
195	0xbe8f5535	-0.27994695
196	0xbe917df3	-0.28416404
197	0x3d9d6fe4	0.07687357
198	0xbebb1150	-0.36536646
199	0xbebea82e	-0.37237686
200	0xbe98dbd2	-0.2985521
201	0xbead5281	-0.33852008
202	0xbeba98b9	-0.36444643
203	0xbea0daac	-0.31416833
204	0xbe391d8f	-0.18077682
205	0x3ba91675	0.005160148
206	0xbe1fbd68	-0.15599597
207	0xbe8d62c4	-0.27614415
208	0xbe86261f	-0.2620096
209	0xbe74e54d	-0.23915596
210	0xbe348028	-0.17627013
211	0xbe43a7f4	-0.19107038
212	0xbdb3d640	-0.08781099
213	0xbe444551	-0.19167067
214	0xbea28b65	-0.31746975
215	0xbde3fac4	-0.11131814
216	0xbe097f6b	-0.13427512
217	0xbe653bfb	-0.22386162
218	0xbe1d8a23	-0.15384726
219	0xbe290a3f	-0.16507815
220	0xbdc15c73	-0.094414614
221	0xbe153911	-0.1457255
222	0x3dd18ef0	0.10232341
223	0xbe7ab1a7	-0.24481831
224	0xbe210f8c	-0.15728587
225	0xbdee0202	-0.11621477
226	0xbddcc231	-0.107792266
227	0xbecd5595	-0.40104356
228	0xbe2f1fd2	-0.17101982
229	0xbe1fa39a	-0.15589753
230	0xbde7f1dd	-0.11325429
231	0xbe71503c	-0.23565763
232	0xbe36691b	-0.17813532
233	0xbebd1451	-0.36929563
234	0xbe6b934c	-0.23005408
235	0xbdb0dfe2	-0.08636452
236	0xbeba504f	-0.36389396
237	0xbdecb218	-0.11557406
238	0xbe696d56	-0.22795615
239	0xbda4fc92	-0.080559865
240	0xbdb5e703	-0.088819526
241	0xbeb32f8f	-0.34997222
242	0xbe8cfd5d	-0.2753705
243	0xbeb618a6	-0.3556568
244	0xbe531c2a	-0.20616212
245	0x3d9cd1d3	0.07657208
246	0xbe1208fe	-0.14261243
247	0xbe1a507f	-0.1506977
248	0x3c925d9a	0.017866898
249	0xbebe9323	-0.3722163
250	0xbe397356	-0.18110403
251	0xbe97414c	-0.29542005
252	0xbe8b2c88	-0.27182412
253	0xbe4a1ad1	-0.19736792
254	0xbe62902f	-0.22125314
255	0xbe56d294	-0.20978767
