save/best_model_29_8_4_0.1.pt (torch, 35052 bytes, 31 tensors)

lstm.weight_ih_l0 f4 [32, 29]
00000000: c5fa 063a c17e c83d 82e5 a0b7 0868 22bd
00000010: ad8d deb9 2d7d 083c d607 8ebd ccac 5f3c
00000020: 944c 04ba 291a dcbd 52b7 c1ba 0eb9 82bd
00000030: 1b98 6f3d 948a 473d c6cf 133e 626b afb7
00000040: 178c 02bd 1836 d5bc 8517 4b39 853a 3abb
00000050: 3c61 523d e16b 8eb7 a7c1 c4bd 8276 0a3e
00000060: f555 62bd 90c5 0fbd e6ef 203d f5ae f7bd
00000070: 2aaa 673d b2ee e1b5 9dab d83d 84f4 0a3e
00000080: 7822 963d ecf0 063e 5453 b038 6925 2c3d
00000090: d109 ebb5 c64c 203d ef83 99bb ab4b beb5
000000a0: 6bf5 19bd 9383 ccbc 1009 14be 80f0 a1bc
000000b0: aa9b e1b5 1a3d d4bd 494d 6f3d acd1 b73d
000000c0: dca5 533c 293e 2ebd c182 a73b 0bfb 7739
000000d0: e91b 8636 368e dcbb 7394 b7b5 5b22 633c
000000e0: 42fb b8bd d889 233d 7a99 77bb 5455 d93d
000000f0: 1dd9 813d 418d 08bd 59b6 7a39 cd65 093c
00000100: 81da ac3d dd23 023e 2a80 e23d d5a1 1639
00000110: 9e2f bfb9 326a 0a3d d072 88bb 396d 0cbd
00000120: 3aff 3f3c 753c a4bd 62ad 233d 02dc 5339
00000130: 8c4b 13be 11bd fe3c ec4a a6bd f2e5 46bc
00000140: b0bf d43c ede1 ccbd b129 2abd 1b6e dcba
00000150: 742e 42ba 61bf c0bd b773 c93c 7d0c 033e
00000160: 8afc 8f35 8c8a 36ba 95ab b1bd f1da 8835
00000170: 7edc 97bc 4bcf 2d3d c60d b739 ebec bd34
00000180: a1b6 12bb faf9 f2ba 9dc6 7639 07e3 8a35
00000190: 21e2 1c3e fe47 be3d 0920 d1bd 8eca eb3c
000001a0: c830 7d38 1ec0 9abd 0fdd 263d fa4d 9cb9
000001b0: a7a1 0bbc 0ac0 66bd 9dfe 2633 05c8 f53d
000001c0: 9eb2 743d 3e58 19bd f116 81bd 360c c639
000001d0: 1aec 05be 32ae da3d acf0 b33b 1b5c 9b3b
000001e0: a0dd 983b 958b 9638 aaa2 a6bd 9f23 eb3c
000001f0: 2997 273d bf72 e93c 1d68 0d3e 689d 2cbd
00000200: f970 383a a656 17be 0428 603d 516c 9dbc
00000210: 4011 9c38 7dff 5bbd 5ec1 81ba 1629 2d38
00000220: b054 45bd d54b 28bd 58f9 8a38 6148 d536
00000230: ffdd 4938 b086 1abe cc84 a63d 64c5 f13d
00000240: 6e09 2dba 05eb 0fbe 02f5 0c37 c6c1 da36
00000250: 4446 12be e7c5 dd36 0c5a c03d 4b79 8e3d
00000260: 5a3e f13c af13 04be 1c4a fd36 99c5 ec36
00000270: 146b 0837 0daf 1dbe c5c0 f93c 86ee 1e3e
00000280: 0702 6c3d 7535 fa3c 2d13 c1bb 28db f1bc
00000290: 41d9 1337 3c29 893d 2522 f73d 06ec 943c
000002a0: 6865 cdb9 b7b3 3d3d 648c f03c 9fd5 02be
000002b0: e058 fe36 819f 3dbd ed7d 783a 26cd d73c
000002c0: f6e4 4c3d 6b59 0fbe 4456 823d 2cbe c539
000002d0: bce1 a3b8 401e dabc 2d7d 1e3e 7d58 6fb8
000002e0: e689 0cb7 fed6 ae3b 685f 1db8 67b5 143e
000002f0: 0858 89b8 39b5 1e3b d6ed 7a3b 8212 d7bd
00000300: 6a73 14b7 eebc 7f3c ae1a c3b8 e355 d2bd
00000310: f502 5bbc 852c 54b7 63de 38bd 7b38 93bd
00000320: 5ea2 a5bc 18dc e43d e275 eebc 7295 a3bd
00000330: 5e01 cabc 63fd 89b7 e0f7 bebd bfe7 6fb7
00000340: 40dd bcbb 5dd1 40b5 ff09 5ebd 8c6c c63d
00000350: ecdf 0ebe 4834 7fb7 93c6 0bbe 2687 73bd
00000360: 3225 693b 19ee 0b3c 5467 383d 09e5 6cb7
00000370: 3618 9abd 8cc9 1c3d 0d59 df3b 2050 f83d
00000380: 58e4 fe3c d5f5 16be f3fc d8b5 c591 14bc
00000390: eafc fe3c 30c1 a3b8 e8d2 b1b6 122e d93c
000003a0: 1f23 e7b7 566b 723c 0d39 01b8 d32c 333d
000003b0: 9eb3 0e3c 1a2e edb7 c3e8 00be 0111 b8bb
000003c0: 280a 3c3d f0a5 74bc 8569 58bd 25dd 0cbe
000003d0: 21c6 92bd 9ca5 ffb5 e7ef 10be b65c d83d
000003e0: 0905 8f3b e2b7 e338 1e4a 24b6 b834 383c
000003f0: 1460 e9b7 bf99 8d37 31e6 a3bd 8cdc 65bc
0.0005149062 0.097898014 -1.918036e-05 -0.039649993 -0.00042448696 0.0083306255 -0.06935088 0.013652038
-0.00050468114 -0.10747177 -0.0014779365 -0.06382953 0.05849467 0.048716143 0.14434728 -2.091163e-05
-0.03187188 -0.02602677 0.0001936835 -0.0028416228 0.05136226 -1.6977954e-05 -0.09607249 0.1352177
-0.055257756 -0.03510052 0.039291285 -0.12093917 0.056558765 -1.6833276e-06 0.10579608 0.13569838
0.07330793 0.13177842 8.407855e-05 0.042027865 -1.7511721e-06 0.039135717 -0.004684917 -1.4178125e-06
-0.037587564 -0.024965083 -0.14456582 -0.019768 -1.680911e-06 -0.10363217 0.058423314 0.089755386
0.012917962 -0.04253975 0.0051120226 0.00023649276 3.9967604e-06 -0.00673082 -1.3677767e-06 0.013863171
-0.090322986 0.03992638 -0.0037780688 0.10611978 0.06340239 -0.033337835 0.00023909788 0.008386088
0.08440114 0.12708993 0.110596016 0.00014365402 -0.00036465836 0.033792682 -0.0041640773 -0.03428385
0.011718566 -0.08019344 0.039960273 0.00020204487 -0.14384288 0.031096013 -0.08119759 -0.012139784
0.02597031 -0.100040294 -0.041543666 -0.0016817482 -0.0007407435 -0.09411503 0.02459131 0.12797733
1.0727829e-06 -0.0006963394 -0.08675305 1.019651e-06 -0.018537756 0.042434018 0.00034914742 3.5376374e-07
-0.0022386687 -0.0018537634 0.00023534377 1.0347875e-06 0.15320636 0.09291075 -0.10211188 0.028783109
6.036533e-05 -0.07556175 0.04073816 -0.00029812736 -0.008522428 -0.056335486 3.8881456e-08 0.12001041
0.059740655 -0.03743767 -0.06303204 0.000377746 -0.13078347 0.10677756 0.005491337 0.0047412044
0.0046650916 7.1785566e-05 -0.081364945 0.028703509 0.040915642 0.028497098 0.13809247 -0.0421423
0.0007035877 -0.14779148 0.054725662 -0.019216688 7.441873e-05 -0.05371045 -0.0009899547 4.128468e-05
-0.048176467 -0.041087944 6.626797e-05 6.3563207e-06 4.8128884e-05 -0.15090442 0.08130798 0.118052274
-0.00066008314 -0.14054497 8.401696e-06 6.5194645e-06 -0.14284617 6.609352e-06 0.09392175 0.069567285
0.029448677 -0.12898134 7.548615e-06 7.0563515e-06 8.131163e-06 -0.15398808 0.030487427 0.15520677
0.05761912 0.030543068 -0.0058921785 -0.029523447 8.812466e-06 0.06697318 0.120670594 0.018178951
-0.000391762 0.046313968 0.029363818 -0.12776802 7.5801363e-06 -0.046294693 0.00094792136 0.02634294
0.05002304 -0.13998954 0.0636411 0.00037716457 -7.814492e-05 -0.026625752 0.15477438 -5.706445e-05
-8.376757e-06 0.0053356877 -3.752057e-05 0.14522325 -6.549066e-05 0.0024216904 0.0038288734 -0.10501577
-8.848359e-06 0.015609009 -9.303294e-05 -0.10270288 -0.013367404 -1.264655e-05 -0.04513396 -0.07188507
-0.020219024 0.11174792 -0.029108945 -0.07987489 -0.024658855 -1.6449665e-05 -0.09324622 -1.4299468e-05
-0.0057636797 -7.183024e-07 -0.05420875 0.096886724 -0.13952607 -1.5211357e-05 -0.13649969 -0.05945506
0.0035575149 0.008540654 0.045020416 -1.4120023e-05 -0.07524149 0.038278148 0.0068160356 0.12124658
0.031114742 -0.14742215 -1.6166872e-06 -0.009067957 0.031126458 -7.80843e-05 -5.299564e-06 0.026511226
-2.75537e-05 0.014796099 -3.080913e-05 0.04374392 0.008709816 -2.827407e-05 -0.12588792 -0.0056172614
0.045908123 -0.014932141 -0.052835006 -0.13756235 -0.07166696 -1.9047179e-06 -0.14154015 0.10564558
0.004364614 0.00010858454 -2.4481046e-06 0.011243038 -2.7820504e-05 1.6880103e-05 -0.0800289 -0.014029633

lstm.weight_hh_l0 f4 [32, 8]
00000000: f59b 15bc 750d 7a3a 4e99 06bc 1506 d237
00000010: 055b 4436 d7de 25b4 570c 353d cf7f 98bb
00000020: ca4a 7a36 aae4 0d3c ef8a 8db4 528f 03b4
00000030: d142 0535 c519 14be ede9 1fb5 7dbf 32bd
00000040: 6c1d cb3b c38a 19bd 04fe 973a 5f25 543d
00000050: 2b45 d53a 8b51 0fbd e386 fbbd 1a1b 1037
00000060: 3768 94bd 23c4 86bd cc37 8334 69d5 b3bd
00000070: 7e1a a8bd 011d 343c 300a 843d 27b4 033d
00000080: 0a1c 013e aee5 81bb 9300 cb3c 7f08 2aba
00000090: 8e8a c9bd db13 20b6 c41a 1f3e 7ad7 423d
000000a0: d410 3f3d e2aa 6c34 d270 1d36 4cf2 f23d
000000b0: a160 f53d e59d 103e b5fd ff35 6a46 a73a
000000c0: d89c 8036 f513 113c 8343 7b3b e326 dbb5
000000d0: 95c1 d0b8 1f03 e43a eaf9 41b7 9c90 c03c
000000e0: 3582 81bd b310 253d 9348 dbb6 a3fc e5bd
000000f0: 1c3b c93d 7444 e8b7 9f23 6ebd 4089 dcbc
00000100: b16b ecbc 578c b7bd 3ad2 883d 8080 8238
00000110: e2ce 2036 5c5a d93d 06c6 7fb6 b1d3 c73c
00000120: 9f30 d53d 47cf 15be 8781 f53d 51f7 4f37
00000130: dc4f 653d e303 19be 1e75 af3d 7c1a bcbd
00000140: 652e 67b7 0678 a43b 9555 de3b 79f4 9536
00000150: 9e3e 783c ed51 c63b c3c8 58b9 2803 39ba
00000160: 0e83 033e e083 a53d c265 183e e233 023b
00000170: 3a16 523d 6a03 c438 cbf8 d733 2c74 cd3d
00000180: 5eb3 8d3d 43c0 83b5 af9d a5bd bc91 f93d
00000190: 5ffb aab6 63e2 20b6 e1a3 1e3c a61e a9ba
000001a0: b890 b3bd e18b f2bd 8527 033e 5921 a9ba
000001b0: 8ea5 6fbd 0883 0c34 abae efbd 413e bdb9
000001c0: 0978 a93b a327 9235 2ced 893d 824d e4b5
000001d0: 4bfc 513b 8028 3ebd e189 87bd 7f53 3d39
000001e0: afdc deb9 217b d73d 738e b2b6 4d1a 043e
000001f0: 6924 0b3e abbd 143e 42b5 f5ba 8b94 2b37
00000200: 9546 773c 3909 73b9 ecc5 c3bd 75eb 04be
00000210: 9655 25bd b24c 00b7 d934 27bd ccdb dd3c
00000220: 765a 68bc fec8 da3c ee65 c03b 139e 9ebd
00000230: 2972 48b8 2421 923d 0927 c9bc 45fa 84bc
00000240: b95c ae3d 8e98 14be edaa 08be 1a49 f138
00000250: 4342 5e3b 71ae 89b8 0a2c af38 75ec 15be
00000260: 940f 933d 7b6e afb5 e30b 573c 30ac db3d
00000270: 13ce 96b6 344c 5e3d 9e38 e236 d0b0 91bd
00000280: 18b1 103e 290f 0737 20b4 83b9 5b3d 59b7
00000290: 6d56 9138 e4a9 7d3d 4249 bf3c 40dd dab7
000002a0: ae4b 13be afb7 e73d 7335 ae3d 4b9a bdbd
000002b0: e241 cbbc 3b43 4dba acd2 90bd a21a 0fb8
000002c0: a2bf 123e 87a0 a43d 48f8 4f3d 4893 ddbd
000002d0: 7e5d fd3d 59be 9abb 2777 5d3d abc7 853d
000002e0: 70a1 23bc a951 d4bb fc87 593d 0ce3 2bb7
000002f0: c13d 03be e3cf 51bd e6c0 cabb f5d7 e7bd
00000300: 0c49 7835 9eff cebd 9268 903d 1b41 5ebd
00000310: 58f0 2cb8 6ecd a03c 8bf6 de3d 2548 a2bd
00000320: a596 33bc d827 183e 08f4 78b7 fd9d ea3d
00000330: 541d 67bb 75b8 68bd 38c5 09be 4b31 5a3a
00000340: cb44 94bd 756d aab5 6b57 3e3b e451 893d
00000350: 52ef 4eba 0313 4cb9 ad1c d23c 100f b83d
00000360: 9b66 1dbb 928d 193d c175 03bb d460 1d3e
00000370: 3712 0a3e 06da 8bbd e40d a33d 0c12 103e
00000380: c093 26b6 6cb7 21ba c8ca dd37 a4bb 39bd
00000390: d23a d7bd 077e dcbd 781b 963d 1722 dbbd
000003a0: cd1a d73d 526b 343d 407c 343d f740 b634
000003b0: 1fd1 993d d92a 163e c3fc 533d d21d b939
000003c0: 6f74 c636 1645 243d 30f1 aebd 8156 c43a
000003d0: dfdf db39 5ab6 1d36 6eac d6bc da14 aeba
000003e0: d7a2 7235 9042 97bd d891 a9b6 4904 d2bc
000003f0: 3fb1 323b 741a 3039 ba63 14b6 9801 48bd
-0.009131421 0.00095387484 -0.008215262 2.5036783e-05 2.9259256e-06 -1.5447891e-07 0.04420122 -0.004653908
3.7296436e-06 0.008660475 -2.6364384e-07 -1.2252465e-07 4.964359e-07 -0.14462955 -5.957252e-07 -0.04363965
0.0061985757 -0.03748585 0.0011596088 0.051793452 0.0016271224 -0.034989875 -0.12281587 8.589379e-06
-0.0724644 -0.06580379 2.444125e-07 -0.08780939 -0.08208178 0.010993243 0.064472556 0.03215423
0.12608352 -0.0039641475 0.024780547 -0.00064862514 -0.0984088 -2.3853415e-06 0.15537554 0.047568776
0.046646908 2.204138e-07 2.3460493e-06 0.11862621 0.11981321 0.14122732 1.9072819e-06 0.0012762074
3.8329563e-06 0.008854856 0.00383398 -1.6328089e-06 -9.95427e-05 0.001739595 -1.1561884e-05 0.023506455
-0.06323663 0.04029913 -6.5351574e-06 -0.11229827 0.09825727 -2.7688431e-05 -0.05813944 -0.026920915
-0.028859945 -0.089623146 0.066807225 6.222818e-05 2.396228e-06 0.10612938 -3.8113226e-06 0.024392935
0.10409664 -0.14629851 0.11987596 1.2395744e-05 0.055984363 -0.14942889 0.0856726 -0.09184739
-1.3779475e-05 0.0050191907 0.0067851045 4.4690064e-06 0.015151648 0.006052247 -0.00020674155 -0.000705766
0.12842962 0.08081794 0.14882568 0.001986735 0.05129073 9.346644e-05 1.0056973e-07 0.10031924
0.06918977 -9.816216e-07 -0.080867164 0.12186 -5.0956583e-06 -2.3973632e-06 0.009682626 -0.0012902811
-0.08767837 -0.11843086 0.12808044 -0.0012903615 -0.058507495 1.3086185e-07 -0.11703237 -0.00036095272
0.00517178 1.0889383e-06 0.0673469 -1.7009882e-06 0.0032041247 -0.046425343 -0.06618095 0.0001805555
-0.00042507562 0.10521532 -5.3213967e-06 0.12900658 0.13588108 0.14525478 -0.0018746036 1.022698e-05
0.015092512 -0.00023177722 -0.09559235 -0.12980445 -0.040364824 -7.647252e-06 -0.040821884 0.027082346
-0.014181724 0.026707169 0.005871526 -0.07744994 -4.7790036e-05 0.07135227 -0.024554746 -0.016232619
0.08513779 -0.1451132 -0.13346453 0.00011505392 0.0033914007 -6.565161e-05 8.352853e-05 -0.14640982
0.07180706 -1.307067e-06 0.013125393 0.107262015 -4.4943386e-06 0.05427189 6.741916e-06 -0.071138024
0.14130056 8.050157e-06 -0.0002512047 -1.2948493e-05 6.930237e-05 0.0619296 0.023350362 -2.6090653e-05
-0.14384338 0.11314332 0.085062884 -0.09257945 -0.024811689 -0.00078301475 -0.070714325 -3.411866e-05
0.14330915 0.08038431 0.05077389 -0.10819107 0.12371348 -0.0047223982 0.05406871 0.06532224
-0.00998722 -0.006479461 0.0531082 -1.0245258e-05 -0.12816526 -0.051223647 -0.006187546 -0.113204874
9.2493497e-07 -0.10107349 0.07051195 -0.05426131 -4.1231833e-05 0.019629207 0.10886868 -0.07923917
-0.010961209 0.14858949 -1.483877e-05 0.11455915 -0.0035265284 -0.056816537 -0.13454139 0.0008323385
-0.07239684 -1.2697843e-06 0.0029043804 0.067050725 -0.0007893938 -0.00019462038 0.02564844 0.08987248
-0.0024017456 0.037488528 -0.00200592 0.15368968 0.13483511 -0.06828694 0.07961634 0.14069384
-2.482193e-06 -0.00061689946 2.643968e-05 -0.045344964 -0.10509266 -0.10766225 0.07329458 -0.106998615
0.10503159 0.04404766 0.044063807 3.394741e-07 0.0751059 0.14664783 0.051754724 0.00035308168
5.9144145e-06 0.040104948 -0.085420966 0.0014979393 0.00041937732 2.3500966e-06 -0.026205268 -0.0013281361
9.038899e-07 -0.07385743 -5.053571e-06 -0.025636809 0.0027266291 0.00016794523 -2.2111767e-06 -0.048829645

lstm.bias_ih_l0 f4 [32]
00000000: 04b6 093e 459f 1e3d d748 0bbe b6cd 0cbb
00000010: 96a3 073e f248 d2bc 7623 d23c c39c 56bd
00000020: 879c 693b 31c9 57b6 13be 9d39 0cb8 513a
00000030: 8b3b 8f3d a393 b2bc b22a acbd d53d 453d
00000040: 894a 8b3b 9971 1e3d 4194 c83d a05e 7d3d
00000050: 1ed1 06be bd12 363d 0f30 e13d b4fd 753d
00000060: 1c2f f93d 6f0d 1c3e 1972 e1bc 59d3 4135
00000070: 8043 5439 d8b1 853d 1f5d 15b9 1b9f 3bbc
0.1344834 0.03872611 -0.13602005 -0.0021484918 0.13245997 -0.025669549 0.025651675 -0.052395593
0.0035646276 -3.2154605e-06 0.0003008699 0.00080001424 0.06993779 -0.021798914 -0.08406581 0.04815467
0.0042508286 0.038682554 0.09793902 0.06185782 -0.1316571 0.044451464 0.109954946 0.060056403
0.121671885 0.152395 -0.027520226 7.2205654e-07 0.00020243041 0.06528062 -0.00014244438 -0.011451508

lstm.bias_hh_l0 f4 [32]
00000000: 0a7d 1eba 4bb9 4bbc 1642 fd3b 6bd6 6835
00000010: e69a dd37 888b a63b fb4d 623d 6765 a53d
00000020: 0a07 bf3a 0ad0 fdbd 2c7f 253b 5ba5 59bd
00000030: 1c2f 4e3a d631 7e37 2e17 76bb 94cb ccbd
00000040: 2040 c43b 1e4f fcbb 1b80 0f3a c992 d2bd
00000050: f94b c8bd fa70 cb3d bc34 ad3b e11d d33c
00000060: 6d5d e9b7 43be 8ab6 83fa b939 ff81 4e3d
00000070: d11b 75bd 82ad 8c3b e1a0 10b9 b8bb bf3d
-0.0006045854 -0.012434314 0.0077288253 8.6738754e-07 2.6417383e-05 0.0050825514 0.05525015 0.080759816
0.0014574241 -0.12393196 0.0025252802 -0.05313621 0.0007865296 1.5151183e-05 -0.0037550437 -0.09999767
0.0059890896 -0.007699861 0.00054741063 -0.10281903 -0.09780116 0.09933658 0.0052858274 0.025771083
-2.781927e-05 -4.13487e-06 0.00035472595 0.050416943 -0.05984098 0.0042931447 -0.00013792842 0.093619764

lstm.weight_ih_l1 f4 [32, 8]
00000000: 1779 613c bc1f 1037 8689 803a 8023 7abd
00000010: 3bba 183e 1ce7 d2bd 26db 09be a2cc 54bc
00000020: 2dc4 a73b bb9a 1ebe f63c a53c b536 b6bd
00000030: 4124 0ebd dbf9 de3c f70c 7338 cb3f f6bd
00000040: 14aa ca3d 7f74 a23d e2bb 8c3c 48dd aab5
00000050: 34fd af36 3852 b23d 4699 253d a216 093d
00000060: 62de 38bc 10b3 c7b3 12ca 16be a57c f53d
00000070: beb3 bfb5 5f42 b4bc df19 b935 e06c d534
00000080: 4e88 3c37 831c 583d fbe6 9db8 a0aa 083e
00000090: f7a1 a03c ae04 113d 8bfc c3b7 7311 0bb7
000000a0: 430c 81ba 5cfd e9bd 494b 32bd 319a b93a
000000b0: 6ef0 ce3b 8fae 47b7 6740 a9bc c2bf 9c37
000000c0: 6282 8fbd 40c1 2fbc a67a dc38 eccd 4dbd
000000d0: 17b4 d5bd a642 923d 76f5 11be ee50 14bd
000000e0: 3374 98b7 2030 0cbe ff4d 8038 a5db 46bd
000000f0: 325d 22bc 060d b43d 7954 e93d 1996 12be
00000100: bc61 ff3c 9368 04be f98e 46bb 5100 d8b8
00000110: ab5b 95b8 be7a 0e3c 6f39 2939 7c23 033e
00000120: 17bb e5bd cfef bbbc b9a6 003e 88d6 4b3a
00000130: 928d 353c d5e7 c3bd 7c9e 9f3b e2fb 51bd
00000140: b0d4 ae3c ca60 f8bc 1140 a3b7 da62 6a38
00000150: dcf5 8638 fea9 c2bc c272 d83a c1bc 18b6
00000160: 6775 393c 1db3 1dbd 5dac 3dbc 134f 4cba
00000170: f0c6 203e a7aa 103e fe61 6d36 f0eb c63d
00000180: 32a1 8c3d f477 3635 d9d3 29b8 5cad 46bd
00000190: fcb9 35ba a570 ae3d 0eb4 a8b7 51a1 b6b6
000001a0: 378a 88bc f0b8 83bd 9021 a2bc 8ce4 7137
000001b0: 5d46 26bc 20a0 e83d 72fa 9038 c5ac 803c
000001c0: 07c5 c7b7 696b 6dbc 3e03 903c f045 b6bb
000001d0: e412 1b3e ae18 fc3d 2f29 593d 4305 29bd
000001e0: 0f06 f83c 7c34 8db5 faee 973d dbdd cf36
000001f0: cfe5 8e3d 370e a5bd ca52 a8bd c899 0a3e
00000200: 5cc7 2bbd 2cb0 f8bd 2c78 f0bd 3982 cfbc
00000210: a41d ee3c 58ee dabd 286f 703d 84e0 e13b
00000220: 0f62 2d3e fe99 35b8 a7b8 c23d fc4f 0039
00000230: 7255 84bb 6591 07be 2cdf a8bc 322d 06b8
00000240: 7f16 fbbc 7627 a837 0844 c9bd 988b 2f3d
00000250: 384f 993a 6604 c33d 36a7 9d3c 762d 8dbc
00000260: 8621 0b3e 5095 b13b 7d42 a9bd 0662 d3bc
00000270: b492 0d3e 76a4 003e a1ed 7a3d 42f5 e8bd
00000280: d256 1c3e e122 cabc 045a 943c 9731 04bd
00000290: 5978 2a3a 7333 7136 643e a3bd d354 8838
000002a0: 62af 833d 62c3 813d 1fb7 413c 9815 72bc
000002b0: 7fa6 14be b724 283a 6876 a9bd 8ac7 1fbe
000002c0: 2d1e cd3d b6bb 8a38 215c 84bd 1117 2cb9
000002d0: f5cd 853a 023b 893d 437a 963c 774b d0bb
000002e0: 7e4c b7bd 7be7 03bd 8e5f 9c3d dcf5 d0b8
000002f0: c9fc c0bb dd39 a138 bf51 bbbd e335 dd3d
00000300: 1f09 51b9 f938 98bc 5174 533c 186f 6437
00000310: dcf4 253b ec9f e8bd 1e8c d93c 818a 1638
00000320: d479 cfb7 b556 1038 2628 d6bc 2334 dc3d
00000330: 451d c53b 698f 08be 2fb6 e9bd f3be 80bd
00000340: 7c93 133c 0968 c3bd de81 193e 10e8 7bbd
00000350: f9fc 9e3d a5e1 c435 d3ea ae3d 12b3 69b9
00000360: 8caf 2c3d ab54 66ba 92f3 dc3d acfe 9dbd
00000370: 5d21 6c3b 7451 a2bd ab74 e73d b9ef f43d
00000380: 1995 5737 26f8 503d 4584 1cbe ed81 5bb6
00000390: f461 9d3d 67e9 0f3d ac0c 8d3d 81d6 88bd
000003a0: 79d1 c7bd 6931 21bc 62f3 f2bd e856 553d
000003b0: 7720 62b8 74e3 a3bc 9f3c 6ebd 55ad 7bbc
000003c0: ca91 a2bd 35d5 59bc 2614 21be 8c4a 2fbd
000003d0: ad27 0d3e cddf e03c 7554 053b 612c 6337
000003e0: f755 0e3e 02c2 993d e459 d83d 78e8 123e
000003f0: 372f 3fbb decd 1cbe b5bb f539 10e9 4837
0.01376178 8.590458e-06 0.000980661 -0.06106901 0.14914791 -0.10297987 -0.13462505 -0.012988241
0.0051198215 -0.15488712 0.02017067 -0.08897153 -0.034702543 0.02721875 5.794779e-05 -0.12023886
0.09895721 0.07932376 0.017179433 -1.2730388e-06 5.244883e-06 0.08707088 0.040429376 0.03346885
-0.011283489 -9.299231e-08 -0.14725521 0.11986665 -1.4282921e-06 -0.022004304 1.3791104e-06 3.975356e-07
1.1237409e-05 0.052761566 -7.529367e-05 0.13346338 0.01960848 0.035404854 -2.3363411e-05 -8.289108e-06
-0.0009845573 -0.114252776 -0.04352883 0.0014160333 0.0063152825 -1.1901967e-05 -0.020660592 1.8685943e-05
-0.070072904 -0.010727227 0.000105132625 -0.05024521 -0.1043474 0.071416184 -0.14253792 -0.036209993
-1.8173921e-05 -0.13690233 6.1180435e-05 -0.048549313 -0.009909915 0.087915465 0.11393065 -0.1431507
0.031174533 -0.12930517 -0.003029762 -0.000102997416 -7.121948e-05 0.008696256 0.00016138492 0.12806505
-0.11217325 -0.022941498 0.125636 0.0007775803 0.011081116 -0.09565703 0.0048711877 -0.051265605
0.021341652 -0.03031959 -1.9460947e-05 5.588201e-05 6.435413e-05 -0.0237627 0.0016513693 -2.2759634e-06
0.011319495 -0.038500894 -0.011576739 -0.00077937654 0.15700889 0.14127599 3.537279e-06 0.0971297
0.06866683 6.797484e-07 -4.049004e-05 -0.048505172 -0.0006932316 0.08517579 -2.0111005e-05 -5.4428024e-06
-0.016667468 -0.064317584 -0.019791394 1.4417932e-05 -0.010148612 0.113586664 6.913104e-05 0.015707383
-2.3814397e-05 -0.014490941 0.017579671 -0.0055625364 0.15143925 0.12309395 0.05301779 -0.041264784
0.030276326 -1.0520594e-06 0.07418628 6.194908e-06 0.06977426 -0.08059352 -0.08218916 0.13535225
-0.04193817 -0.12142977 -0.11741671 -0.02533065 0.029066868 -0.10689992 0.058699757 0.0068932194
0.16931938 -4.329718e-05 0.09507876 0.00012236828 -0.004038506 -0.13239057 -0.02061423 -3.199018e-05
-0.030650375 2.0045536e-05 -0.09827429 0.042857736 0.0011696583 0.09522323 0.019244771 -0.017233592
0.13587007 0.0054194108 -0.08264635 -0.025803577 0.13825494 0.12562737 0.061261777 -0.11374904
0.15267494 -0.024674835 0.018109329 -0.032273855 0.00065029185 3.5941746e-06 -0.079708844 6.500785e-05
0.06429936 0.063360944 0.011823445 -0.014775656 -0.14516638 0.00064141623 -0.08274537 -0.15603462
0.10015521 6.615317e-05 -0.06462885 -0.00016411791 0.0010208475 0.06700708 0.018368846 -0.0063566524
-0.089501366 -0.03220318 0.07635413 -9.964008e-05 -0.0058895093 7.687856e-05 -0.09146451 0.10801294
-0.00019935191 -0.018581854 0.01290615 1.3615725e-05 0.002532295 -0.11358628 0.02655607 3.589178e-05
-2.4733054e-05 3.4413028e-05 -0.026142191 0.10752132 0.006015452 -0.13335957 -0.11411702 -0.06286421
0.009007331 -0.095413275 0.14990947 -0.06150061 0.077630945 1.4668809e-06 0.08540883 -0.0002228732
0.042159602 -0.000878642 0.10788645 -0.077145904 0.0036030628 -0.07925692 0.113015495 0.11959786
1.2849713e-05 0.051017903 -0.15284832 -3.270917e-06 0.07684699 0.0351347 0.068871826 -0.066815384
-0.097567506 -0.00983844 -0.11862828 0.052084833 -5.3912834e-05 -0.020005919 -0.05816328 -0.01536115
-0.07937963 -0.013295461 -0.15730342 -0.042795703 0.13784666 0.027450467 0.002034453 1.3540587e-05
0.1389998 0.07507707 0.1056402 0.14346492 -0.002917243 -0.15312907 0.00046869894 1.1975193e-05

lstm.weight_hh_l1 f4 [32, 8]
00000000: 54b2 88bd b929 183c 5e23 9637 b802 e13d
00000010: aba6 06be 2c3d 14bd b8ca 723d 4b37 1dbe
00000020: 86e1 20bb 6215 a03c 4691 c43c 0bea 0cbe
00000030: ff61 cbba 8c5d 893d c3a3 e03d bcba ecbd
00000040: 3cac 80bd c60c ad36 75b9 51bb 37f0 c0bc
00000050: 8ec5 013c 330b e8bc 6611 1f3c 5087 0b3e
00000060: 708c b1b5 6c00 0e3e 326d 83bd 9034 bcbc
00000070: e7a0 273c b387 913d 406e e7b4 d21a 1ebc
00000080: b932 7b37 acc0 8fb8 22b8 6db6 64e3 ac3b
00000090: f60e 33bd 289b fdbd 8138 0737 fd10 07be
000000a0: 5ae0 5db8 8ae0 12be 90f1 b93d c55f a938
000000b0: 9190 48b8 3c4e edbc a1fb 9c3d 0ad1 2db8
000000c0: 4e9d a83d 5f73 b437 4dc1 8bbd 1311 963b
000000d0: fa75 ebbb bd44 f9bd 4b1b 2bbd 5663 c8bc
000000e0: b6a6 d8bb 950d 8f37 1c56 95bc a878 56b5
000000f0: 3493 8837 4d1e b3bc 86d2 c6b8 e6dd ca3c
00000100: 659c 963d 243c d43d 908b bbbd c6eb a5b6
00000110: 8ae1 e3bd f13b 7a38 c54a 063e 2b38 a03d
00000120: d6f2 a23d d0ad a23a b8ce 03be 1c9a a8bb
00000130: 3f2d e2ba d913 333b 0ca8 0b3e 361d dfb7
00000140: 4e53 46bd 8e77 d439 d2d1 7a38 2c81 f6bd
00000150: 339c bc37 002c 8bb6 cb2d 2abc 5143 62ba
00000160: 981c b7bd c330 ef35 ba53 4c34 3f3b 1d3e
00000170: 3de2 933d de6e 37bc 919c ef3d 1705 14b7
00000180: ac33 6937 ed74 5f3c 7190 bbbd 9e5e 123e
00000190: e5ef 3dbd e1e2 56ba c5ef 023e e3b3 3cbd
000001a0: 9ce8 a93c fe57 843c 0188 28bd b024 923b
000001b0: ee3b 18be c515 393d 915a 073e 6be4 29b8
000001c0: 4408 403d 9818 b237 f4a1 9f3c 2445 c3bb
000001d0: 46d2 e7b7 8e98 1138 9b5d dcbd 6baa 05be
000001e0: e098 16bd c48b 0d3e 66e5 e63d 09e1 a7bd
000001f0: f161 433b 70e5 4cbd 703e 263d 3bfe 2abd
00000200: 0d69 b33a 0883 6d3d 5f92 2eba 8933 12bb
00000210: 82a0 983d eed6 093e 7c06 b13d 6e09 9cbc
00000220: 1dda 70bc b58c 0fbe 377e 573c da89 4fb8
00000230: b59e 63bd 4e89 f739 1f31 e63a 92ec 4bbd
00000240: 6d07 b139 9a8f 9bb9 7fc1 eabc da32 8f39
00000250: 05fe 983c 831a 153d a6f4 07bd 8c0d e3bd
00000260: a6d1 9cbc b5c1 97bd 19b5 08b9 d763 863c
00000270: e334 763c 385d 69bd 8661 a439 9709 473a
00000280: ea93 c0bc 9cce 993d c50d 3438 a744 33b8
00000290: d0f9 763d 06f9 80b8 1bd4 4c3c 0a60 f2b8
000002a0: 636c 2ebd 0edc 62bc 3825 6b39 9523 c03d
000002b0: 7cc9 153e 88cb 403a 1b75 07bd 3e6e f0bb
000002c0: c876 8d3a 9cfe 35ba 4225 cbbb f8eb 943d
000002d0: 989a 423c 7f50 3abd 4821 8c3d 6f17 f33d
000002e0: 37d5 143b 1649 18bc 8c0d e33b 4164 fc3b
000002f0: ffcf 063a f747 f5bd 03ef 1c3e 0d61 e639
00000300: 7274 43bd 48e5 1c3e 97d6 dfbc 1399 21bd
00000310: 2d12 64bb 2f55 0e3c 5c40 123d 3ecd 3ebb
00000320: 1982 26bd 4e33 d7bd 07c3 2437 a855 7039
00000330: 3b90 5ab8 c908 b738 8f02 cdbb 6657 ac3b
00000340: b40a 113a 88cd e8bd 32d3 bbbd 2ff3 97bd
00000350: 18e5 b937 fd24 8eb6 3106 0cbd d5e5 ed3d
00000360: 1276 6dbd 9ebd af39 cd23 5034 c807 6db3
00000370: cfcf 2dbc 1e84 05bc 417f 173e 4e5e 173d
00000380: 5e52 753c c6f3 40b7 abbe 82b6 da03 d734
00000390: fdb6 ffbc d49f 14bb 5329 263d fdd5 143a
000003a0: 74cc 4ebd 12fa 713d 3bc7 d53d 0f6a 8fbd
000003b0: 8437 773d 2851 44b8 5e0c 843c 4519 91bc
000003c0: 9f5c 0b3e b3e5 0b3e 56f4 09be f686 9abd
000003d0: 4771 133d 30d6 8ebb e482 2db9 1493 f2b8
000003e0: ae2e e2bb b20c 2b3a 5df1 c036 1be9 0f3e
000003f0: 9c3a fabd e7e8 9f37 990f 97bd e258 9b3d
-0.066746384 0.009287291 1.7897863e-05 0.10986847 -0.13149516 -0.03619115 0.05927536 -0.15353124
-0.0024548485 0.019541446 0.023995053 -0.13761155 -0.0015516876 0.06707296 0.10968735 -0.11559054
-0.06282851 5.157289e-06 -0.003200141 -0.023552043 0.007920636 -0.028325653 0.009708738 0.13625836
-1.32284e-06 0.13867348 -0.06417312 -0.022974283 0.010231233 0.07105961 -4.310732e-07 -0.009649949
1.4972576e-05 -6.854659e-05 -3.5422931e-06 0.0052761305 -0.04371544 -0.12383109 8.059783e-06 -0.13190074
-5.289945e-05 -0.14343467 0.090792775 8.0763864e-05 -4.7818354e-05 -0.02896797 0.07665182 -4.1441097e-05
0.082331285 2.1511396e-05 -0.068239786 0.004579672 -0.0071856948 -0.12171314 -0.041774075 -0.02446143
-0.0066116704 1.7053253e-05 -0.018229537 -7.989679e-07 1.628101e-05 -0.021865034 -9.480589e-05 0.024764013
0.07354049 0.103630334 -0.09157479 -4.944831e-06 -0.111270025 5.966047e-05 0.1311446 0.07823213
0.079564735 0.0012411419 -0.12871826 -0.0051453244 -0.0017255916 0.0027325063 0.13638324 -2.6597274e-05
-0.04841929 0.00040524866 5.9800055e-05 -0.12036356 2.2484082e-05 -4.147645e-06 -0.010386894 -0.0008631247
-0.08941001 1.7821079e-06 1.902944e-07 0.15354632 0.07220886 -0.011195866 0.116997845 -8.8226725e-06
1.3899913e-05 0.013638717 -0.091584094 0.14293906 -0.04637136 -0.000819726 0.12786777 -0.04606999
0.0207408 0.01615524 -0.04114533 0.00445994 -0.14866611 0.045186777 0.13218142 -4.050547e-05
0.046882883 2.1230706e-05 0.019486405 -0.00595917 -2.7635262e-05 3.471277e-05 -0.10760041 -0.1305329
-0.036766887 0.13822848 0.11274223 -0.08197219 0.0029813016 -0.050023496 0.04058689 -0.04174636
0.0013687924 0.05798629 -0.0006659384 -0.002230855 0.074524894 0.13460895 0.08643815 -0.019047465
-0.01470044 -0.14018519 0.013152651 -4.948103e-05 -0.055571277 0.0004721381 0.0017562247 -0.049786158
0.00033765603 -0.00029670895 -0.02865672 0.00027312973 0.018675813 0.036402237 -0.0331923 -0.11086568
-0.019142937 -0.074099936 -0.00013037435 0.01640503 0.015027258 -0.056973666 0.00031353178 0.00075926766
-0.02350803 0.07510111 4.2928168e-05 -4.2740863e-05 0.060296834 -6.1499e-05 0.012501742 -0.00011557348
-0.042583834 -0.01384641 0.00022425212 0.09381787 0.14627641 0.0007354547 -0.033070665 -0.0073373606
0.0010792846 -0.0006942542 -0.00619951 0.0727157 0.011877678 -0.045486923 0.068422854 0.11869704
0.0022710094 -0.009294769 0.006929105 0.007702381 0.0005142688 -0.11976617 0.1532555 0.00043941327
-0.047718473 0.15321839 -0.027324004 -0.039452624 -0.0034800873 0.008687302 0.03570591 -0.0029114033
-0.040651415 -0.105078325 9.82057e-06 0.00022920093 -5.2109575e-05 8.727756e-05 -0.0062564085 0.005259442
0.0005532906 -0.11367327 -0.09171142 -0.074194305 2.2160399e-05 -4.236236e-06 -0.034185592 0.116161026
-0.05797393 0.00033519877 1.9384534e-07 -5.518794e-08 -0.010608627 -0.008149175 0.14794637 0.03695517
0.014973251 -1.150085e-05 -3.8964986e-06 4.0049673e-07 -0.031215185 -0.0022678273 0.040566754 0.00056776387
-0.05048795 0.059076376 0.10438391 -0.07002651 0.06035568 -4.6805624e-05 0.016119178 -0.017712245
0.13609551 0.13661842 -0.13472113 -0.07545273 0.0359967 -0.0043590292 -0.00016547326 -0.00011566855
-0.0069025373 0.0006525024 5.7501443e-06 0.14053766 -0.1221821 1.906273e-05 -0.07376022 0.075853124

lstm.bias_ih_l1 f4 [32]
00000000: 3d5d 89bd 391f f13d 58b1 9c3c 1d74 f039
00000010: de73 c5bd b3ac 1d39 2115 1b3e 7867 053d
00000020: f93d 8b3d a78d 653d a555 f9bd 9d26 0938
00000030: f7d0 debb d5c0 0cbe 7985 cc3c b703 2a3b
00000040: 5790 623c e8e4 5a3e 8edf cb3c fb44 a4bd
00000050: 16e1 06bd d883 573e 03cf 5fbe bbb9 b4bd
00000060: f489 143a b63a 063a cfb9 8ab9 e9b2 0d38
00000070: 78a0 94bd 66f4 ccbd 411f da3d 6473 ce3c
-0.06707237 0.117735334 0.019127533 0.00045862878 -0.096412405 0.00015037022 0.15144779 0.03256938
0.0679893 0.056043293 -0.121745385 3.2699307e-05 -0.006799813 -0.13745435 0.024965988 0.0025942156
0.013828359 0.21376383 0.024886873 -0.080209695 -0.032929502 0.21046388 -0.21856312 -0.08824488
0.00056663086 0.0005120443 -0.0002645985 3.3783643e-05 -0.072571695 -0.10007553 0.106504925 0.025201507

lstm.bias_hh_l1 f4 [32]
00000000: af54 acbd 066e 36bd abc2 dd3c b761 e13d
00000010: 774f cbbd 167f 83bc 2d76 cfbd 3c10 0c3e
00000020: 8e12 5fbd 83fc 17bd a6af 95b8 8895 fe37
00000030: cd22 183d af55 263a d784 70bc effb 07bc
00000040: f3c6 36be 02b5 d1bd 87ed c53c bbe6 fa3d
00000050: b7eb 13be 0e43 39bd 820f 323e 75ad 0cbd
00000060: 58ab 893d db28 013a a977 733d ef4a 2b39
00000070: c817 f9bc 66e3 0e3a f19a 0dbd dcd6 213a
-0.084145896 -0.04453852 0.027070364 0.11004966 -0.09927266 -0.01605181 -0.10129962 0.13678068
-0.054461055 -0.03710605 -7.137591e-05 3.034879e-05 0.037142564 0.00063451653 -0.014680109 -0.008299812
-0.1784933 -0.102396026 0.024161113 0.122510396 -0.14445387 -0.045229964 0.17388728 -0.03434511
0.06722134 0.00049270474 0.05944029 0.00016335746 -0.030406848 0.0005450755 -0.03457159 0.0006173679

lstm.weight_ih_l2 f4 [32, 8]
00000000: 3952 15be 3ce8 81bd c400 893d d5fe 84ba
00000010: b0f5 8fbd 027f 57bd 5902 1e38 4e97 43b9
00000020: 2d08 cabb 6075 713a 4143 be3d 138a 85b8
00000030: e5fa 24bc 1f4e ef3b 5dcf cbbc 9cb1 85ba
00000040: 5d26 893d 9cfb 5ebc b47e fa38 707b 983b
00000050: b064 c0ba 08eb 61bc 482a be3d 4999 c5b9
00000060: b9bd 0cbe a5aa 083e 95f4 b13d e148 0e3a
00000070: a9c8 f33d 4668 b3b6 d825 7b36 b97f ecbd
00000080: aaf9 bebd 55d1 c63a 1499 1c3b 94b2 ae39
00000090: 4ca0 82bd 3ecb bd3a ba7e a038 d682 9bbb
000000a0: 663e 053e 2267 393a fbce 1bbe b13f 4dbc
000000b0: 7d13 f234 efa2 e63d a70d 813c f20a e9b2
000000c0: 3494 62bd 2163 8d39 7c50 933d 771a ea3d
000000d0: 36b8 8f3d 3ef7 4db9 e3e6 ab3d 8d9b f53d
000000e0: 601f 38bb 13a9 693d f286 2c3d 7266 e93a
000000f0: d329 953c 36f8 06be caf1 ea3c 2714 0b3e
00000100: 3a41 8ebd 902f 13bd c0f1 03be fed8 41bd
00000110: acad 613d 8974 78b8 6ba6 143c cc03 8638
00000120: a8ec a93d 2123 713a 580e a33d 8427 eab9
00000130: 1aea 613d 7696 cc3d f185 14bb 7053 acbc
00000140: 90d1 19ba 6e7f 303a 1df3 53bb aaef 053c
00000150: 66d9 a6b9 108e d139 2086 b1bd 0cd2 7a39
00000160: 4e71 0737 1eb2 d0bd 863c 9fbd 752b 9ebb
00000170: c8ae c5bb 3103 2c3b 4c85 8436 f404 a63d
00000180: 7d68 893d 200f ec3a dc0e 673b dbb0 1fb9
00000190: 92d7 1c3e f5ec 1a3e 12ed ba3d fecf 01be
000001a0: eef8 6fba e5d1 0f3e 73af 08b9 d9a4 88bd
000001b0: 5acf 0837 8522 babd 0759 3239 a739 283c
000001c0: 3f0a 873d f6a1 e0bc e2d6 1339 9f4c 0e39
000001d0: 37ae 5f36 78cb e9b8 798a 11be f964 e43d
000001e0: 599b 07be c052 9239 89d0 f7bc 0b9c b4bd
000001f0: a41e d0b9 3fe7 c039 1e8c 8ebd dee8 033e
00000200: 1790 523d 0691 b0bc cf13 243e b306 be3c
00000210: 0df2 d6bc f2fd fdbc e9d7 8b3d c7d1 28bd
00000220: 560d 8e3c 4b57 4e3d 5a04 aa3a 95a7 a3bd
00000230: 33da b23d 53ec 0c3c 23af c8bd 5621 a5bc
00000240: 2cd2 e73d 7ae6 4dbd 2acc 0dbd 72f2 f83d
00000250: 7dda 13bd c9d3 33ba 5fb6 a33d 377d 963d
00000260: dce6 d7bc 203b e5bb 9601 7dbd 0af2 4abd
00000270: 2b7a 3fbd 3b2e b0bd 5a11 5fbc 76bc 843d
00000280: 2eb8 183e 153b bdbc 4eb6 b73c 8f52 03bd
00000290: 9b2b df3d 0913 0dbe d45a 93bc 8c23 333c
000002a0: b5e3 0fbd b149 d4bc 6e96 133e 280a 25be
000002b0: e616 38bd 3bb5 953d 4958 b4bd b464 e73d
000002c0: d020 88bd b186 47bd e813 993d cf8a 21bc
000002d0: 4a57 cf3d 2cc1 053e 93be e73b 333a 113e
000002e0: 08ec 4dbc c16d 6c3c 5ea7 eebd 3162 abbc
000002f0: 2e7b cc3c 7014 753b 4fed eabd f857 063d
00000300: 124e 9abc c6e7 5fb8 f062 03bb c502 6536
00000310: 7f14 8738 18d5 cb3d 3587 4d3d 0d29 a5bc
00000320: 518e ee3d ae9b 7a3a 65bc 7a3a 2062 1b3e
00000330: 502e 4fba 11ec 6cbc 4688 0c3b 9fb3 8aba
00000340: 0e17 523d 1b14 fa39 1ec2 27bb 3ef9 c53a
00000350: 0114 3bbd ee80 abb9 8920 b9b9 6416 d4bd
00000360: 26b7 1137 7801 d83d ef5d dc3b 1ae0 9e3d
00000370: ea99 dc36 cb0b 1dba 6d45 8036 0d39 bd3c
00000380: 6125 8cbb 4b7d 0f3e 63f4 3abd ce0b 43bd
00000390: b011 7f3d 05fe faba feb4 a53d 4ae3 2e3b
000003a0: 97ed b2bd eac7 8abd 6724 60b4 612a 193e
000003b0: eb80 cd3d 9773 bdbc 5b0b 1434 538a e73d
000003c0: f5d5 d0b8 36fb 5fbd 7e7a 65bd c016 d337
000003d0: 696c d9bb 84e4 313b 6473 283c ddcf 7c35
000003e0: 798f d3ba e69e 7c39 e92a 9738 7309 34ba
000003f0: 7bb9 b1b9 59f8 0dbe c930 82bd c3c8 8f3d
-0.14582147 -0.06343123 0.06689599 -0.0010146747 -0.07029283 -0.05261136 3.7672322e-05 -0.00018653015
-0.0061655254 0.00092109106 0.092901714 -6.3676525e-05 -0.010069584 0.007303014 -0.024879152 -0.0010200026
0.0669677 -0.013609793 0.00011944529 0.004653387 -0.0014678445 -0.013788946 0.09285408 -0.00037688974
-0.13744248 0.13346346 0.086892284 0.000542773 0.11903507 -5.3467547e-06 3.7423943e-06 -0.11547799
-0.093249634 0.0015168587 0.0023894953 0.00033320917 -0.063782305 0.0014480127 7.652999e-05 -0.0047458215
0.13012084 0.0007072558 -0.15215676 -0.012527392 4.5090192e-07 0.11261546 0.01575358 -2.7129747e-08
-0.05531712 0.00026967473 0.071930856 0.11430829 0.07017557 -0.00019642428 0.083936475 0.119925596
-0.0028094873 0.057046007 0.04212088 0.001780702 0.01820842 -0.13180622 0.028679747 0.13581906
-0.06946035 -0.03593403 -0.12885189 -0.04732608 0.055097267 -5.923634e-05 0.00907288 6.390325e-05
0.08297092 0.0009198655 0.0796172 -0.000446614 0.055154897 0.09989636 -0.0022662843 -0.02103588
-0.0005867714 0.00067328557 -0.0032340952 0.008174816 -0.00031823962 0.0003996943 -0.086681604 0.00023920106
8.073008e-06 -0.10190223 -0.07775216 -0.004826958 -0.0060327984 0.002624702 3.9494244e-06 0.081064135
0.06709383 0.0018009879 0.003525666 -0.00015229305 0.15316609 0.15129454 0.09127249 -0.12676999
-0.000915422 0.14044912 -0.0001303533 -0.06672067 8.1545095e-06 -0.09088615 0.00017008568 0.010267652
0.06593751 -0.027420979 0.00014099063 0.00013570719 3.3330996e-06 -0.00011148205 -0.1421298 0.111520715
-0.13242854 0.00027908944 -0.030250804 -0.08818825 -0.0003969568 0.00036793386 -0.06960319 0.128818
0.051406946 -0.021553528 0.16023181 0.023196554 -0.026238466 -0.03100488 0.06828291 -0.041215684
0.017340343 0.050376218 0.0012971268 -0.07990948 0.087330244 0.008601266 -0.0979903 -0.020157497
0.11319384 -0.050268628 -0.034618534 0.12155618 -0.03609704 -0.00068598666 0.07993769 0.073481016
-0.0263552 -0.0069955736 -0.06176909 -0.049547233 -0.046747368 -0.08602568 -0.013614977 0.064812586
0.14914009 -0.023099462 0.022425797 -0.032061156 0.10896989 -0.13776793 -0.017987646 0.010933768
-0.035129268 -0.025914045 0.14412853 -0.16117156 -0.044943713 0.073099576 -0.088059016 0.112985045
-0.066468835 -0.048712436 0.074745 -0.009859755 0.10124071 0.1306197 0.0070722788 0.14182357
-0.012568481 0.014430464 -0.116530165 -0.020920845 0.02496108 0.0037396215 -0.11471044 0.032798737
-0.018836055 -5.33832e-05 -0.0020047985 3.4125271e-06 6.441119e-05 0.09952754 0.05017777 -0.020161176
0.116482385 0.0009559941 0.0009564816 0.1517415 -0.00079033244 -0.0144605795 0.002144353 -0.0010582096
0.051291518 0.00047698696 -0.002559788 0.0015104187 -0.045673374 -0.00032711722 -0.0003531019 -0.10355833
8.685316e-06 0.10547155 0.006725065 0.07757588 6.574429e-06 -0.0005990832 3.8227795e-06 0.023098493
-0.004276917 0.14012639 -0.04564322 -0.04761868 0.062272727 -0.001914919 0.08091162 0.0026685768
-0.08736723 -0.06776412 -2.0874869e-07 0.14957573 0.10034355 -0.023126407 1.3787705e-07 0.1130568
-9.9580655e-05 -0.054682933 -0.05602502 2.5163754e-05 -0.006635238 0.0027144263 0.0102814175 9.4179796e-07
-0.0016140781 0.00024091787 7.208234e-05 -0.0006867863 -0.00033898265 -0.13864268 -0.06356961 0.07020714

lstm.weight_hh_l2 f4 [32, 8]
00000000: 04da a1bb 4704 863d a68f c838 7d7e c736
00000010: 28c7 2c3c 397b 85b5 6d84 423c 2a73 073e
00000020: 8d64 e239 1212 c4bc 0f7f ffbc 2df4 b038
00000030: 73ba 1ebe 2676 fbbc 5ef3 b63c 076d b13a
00000040: 6681 97bd bd9b a13d 4b77 a8bc 8ad5 0b3e
00000050: 39bd 11be cbb9 afb6 5ca8 203d db61 153a
00000060: 80e7 723d 84fd e5bd b748 4f3d f90f 21b5
00000070: f7a4 98bc df08 b031 7157 c6b7 0c89 82ba
00000080: f29c 1dbe 30bf d43c 2eaa eabd 176e 6139
00000090: dcce 203c 4157 c33d 1f7e c9b9 865e 9cbd
000000a0: f088 58bd 0054 e03d f984 e5bd c558 b0bd
000000b0: 4b83 933d e866 ea3c 35bd 9233 6d5d b13d
000000c0: 3fbe a9bd b5d7 e5bd 5fbc 173e 0c34 a03d
000000d0: 2ac3 103d 6ef4 953d c698 eb3d 6427 ef39
000000e0: 8558 703d 95ad 573c 3d4b a03a 19a8 d73d
000000f0: 9a03 bdbd 0090 d73a 455b 8ebd b764 20be
00000100: bb93 703b 63c2 83ba 9d39 8b3d 6978 2bbb
00000110: 23c5 f1bd f74b ae3d 0311 083e c614 943a
00000120: 3f0d 81bd 72f7 193d ec66 9b3c 3d6e 77bb
00000130: f373 013e f383 9a3d 0587 7bb9 3e95 8e3a
00000140: fa0d c6bd 6bff 17be eaa5 16ba aee1 c83a
00000150: 7213 71bd 1181 3337 a408 d5b8 8c89 103d
00000160: 9466 4b3c 86b1 a13b 1f8d 0d37 c6a9 a23d
00000170: 73db 10be 408e 1532 3477 e5bb 5564 1eb7
00000180: 7fae 02be ad88 203c 7f5f f6bd 7c76 1339
00000190: 9956 bebd ca1d 13bd 80b3 3c3d 594b a73b
000001a0: 3f68 46b4 0228 79bd 6009 35bd 2c54 fa3d
000001b0: 4322 8039 f134 0eb9 89d2 9bbd 0fd3 00be
000001c0: 947d 1eb7 e984 50bd a3bf a8bd 1976 18b4
000001d0: 2a61 e93b 3a6e ddbd b86d e83d 1115 a5bd
000001e0: 9fbf 19be e321 4fb9 bf37 01be 4268 c8bd
000001f0: 321f 343c 8727 04be a6f1 d2bc a3e9 e539
00000200: 65d3 413d 9d45 053e 391b 1a3c 5936 7eb9
00000210: d5e3 bdbd fc9d 00be 9cd0 093a c2ab 83bd
00000220: 43c9 4f3b d432 453d 997c 753c 7004 df39
00000230: d784 a0bd ab4c cfbc e748 b3ba ca6d 09bc
00000240: 95c9 e0ba 75a1 2d3e 2ff2 4bbc 5114 743d
00000250: f851 3d3e bead 8cbb c61d d63d 31e3 eabd
00000260: 31b9 b1bb 4847 e7bd 0ad1 2a3d 07f7 0e3e
00000270: b4da 963c e116 433d 09fc bdbc c0dc f43d
00000280: 7e9b aabd d023 1ebe 93a3 213e 40b9 093e
00000290: aaeb 9bbd 5809 8f3c a084 023c 8a40 60bc
000002a0: 6cbb 20b9 e1d1 d63c 19a3 16be 6e0a 1dbe
000002b0: 7a87 bd3d cd13 c1bd 53e0 7dbd d0d5 3e3d
000002c0: 84e1 b33b 3836 573d 5bed a538 c3bb 873b
000002d0: 21b8 b83d d0bd 87b9 4abd f0b7 512b 093d
000002e0: a92f 5c3d 3008 d1bc 33f5 11be 0485 dbbd
000002f0: 2d16 25be 6cbf 19be 6bc4 a9ba f50a 9ebd
00000300: fb4c a63d cb78 e4bb 2d1d bc3d 444c 99b6
00000310: 156c 39bc b632 103e ea66 793d ce05 96bd
00000320: e8a5 303d afe0 0f3e 0480 d53d 510e aa38
00000330: 7e31 c13b c875 ba37 bbef 5abc aabb cf3c
00000340: b7d2 b5bd 0789 2a3d 4c30 81bb 52e0 0f38
00000350: 021c 923c 00b0 4fbd 3d4f 92bd bf13 293b
00000360: 46a5 22b6 5dd7 043a a464 b23d 5756 16b5
00000370: 56f6 9237 78dc 64b3 a211 f1bc db01 adb7
00000380: 382a abbd 4bbb 883c 1e5f dfb9 a3ad e33c
00000390: d358 0e3c 3db1 e83c 5d9d aeb9 e290 6a3d
000003a0: 4515 36bb 20b5 f8bd 1918 e4bd b7e2 c7bd
000003b0: 497f e83d fcb7 8636 b313 ebbd 5d02 583d
000003c0: 59c8 1abe 3cc1 a23d 79e1 1a34 589e cebd
000003d0: 9126 56bd 915f 0b38 eba3 78bd 2a2a 72bc
000003e0: d03f 153e 1f61 bb3c 74e7 b2bd b8ad ebbd
000003f0: 0dde a5bd 43dd aa36 bcf5 27bd d089 dfba
-0.0049393196 0.065437846 9.5635e-05 5.9453873e-06 0.010545529 -9.945135e-07 0.011872393 0.13227525
0.00043180995 -0.023934398 -0.031188516 8.437815e-05 -0.15500812 -0.030695986 0.022332843 0.0013536521
-0.07397728 0.07891033 -0.020564696 0.13655677 -0.14232339 -5.2370356e-06 0.03922306 0.00056984805
0.059302807 -0.11229995 0.050606456 -6.0000417e-07 -0.018633349 5.1232827e-09 -2.3644157e-05 -0.0009959056
-0.15391901 0.025970072 -0.114582404 0.00021498684 0.009814944 0.09538127 -0.00038431675 -0.076352164
-0.05286497 0.10953522 -0.11207003 -0.086106814 0.072027765 0.028613523 6.833071e-08 0.08660398
-0.0828824 -0.112227835 0.14817952 0.07822427 0.035342373 0.07322012 0.115037486 0.0004561498
0.05867817 0.013163944 0.0012229454 0.10530109 -0.092292026 0.0016446114 -0.06951002 -0.1566342
0.0036709148 -0.0010052439 0.06798098 -0.00261643 -0.11805179 0.08510583 0.1328774 0.0011297695
-0.063013546 0.037589498 0.018969975 -0.0037754916 0.12641887 0.075446986 -0.00023987524 0.0010878218
-0.096706346 -0.14843528 -0.0005746769 0.0015326047 -0.058856435 1.0699282e-05 -0.00010158241 0.035287425
0.012414593 0.0049344925 8.437112e-06 0.07942538 -0.14146213 8.705285e-09 -0.0070027355 -9.440894e-06
-0.12761877 0.009798211 -0.12029933 0.00014063151 -0.09293861 -0.03591708 0.046069622 0.0051054177
-1.8478111e-07 -0.06082917 -0.044198394 0.12223086 0.0002443959 -0.00013561898 -0.07608516 -0.12580512
-9.446772e-06 -0.050908003 -0.08239677 -1.4199067e-07 0.0071221786 -0.1081204 0.11349052 -0.08060659
-0.15014504 -0.00019753682 -0.12618922 -0.097855106 0.010993766 -0.12905703 -0.025749993 0.00043852357
0.047320742 0.13014837 0.009405904 -0.00024243574 -0.09271971 -0.12560266 0.00052572205 -0.064292446
0.0031705655 0.048144177 0.01498332 0.0004253718 -0.07837837 -0.025305113 -0.0013678343 -0.008387992
-0.001714992 0.16956122 -0.012447878 0.059589688 0.184883 -0.0042931726 0.104548976 -0.114691146
-0.005423688 -0.11292893 0.04170326 0.13961421 0.018414833 0.04762924 -0.023191469 0.11956167
-0.08330439 -0.15443349 0.15785055 0.13449574 -0.07613309 0.01746051 0.007966191 -0.013687262
-0.00015328609 0.026223125 -0.14710654 -0.1533601 0.09254356 -0.09427605 -0.06198151 0.046590626
0.00548953 0.05254194 7.912024e-05 0.004142256 0.09019495 -0.00025890628 -2.8698374e-05 0.033488575
0.05375639 -0.0255166 -0.14253692 -0.1071873 -0.1612174 -0.15014428 -0.0012952214 -0.07716934
0.081201516 -0.0069724075 0.09185252 -4.568634e-06 -0.011317273 0.14081845 0.060889162 -0.07325326
0.04312697 0.14050554 0.10424808 8.108898e-05 0.0058957925 2.2227774e-05 -0.01336282 0.02535804
-0.08878081 0.041634586 -0.003942525 3.430277e-05 0.01783562 -0.050704956 -0.0714402 0.0025799123
-2.4236083e-06 0.0005067492 0.08710602 -5.6004995e-07 1.7519265e-05 -5.3285902e-08 -0.029427353 -2.0624071e-05
-0.08357662 0.01669087 -0.00042604742 0.027792757 0.0086881695 0.028404826 -0.0003330511 0.057267077
-0.0027783674 -0.12143922 -0.11137409 -0.09760039 0.11352403 4.01493e-06 -0.11478367 0.05273663
-0.15115489 0.07947013 1.4424394e-07 -0.100887954 -0.052282874 3.3229186e-05 -0.0607032 -0.0147805605
0.14575124 0.02287346 -0.087355524 -0.115077436 -0.080989935 5.092153e-06 -0.041005835 -0.0017054621

lstm.bias_ih_l2 f4 [32]
00000000: 6eb5 efbb 1177 953b e0a2 173e 4a11 feb6
00000010: c629 50be b6fc 1d3e 28f8 1e3e 9978 e4bd
00000020: e3df 2db9 1f21 313b 038e ebbd 9e0b b7bd
00000030: 6e1e 9abd a06a 8b37 0ba0 a6bc 29bf a1bd
00000040: 66bd c13d 1fa9 503e 2c55 64be 4052 a7bd
00000050: 053f 20be 890c 0bbe 59dc 74bd 6036 8fbd
00000060: 4025 a03d bd8c 4a3e 0546 33be 96ce beb8
00000070: 9016 593e 3444 c83b 2199 3eba 151a 9a3d
-0.0073153293 0.004561313 0.14808226 -7.5718026e-06 -0.20328435 0.15428433 0.15524352 -0.11155815
-0.0001658197 0.0027027798 -0.11501696 -0.08937763 -0.07525335 1.6619742e-05 -0.020339986 -0.07897789
0.09459953 0.20377015 -0.22298115 -0.08169985 -0.1564904 -0.13579 -0.059780452 -0.06992793
0.07819605 0.1978025 -0.17507179 -9.0983856e-05 0.21200013 0.006111646 -0.0007270743 0.07524506

lstm.bias_hh_l2 f4 [32]
00000000: 8932 093d 4ffd 093e ab4e 873d 552d abb8
00000010: 694e 1ebd 39f0 8ebd f512 8ebd ea8e 25bc
00000020: a38c 0a3d f1b5 33be 6682 0c3d f3b3 553d
00000030: 19ae 353e 66f1 083e f420 09be bf13 923c
00000040: 0aed 9fbd 7014 2a3e 3943 973d 2d50 ef3d
00000050: ba86 28be 5277 fc3d 8cc6 e83c 3734 753e
00000060: 87b2 9a3d a02b c43d 0ab6 6cbb 8cd6 1fbc
00000070: 420a 123e 877e c73c 7d22 14be 3888 8d3d
0.03349546 0.13475536 0.066068016 -8.162359e-05 -0.038648997 -0.069794126 -0.069372095 -0.010104874
0.033825528 -0.17549874 0.034304045 0.052173566 0.17742194 0.13373336 -0.13391477 0.017831681
-0.078088835 0.16609359 0.073858686 0.11685214 -0.16457644 0.12327446 0.028414987 0.239457
0.07553583 0.09578633 -0.0036119246 -0.009755742 0.14261726 0.024352325 -0.14466281 0.06910747

lstm.weight_ih_l3 f4 [32, 8]
00000000: 2763 3bb9 9662 983d f010 b4bd 0fb9 9337
00000010: a856 133c c544 903b 60a6 f0b8 01a4 bd3a
00000020: 6157 1dbe 5be8 d8ba deee 073b cbac 96b8
00000030: eebb 9c3c 9ab2 6e39 4eea 133e 8ff6 ecbd
00000040: 23fb 4439 928b 19be 77d5 29bd 5a19 09bc
00000050: f65d c2bd d83e e837 0171 893a fc01 133a
00000060: 464a 8f3d 44c5 bfbc 5fbf 8ebb 1f4e ae3d
00000070: 5f72 6ab9 3a0c 113e 61c8 1ebd 1c68 a4ba
00000080: 01a2 c039 056c 883d 5a04 063e fa1a 073e
00000090: 2a9c c2bd 073f b43d c99f 90b9 3a77 8a3b
000000a0: 3f69 10bd 8bfe d93a 1f81 0a3e 4b6c c4bd
000000b0: 2068 153e 77b9 fabd 546f ff3d 92f7 a239
000000c0: 3a67 373c 97d4 94bc ede6 b43d 1d60 f9bd
000000d0: 76b4 a53d eebc c4bd e9f6 f33d fa45 8cbd
000000e0: e91c 333b d117 073c 939f 27bc 3916 c33d
000000f0: 6eb3 3b3d 800a 2d38 3e13 a4b9 a85e 133e
00000100: c3d3 df3d 735f 383b 7095 c7bb bed7 1438
00000110: a4ff 853d 932e 0fbe 69fc 18b9 45ec 51bd
00000120: 66cc 87bc d049 02bd c5fb 76bb d2ed 8bb9
00000130: 7eeb 8e3d 5899 d93d f941 9cbd 022c e1ba
00000140: 373d debd 2215 abbd 5ec0 933d 68f9 1fbb
00000150: 7518 b13d c435 183d a7ef 02b9 9a48 b53c
00000160: 239d 9bbd 6057 5c3d d416 5cbc 2448 d6bb
00000170: 4475 1eb9 a09f d8bd a254 f0b6 f667 2538
00000180: 3224 95ba ccc1 493c 8198 09be 060d 8d3d
00000190: 62af 4c3d e399 0fbe d1d1 1eb9 9823 723a
000001a0: 482e 5a3d 2aed 2b3a c0ca 0ebc 8485 13be
000001b0: 2d13 a5ba 44b8 993d 350c acbb 04af 173e
000001c0: 63e1 49b7 f411 f2bd 4034 51bd df25 cab5
000001d0: e837 7db9 aafc aabd 7bab 673a 4e80 4c3d
000001e0: 0e2b 493c cb6a e73a 7b83 acba e986 92bd
000001f0: ca05 193e 7c2c 49bc 5da9 b9bd d8b8 023a
00000200: 97cc fcbb 872c 893c 5afb d43d 515a 1bbe
00000210: 378e d63d 2342 a1bd 1437 903a 8aee c73c
00000220: 3e28 833c 1796 b03d dadf 103e b3b3 7abc
00000230: 7f58 d83d 12ee abbd c848 5abc 322a 41be
00000240: 078d 363e 2fbf 043e cb42 823d a0bc 203e
00000250: d065 0e3e 012b 1dbe c4f6 23bd cd09 cdbd
00000260: f904 2c3e 0e41 5e3e f9b8 c6bc c5ac a8b7
00000270: debb d63d d418 0abe ff12 15be f44b 5c3b
00000280: 5fde abbd 4183 7e3e e74f b2bd 940c 0abd
00000290: 73f6 64be 0c90 15be 656a 293d abf0 143d
000002a0: 533f 2fbe 9739 9a3e 0e7f 5bbc 0cb2 8bbb
000002b0: 37d6 63be 3a7a aa3c c1f4 f6bc cc2c a3bd
000002c0: ea45 fb3c 6ae9 103e 43be 823b db2b d237
000002d0: a786 75bd e0f8 03be a57a 96bb f775 893d
000002e0: 6d44 dbbb cb98 943d a9f5 6dbe 3b37 aabb
000002f0: cd6d 0fbe 6457 fbbb 21bf 3d3d ffb7 4e3e
00000300: 29cc b3bb 8310 b8bd bccc 08be f84f 8bbd
00000310: 7d42 a03c 00a3 1938 6458 44bd 6c56 cb3d
00000320: 0188 8eba 744d 67bc e5d9 fb3a 7bb8 af3d
00000330: 24ac d73d 5020 59bd ce5a 2ebc 4f9e d33d
00000340: 1749 2938 4079 1bbb 949c 8c3a 8178 b43d
00000350: 2b53 653d 1d88 e6ba 92bc 3a3d d11b 983a
00000360: a2dc 06be 381e 553d 1fec e9b8 7218 0c3e
00000370: fee5 70bd 65df cabd 0b1a 673c 1821 0bbe
00000380: ddb9 a939 f3f1 19be 63c1 10bc c694 953d
00000390: e8d1 9abd 7e10 833d 70d0 97bd b62b 2c3d
000003a0: 2d8d a23d a8b6 f03d 3f7c 33ba 26e4 0fbc
000003b0: 79b8 00be ea50 3237 d2ec 5fbd 017e 1abc
000003c0: 0d90 023d 7c8a 09be 8b1c 3039 edf8 45bd
000003d0: d61c 02ba 07d7 15b6 e281 1fbe aec3 3d3d
000003e0: 2f2a ec39 0966 2aba 7139 d0ba cb83 3dbd
000003f0: b564 13bd 9ed3 c4bd bc7f 56bd 6f80 813a
-0.00017870647 0.07440679 -0.08792293 1.760994e-05 0.008992828 0.004402729 -0.000114750816 0.0014468433
-0.15365364 -0.001654874 0.0020741741 -7.1847426e-05 0.01913258 0.00022763983 0.14444849 -0.11570465
0.00018785572 -0.14994648 -0.04146334 -0.008367861 -0.09490578 2.7685819e-05 0.0010485948 0.00056079007
0.069965884 -0.023409493 -0.0043563093 0.08510994 -0.00022358586 0.1416482 -0.038765315 -0.0012543234
0.00036741796 0.06661228 0.13087597 0.13193884 -0.09502442 0.08801084 -0.0002758487 0.0042256387
-0.03525662 0.0016631646 0.13525818 -0.09590968 0.14590502 -0.12242406 0.12472406 0.00031083502
0.011194045 -0.018167777 0.08833108 -0.12176535 0.08091061 -0.09606348 0.11912329 -0.068492845
0.0027330464 0.008245424 -0.010230917 0.09525723 0.045825414 4.1256193e-05 -0.00031294854 0.14391577
0.10929062 0.0028133064 -0.0060908124 3.5486875e-05 0.065429 -0.1398261 -0.0001458988 -0.051250715
-0.016576957 -0.031808674 -0.0037686687 -0.00026689336 0.0697851 0.10624951 -0.07629771 -0.0017179253
-0.108515196 -0.0835364 0.072144255 -0.0024410132 0.08647243 0.03716065 -0.00012487044 0.022129346
-0.07598331 0.053794265 -0.013433177 -0.0065393616 -0.00015111739 -0.10577321 -7.16241e-06 3.9435887e-05
-0.0011378585 0.012314271 -0.13437082 0.0688725 0.049971946 -0.14023547 -0.00015146217 0.0009236871
0.053266793 0.00065584725 -0.008715332 -0.14406401 -0.0012594216 0.07505849 -0.0052504786 0.14812857
-1.20330105e-05 -0.118198305 -0.05107522 -1.5061195e-06 -0.00024148787 -0.08348973 0.0008837503 0.04992705
0.012278331 0.0017655728 -0.0013161743 -0.07154638 0.14943615 -0.012278672 -0.090655066 0.00049866503
-0.0077148187 0.016744865 0.10399504 -0.15171172 0.10476344 -0.07873943 0.0011002743 0.024405736
0.0160104 0.08622377 0.14147893 -0.015301633 0.10563754 -0.08395018 -0.013323016 -0.18863752
0.17827235 0.12963556 0.06360396 0.15696955 0.13906026 -0.15348436 -0.040030256 -0.10011635
0.16798772 0.21704504 -0.024258124 -2.0107613e-05 0.104850516 -0.13486034 -0.14558028 0.0033614608
-0.08392023 0.24854757 -0.087066464 -0.0337034 -0.22359638 -0.14605731 0.04136123 0.03636233
-0.17114 0.30122063 -0.013396991 -0.004263168 -0.22249685 0.020810235 -0.030146005 -0.07967529
0.030672986 0.1415154 0.003989966 2.5054373e-05 -0.059942868 -0.12887907 -0.004592257 0.06711953
-0.0066915066 0.072557054 -0.23238243 -0.0051945723 -0.1400673 -0.00767033 0.046324853 0.20187376
-0.0054869843 -0.08987524 -0.1335935 -0.06802362 0.019562954 3.662985e-05 -0.04793586 0.09928593
-0.0010874273 -0.014117587 0.0019214718 0.08580109 0.1053088 -0.05300933 -0.010641767 0.10332929
4.036081e-05 -0.0023723394 0.0010727816 0.08812047 0.05598752 -0.0017588172 0.04558999 0.001160497
-0.13170102 0.052030772 -0.00011154287 0.136812 -0.058813088 -0.099058904 0.01410533 -0.13586843
0.0003237267 -0.15033703 -0.0088351695 0.07303767 -0.07559568 0.0639963 -0.07412803 0.042033873
0.079370834 0.11753589 -0.0006846822 -0.008782422 -0.1257037 1.0628466e-05 -0.05466921 -0.009429456
0.03187566 -0.13431734 0.00016795301 -0.048333097 -0.00049634033 -2.2327893e-06 -0.1557689 0.046329193
0.00045044857 -0.000650019 -0.001588626 -0.046268266 -0.035984714 -0.09610675 -0.05236791 0.0009880195
