save/best_model_29_32_4_0.1.pt (torch, 169515 bytes, 27 tensors)

lstm.weight_ih_l0 f4 [128, 29]
0.1687591 0.05506123 0.037033416 -0.030796904 0.021323148 -0.080516785 -0.0066346563 0.026769415
0.12998109 0.12720245 0.19649857 0.16015637 0.1801348 0.110752665 -0.043060396 -0.07993965
-0.05326733 0.0143049415 0.02789916 -0.10366321 0.21304384 -0.025328962 -0.05166203 -0.10455099
-0.118776426 -0.097782776 -0.07624579 -0.027335146 0.031949483 0.16260883 0.0017273293 0.13384195
-0.11385329 0.110177614 -0.11023286 -0.07961244 0.09504367 0.024074275 0.014526729 -0.006905918
-0.068609565 0.045293324 -0.046881594 0.08220207 0.07938864 -0.12578887 0.032344352 0.0634142
-0.120542146 0.18104863 0.17348641 0.053606585 0.11382746 0.1191931 -0.051814854 0.0033201412
-0.08559402 0.019714173 0.0054747416 -0.034083262 -0.067311846 -0.05625979 0.048886243 -0.11740885
0.07092293 -0.067719124 -0.009983717 -0.15561968 0.09500436 -0.18213265 -0.03683154 0.0806886
0.10910036 -0.13631429 -0.12350058 -0.17272703 -0.052772645 -0.018918797 -0.17811462 -0.011472198
-0.14111128 0.0072653424 -0.11184573 -0.028069425 0.042206474 0.21635213 0.029042844 -0.12701266
0.15492 -0.070705734 0.047184665 0.17115606 0.021304352 0.01156619 0.07024234 0.027501555
0.08591899 -0.0042403094 -0.13482556 0.15284345 -0.057048067 0.07285837 -0.0017036215 0.033253446
0.13942234 -0.03202767 -0.09117995 0.18214078 -0.07158097 0.1896642 -0.05774257 -0.020886743
-0.03215532 0.0670461 0.02133103 0.052774627 -0.2769714 -0.17876033 -0.058019828 -0.033804886
-0.2582822 -0.27298042 -0.2518136 0.12414091 -0.16796671 0.08554533 -0.18196751 -0.0927374
-0.02670917 0.043613505 -0.06811689 -0.10051326 -0.032405145 -0.09484222 0.08384059 0.06927434
-0.2687354 -0.2718932 -0.1848649 -0.18218252 0.04148992 0.08276474 -0.05711313 -0.04575784
0.1495644 0.14873478 0.20234622 -0.012913835 0.12225706 0.02964416 -0.016708003 -0.08361475
-0.020834835 -0.014105062 0.11728836 0.16335312 0.18611594 0.099902295 0.038692396 -0.050278913
0.16673301 0.16783641 -0.08424713 -0.16178602 -0.08750899 0.009128287 0.022280406 0.07993328
-0.16675614 -0.010711098 0.04678393 0.025181148 -0.0035391895 -0.06907633 0.10938942 -0.003212395
0.02692516 0.09295724 0.0026636596 0.045723915 0.14932157 0.09692806 -0.15064606 0.085510075
-0.08850394 -0.024475748 0.23219073 0.026560543 0.08717111 0.23491867 -0.09771314 -0.06100451
-0.07401934 -0.10423689 -0.00041514434 0.13192372 -0.037712928 -0.020245451 -0.045631632 -0.013881735
0.040899616 -0.16849989 -0.09403095 -0.0501244 -0.016026322 -0.17110974 -0.13156052 0.06951835
-0.10271518 -0.20736212 -0.004620384 0.0036622724 -0.005436073 -0.050637376 -0.21323615 -0.1480209
-0.012777183 -0.08093426 -0.034797993 0.055172753 -0.14058833 0.12450098 0.00033133983 -0.19566092
-0.039859876 -0.18869084 -0.20877105 0.13915771 -0.033494487 0.114304386 0.029213915 0.04803228
0.13560066 -0.099549875 0.22751075 0.113044806 0.18181448 0.20711973 0.20916586 0.14690556
0.124377616 0.022614475 0.12280974 0.028261961 0.14515135 -0.07775884 0.06745854 0.17863886
0.18202913 -0.11956201 0.15726295 -0.16632125 0.11674228 0.14397328 -0.05830402 -0.01726403
00000000: 2fcf 2c3e e287 613d 5ab0 173d ca49 fcbc
00000010: e2ad ae3c fce5 a4bd 8867 d9bb 884b db3c
00000020: c319 053e 5c41 023e ec36 493e 0800 243e
00000030: 4275 383e 4bd2 e23d 1960 30bd 66b7 a3bd
00000040: d82e 5abd 465f 6a3c c78c e43c 614d d4bd
00000050: 2a28 5a3e af7e cfbc 919b 53bd d41e d6bd
00000060: 0e41 f3bd 5642 c8bd c126 9cbd f5ed dfbc
00000070: 76dd 023d ee82 263e 8e67 e23a dd0d 093e
00000080: ea2b e9bd cda4 e13d c4c1 e1bd d90b a3bd
00000090: 41a6 c23d 6a37 c53c 8401 6e3c 0a4b e2bb
000000a0: 2c83 8cbd 7e85 393d ea06 40bd 8f59 a83d
000000b0: 8396 a23d ccce 00be 837b 043d 4edf 813d
000000c0: cdde f6bd d064 393e 6ca6 313e 9492 5b3d
000000d0: 5f1e e93d 831b f43d d03b 54bd ba96 593b
000000e0: eb4b afbd 9e7f a13c 7665 b33b e49a 0bbd
000000f0: cbda 89bd aa70 66bd f13c 483d 0d74 f0bd
00000100: 0b40 913d 53b0 8abd bf92 23bc c45a 1fbe
00000110: a591 c23d fb80 3abe abdc 16bd 1140 a53d
00000120: 0270 df3d f995 0bbe dfed fcbd 5bdf 30be
00000130: 2128 58bd 98fb 9abc ae63 36be e3f5 3bbc
00000140: 7a7f 10be 1c12 ee3b 600f e5bd daf1 e5bc
00000150: b2e0 2c3d 6a8b 5d3e 42eb ed3c 9b0f 02be
00000160: 59a3 1e3e 2bce 90bd b544 413d 8943 2f3e
00000170: 7786 ae3c 1e80 3d3c 37db 8f3d f14a e13c
00000180: 4cf6 af3d 4bf2 8abb b60f 0abe fe82 1c3e
00000190: 3cab 69bd c536 953d 0d4c dfba c434 083d
000001a0: bbc4 0e3e 722f 03bd 8ebc babd 1d83 3a3e
000001b0: 0b99 92bd 5537 423e 7983 6cbd ad1a abbc
000001c0: 4cb5 03bd 774f 893d 6abe ae3c 352a 583d
000001d0: 32cf 8dbe f30c 37be 33a6 6dbd fe76 0abd
000001e0: 913d 84be 17c4 8bbe b6ed 80be 973d fe3d
000001f0: 77ff 2bbe 6432 af3d b155 3abe 1bed bdbd
00000200: 30cd dabc 13a4 323d de80 8bbd e5d9 cdbd
00000210: 42bb 04bd a33c c2bd 9eb4 ab3d b5df 8d3d
00000220: b097 89be 9635 8bbe 394d 3dbe 0e8e 3abe
00000230: 56f1 293d 8f80 a93d 75ef 69bd 936c 3bbd
00000240: 6927 193e ee4d 183e d933 4f3e 8d94 53bc
00000250: e961 fa3d 4fd8 f23c 39df 88bc 363e abbd
00000260: d1ad aabc eb18 67bc e134 f03d 0a46 273e
00000270: 2d95 3e3e 9399 cc3d eb7b 1e3d 43f1 4dbd
00000280: 0fbc 2a3e 4fdd 2b3e c289 acbd 3cab 25be
00000290: ea37 b3bd d08e 153c 6685 b63c 0fb4 a33d
000002a0: 1fc2 2abe 9a7d 2fbc 82a0 3f3d b248 ce3c
000002b0: bff1 67bb e477 8dbd 8f07 e03d 0b87 52bb
000002c0: 2792 dc3c 5e60 be3d cb90 2e3b 0049 3b3d
000002d0: c1e7 183e 3882 c63d f642 1abe e81f af3d
000002e0: 8e41 b5bd 5d81 c8bc 68c3 6d3e 7f95 d93c
000002f0: c486 b23d 858e 703e d41d c8bd dddf 79bd
00000300: 7497 97bd 277a d5bd bba7 d9b9 0317 073e
00000310: df78 1abd cad9 a5bc 3ce8 3abd 3770 63bc
00000320: 5b86 273d 3c8b 2cbe 4c93 c0bd 3e4f 4dbd
00000330: a249 83bc 6437 2fbe cdb7 06be a35f 8e3d
00000340: 565c d2bd bc56 54be 9766 97bb bc02 703b
00000350: 1621 b2bb 2369 4fbd 945a 5abe ca92 17be
00000360: 6457 51bc dcc0 a5bd 5788 0ebd d3fc 613d
00000370: 63f6 0fbe 5ffa fe3d aeb7 ad39 565b 48be
00000380: 1c44 23bd 2c38 41be 14c8 55be 5c7f 0e3e
00000390: 8431 09bd 6b18 ea3d 0552 ef3c 7fbd 443d
000003a0: e6da 0a3e cee0 cbbd 94f8 683e 0984 e73d
000003b0: 932d 3a3e 3217 543e 932f 563e 696e 163e
000003c0: b1b9 fe3d fe41 b93c ac83 fb3d a185 e73c
000003d0: 8ea2 143e 0740 9fbd b427 8a3d 1bed 363e
000003e0: d865 3a3e eddc f4bd 8a09 213e 1e50 2abe
000003f0: 9416 ef3d bb6d 133e 32d0 6ebd 4c6d 8dbc

lstm.weight_hh_l0 f4 [128, 32]
0.15897658 0.1770559 0.08139792 0.13238564 -0.15774451 0.07337555 -0.11040279 0.1532233
-0.04460314 0.057379253 0.2298815 -0.04110863 -0.15033357 -0.15714048 -0.09792346 0.11631153
-0.03286223 0.051152077 0.05323015 0.13290368 -0.12787525 0.20258221 0.14201921 0.23204905
0.013909488 0.018847944 0.17173296 0.15064877 0.09992776 -0.13388412 0.16251856 0.10709063
0.019576063 0.058631018 0.20021766 -0.06231597 -0.07388293 0.18460879 0.25460914 0.3842737
-0.36122733 -0.03387861 0.3341492 0.09085946 0.20434736 -0.062778436 -0.021085368 -0.22311217
-0.1306566 0.287891 -0.065283075 0.13952893 -0.12436047 0.39729026 0.11320625 0.27517006
-0.18381907 -0.21985519 0.014248495 0.020002784 0.23520789 -0.056404375 0.22896692 0.22818305
0.13512796 -0.21107423 -0.07882609 -0.24688742 0.1706885 0.07554553 0.1758758 -0.094839
-0.12842442 0.10419705 0.20730323 0.087025456 -0.16369972 0.111135595 -0.022977727 0.04599373
0.035914358 0.10323157 -0.16214259 0.06652347 -0.22061183 0.32117754 -0.085026585 0.023337945
-0.092249475 0.01494114 0.124674246 -0.024898924 0.0050012153 -0.15887336 -0.14459835 0.059602194
0.17251058 -0.031366713 0.14817207 -0.100068375 0.12392704 0.037388664 -0.084816284 0.12334269
-0.32344535 -0.12789826 0.22278906 0.14235123 -0.06476895 0.10192909 0.15524666 -0.033567876
0.12116188 0.17001371 -0.06709319 0.040954974 -0.25090498 0.13730434 0.19427869 0.20522566
0.016500229 0.0555582 0.021876521 0.12776405 -0.11645345 0.13912453 0.06613506 -0.12702732
0.0038880093 0.08237185 0.05569758 0.088602036 0.18128555 -0.13994618 -0.0856655 0.036233407
-0.07496922 0.060374912 -0.121769145 0.0013271238 0.09953112 0.013631569 -0.09431691 -0.016955396
0.008764245 -0.13737026 -0.11374803 0.030031836 -0.13165301 -0.2645893 0.007961061 -0.1317733
0.14152955 0.13159852 0.11029244 -0.25575718 -0.19844626 -0.19049914 -0.031959623 0.1474518
0.13816597 -0.0076094586 0.11437066 -0.014407963 -0.021073814 0.077242844 0.062293973 -0.066757075
0.12652034 0.02663825 -0.07797447 -0.10564737 -0.18508665 -0.07959315 -0.1314102 -0.13964623
0.0032316188 -0.16392195 -0.07939921 0.077914916 0.20885275 0.04706532 -0.09093455 -0.22647937
-0.05156122 0.07662437 -0.03887065 -0.044669632 -0.18143709 -0.16912636 0.06339338 -0.17388229
-0.05265359 -0.054242704 -0.020435814 -0.12376315 -0.07175404 0.11881402 -0.051963806 0.2487014
-0.18033805 0.04135752 -0.015612643 0.12890646 0.25271723 -0.055087674 0.052341256 -0.2464672
-0.15046072 0.123172574 0.10053174 -0.09990233 -0.17813458 0.15420881 0.07040227 0.0031267896
-0.014475571 0.0071429857 0.21097761 -0.1075599 0.087276384 0.07598693 -0.096240856 0.11298942
0.07345605 0.24028972 -0.0703466 -0.18203877 0.007339007 0.14932628 -0.15675953 0.1600522
0.03035946 0.10303437 0.08568836 0.06868235 0.012305567 0.030642489 -0.0013125677 -0.07235782
-0.07604934 -0.12756936 0.13688152 -0.1411893 -0.031532187 -0.007978571 0.20766257 0.101635456
0.06409258 0.015437829 0.04791252 -0.17700993 0.11386163 0.09824235 0.16688776 -0.10878891
00000000: c2ca 223e 244e 353e f4b3 a63d 1a90 073e
00000010: c787 21be ec45 963d dc1a e2bd 92e6 1c3e
00000020: c8b1 36bd 8206 6b3d 0e66 6b3e 8661 28bd
00000030: 0bf1 19be 6fe9 20be 188c c8bd bd34 ee3d
00000040: 8c9a 06bd d784 513d dc07 5a3d e717 083e
00000050: bbf1 02be b671 4f3e 7c6d 113e 449e 6d3e
00000060: 9fe4 633c 0167 9a3c c4da 2f3e ac43 1a3e
00000070: eda6 cc3d eb18 09be 446b 263e 5552 db3d
00000080: fb5d a03c 1427 703d dc05 4d3e 083f 7fbd
00000090: ef4f 97bd 160a 3d3e 215c 823e 86bf c43e
000000a0: caf2 b8be 4cc4 0abd 9b15 ab3e 8614 ba3d
000000b0: 6f40 513e fb91 80bd 39bb acbc 8477 64be
000000c0: d8ca 05be 7366 933e 22b3 85bd ace0 0e3e
000000d0: b4b0 febd a169 cb3e aed8 e73d 17e3 8c3e
000000e0: 113b 3cbe b821 61be 8572 693c e1dc a33c
000000f0: 56da 703e 4608 67bd 4e76 6a3e d1a8 693e
00000100: fc5e 0a3e d823 58be 936f a1bd 0ed0 7cbe
00000110: f7c8 2e3e 9db7 9a3d c918 343e f33a c2bd
00000120: b181 03be 4365 d53d 4c47 543e 673a b23d
00000130: e6a0 27be 0f9b e33d c93b bcbc ec63 3c3d
00000140: ef1a 133d 136b d33d b508 26be 753d 883d
00000150: 11e8 61be 6271 a43e 6b22 aebd 382f bf3c
00000160: 4bed bcbd afcb 743c 3655 ff3d d4f8 cbbc
00000170: 3ce1 a33b b3af 22be 9711 14be 6e21 743d
00000180: 9da6 303e 627a 00bd 6bba 173e a6f0 ccbd
00000190: 76cd fd3d db24 193d 29b4 adbd 189b fc3d
000001a0: a19a a5be c3f7 02be d122 643e 85c4 113e
000001b0: 95a5 84bd 33c0 d03d fbf8 1e3e 787e 09bd
000001c0: b823 f83d 1318 2e3e 2868 89bd 67c0 273d
000001d0: 9e76 80be 8299 0c3e fef0 463e ad26 523e
000001e0: 7d2b 873c ff90 633d 6436 b33c 94d4 023e
000001f0: 257f eebd a976 0e3e d171 873d 7313 02be
00000200: f9cd 7e3b 93b2 a83d 2523 643d fc74 b53d
00000210: eba2 393e 0d4e 0fbe 6571 afbd 7b69 143d
00000220: 7689 99bd af4b 773d 1a62 f9bd e3f2 ad3a
00000230: f9d6 cb3d f256 5f3c 3929 c1bd 0be6 8abc
00000240: e897 0f3c caaa 0cbe baf4 e8bd 5305 f63c
00000250: 0cd0 06be 4078 87be 1c6f 023c 94ef 06be
00000260: 1fed 103e c3c1 063e 01e1 e13d 9bf2 82be
00000270: 7f35 4bbe 3512 43be 18e8 02bd 9bfd 163e
00000280: 617b 0d3e c458 f9bb 2a3b ea3d 600f 6cbc
00000290: fea2 acbc 7f31 9e3d f727 7f3d efb7 88bd
000002a0: 8c8e 013e 7638 da3c 14b1 9fbd a65d d8bd
000002b0: 5b87 3dbe bc01 a3bd 6590 06be 6cff 0ebe
000002c0: 91c9 533b 28db 27be 0e9c a2bd db91 9f3d
000002d0: 7fdd 553e 91c7 403d e53b babd 35ea 67be
000002e0: dc31 53bd 3ded 9c3d d536 1fbd 81f7 36bd
000002f0: a5ca 39be 762f 2dbe 63d4 813d 330e 32be
00000300: 4aab 57bd 992d 5ebd 0269 a7bc 8977 fdbd
00000310: c8f3 92bd c454 f33d 00d8 54bd 94ab 7e3e
00000320: 8aaa 38be 8166 293d 2ccc 7fbc 0e00 043e
00000330: 2764 813e 9da3 61bd c963 563d e661 7cbe
00000340: 6012 1abe e741 fc3d 96e3 cd3d 9899 ccbd
00000350: e968 36be eae8 1d3e 112f 903d d3ea 4c3b
00000360: f22a 6dbc b50f ea3b 840a 583e 5d48 dcbd
00000370: f6bd b23d 099f 9b3d ed19 c5bd ff66 e73d
00000380: 2070 963d 820e 763e e111 90bd 5f68 3abe
00000390: 0e7c f03b fde8 183e 9285 20be b9e4 233e
000003a0: 67b4 f83c af03 d33d 617d af3d 55a9 8c3d
000003b0: 4a9d 493c f505 fb3c 770a acba 5630 94bd
000003c0: c2bf 9bbd 8ba1 02be ab2a 0c3e ee93 10be
000003d0: e527 01bd 8db8 02bc 7fa5 543e 4026 d03d
000003e0: f842 833d f3ee 7c3c eb3f 443d 1742 35be
000003f0: 4930 e93d 4933 c93d a0e4 2a3e b8cc debd

lstm.bias_ih_l0 f4 [128]
-0.052794416 0.22084208 0.0051944056 0.056959096 0.1396337 0.044005796 -0.03510986 0.34875593
-0.32748482 -0.17634694 -0.37710303 -0.043438144 0.19123079 -0.18676284 -0.19931883 -0.07299905
-0.0062372345 -0.17389017 -0.104836 -0.1503085 -0.3298083 -0.24542427 -0.10523493 0.009487469
0.03662329 -0.1436072 -0.006898212 -0.080708146 -0.23083371 -0.18100612 -0.17535758 0.052781522
-0.36417004 0.24171369 -0.25321496 -0.35736302 -0.22756205 -0.014557059 -0.25601393 0.17197737
-0.18958929 -0.18790828 -0.1391543 -0.15304793 -0.08305918 -0.24441598 -0.16429666 -0.19556443
-0.122926936 0.044525295 -0.21427749 -0.1457406 -0.2697526 -0.11764563 -0.37642097 -0.10935067
0.08626834 -0.09008911 -0.09509823 -0.32308716 -0.28741002 -0.11830063 -0.019832198 -0.2765381
0.09428834 0.262148 -0.28198218 -0.14356828 -0.12024216 0.16585666 0.06188329 0.19497189
-0.05107011 -0.29169393 -0.044638168 -0.120554045 -0.09455434 -0.0024651762 -0.26448342 0.4113459
-0.16323404 0.21904267 0.3760266 0.20352057 0.14997225 0.16013105 -0.21605451 0.21659091
-0.25382245 0.16452383 -0.102416866 -0.31105375 -0.15637991 -0.030103324 -0.004131066 0.25751564
0.06124116 0.020744698 -0.015728796 0.20663671 0.19196634 -0.26577505 0.18604112 -0.08695504
-0.42398748 -0.095131345 -0.2584154 -0.029710934 -0.094156764 -0.382768 -0.13488463 -0.26229265
-0.031647246 -0.40191734 -0.1817399 -0.06890967 -0.23889141 -0.22648376 -0.0017018751 0.03332099
-0.16339572 -0.38922495 -0.29200473 0.063375354 -0.35404906 -0.17561932 -0.27542907 0.14435606
00000000: f53e 58bd 6d24 623e d535 aa3b f14d 693d
00000010: 23fc 0e3e 6c3f 343d 5bcf 0fbd 2390 b23e
00000020: 17ac a7be 4b94 34be a613 c1be 32ec 31bd
00000030: 01d2 433e c23e 3fbe 3c1a 4cbe 8780 95bd
00000040: b761 ccbb 4410 32be 42b4 d6bd 79ea 19be
00000050: a2dc a8be 8050 7bbe 6985 d7bd 5471 1b3c
00000060: 4e02 163d c40d 13be 650a e2bb 504a a5bd
00000070: ac5f 6cbe ab59 39be f090 33be 7031 583d
00000080: 7f74 babe cb83 773e 64a5 81be 49f8 b6be
00000090: 0706 69be bb80 6ebc 4214 83be d61a 303e
000000a0: b223 42be 076b 40be 777e 0ebe 99b8 1cbe
000000b0: ee1a aabd 2f48 7abe 623d 28be 0b42 48be
000000c0: 1ec1 fbbd 2860 363d 8f6b 5bbe 063d 15be
000000d0: 031d 8abe 31f0 f0bd 40ba c0be 3ef3 dfbd
000000e0: 75ad b03d a480 b8bd dcc2 c2bd ae6b a5be
000000f0: 6827 93be 9a47 f2bd 2277 a2bc 6796 8dbe
00000100: 3f1a c13d 4338 863e f85f 90be 9003 13be
00000110: 8641 f6bd 54d6 293e 5579 7d3d b6a6 473e
00000120: e42e 51bd e858 95be 83d6 36bd 0ae5 f6bd
00000130: b5a5 c1bd cb8e 21bb 5f6a 87be ee9b d23e
00000140: d326 27be b94c 603e 8f86 c03e b267 503e
00000150: 5392 193e 65f9 233e 653d 5dbe 02ca 5d3e
00000160: 04f5 81be ef78 283e efbf d1bd 7042 9fbe
00000170: 0e22 20be 3f9b f6bc e55d 87bb 17d9 833e
00000180: 03d8 7a3d c9f0 a93c add9 80bc 9398 533e
00000190: d392 443e ab13 88be 9081 3e3e 7c15 b2bd
000001a0: e314 d9be 39d4 c2bd 064f 84be 5864 f3bc
000001b0: 43d5 c0bd 2bfa c3be 321f 0abe 394b 86be
000001c0: 8ba0 01bd 1cc8 cdbe 061a 3abe 8320 8dbd
000001d0: f39f 74be 5ceb 67be 7411 dfba 977b 083d
000001e0: 3551 27be 7e48 c7be a581 95be f0ca 813d
000001f0: eb45 b5be 8dd5 33be 0a05 8dbe 13d2 133e

lstm.bias_hh_l0 f4 [128]
-0.008933461 0.25568476 -0.048412427 0.061940797 0.106939726 -0.021120574 0.2006076 0.392261
-0.560434 -0.2763786 -0.11990319 -0.11290321 0.06706368 -0.029672002 -0.033462442 0.025214506
0.116658546 -0.10407495 0.05398443 0.18151435 -0.36302656 -0.3924305 -0.03528283 -0.036394935
0.20350596 -0.11028102 -0.20609018 0.06743598 0.023897255 0.009719631 0.06238036 -0.117912695
-0.34929064 0.12979761 -0.15048982 -0.2623878 -0.08753837 0.016535062 -0.13854265 -0.03301649
-0.049501836 -0.17216906 0.097901314 -0.39092878 -0.22771603 -0.2215009 -0.38513845 -0.2628245
-0.1495896 -0.13834974 -0.2652842 -0.41606852 -0.21677437 0.013953168 -0.25592592 -0.2802898
0.18609257 -0.39577702 -0.36491206 -0.11393995 -0.07344332 -0.15623999 -0.031828612 -0.08573864
0.10624678 0.30448392 -0.3923395 -0.1574811 -0.121829435 0.186944 0.3078092 0.18696645
0.06677761 -0.12684627 0.1974421 -0.40341836 0.15475087 0.12181268 -0.22489147 0.20656224
-0.16762218 0.06513594 0.32561582 0.14096992 -0.18907784 -0.11725709 -0.12017026 0.13065214
0.007384798 0.14797962 -0.25235575 -0.3799333 -0.09571765 -0.22398135 0.17466669 -0.03721975
0.00375797 0.1431196 -0.14405453 0.16951115 -0.10531059 -0.26586872 -0.04240645 -0.12780708
-0.18540269 -0.0027839069 -0.1396653 0.028452978 0.16679494 -0.07573614 -0.13580114 -0.05104729
0.03504516 -0.36588633 0.086411916 -0.02814299 -0.21915077 -0.09625864 -0.23496087 -0.29427177
-0.0037128958 -0.07785134 -0.13658057 0.024550734 -0.063691445 -0.3417627 -0.30795544 0.113202415
00000000: a75d 12bc 1de9 823e 1c4c 46bd a2b5 7d3d
00000010: 3703 db3d 0e05 adbc 146c 4d3e 6fd6 c83e
00000020: 9a78 0fbf 7f81 8dbe ce8f f5bd cc39 e7bd
00000030: af58 893d b312 f3bc ea0f 09bd a78e ce3c
00000040: adea ee3d 3f25 d5bd c71e 5d3d e6de 393e
00000050: 9ede b9be a7ec c8be bb84 10bd db12 15bd
00000060: de63 503e 04db e1bd 4e09 53be e01b 8a3d
00000070: 2dc4 c33c 163f 1f3c 8c82 7f3d 367c f1bd
00000080: 39d6 b2be aae9 043e 011a 1abe b257 86be
00000090: 5147 b3bd 8a74 873c 20de 0dbe 4d3c 07bd
000000a0: 70c2 4abd 164d 30be 7c80 c83d d127 c8be
000000b0: 642e 69be 22d1 62be de30 c5be ef90 86be
000000c0: 042e 19be 8eab 0dbe 55d3 87be ef06 d5be
000000d0: 1afa 5dbe d49b 643c b908 83be 2582 8fbe
000000e0: 0d8f 3e3e 49a3 cabe c1d5 babe 5959 e9bd
000000f0: 7469 96bd 60fd 1fbe b85e 02bd bd97 afbd
00000100: e997 d93d 51e5 9b3e b9e0 c8be ba42 21be
00000110: b681 f9bd 3f6e 3f3e 2b99 9d3e 2274 3f3e
00000120: b3c2 883d fde3 01be 432e 4a3e da8c cebe
00000130: 0377 1e3e ed78 f93d f349 66be 0d85 533e
00000140: 26a5 2bbe fe65 853d 1eb7 a63e 6b5a 103e
00000150: 9f9d 41be 7c24 f0bd d31b f6bd adc9 053e
00000160: 2dfc f13b f887 173e c634 81be 9e86 c2be
00000170: 9e07 c4bd 5e5b 65be d3db 323e bd73 18bd
00000180: 4648 763b f28d 123e 0883 13be 5594 2d3e
00000190: 14ad d7bd f21f 88be 63b2 2dbd dcdf 02be
000001a0: 34da 3dbe 3572 36bb 6c04 0fbe 3816 e93c
000001b0: 4bcc 2a3e 8d1b 9bbd 740f 0bbe f716 51bd
000001c0: 848b 0f3d 7455 bbbe bbf8 b03d 218c e6bc
000001d0: 0f69 60be 4023 c5bd 9599 70be caaa 96be
000001e0: 0e54 73bb 8670 9fbd c7db 0bbe 9f1e c93c
000001f0: a970 82bd 85fb aebe 56ac 9dbe abd6 e73d

lstm.weight_ih_l1 f4 [128, 32]
-0.04406001 -0.027113426 0.36859182 0.09442288 -0.08590573 0.12302897 0.00853716 -0.13602516
-0.14770825 -0.0350257 0.02026566 0.12791178 -0.08824511 0.16890085 -0.018942272 -0.18854961
-0.113199696 0.20142688 -0.12604861 -0.095743455 0.00347936 0.06278407 0.13207212 -0.14918032
-0.042645436 -0.023603017 0.036193926 -0.05371209 -0.17254117 -0.037030257 -0.18440825 0.021391045
0.0109292315 -0.2159725 0.07933254 0.053515363 0.22140168 0.19189352 -0.112616636 0.065884866
-0.17373261 -0.025167288 0.0982879 -0.07773256 -0.21089874 0.27972502 0.28857583 -0.21428834
-0.00047885632 0.37678605 -0.22018878 -0.033406176 -0.24973412 0.32365003 0.14731865 0.19662158
-0.08858525 0.10740354 0.12005674 0.2004409 -0.019247273 -0.0014211934 0.043557115 0.21151774
-0.06122141 -0.010065975 0.32566085 0.050304152 -0.07504386 -0.031493172 -0.11065308 -0.06933509
-0.096211806 0.07849689 0.030264834 0.19980006 -0.13887168 -0.1646141 0.14665155 -0.19302566
0.039969187 0.029545773 -0.3071671 0.046764284 -0.07972821 0.03598096 -0.0107339285 0.20209898
-0.13176559 -0.09213641 0.19239114 0.24352928 -0.003908008 0.0879632 0.057113316 -0.0033582204
0.20161472 -0.035487376 -0.07817224 0.011248887 0.0003959765 0.08403778 0.030428207 0.16312245
-0.08787415 -0.03482994 0.24382849 0.04927254 -0.16606285 0.03796093 0.14461377 0.03129502
-0.06306566 -0.024886766 -0.07456259 0.15899076 -0.16309181 -0.06546727 -0.03965496 0.19014716
0.19647597 -0.01641168 0.14895676 -0.06721703 -0.18320401 0.13813433 -0.017790727 -0.058966115
0.06886402 -0.082892925 0.025819229 -0.11365165 0.006931017 0.11411752 0.0072056046 -0.020888994
-0.01230952 -0.058140833 0.06856857 -0.019568931 -0.18701054 -0.07217233 0.09498695 -0.19706443
0.117929675 0.11284853 -0.02486393 -0.10579151 -0.14171535 -0.003688802 -0.1610158 0.09910786
-0.0034826472 0.06744802 0.14279774 -0.013251031 0.030183654 0.1281168 -0.05806836 0.08061639
0.05244292 -0.101713836 0.1242791 0.002727433 -0.041859947 0.24057564 0.17815676 0.16749498
-0.17727177 -0.10848145 0.07120161 -0.016063707 -0.24811463 0.022934783 0.10742971 -0.15975276
-0.047258873 0.07896865 -0.16421315 0.11134088 -0.1677875 0.24206138 -0.1788718 0.15259679
-0.108682625 -0.0852909 0.13884082 0.022490948 0.020874197 -0.009603684 0.051886443 0.10157439
0.008286867 -0.080281585 0.3164194 -0.20096272 -0.009822531 0.2158338 0.09477787 0.1561757
-0.41226667 0.05023494 0.17125279 0.13185054 -0.28157768 0.013625743 0.14584535 -0.07111508
0.092825815 0.32258517 -0.352397 -0.02945538 -0.22313848 0.17493929 -0.12736745 0.29377276
0.08070515 -0.009750023 0.04776946 0.117615625 -0.24707334 -0.020375827 0.003778436 0.085507385
0.080545776 -0.108537 0.3222608 0.036264617 -0.09328265 0.25135624 -0.13905323 0.17992981
-0.4431903 0.14509958 0.2125487 0.28758562 0.03874552 0.038320705 0.15223506 -0.04431452
0.027407914 0.13283236 -0.23138471 0.050322313 -0.25540027 0.44859073 -0.11815374 0.29460618
-0.018768923 -0.14165288 0.1732778 0.33455837 0.081939615 -0.14959009 -0.048842125 0.09018209
00000000: 4578 34bd fa1c debc 11b8 bc3e c860 c13d
00000010: 58ef afbd 9df6 fb3d 72df 0b3c 2e4a 0bbe
00000020: d540 17be 1c77 0fbd 2b04 a63c 4efb 023e
00000030: dab9 b4bd 58f4 2c3e d32c 9bbc 2613 41be
00000040: 3ed5 e7bd d942 4e3e e312 01be 2515 c4bd
00000050: f905 643b ef94 803d ea3d 073e bac2 18be
00000060: fbac 2ebd 1d5b c1bc 1540 143d 3501 5cbd
00000070: a2ae 30be 0aad 17bd 84d5 3cbe 463c af3c
00000080: 8510 333c e527 5dbe 1979 a23d ed32 5b3d
00000090: 1fb7 623e bc7f 443e 8da3 e6bd a5ee 863d
000000a0: f6e6 31be a12b cebc 2b4b c93d 4032 9fbd
000000b0: d7f5 57be 1e38 8f3e 36c0 933e 676e 5bbe
000000c0: 020f fbb9 1aea c03e 2b79 61be ead4 08bd
000000d0: 4dba 7fbe 75b5 a53e b3da 163e 2b57 493e
000000e0: 2f6c b5bd 63f6 db3d 4fe0 f53d 6140 4d3e
000000f0: 75ac 9dbc 5647 baba f268 323d 1b98 583e
00000100: 4dc3 7abd c2eb 24bc 05bd a63e ba0b 4e3d
00000110: 98b0 99bd fcfe 00bd 159e e2bd 8eff 8dbd
00000120: b20a c5bd fac2 a03d f5ed f73c 6398 4c3e
00000130: 6134 0ebe 9990 28be d32b 163e 85a8 45be
00000140: bbb6 233d fa09 f23c 0245 9dbe e88b 3f3d
00000150: 8b48 a3bd c560 133d 5cdd 2fbc 09f3 4e3e
00000160: 8fed 06be 04b2 bcbd 2f02 453e bd5f 793e
00000170: bf0e 80bb 0d26 b43d a7ef 693d 9715 5cbb
00000180: 1774 4e3e 365b 11bd c418 a0bd 404d 383c
00000190: 119b cf39 001c ac3d 9344 f93c 9209 273e
000001a0: 5df7 b3bd d7a9 0ebd 2dae 793e 01d2 493d
000001b0: 610c 2abe ec7c 1b3d a215 143e 352f 003d
000001c0: 9228 81bd 55df cbbc 45b4 98bd 79ce 223e
000001d0: 8a01 27be b413 86bd 3d6d 22bd f0b5 423e
000001e0: ff30 493e ca71 86bc 1f88 183e 15a9 89bd
000001f0: d599 3bbe 1673 0d3e dcbd 91bc 7486 71bd
00000200: 9408 8d3d c4c3 a9bd d982 d33c 32c2 e8bd
00000210: 961d e33b 72b6 e93d fe1c ec3b 651f abbc
00000220: dead 49bc 1525 6ebd ae6d 8c3d 064f a0bc
00000230: b17f 3fbe 16cf 93bd 8588 c23d 42cb 49be
00000240: 1d85 f13d 211d e73d 71af cbbc 38a9 d8bd
00000250: d41d 11be d4bf 71bb 53e1 24be 10f9 ca3d
00000260: 203d 64bb 3022 8a3d 9239 123e da1a 59bc
00000270: b643 f73c 0d31 033e 17d9 6dbd 351a a53d
00000280: 63ce 563d 584f d0bd 0a86 fe3d bcbe 323b
00000290: 5675 2bbd 7659 763e ba6e 363e ce83 2b3e
000002a0: bb86 35be 862b debd 26d2 913d 0998 83bc
000002b0: c311 7ebe bae1 bb3c 1c04 dc3d 3a96 23be
000002c0: 8592 41bd 51ba a13d 7e27 28be b006 e43d
000002d0: 7dd0 2bbe f0de 773e 2b2a 37be 5542 1c3e
000002e0: ff94 debd ffac aebd 4a2c 0e3e f03e b83c
000002f0: 5d00 ab3c c558 1dbc e186 543d 3c06 d03d
00000300: a4c5 073c ac6a a4bd b901 a23e 2cc9 4dbe
00000310: aeee 20bc 8903 5d3e e61a c23d 86ec 1f3e
00000320: 9e14 d3be 27c3 4d3d e45c 2f3e d403 073e
00000330: f32a 90be 823e 5f3c 7c58 153e c8a4 91bd
00000340: 761b be3d e229 a53e 616d b4be 694c f1bc
00000350: 6a7e 64be 4923 333e 9d6c 02be 6269 963e
00000360: be48 a53d 8fbe 1fbc e9a9 433d 76e0 f03d
00000370: cb00 7dbe 35eb a6bc a39f 773b 7f1e af3d
00000380: 2ff5 a43d a648 debd 5eff a43e 358a 143d
00000390: f90a bfbd c4b1 803e f863 0ebe 853f 383e
000003a0: d7e9 e2be fc94 143e 5ea6 593e 6c3e 933e
000003b0: 9fb3 1e3d 2cf6 1c3d 82e3 1b3e 2483 35bd
000003c0: 9086 e03c 3505 083e 1df0 6cbe c51e 4e3d
000003d0: d3c3 82be afad e53e 97fa f1bd 9fd6 963e
000003e0: 49c1 99bc 740d 11be bc6f 313e 3c4b ab3e
000003f0: f5cf a73d 252e 19be ae0e 48bd 63b1 b83d

lstm.weight_hh_l1 f4 [128, 32]
0.15540925 0.10488278 0.08287583 -0.120207556 -0.016551726 0.02360121 -0.044850357 0.06579391
0.17258221 0.11424652 -0.15330264 0.07301138 -0.08108788 -0.06314106 -0.11275337 0.14236796
-0.19308582 0.10137561 -0.1266014 0.045426074 0.06709904 -0.04571304 -0.2276883 0.18085063
-0.017717635 0.074721955 -0.09178 0.04726826 0.10231037 -0.044214707 0.004136773 0.07055398
-0.03291813 0.119024836 0.14911245 -0.052770805 -0.22881752 -0.14662068 -0.08352658 0.10667277
0.026847538 0.18798724 0.056249727 0.07527752 0.21333708 -0.020777384 0.080305494 0.13583922
-0.2273242 0.2276086 -0.08457477 -0.20277151 -0.16732652 0.17934647 -0.0346862 0.27060336
0.007392861 0.1548637 0.040328857 -0.018991735 0.08727757 0.02123456 0.060861036 -0.227506
-0.097560056 -0.07475058 -0.16132784 -0.07327201 0.099303685 0.013737105 -0.12598196 0.05149027
0.10452599 0.1019744 -0.15467793 -0.1462206 0.011914434 -0.1241312 -0.13900158 0.12887418
0.067847684 -0.048957836 -0.067125544 0.0069015664 -0.05133764 -0.09461837 0.17553437 -0.0864594
-0.041301433 0.104292035 -0.04559061 0.15273683 0.02506006 0.18625183 -0.04799945 -0.23477687
-0.06979715 -0.10697793 -0.05653235 0.043262575 -0.22238952 0.01597702 -0.0789652 0.0062636063
0.05792393 -0.0020364185 -0.07556729 0.07492995 -0.047429726 0.1589261 -0.048951868 -0.04984435
-0.0052230316 -0.02402156 0.046329986 0.11601747 0.06045845 0.088084005 -0.04878701 0.044114545
-0.12069842 -0.002109418 -0.17306432 0.021474382 -0.050762136 0.21445908 -0.08206831 -0.012138044
0.15499687 -0.2102981 0.07240963 0.050370738 0.1964227 0.029972136 -0.012778318 -0.13719684
-0.0013995257 0.1359848 -0.07457805 0.13567016 0.19407828 -0.010704082 0.09024834 -0.06256169
-0.07037754 0.02504924 -0.09247445 -0.20383558 -0.106022365 0.16490462 -0.052378427 0.099764496
-0.021681188 0.015825089 -0.010225692 0.08416431 -0.04353904 -0.14811741 -0.14392759 0.034189545
0.10897464 -0.09588064 0.08537905 0.15880114 -0.21105771 -0.076294936 -0.22651611 0.008042496
-0.16782276 -0.17971966 0.078208975 -0.074430436 0.011423221 -0.032602914 0.13004468 0.11352349
-0.071511075 -0.22520019 -0.14778167 -0.12625471 0.0351404 0.023928126 0.11610864 -0.14990374
-0.1289552 -0.1384009 0.0012190769 0.16160934 0.013475165 -0.048886135 -0.08300904 -0.0089391265
0.056494806 0.009710393 0.0118612 -0.026094494 -0.1306762 -0.013146093 -0.16123706 -0.034489777
0.114549786 0.0643849 0.12707658 0.190907 0.034022693 0.12835796 -0.124020256 0.065474495
0.21372879 0.16487174 -0.04785984 0.2124719 -0.13562752 -0.19897309 -0.03262111 -0.014282472
0.22466719 -0.059508186 0.073381275 0.08956453 0.01550242 -0.13660261 -0.24223842 0.02139826
0.021881359 -0.013689571 0.08107991 0.15010634 -0.2343627 0.22099963 0.13503346 -0.021964578
-0.19613086 -0.27605626 -0.0130893765 0.24354514 -0.11319765 0.055662062 0.1493177 -0.05795838
0.057589296 0.24870329 0.236403 -0.07931732 -0.013249968 -0.05211941 0.14044993 0.017272286
0.017612305 -0.1417754 0.19498606 -0.09727095 -0.17831561 -0.035588935 0.058165602 0.21689756
00000000: 9a23 1f3e c8cc d63d ceba a93d 612f f6bd
00000010: 7c97 87bc 5357 c13c 02b5 37bd f5be 863d
00000020: 64b9 303e 14fa e93d 5efb 1cbe fe86 953d
00000030: 6711 a6bd 1a50 81bd 3deb e6bd e8c8 113e
00000040: 4ab8 45be 049e cf3d cca3 01be b110 3a3d
00000050: 396b 893d 993d 3bbd 1f27 69be e830 393e
00000060: 9324 91bc d307 993d 27f7 bbbd 5d9c 413d
00000070: 1988 d13d 7b1a 35bd c48d 873b 9b7e 903d
00000080: 29d5 06bd 4bc3 f33d efb0 183e 3326 58bd
00000090: 244f 6abe bb23 16be fc0f abbd 4177 da3d
000000a0: 5eef db3c ba7f 403e 1d66 663d 1a2b 9a3d
000000b0: 0975 5a3e 5535 aabc 3577 a43d 7019 0b3e
000000c0: adc7 68be 3b12 693e 8935 adbd 56a3 4fbe
000000d0: a557 2bbe 9aa6 373e 1e13 0ebd 868c 8a3e
000000e0: d03f f23b 9794 1e3e df2f 253d 8e94 9bbc
000000f0: 95be b23d 1af4 ad3c 6c49 793d 55f7 68be
00000100: 91cd c7bd d516 99bd 2033 25be a30f 96bd
00000110: bb5f cb3d 9811 613c 6a01 01be 76e7 523d
00000120: b911 d63d f4d7 d03d e463 1ebe daba 15be
00000130: c234 433c 8038 febd 6e56 0ebe 98f7 033e
00000140: baf3 8a3d 0388 48bd 1e79 89bd 8926 e23b
00000150: 6b47 52bd 47c7 c1bd 48bf 333e a011 b1bd
00000160: b12b 29bd 1097 d53d 38bd 3abd 0b67 1c3e
00000170: c14a cd3c cdb8 3e3e 129b 44bd 5969 70be
00000180: cff1 8ebd 3f17 dbbd 778e 67bd 1934 313d
00000190: 14ba 63be 3de2 823c 82b8 a1bd f03e cd3b
000001a0: a541 6d3d 6f75 05bb 06c3 9abd e074 993d
000001b0: ac45 42bd 86bd 223e c181 48bd 9729 4cbd
000001c0: f725 abbb ddc8 c4bc 83c4 3d3d 919a ed3d
000001d0: 48a3 773d 6365 b43d e3d4 47bd 74b1 343d
000001e0: bc30 f7bd 293e 0abb c637 31be 0beb af3c
000001f0: f5eb 4fbd 299b 5b3e 6e13 a8bd a6de 46bc
00000200: 80b7 1e3e 6358 57be 804b 943d 8c51 4e3d
00000210: 0823 493e 2088 f53c 265c 51bc 547d 0cbe
00000220: 4a70 b7ba 993f 0b3e 60bc 98bd 1eed 0a3e
00000230: 75bc 463e 2d60 2fbc 1fd4 b83d 5820 80bd
00000240: 1a22 90bd 1034 cd3c 3f63 bdbd 46ba 50be
00000250: 4122 d9bd c2dc 283e c38a 56bd 5451 cc3d
00000260: bf9c b1bc 9ea3 813c a989 27bc 565e ac3d
00000270: fe55 32bd 17ac 17be c161 13be 560a 0c3d
00000280: 192e df3d 125d c4bd 36db ae3d c49c 223e
00000290: 831f 58be 8540 9cbd d7f3 67be acc4 033c
000002a0: bbd9 2bbe 6e08 38be 072c a03d fc6e 98bd
000002b0: 7628 3b3c a28a 05bd 6f2a 053e 017f e83d
000002c0: 6674 92bd e19a 66be 1454 17be ea48 01be
000002d0: 61ef 0f3d eb04 c43c 5eca ed3d 5e80 19be
000002e0: d50c 04be f7b8 0dbe 6fc9 9f3a eb7c 253e
000002f0: f0c6 5c3c d43c 48bd a500 aabd 6a75 12bc
00000300: 1967 673d 5718 1f3c 7b55 423c 1fc4 d5bc
00000310: fbcf 05be b662 57bc 541b 25be 2745 0dbd
00000320: 1499 ea3d 3bdc 833d 5d20 023e 207d 433e
00000330: 615b 0b3d 4570 033e 55fe fdbd 7e17 863d
00000340: b8db 5a3e 23d4 283e ae08 44bd 3c92 593e
00000350: f1e1 0abe 9abf 4bbe b79d 05bd 0801 6abc
00000360: 280f 663e dbbe 73bd ec48 963d 9c6d b73d
00000370: ddfd 7d3c 8ee1 0bbe 590d 78be 674b af3c
00000380: 8940 b33c 394a 60bc 390d a63d 7ab5 193e
00000390: c7fc 6fbe ba4d 623e 3646 0a3e 0fef b3bc
000003a0: 87d6 48be 3f57 8dbe d374 56bc e663 793e
000003b0: 2bd4 e7bd e7fd 633d bde6 183e c465 6dbd
000003c0: c1e2 6b3d 13ac 7e3e a113 723e 1e71 a2bd
000003d0: 6516 59bc 2a7b 55bd 1bd2 0f3e 9c7e 8d3c
000003e0: ae47 903c 922d 11be 6daa 473e fe35 c7bd
000003f0: 5e98 36be b4c5 11bd 0e3f 6e3d 651a 5e3e

lstm.bias_ih_l1 f4 [128]
-0.030898219 0.10884575 0.16734359 -0.038929082 -0.19547686 0.0471206 -0.15047741 0.02619205
0.14454287 -0.14560056 0.13069667 0.03517893 0.16351222 -0.1095883 -0.102551684 0.16897696
0.20425227 0.06726666 -0.14498581 -0.16378994 -0.072248735 0.06330766 0.09896382 0.055198524
0.009771092 0.064524926 -0.061771378 0.13353859 -0.0648364 0.18143533 0.031902675 -0.051427048
-0.14021444 -0.267398 -0.038193364 -0.033024225 -0.06771713 -0.074845776 -0.21357681 -0.3271877
-0.25647098 -0.30800438 0.024281718 -0.33556437 -0.0144181745 -0.015324642 -0.0018543929 -0.19770776
-0.12450785 0.028418677 -0.19622234 -0.080105096 -0.26020065 -0.25154945 -0.24016538 -0.21672933
-0.24910115 -0.20909004 -0.037490506 -0.032653634 -0.32092083 -0.30452666 -0.18423064 -0.14565101
-0.08369005 -0.049829856 -0.08590655 -0.002602929 -0.12005992 0.12839752 0.022121748 -0.11696007
0.03565182 0.017147958 0.12812515 -0.06542183 0.16499813 -0.1279129 0.120854996 -0.02990549
-0.1342266 0.010792256 -0.077975094 -0.09180012 -0.06857229 -0.04164123 0.11785813 -0.08275044
-0.052633405 0.014061587 -0.105337165 -0.098228574 -0.059957244 0.16201872 0.06421947 -0.07042701
0.18712226 0.07433004 -0.07298993 0.100274675 -0.015399009 0.022210095 -0.004183219 0.039564542
0.1682907 -0.09359889 -0.09978547 0.17274983 0.037689943 0.039627723 0.05206799 -0.016181413
-0.076025546 0.022607828 0.0048098327 -0.12493087 -0.04101977 0.048069604 0.039120656 0.19255358
-0.13238521 -0.10103537 0.036757648 -0.07853529 -0.030400055 -0.05087176 -0.0072845933 -0.069472656
00000000: 431e fdbc 85ea de3d 1e5c 2b3e 1a74 1fbd
00000010: 162b 48be 8801 413d c016 1abe b690 d63c
00000020: 0c03 143e 5018 15be 59d5 053e c817 103d
00000030: bf6f 273e d56f e0bd 9e06 d2bd 4c08 2d3e
00000040: 8227 513e 1ac3 893d 2977 14be 8db8 27be
00000050: 25f7 93bd 72a7 813d 8bad ca3d d917 623d
00000060: ee16 203c a525 843d fc03 7dbd 57be 083e
00000070: f2c8 84bd 2fca 393e 61ac 023d 2ba5 52bd
00000080: 6094 0fbe 64e8 88be a570 1cbd 6944 07bd
00000090: 47af 8abd be48 99bd e1b3 5abe 2585 a7be
000000a0: 2a50 83be c0b2 9dbe 74ea c63c 18cf abbe
000000b0: 353a 6cbc 3514 7bbc 1a0f f3ba e773 4abe
000000c0: f9fd febd 49ce e83c 82ee 48be 240e a4bd
000000d0: 0539 85be 17cb 80be eaed 75be 4bee 5dbe
000000e0: 5f14 7fbe b31b 56be a58f 19bd d1bf 05bd
000000f0: bc4f a4be ebea 9bbe f5a6 3cbe 8a25 15be
00000100: b065 abbd 641a 4cbd c6ef afbd e795 2abb
00000110: fae1 f5bd a47a 033e ab38 b53c c388 efbd
00000120: a507 123d e079 8c3c 3d33 033e e1fb 85bd
00000130: 45f5 283e 99fb 02be d382 f73d 5cfc f4bc
00000140: b372 09be 01d2 303c 68b1 9fbd b401 bcbd
00000150: a16f 8cbd ff8f 2abd 9a5f f13d 1079 a9bd
00000160: 2096 57bd 9262 663c 03bb d7bd 102c c9bd
00000170: ba95 75bd 3ce8 253e 7f85 833d 093c 90bd
00000180: fa9c 3f3e 593a 983d bf7b 95bd cf5c cd3d
00000190: 204c 7cbc f2f1 b53c 6213 89bb 6e0e 223d
000001a0: 6654 2c3e c6b0 bfbd 535c ccbd 55e5 303e
000001b0: c560 1a3d ae50 223d 3f45 553d e28e 84bc
000001c0: 48b3 9bbd 0d34 b93c cd9b 9d3b c2db ffbd
000001d0: 5904 28bd a2e4 443d fb3c 203d c42c 453e
000001e0: fd8f 07be a2eb cebd 308f 163d 1cd7 a0bd
000001f0: 8909 f9bc e85e 50bd 99b3 eebb ae47 8ebd

lstm.bias_hh_l1 f4 [128]
0.15128532 -0.005542778 -0.08334573 -0.1418399 -0.19363682 0.07887528 0.17056783 0.08332216
-0.010301949 -0.08481081 0.025236864 0.15218809 -0.09211853 -0.17829408 -0.045020346 -0.057908256
-0.08906922 0.17451145 0.1135271 0.111142844 -0.10896897 0.057610564 -0.06189814 0.18004934
-0.027034238 -0.100458786 0.034470975 0.027822902 0.21270752 0.031361878 0.07356798 -0.042568855
-0.2230133 -0.06908189 0.0023538696 0.017636579 -0.09812414 -0.010520534 -0.054206435 -0.28223085
-0.21495803 -0.21445672 -0.16318086 -0.14671464 -0.08093474 -0.08768691 -0.08442956 -0.21133064
-0.10651218 0.0702039 0.018285973 -0.32888383 -0.10885922 -0.11587496 -0.15545404 -0.13875014
-0.010725926 -0.29444125 0.11774498 -0.16880886 -0.08499232 -0.27388147 -0.2628826 -0.07160497
0.039463762 -0.13348353 0.03967753 0.07794138 -0.018358566 0.018951934 0.11103394 0.040150985
-0.13940746 0.08751596 0.0056574056 0.05341582 -0.10469645 0.1207335 -0.058792766 -0.03642893
0.12231412 0.03331334 0.13186857 0.026741238 0.11908516 0.06753384 -0.20640132 0.144723
-0.030083321 -0.0008489719 -0.13132761 -0.08155591 0.02295323 -0.12088833 0.13516197 0.16544425
0.13800775 -0.058956057 0.026272701 -0.14650925 -0.07583389 -0.18482591 -0.064744905 -0.013312072
0.1469695 -0.0038143992 -0.104688495 0.26509726 -0.117345035 -0.050812647 -0.06399577 0.11717269
0.043781813 -0.034621995 -0.09863501 -0.11145267 -0.085571885 0.23491201 0.22435091 -0.0764604
0.08252289 -0.053584296 -0.13345324 -0.079862155 0.16359176 0.14678355 -0.049159437 0.102911495
00000000: 8aea 1a3e 31a0 b5bb 2bb1 aabd 7b3e 11be
00000010: bb48 46be 5d89 a13d 55a9 2e3e cfa4 aa3d
00000020: 82c9 28bc 4ab1 adbd 8abd ce3c 32d7 1b3e
00000030: a4a8 bcbd b992 36be 4167 38bd 3531 6dbd
00000040: ec69 b6bd 21b3 323e e580 e83d dc9e e33d
00000050: 202b dfbd 0ef9 6b3d e788 7dbd db5e 383e
00000060: e876 ddbc 56bd cdbd 7031 0d3d dbec e33c
00000070: 00d0 593e 5075 003d cfaa 963d ae5c 2ebd
00000080: 995d 64be ce7a 8dbd 6143 1a3b 967a 903c
00000090: 4ff5 c8bd 515e 2cbc 9107 5ebd 9080 90be
000000a0: f51d 5cbe 8b9a 5bbe e218 27be 5d3c 16be
000000b0: 1dc1 a5bd 3295 b3bd 68e9 acbd 0f67 58be
000000c0: 0f23 dabd 10c7 8f3d 77cc 953c 7663 a8be
000000d0: 95f1 debd da4f edbd 582f 1fbe 8414 0ebe
000000e0: cbbb 2fbc 01c1 96be 4824 f13d 3bdc 2cbe
000000f0: 7410 aebd 313a 8cbe 8c98 86be a0a5 92bd
00000100: c1a4 213d e8af 08be e884 223d bb9f 9f3d
00000110: b464 96bc 1641 9b3c c365 e33d 5c75 243d
00000120: d4c0 0ebe 913b b33d c261 b93b 8cca 5a3d
00000130: 186b d6bd 2043 f73d afd0 70bd 8036 15bd
00000140: d37f fa3d 9273 083d 8e08 073e 7110 db3c
00000150: ece2 f33d 2f4f 8a3d de5a 53be 4432 143e
00000160: 4c71 f6bc 8a8d 5eba bf7a 06be c906 a7bd
00000170: 6a08 bc3c 4d94 f7bd e667 0a3e 386a 293e
00000180: e751 0d3e e87b 71bd d939 d73c 8506 16be
00000190: cc4e 9bbd 0143 3dbe fa98 84bd e01a 5abc
000001a0: 2c7f 163e 00fb 79bb ec66 d6bd d4ba 873e
000001b0: 9852 f0bd ec20 50bd 3710 83bd 3cf8 ef3d
000001c0: 8f54 333d cbcf 0dbd 2701 cabd 4c41 e4bd
000001d0: 5040 afbd c68c 703e 3fbc 653e 4597 9cbd
000001e0: c301 a93d 357b 5bbd f7a7 08be c58e a3bd
000001f0: 9984 273e 6d4e 163e 685b 49bd 43c3 d23d

lstm.weight_ih_l2 f4 [128, 32]
0.10964525 0.12775019 -0.15637326 -0.14524563 0.24446253 0.14225565 0.16108851 -0.31204584
-0.069469914 -0.07927474 0.043786477 0.03341167 -0.14485997 0.15525493 0.08752965 0.03784485
-0.2086807 0.15584464 0.19771306 0.27837712 0.24180035 0.023175657 0.0014675421 0.1074774
-0.015469921 0.11333617 0.023609454 -0.016652089 -0.23939733 0.2580139 0.111594036 0.11590481
0.06810833 -0.07628801 -0.11357334 0.014884678 -0.08590411 0.009273507 -0.036450274 -0.103464246
-0.09670095 0.105477415 0.25338873 0.050421584 -0.21110946 -0.07698224 0.066021636 0.048142586
0.013739454 -0.076651424 0.056436453 0.10619446 0.13653293 0.084801905 -0.22663718 0.06755204
-0.016701592 0.022273844 -0.061386436 -0.117063746 -0.2837371 0.07296258 0.27799386 0.26752073
0.21405424 0.22501653 -0.072992705 -0.04010642 0.111636445 0.19579671 0.1597989 -0.0782156
-0.11667895 -0.11950401 -0.047377735 -0.14424759 -0.09945221 0.11980579 0.07675873 -0.012718832
0.07260728 -0.07376402 0.23879823 0.18049243 -0.038247693 -0.0387838 -0.07585112 -0.035869054
-0.046639014 0.0485914 0.028643258 -0.10035141 0.05413273 0.007151402 0.23609766 0.15665156
-0.05459005 0.21946336 -0.09261841 -0.29469517 0.23015122 0.15290633 0.029012421 -0.004649864
0.02406613 0.08781792 0.0017602795 -0.13153106 -0.23864366 0.12640245 0.09463026 -0.06510576
-0.06529935 0.025904424 0.074400365 0.06896419 0.10447734 -0.09823318 -0.19508731 0.2174231
-0.1742256 0.095191255 0.05388678 -0.0490767 -0.048681248 0.17162116 -0.06382931 0.030911384
0.16875006 -0.02325805 0.089975275 -0.24171917 0.033810765 0.25074002 0.336825 -0.33106938
0.010561995 0.030892309 -0.044382095 -0.284427 0.008128515 0.17831512 0.2583972 0.044649478
0.07861134 0.1733398 0.20500521 0.34171382 0.2267141 -0.019323511 -0.19309767 0.16992985
0.0092502795 -0.10157572 -0.22051471 -0.24208255 -0.2609176 0.20527458 0.33227316 0.28361735
-0.13324499 -0.016897606 0.093899816 0.102192014 -0.05561276 -0.15803126 -0.18495248 0.015181205
0.17314482 0.15079987 -0.15287292 0.115482256 0.15224983 -0.1009203 0.08062791 0.06784828
-0.15736033 -0.12065679 -0.117716365 0.059944928 -0.09015043 -0.08685893 -0.05390216 -0.11453246
-0.18580075 0.07459772 -0.1802005 0.036318347 -0.09628375 -0.15356119 0.11273851 -0.11849713
0.0089606615 -0.15129471 -0.072673626 -0.17921518 -0.0330617 -0.038271233 0.07783307 -0.22214213
0.056568366 0.046820838 0.21230969 -0.13789786 -0.23871207 0.166418 -0.051415313 -0.08946864
-0.038706437 -0.11640324 -0.008170343 0.0673011 0.030871008 0.17399961 -0.056425195 0.059140075
0.0065585463 0.04658233 -0.114701375 0.034633666 0.14681932 -0.12255046 0.11374392 0.22696224
-0.044460487 0.1545674 -0.08278717 -0.022616055 -0.076037884 0.14640692 0.18016863 0.016109526
-0.027326036 0.21689394 0.036199987 -0.16244546 -0.24264525 0.14428908 0.25504005 -0.20091239
0.09395397 0.0013408842 0.3046911 0.2484272 0.064131536 -0.1406277 0.016285924 0.13658781
-0.11271006 -0.11951863 -0.10130065 -0.21280408 -0.17921606 0.18520749 0.048027515 0.021692514
00000000: b08d e03d f2d0 023e 5020 20be 45bb 14be
00000010: 6354 7a3e 77ab 113e 63f4 243e 79c4 9fbe
00000020: 3e46 8ebd cb5a a2bd 7359 333d adda 083d
00000030: 2c56 14be 26fb 1e3e bf42 b33d 3403 1b3d
00000040: 65b0 55be bd95 1f3e 4b75 4a3e 7287 8e3e
00000050: 839a 773e e0da bd3c 8b5a c03a 1c1d dc3d
00000060: 8d75 7dbc cb1c e83d 9d68 c13c f669 88bc
00000070: 9324 75be 661a 843e 6a8b e43d 805f ed3d
00000080: 617c 8b3d e33c 9cbd 2499 e8bd ddde 733c
00000090: 7eee afbd e8ef 173c e24c 15bd 10e5 d3bd
000000a0: 260b c6bd 8b04 d83d 2bbc 813e dd86 4e3d
000000b0: 142d 58be dda8 9dbd 5a36 873d 2931 453d
000000c0: 721b 613c 6cfb 9cbd e929 673d 7b7c d93d
000000d0: 4acf 0b3e 9fac ad3d 9413 68be b958 8a3d
000000e0: c7d1 88bc a377 b63c 5870 7bbd 1ebf efbd
000000f0: fd45 91be 686d 953d 3655 8e3e 7af8 883e
00000100: 0931 5b3e bc6a 663e 337d 95bd a146 24bd
00000110: a6a1 e43d ef7e 483e 53a2 233e 802f a0bd
00000120: 60f5 eebd 85be f4bd 280f 42bd a4b5 13be
00000130: 9aad cbbd bd5c f53d ae33 9d3d a662 50bc
00000140: 20b3 943d 9711 97bd 8687 743e 02d3 383e
00000150: 9da9 1cbd c3db 1ebd d557 9bbd 6eeb 12bd
00000160: 8d08 3fbd c707 473d 44a5 ea3c 0a85 cdbd
00000170: 48ba 5d3d 4f56 ea3b 96c3 713e 4469 203e
00000180: d199 5fbd 01bb 603e b9ae bdbd 49e2 96be
00000190: c3ac 6b3e 7a93 1c3e 75ab ed3c e35d 98bb
000001a0: 5526 c53c e2d9 b33d 2eb9 e63a 14b0 06be
000001b0: 015f 74be a56f 013e 82cd c13d 2b56 85bd
000001c0: aabb 85bd 8435 d43c 385f 983d 193d 8d3d
000001d0: 37f8 d53d 7a2e c9bd f8c4 47be 29a4 5e3e
000001e0: 3268 32be a2f3 c23d 62b8 5c3d a604 49bd
000001f0: fd65 47bd 75bd 2f3e f1b8 82bd df39 fd3c
00000200: d1cc 2c3e ab87 bebc f544 b83d 3b85 77be
00000210: 287d 0a3d ff60 803e 5474 ac3e ed81 a9be
00000220: 380c 2d3c de11 fd3c 00ca 35bd 6aa0 91be
00000230: 772d 053c 3d98 363e a34c 843e 5fe2 363d
00000240: fbfe a03d fd7f 313e e3ec 513e 1df5 ae3e
00000250: be27 683e 574c 9ebc 65bb 45be 1702 2e3e
00000260: 7c8e 173c ee06 d0bd 9cce 61be 7de4 77be
00000270: fe96 85be 8033 523e b51f aa3e 4b36 913e
00000280: 6071 08be d96c 8abc 8c4e c03d 0c4a d13d
00000290: 35ca 63bd f2d2 21be 2f64 3dbe 97ba 783c
000002a0: e04c 313e 486b 1a3e b88a 1cbe f681 ec3d
000002b0: 61e7 1b3e 4daf cebd 3f20 a53d 0af4 8a3d
000002c0: 1123 21be e81a f7bd 4715 f1bd d088 753d
000002d0: caa0 b8bd 18e3 b1bd 83c8 5cbd ff8f eabd
000002e0: 8d42 3ebe b0c6 983d 7b86 38be 8cc2 143d
000002f0: 6a30 c5bd 253f 1dbe 73e3 e63d a0ae f2bd
00000300: bdcf 123c 00ed 1abe e9d5 94bd 2f84 37be
00000310: b56b 07bd 4cc2 1cbd f266 9f3d 3a79 63be
00000320: 3bb4 673d 35c7 3f3d b667 593e 1935 0dbe
00000330: f070 74be 7b69 2a3e dd98 52bd 563b b7bd
00000340: a48a 1ebd d264 eebd e7dc 05bc 29d5 893d
00000350: 32e5 fc3c f42c 323e 1b1e 67bd dd3c 723d
00000360: 13e9 d63b 1dcd 3e3d 8ee8 eabd 08dc 0d3d
00000370: ce57 163e bcfb fabd 93f2 e83d ca68 683e
00000380: 331c 36bd eb46 1e3e 528c a9bd 4e45 b9bc
00000390: c0b9 9bbd b2eb 153e 207e 383e 20f8 833c
000003a0: dada dfbc 7219 5e3e 7046 143d 1a58 26be
000003b0: ff77 78be 84c0 133e 9c94 823e fabb 4dbe
000003c0: f06a c03d 9cc0 af3a 7900 9c3e b363 7e3e
000003d0: 6557 833d b500 10be 0f6a 853c addd 0b3e
000003e0: 88d4 e6bd 2fc6 f4bd b776 cfbd 50e9 59be
000003f0: 6a84 37be 08a7 3d3e 80b8 443d 80b4 b13c

lstm.weight_hh_l2 f4 [128, 32]
-0.16583206 -0.094786376 0.12204259 0.067235835 -0.020950165 0.007389657 0.102423534 -0.034493916
-0.12501425 -0.057728592 -0.19252732 -0.24318154 0.08404319 0.121584535 0.034964114 -0.04092983
0.18030041 -0.060763482 0.16134621 -0.23779087 0.10834973 0.118185215 -0.09651723 0.15987845
0.16957678 0.16928025 -0.11622237 -0.06514031 -0.06647632 0.16037713 -0.013518686 -0.15112448
-0.08836883 0.0832971 -0.09519002 0.23823707 -0.020550178 -0.11420122 -0.101045474 0.15809427
0.122984156 -0.1481622 0.09010572 0.09453982 -0.02109051 -0.13617378 -0.087277256 -0.07070798
0.16870585 0.18831256 0.03032002 0.032422997 -0.12508073 -0.021326412 0.09864855 0.12538615
0.03390529 0.17541409 0.0670827 -0.10034255 -0.11900777 0.21938258 -0.070593186 0.094979614
-0.089729734 0.13520801 0.1244932 0.10793739 -0.14594679 0.030426573 -0.112921506 -0.07605723
-0.13104205 0.12748592 -0.03201458 -0.19292322 0.14725453 -0.051418774 -0.21482255 -0.06248499
-0.10945961 0.07457332 0.029667296 -0.015747484 0.045041304 0.07301745 0.15515892 0.1730422
0.24529372 0.24438544 -0.02475867 0.13285893 -0.092144646 -0.005658415 0.12650603 -0.0919411
-0.06044109 0.06350156 0.10162982 0.10939579 -0.05460102 -0.034235425 -0.107043825 0.21172331
0.13409625 0.13232228 0.014065929 -0.032333367 -0.039866768 0.08432194 -0.14448082 -0.11163295
-0.11155732 0.017131345 -0.14840165 -0.11525152 0.025275812 0.18691331 -0.12577438 -0.13460097
-0.12269675 0.27668238 -0.039416093 0.18409698 -0.027435541 0.19458765 0.23789848 0.16295305
0.12003663 -0.02974105 0.11111262 -0.089261144 0.050705913 -0.1293475 0.1758588 -0.03966365
0.14785597 -0.1231711 -0.07372469 0.09442794 0.027212268 0.06376705 -0.059557542 -0.07127172
0.05691259 0.045630984 -0.027375404 0.027426805 0.041746657 0.008805791 0.16449484 -0.052169718
-0.13407639 0.011846532 0.1573771 0.07167284 -0.14522769 -0.17770216 0.061725136 0.041018806
0.19156204 0.07524894 0.06507916 -0.09988773 0.07772528 0.14824532 -0.029162407 -0.037496287
-0.14569028 -0.10590506 -0.09742263 -0.09102308 -0.04678309 -0.14759748 0.061863925 0.124745235
-0.062788524 -0.2184332 0.036480248 0.19254906 0.16415612 -0.13709807 -0.061075654 0.11418439
0.007993071 -0.12902182 -0.08126753 -0.041234486 -0.02560285 0.13842109 -0.043731224 0.029109009
0.040633462 0.1630326 0.1255469 0.12894315 -0.20418665 0.09270165 0.20895168 0.15589714
-0.153789 0.117387846 -0.10498839 -0.18194872 -0.08960598 0.04719215 0.053262435 -0.10549324
0.030495489 0.15794511 0.16713077 -0.2541577 -0.17878143 0.15285403 0.11220838 0.11710811
-0.024013504 -0.017126456 0.029104076 -0.096316755 0.21869251 -0.068493724 0.20523046 0.16708748
-0.10332599 0.13692793 -0.030186554 0.021386907 -0.19363989 -0.04025582 0.023697289 -0.1548575
-0.17672639 0.11630537 0.11112456 -0.20008941 -0.016964735 0.19587046 0.044707656 0.0922462
0.0534551 0.10924617 -0.04004035 -0.057166066 -0.11627585 0.17747904 -0.073219344 0.011414011
0.20137794 0.021421604 0.18300624 -0.14922345 -0.06395048 -0.0350848 0.035780933 -0.019831387
00000000: e1cf 29be 5c1f c2bd 77f1 f93d f1b2 893d
00000010: ae9f abbc f024 f23b 6ec3 d13d 7e49 0dbd
00000020: bc03 00be d174 6cbd e225 45be 9504 79be
00000030: d61e ac3d 5001 f93d 8836 0f3d 0aa6 27bd
00000040: aca0 383e 21e3 78bd f137 253e 737f 73be
00000050: 77e6 dd3d 170b f23d d3aa c5bd 2db7 233e
00000060: 89a5 2d3e cd57 2d3e fe05 eebd 4868 85bd
00000070: bd24 88bd e739 243e 7b7d 5dbc 60c0 1abe
00000080: b8fa b4bd ac97 aa3d fcf2 c2bd 6bf4 733e
00000090: d958 a8bc 54e2 e9bd eef0 cebd 77e3 213e
000000a0: 1edf fb3d d5b7 17be 5989 b83d 189e c13d
000000b0: 01c6 acbc 2471 0bbe 6bbe b2bd 58cf 90bd
000000c0: 3ac1 2c3e 02d5 403e b161 f83c facd 043d
000000d0: 2a15 00be bab4 aebc 4008 ca3d 3a65 003e
000000e0: 46e0 0a3d c09f 333e a862 893d 6580 cdbd
000000f0: 59ba f3bd d4a5 603e 2993 90bd ac84 c23d
00000100: 39c4 b7bd f873 0a3e 4af6 fe3d 470e dd3d
00000110: 1373 15be 2641 f93c 6443 e7bd e5c3 9bbd
00000120: e32f 06be ab8b 023e b821 03bd aa8d 45be
00000130: e4c9 163e 7e9c 52bd 71fa 5bbe 43f0 7fbd
00000140: 5c2c e0bd e6b9 983d d408 f33c de00 81bc
00000150: 3b7d 383d 2c8a 953d fbe1 1e3e f931 313e
00000160: 472e 7b3e 2d40 7a3e b2d2 cabc 2c0c 083e
00000170: 55b6 bcbd 3a6a b9bb cc8a 013e 9e4b bcbd
00000180: 1491 77bd 1b0d 823d 4c23 d03d e60a e03d
00000190: 52a5 5fbd 723a 0cbd cb39 dbbd ffcd 583e
000001a0: 8750 093e 7e7f 073e c874 663c fe6f 04bd
000001b0: 564b 23bd fbb0 ac3d c8f2 13be d19f e4bd
000001c0: 2a78 e4bd 0957 8c3c 9af6 17be fd08 ecbd
000001d0: 380f cf3c 3466 3f3e 00cb 00be d6d4 09be
000001e0: 6f48 fbbd 50a9 8d3e c572 21bd eb83 3c3e
000001f0: 80c0 e0bc fc41 473e a99b 733e 2add 263e
00000200: c4d5 f53d 81a3 f3bc 038f e33d 8cce b6bd
00000210: 01b1 4f3d ac73 04be 5414 343e 5a76 22bd
00000220: 8e67 173e 2141 fcbd f8fc 96bd 7063 c13d
00000230: 43ec de3c 4d98 823d 9cf2 73bd e8f6 91bd
00000240: 2d1d 693d 8ee7 3a3d 6242 e0bc 2eae e03c
00000250: 8bfe 2a3d 2a46 103c 5671 283e eaaf 55bd
00000260: 524b 09be f517 423c 7627 213e 36c9 923d
00000270: 91b6 14be 8ef7 35be 7fd3 7c3d 5603 283d
00000280: d728 443e 1e1c 9a3d 3948 853d f091 ccbd
00000290: 6e2e 9f3d 9fcd 173e 00e6 eebc b595 19bd
000002a0: d52f 15be c1e4 d8bd 8485 c7bd 4f6a babd
000002b0: a09f 3fbd cb23 17be 0765 7d3d 6e7a ff3d
000002c0: 4597 80bd f4ac 5fbe 506c 153d 952b 453e
000002d0: 8b18 283e 7063 0cbe 772a 7abd 81d9 e93d
000002e0: 5ff5 023c 4c1e 04be 976f a6bd 7ee5 28bd
000002f0: 11bd d1bc 42be 0d3e 831f 33bd 0476 ee3c
00000300: 466f 263d 05f2 263e 5e8f 003e ac09 043e
00000310: 4e16 51be 5dda bd3d 6ef7 553e 80a3 1f3e
00000320: dd7a 1dbe 0a69 f03d 2704 d7bd c450 3abe
00000330: 5783 b7bd 8e4c 413d b629 5a3d d70c d8bd
00000340: add1 f93c 5dbc 213e 5424 2b3e f520 82be
00000350: 7b12 37be c485 1c3e 82cd e53d 60d6 ef3d
00000360: f8b7 c4bc c84c 8cbc ac6b ee3c b841 c5bd
00000370: eef0 5f3e 7046 8cbd ef27 523e fb18 2b3e
00000380: 949c d3bd d636 0c3e cb49 f7bc 9833 af3c
00000390: 8949 46be 49e3 24bd d120 c23c f792 1ebe
000003a0: c3f7 34be 8331 ee3d 4695 e33d 3de4 4cbe
000003b0: a1f9 8abc 4492 483e 601f 373d 93eb bc3d
000003c0: bcf3 5a3d 75bc df3d 5a01 24bd f726 6abd
000003d0: 0822 eebd 11bd 353e 06f4 95bd d501 3b3c
000003e0: 0536 4e3e 5c7c af3c fd65 3b3e 08ce 18be
000003f0: 78f8 82bd 14b5 0fbd 078f 123d 6f75 a2bc
