save/best_model_29_16_4_0.1.pt (torch, 51835 bytes, 23 tensors)

lstm.weight_ih_l0 f4 [64, 29]
0.14057796 0.15591137 0.21399944 -0.06679425 -0.19642244 0.09429321 0.16235705 0.14164071
-0.0068811066 0.12988403 -0.032603975 0.060402412 0.008399563 0.07922144 0.21217157 0.28011587
0.027006099 -0.15744942 -0.023687948 -0.21173102 0.03917982 -0.10534829 -0.17167774 0.03941705
0.13075113 -0.134935 0.016229255 0.048618145 0.064888276 -0.077434584 0.14819402 -0.24212798
-0.104748 0.06279545 0.11022808 0.009340311 0.09477994 0.13927358 0.009877687 -0.13630645
-0.15527792 0.061830267 -0.19902517 0.0061618923 -0.23822169 -0.2439556 0.05094035 0.016955726
-0.25721756 -0.24745841 0.11200592 0.091725074 0.0013325085 -0.07151435 0.022382937 -0.009399588
0.1532605 0.13631661 -0.085643575 0.16275507 0.0036696831 0.016230615 -0.11083886 -0.05853899
0.10374184 -0.07024833 0.0057462566 -0.26549688 0.3251526 -0.08277837 0.18244961 -0.042421088
-0.03083295 0.15066078 0.050429013 -0.05295199 0.1905948 0.07613754 0.0048374366 -0.15502426
0.059079874 0.15247709 -0.011588424 -0.21801782 -0.053175423 -0.003416706 0.027439445 -0.15642497
0.16624023 0.06421737 0.08262379 0.22357462 -0.15263331 0.15177448 -0.09433918 -0.07218344
-0.18326172 -0.065571114 -0.009339035 -0.1724071 -0.0672409 -0.025116742 0.09686268 -0.1441711
0.21568646 -0.18603253 -0.109813064 0.04276074 0.25980204 -0.056111723 0.2041934 0.10484779
0.048348896 -0.08856926 0.14914204 -0.16198601 -0.40995222 -0.10962539 -0.3864726 0.062739216
-0.4120158 -0.24299824 -0.11127083 0.15836732 -0.040272262 -0.11607923 -0.12799837 -0.19068746
-0.046171453 -0.040815663 0.1794596 -0.3302915 -0.02811215 0.014854531 0.159251 0.13319819
-0.27782473 -0.13139434 -0.09633648 -0.13873364 -0.13516368 -0.2161252 -0.0832154 0.017666396
-0.008837784 -0.05931313 0.07541287 -0.14966999 -0.02712058 0.03344151 -0.10984557 0.21101756
-0.090134874 0.07165795 -0.1974873 0.06518511 0.20525111 0.26094756 0.17739604 -0.03207965
-0.2111122 0.14187136 0.014890859 -0.024938783 -0.19846389 -0.16820842 0.1318871 0.17488907
-0.02525775 -0.1866805 0.13406298 -0.044631332 0.03376847 -0.05710041 0.07747341 0.017510919
-0.10870238 0.016259514 0.067484885 0.11216685 0.018598098 0.07384125 0.14253148 -0.0058870786
-0.07729032 0.106627755 -0.23046409 -0.052093636 0.043160822 -0.07140461 0.07343551 0.0984805
0.044215664 0.023831073 0.19314924 0.12673599 0.11531615 -0.096570455 0.01818512 -0.01210316
0.040183347 -0.100325786 -0.14658856 -0.045745526 -0.060127817 0.21520808 0.011829713 0.01730815
-0.10377372 -0.101131484 0.026303567 0.015911484 -0.020218564 -0.09576991 0.2831561 0.16160034
-0.08997968 -0.049311355 -0.06526434 0.1366497 0.15319924 -0.16072428 -0.034240425 0.12685429
0.13909583 -0.18287249 -0.15405205 0.15111433 0.16445124 0.17513084 0.12478781 0.080847554
0.17251511 -0.06582936 -0.1837179 -0.016959516 0.0017016382 0.088513404 0.06938669 0.16032706
0.06825648 -0.25072223 0.1174298 0.042202115 0.18936259 0.0022549012 -0.057483327 -0.1755507
0.01858465 0.046923377 0.02416826 0.057214912 0.08836231 0.0049610073 0.12196383 -0.079249494
00000000: abf3 0f3e 3ba7 1f3e ab22 5b3e 6ccb 88bd
00000010: f722 49be cc1c c13d ed40 263e 430a 113e
00000020: e87a e1bb 5200 053e bf8b 05bd 8568 773d
00000030: 529e 093c da3e a23d 8143 593e 596b 8f3e
00000040: e53b dd3c 6c3a 21be 3a0d c2bc 04d0 58be
00000050: 057b 203d d8c0 d7bd 4acc 2fbe c673 213d
00000060: a0e3 053e 672c 0abe 37f3 843c d223 473d
00000070: 25e4 843d 0696 9ebd 2cc0 173e 66f0 77be
00000080: 1f86 d6bd e79a 803d 42bf e13d 1b08 193c
00000090: fc1b c23d bc9d 0e3e 06d6 213c eb93 0bbe
000000a0: 2d01 1fbe bc41 7d3d 41cd 4bbe b3e9 c93b
000000b0: 63f0 73be 7fcf 79be d4a6 503d bce6 8a3c
000000c0: 05b2 83be bd65 7dbe 5c63 e53d 5bda bb3d
000000d0: 91a7 ae3a 1e76 92bd 6c5c b73c bb00 1abc
000000e0: 52f0 1c3e 9596 0b3e e665 afbd 44a9 263e
000000f0: 117f 703b 11f6 843c 7cff e2bd 94c6 6fbd
00000100: 9a76 d43d 5bde 8fbd 184b bc3b 35ef 87be
00000110: 677a a63e b587 a9bd 12d4 3a3e bcc1 2dbd
00000120: 6295 fcbc d246 1a3e a78e 4e3d 30e4 58bd
00000130: 492b 433e 00ee 9b3d 5c83 9e3b aebe 1ebe
00000140: bdfd 713d f422 1c3e 60dd 3dbc 1040 5fbe
00000150: 79ce 59bd d1ea 5fbb b0c8 e03c de2d 20be
00000160: e13a 2a3e 6584 833d a936 a93d bff0 643e
00000170: e84b 1cbe c56a 1b3e e634 c1bd e9d4 93bd
00000180: f6a8 3bbe 264a 86bd c002 19bc 7d8b 30be
00000190: 99b5 89bd a0c1 cdbc f15f c63d 97a1 13be
000001a0: e9dc 5c3e 507f 3ebe ace5 e0bd e325 2f3d
000001b0: c604 853e 68d5 65bd 1318 513e 70ba d63d
000001c0: 7e09 463d cd63 b5bd b1b8 183e a9df 25be
000001d0: 42e5 d1be 4783 e0bd bddf c5be 6b7d 803d
000001e0: bcf3 d2be 88d4 78be f6e1 e3bd 0b2b 223e
000001f0: 87f4 24bd f3ba edbd 0112 03be 9343 43be
00000200: 471e 3dbd 532e 27bd 42c4 373e f81b a9be
00000210: 744b e6bc 6b60 733c b212 233e 1b65 083e
00000220: 0b3f 8ebe 3d8c 06be 0f4c c5bd 3110 0ebe
00000230: 5968 0abe ed4f 5dbe d66c aabd 1eb9 903c
00000240: 5acc 10bc 53f2 72bd 1072 9a3d 1743 19be
00000250: fb2b debc f7f9 083d b7f6 e0bd fd14 583e
00000260: a298 b8bd 67c1 923d 1c3a 4abe c57f 853d
00000270: 592d 523e eb9a 853e 4fa7 353e f365 03bd
00000280: cc2d 58be ba46 113e caf8 733c 6b4c ccbc
00000290: 1e3a 4bbe d43e 2cbe 690d 073e 1f16 333e
000002a0: 57e9 cebc 2c29 3fbe ce47 093e 58cf 36bd
000002b0: cf50 0a3d 1fe2 69bd 61aa 9e3d 0f73 8f3c
000002c0: 5a9f debd ac32 853c 8435 8a3d bcb7 e53d
000002d0: 0a5b 983c 153a 973d c6f3 113e 65e8 c0bb
000002e0: 634a 9ebd a75f da3d c7fe 6bbe 2360 55bd
000002f0: 67c9 303d 953c 92bd 5b65 963d 25b0 c93d
00000300: 7c1b 353d 6239 c33c eac8 453e 14c7 013e
00000310: e02a ec3d bbc6 c5bd f6f8 943c 554c 46bc
00000320: 4b97 243d 9b77 cdbd 501b 16be a95f 3bbd
00000330: 9648 76bd 825f 5c3e 6ad1 413c d2c9 8d3c
00000340: 5187 d4bd 061e cfbd 947a d73c cd58 823c
00000350: 67a1 a5bc 0423 c4bd d6f9 903e 8f7a 253e
00000360: 4447 b8bd b4fa 49bd 4fa9 85bd e6ed 0b3e
00000370: 43e0 1c3e e894 24be b03f 0cbd 17e6 013e
00000380: 236f 0e3e ed42 3bbe d2bf 1dbe b7bd 1a3e
00000390: e865 283e 8055 333e c090 ff3d 6793 a53d
000003a0: cda7 303e 8bd1 86bd 8c20 3cbe afee 8abc
000003b0: 8109 df3a 8446 b53d 9c1a 8e3d c72c 243e
000003c0: 0eca 8b3d aa5e 80be 097f f03d 20dc 2c3d
000003d0: 44e8 413e f7c6 133b a373 6bbd 90c3 33be
000003e0: d63e 983c ba32 403d 84fc c53c 2f5a 6a3d
000003f0: 4cf7 b43d f28f a23b 2cc8 f93d 8f4d a2bd

lstm.weight_hh_l0 f4 [64, 16]
-0.04200503 -0.37780565 0.20050499 0.046853885 0.13857973 0.21058981 -0.13207637 0.123934574
-0.19891785 -0.19403161 -0.0071553243 -0.07403099 0.1273035 -0.24281728 -0.5529587 -0.23322006
0.1489648 0.19688949 -0.1444661 -0.16742311 -0.039814074 0.13121516 -0.36323154 -0.24126165
0.16223513 -0.06114832 -0.19815743 0.11922116 0.21578744 0.029675515 -0.016651545 -0.2980682
0.25032163 -0.03361616 0.18771039 0.15334153 0.2753609 -0.028709127 0.19024469 0.06136699
-0.17242695 0.006846917 0.24032816 -0.114806406 0.27837214 -0.2051123 0.0072960043 -0.030866297
-0.2913289 0.059268862 -0.03312156 -0.03894639 0.23192579 0.029147157 -0.31009516 0.11689076
-0.0258295 0.14314994 0.008154451 -0.06399515 -0.074325986 -0.12815043 0.14521828 -0.063689016
-0.13773035 -0.27549776 0.010374696 0.27698675 0.21327893 -0.2535397 0.037526015 0.13021077
0.079444684 -0.36159146 0.28787437 -0.19252004 -0.13750122 0.0011744285 -0.27893898 -0.13314605
-0.21764027 -0.6339561 0.36302847 0.077187166 0.055527225 -0.047750007 -0.29120514 0.48592922
0.071461506 -0.3302466 0.23180002 -0.40556094 0.08623675 -0.13105719 -0.4155694 -0.14846197
0.15357304 0.19406052 -0.044614624 -0.026826706 -0.21667787 0.2138814 -0.25612465 0.28296167
0.040494625 -0.15707071 -0.018645478 -0.47478 0.10228218 -0.3660169 -0.068694614 -0.06806041
-0.020544516 -0.23698343 0.11849673 0.009929381 0.017855825 -0.016384326 0.2939817 0.5347862
0.06620528 0.021255746 0.44644067 -0.09274528 0.13546872 0.16730396 -0.34998745 -0.022151807
-0.14541423 -0.3201569 0.10232868 0.29542026 -0.028525928 -0.20398565 0.27445796 0.22994846
0.11392994 0.18298657 0.20747645 0.08163353 -0.03296764 0.052000236 -0.29451916 0.03572205
0.107748844 -0.14945874 0.20649172 0.2560358 -0.21015464 -0.13504675 0.038572114 0.02316648
-0.06488677 -0.357917 0.22227304 -0.22617488 0.08389212 -0.075282246 -0.23730333 -0.013105088
-0.46818674 0.1821378 -0.5358368 -0.084030196 -0.21581838 0.044449776 -0.309265 -0.23274589
0.41656673 0.2659326 0.35245153 -0.049413174 0.09119843 -0.09088621 0.16351251 -0.018813947
-0.002616776 -0.28195515 0.1389547 0.24852006 -0.03620566 0.29405147 -0.22325507 0.59923244
0.029767202 -0.26895896 0.1513944 -0.36465362 0.3992899 -0.4915007 -0.57305586 -0.040433966
0.05517932 -0.48780766 -0.1271493 0.2139393 0.21246319 0.27094728 -0.0017480977 0.64513797
-0.03291761 0.041914437 0.08185968 -0.36715275 0.31336516 -0.3790081 -0.52608925 -0.14185488
0.11714696 -0.77701294 0.1230497 0.45368508 -0.00416728 -0.045326382 0.057954945 0.5708754
-0.121954165 -0.23255901 -0.013308394 -0.5156472 0.45864007 -0.121400125 -0.8065839 0.27102154
-0.08670826 -0.15568055 -0.17257471 0.06417881 -0.08305137 0.037388727 0.044310484 -0.19424355
-0.11312024 -0.07755632 -0.2935707 0.020814404 -0.3711945 0.45959246 0.00036411424 -0.06676773
-0.3756134 0.1558145 0.015678888 -0.14387958 0.023395626 0.16114421 -0.36652744 -0.039781947
0.4431748 -0.14048636 -0.052171428 -0.058576334 0.24074423 -0.3121288 0.1499912 -0.043190863
00000000: 770d 2cbd be6f c1be 2e51 4d3e dce9 3f3d
00000010: d8e7 0d3e dba4 573e 073f 07be 69d1 fd3d
00000020: 1fb1 4bbe 39b0 46be 3677 eabb 8f9d 97bd
00000030: d95b 023e 18a5 78be b48e 0dbf 3dd1 6ebe
00000040: 3b8a 183e 669d 493e ecee 13be f770 2bbe
00000050: 1514 23bd 445d 063e 7cf9 b9be 4b0d 77be
00000060: f720 263e a976 7abd c8e9 4abe 392a f43d
00000070: 62f7 5c3e 111a f33c d268 88bc 659c 98be
00000080: 282a 803e 19b1 09bd 2737 403e 9005 1d3e
00000090: 1bfc 8c3e 672f ebbc 81cf 423e f45b 7b3d
000000a0: b190 30be 1a5c e03b 9618 763e 9f1f ebbd
000000b0: cb86 8e3e f508 52be 5213 ef3b 51db fcbc
000000c0: 1029 95be e8c3 723d 79aa 07bd 4086 1fbd
000000d0: f47d 6d3e 05c6 ee3c cbc4 9ebe 6c64 ef3d
000000e0: 6398 d3bc e695 123e 3f9a 053c e40f 83bd
000000f0: 3938 98bd de39 03be 1ab4 143e 636f 82bd
00000100: 2f09 0dbe 0b0e 8dbe a1fa 293c 35d1 8d3e
00000110: cb65 5a3e f5cf 81be e1b4 193d f955 053e
00000120: e5b3 a23d 8422 b9be 4564 933e f923 45be
00000130: 1fcd 0cbe 48ef 993a 17d1 8ebe 7057 08be
00000140: 17dd 5ebe f24a 22bf dede b93e 4e14 9e3d
00000150: 8470 633d 8395 43bd d718 95be b7cb f83e
00000160: 695a 923d 1516 a9be fc5c 6d3e afa5 cfbe
00000170: e59c b03d db33 06be 83c5 d4be 6a06 18be
00000180: 4042 1d3e cdb7 463e d3bd 36bd aec3 dbbc
00000190: cee0 5dbe ba03 5b3e c522 83be 5ae0 903e
000001a0: b1dd 253d 25d7 20be 67be 98bc 5d16 f3be
000001b0: 5279 d13d 9166 bbbe c3af 8cbd 4263 8bbd
000001c0: f94c a8bc c9ab 72be 6aae f23d d8ae 223c
000001d0: 6146 923c 6c38 86bc c584 963e c0e7 083f
000001e0: a296 873d 8820 ae3c df93 e43e 3df1 bdbd
000001f0: 50b8 0a3e bb51 2b3e 8e31 b3be b577 b5bc
00000200: 78e7 14be 9beb a3be b391 d13d 5341 973e
00000210: 35af e9bc 9de1 50be c185 8c3e 9c77 6b3e
00000220: 1a54 e93d d560 3b3e b574 543e 7b2f a73d
00000230: 1309 07bd 33fe 543d 37cb 96be 4951 123d
00000240: 6dab dc3d b60b 19be 9172 533e 2017 833e
00000250: c732 57be b249 0abe cbfd 1d3d a1c7 bd3c
00000260: 5be3 84bd e640 b7be 8b9b 633e 639a 67be
00000270: a2cf ab3d 942d 9abd a5ff 72be b9b6 56bc
00000280: 2cb6 efbe 5582 3a3e 9a2c 09bf 0618 acbd
00000290: 7eff 5cbe f810 363d fb57 9ebe f054 6ebe
000002a0: 3c48 d53e 5128 883e 8774 b43e 7865 4abd
000002b0: 3ec6 ba3d 8d22 babd d36f 273e b51f 9abc
000002c0: 377e 2bbb 6d5c 90be 244a 0e3e 0b7c 7e3e
000002d0: 634c 14bd ea8d 963e fa9c 64be 4c67 193f
000002e0: 59da f33c fdb4 89be 2207 1b3e e1b3 babe
000002f0: ba6f cc3e fba5 fbbe cab3 12bf 169e 25bd
00000300: b603 623d edc1 f9be 6d33 02be e712 5b3e
00000310: f38f 593e 9ab9 8a3e 6d20 e5ba c327 253f
00000320: 9ed4 06bd 79ae 2b3d 0ca6 a73d 72fb bbbe
00000330: 6671 a03e 5a0d c2be c9ad 06bf 6842 11be
00000340: bfea ef3d 52ea 46bf 7b01 fc3d 6949 e83e
00000350: ae8d 88bb 28a8 39bd 2a62 6d3d e424 123f
00000360: 1bc3 f9bd f323 6ebe 730b 5abc 7401 04bf
00000370: dfd2 ea3e a1a0 f8bd 487c 4ebf 56c3 8a3e
00000380: 1a94 b1bd b96a 1fbe 6db7 30be 2e70 833d
00000390: d616 aabd ec24 193d e97e 353d c8e7 46be
000003a0: 96ab e7bd d9d5 9ebd e64e 96be f882 aa3c
000003b0: 350d bebe b44f eb3e 96e6 be39 85bd 88bd
000003c0: 6650 c0be d68d 1f3e 0371 803c 2b55 13be
000003d0: 2fa8 bf3c fd02 253e 7ca9 bbbe 65f2 22bd
000003e0: cfe7 e23e a8db 0fbe b5b1 55bd bded 6fbd
000003f0: a885 763e 59cf 9fbe 4b97 193e e7e8 30bd

lstm.bias_ih_l0 f4 [64]
-0.46189237 0.44599962 -0.14603104 -0.25662804 -0.3979572 -0.7631849 -0.22222662 -0.4279305
-0.3881036 -0.34326783 0.15342219 -0.7291023 -0.6368152 -0.77842045 0.37278843 -0.01177361
-0.78784806 0.1324882 -0.5611241 -0.66144574 -0.5551997 -0.8801005 -0.50211424 0.2317497
-0.23408377 -0.3620958 -0.5112246 -0.80844665 -0.33971265 -0.06419363 0.27636337 -0.41470647
0.12363445 0.24795632 0.03228249 -0.024280302 0.06052778 -0.11013743 0.021799974 -0.62024695
0.037903585 -0.2075539 -0.15606855 0.19546016 0.04362654 0.38192034 0.4087655 -0.13429399
-0.6932486 -1.1581697 -0.5908543 -0.16878721 -0.506637 -0.52287686 -0.42571014 -0.57336915
-0.6015874 -0.6288302 -0.020766864 -0.3443165 -0.3864339 -1.0656596 0.432427 -0.26550588
00000000: 287d ecbe 105a e43e 2989 15be c064 83be
00000010: 0cc1 cbbe 1660 43bf 608f 63be b519 dbbe
00000020: 84b5 c6be cdc0 afbe b51a 1d3e 73a6 3abf
00000030: 5206 23bf 9046 47bf 20de be3e 19e6 40bc
00000040: 69b0 49bf fdaa 073e d4a5 0fbf 8254 29bf
00000050: 9121 0ebf 444e 61bf 8f8a 00bf cb4f 6d3e
00000060: a8b3 6fbe 9f64 b9be 9edf 02bf 5cf6 4ebf
00000070: d1ee adbe f377 83bd 807f 8d3e 6854 d4be
00000080: 0f34 fd3d 43e8 7d3e a53a 043d 7ce7 c6bc
00000090: faeb 773d bc8f e1bd dc95 b23c 81c8 1ebf
000000a0: ca40 1b3d 0289 54be 6fd0 1fbe b526 483e
000000b0: beb1 323d 108b c33e b649 d13e 5d84 09be
000000c0: be78 31bf e83e 94bf 3a42 17bf 8ed6 2cbe
000000d0: f6b2 01bf 42db 05bf aef6 d9be 52c8 12bf
000000e0: a201 1abf 04fb 20bf 451f aabc 414a b0be
000000f0: aada c5be 8967 88bf 1267 dd3e 63f0 87be

lstm.bias_hh_l0 f4 [64]
-0.6741127 0.62866765 -0.289047 -0.1641404 -0.29222924 -0.58470887 -0.44254413 -0.47654465
-0.56492406 -0.21611342 0.53473353 -0.58710045 -0.8986142 -1.0306411 0.26433083 -0.39828998
-0.47181866 0.17912701 -0.4220741 -0.57814354 -0.79460466 -0.93023825 -0.46790692 0.014358817
-0.29789922 -0.6075962 -0.7416626 -0.62870985 -0.6326705 -0.1581413 0.25112844 -0.5897201
-0.11274375 0.39251196 -0.16384411 -0.034661092 0.15708014 0.008397679 0.0603585 -0.49056566
-0.021328537 0.02895352 -0.04072863 0.04872184 -0.21715945 0.29893312 0.54563725 0.16217639
-0.3161687 -1.1949699 -0.48936343 -0.19283463 -0.28664222 -0.7500479 -0.61406106 -0.24182259
-0.64656585 -0.9261169 0.12927058 -0.6800729 -0.78449255 -0.9091831 0.4589977 -0.09215389
00000000: a692 2cbf 5df0 203f f8fd 93be 6c14 28be
00000010: 129f 95be 7baf 15bf 2595 e2be a9fd f3be
00000020: dd9e 10bf d64c 5dbe 4ce4 083f 374c 16bf
00000030: 950b 66bf 0cec 83bf 5f56 873e aaec cbbe
00000040: 3792 f1be 126d 373e 191a d8be 3701 14bf
00000050: 366b 4bbf 1824 6ebf 7f91 efbe 3e41 6b3c
00000060: 3f86 98be 6d8b 1bbf 9add 3dbf 21f3 20bf
00000070: b2f6 21bf cbef 21be e893 803e e5f7 16bf
00000080: 32e6 e6bd 54f7 c83e c0c6 27be caf8 0dbd
00000090: 9ed9 203e 6b96 093c 793a 773d 6c2b fbbe
000000a0: 2fb9 aebc ef2f ed3c 10d3 26bd 8d90 473d
000000b0: 0c5f 5ebe c30d 993e e2ae 0b3f 9111 263e
000000c0: dde0 a1be c6f4 98bf d88d fabe 7176 45be
000000d0: c5c2 92be 2403 40bf 1b33 1dbf 57a0 77be
000000e0: 5785 25bf ff15 6dbf 825f 043e 4219 2ebf
000000f0: 81d4 48bf 39c0 68bf bf01 eb3e 2ebb bcbd

lstm.weight_ih_l1 f4 [64, 16]
0.055222414 0.27772033 -0.006235521 0.038751304 -0.05258244 0.10318482 0.064807534 1.0465698
0.2767888 0.47035667 0.40511093 -0.47741365 0.25248432 -0.8390729 0.03989056 -0.13127589
-0.11220378 0.31277385 -0.097433046 0.20078109 0.61674845 0.0750076 -0.0626349 -0.036924507
-0.003966732 0.0058856406 0.4746129 -0.16335224 0.12571566 -0.81033444 -0.115056686 -0.012459056
-0.11722214 0.09884992 -0.10820154 0.028215632 -0.5850659 0.43231645 0.037683494 0.58623695
0.29992455 -0.6525226 0.27680117 -0.24343373 0.18478243 -0.778772 0.15143444 -0.20173222
-0.14322375 0.32145727 -0.008994348 0.000511327 -1.3149679 0.39116338 0.067047276 1.2249123
0.07235135 -1.4739736 0.6777375 -0.46920472 0.08410097 -0.6258058 -0.10081693 0.3251467
-0.03407068 0.47187153 0.12889569 0.11585276 0.3899948 0.057147693 -0.04236531 0.61664706
-0.039890382 -0.26839486 0.65010643 -0.21436729 0.32126546 -0.46417156 -0.20256151 0.12897833
0.06561343 0.33453527 -0.028320793 0.28457806 0.15100558 0.37622318 0.001267471 0.63139397
-0.25667426 0.17973414 0.547506 -0.39400637 0.294886 -0.8041776 -0.002462442 0.16488788
0.12989606 0.29866534 0.2119764 -0.054652315 0.21008408 0.3750616 0.03390149 0.6060656
0.1534594 0.4175236 0.288052 -0.3488033 0.18773344 -0.7156421 -0.12647638 -0.14329001
-0.0948331 0.28340605 -0.15596163 0.122549 -0.1061456 0.17181654 0.06282865 1.05882
0.2982179 -0.18954808 0.0023683652 -0.3193662 0.36053357 -0.8565585 -0.20069876 0.15016152
-0.15409115 0.19786671 0.06137872 0.16146626 -0.55742866 0.22327769 -0.12367607 1.0721358
0.30439106 -0.70962226 0.6840554 -0.37635317 0.28498495 -0.72275186 -0.46295235 0.07211499
-0.1507382 0.18291534 -0.13156363 0.14434685 0.18213873 0.36109182 0.27083147 0.735457
-0.18206705 -0.07860415 0.3728287 -0.45922703 -0.021930141 -0.5192699 0.047481515 0.25937065
0.07966884 0.28835753 -0.036724243 0.058079943 -0.10621613 0.012761486 -0.0065101795 0.6999477
0.11726808 -0.6733092 0.42931712 -0.24829069 0.31253028 -0.55006146 -0.16198379 0.16205229
0.07946364 0.22467983 -0.06963586 0.033807036 1.1969098 0.40305814 0.12657507 0.42990482
0.048705455 0.70944285 0.31058228 -0.52385056 0.37359136 -0.60330564 -0.23206271 -0.104418054
0.21718399 0.34999526 0.05360371 0.19880399 0.23380026 0.14529468 0.018617785 0.7309717
-0.15508723 0.0906813 0.4423602 -0.243632 0.42974654 -0.7428904 -0.14802559 0.21833555
-0.06254415 0.22058971 0.46296892 -0.07198319 -0.09838346 0.26764145 -0.061769556 0.7137763
0.21452591 -0.7952518 0.567694 -0.25424227 0.21714206 -0.94977254 -0.59569114 0.26891372
0.5640192 -0.32929292 0.3283388 0.5282979 1.6981498 -0.4538853 0.24965516 -0.8823176
-0.43730667 0.036486838 0.06643695 0.05698104 0.12531425 0.48094624 -0.19780825 0.49044672
-0.1258872 0.3630004 -0.097247384 0.24369313 -0.24251905 0.19815639 -0.1743552 1.1098058
0.0010684285 -0.24835703 0.11075117 -0.42319 0.36511078 -0.5746016 0.2314372 -0.11630013
00000000: e630 623d 5c31 8e3e 5753 ccbb b0b9 1e3d
00000010: af60 57bd 9052 d33d d0b9 843d 00f6 853f
00000020: 43b7 8d3e 97d2 f03e b36a cf3e 906f f4be
00000030: a045 813e 7bcd 56bf 4964 233d 306d 06be
00000040: 18cb e5bd e523 a03e fa8a c7bd 8f99 4d3e
00000050: 3ae3 1d3f 969d 993d ba46 80bd 273e 17bd
00000060: 5cfb 81bb 55dc c03b 7600 f33e cf45 27be
00000070: 9bbb 003e 1472 4fbf d7a2 ebbd 1221 4cbc
00000080: 2912 f0bd d471 ca3d c598 ddbd 7824 e73c
00000090: e1c6 15bf 9558 dd3e 025a 1a3d a013 163f
000000a0: b68f 993e b90b 27bf e2b8 8d3e b146 79be
000000b0: 9b37 3d3e 9a5d 47bf a111 1b3e e492 4ebe
000000c0: 3fa9 12be 0c96 a43e 085d 13bc 930a 063a
000000d0: de50 a8bf 9146 c83e 1550 893d edc9 9c3f
000000e0: f22c 943d 2bab bcbf 3480 2d3f 9a3b f0be
000000f0: 213d ac3d cf34 20bf 1b79 cebd a179 a63e
00000100: b38d 0bbd 2599 f13e 3bfd 033e 3644 ed3d
00000110: 66ad c73e b313 6a3d 3f87 2dbd 95dc 1d3f
00000120: 1964 23bd 0d6b 89be 606d 263f 1983 5bbe
00000130: e87c a43e e5a7 edbe 496c 4fbe e512 043e
00000140: 5660 863d 3548 ab3e 0201 e8bc 37b4 913e
00000150: 35a1 1a3e 53a0 c03e 4521 a63a 09a3 213f
00000160: cf6a 83be 3a0c 383e 5a29 0c3f 34bb c9be
00000170: 4cfb 963e 95de 4dbf ec60 21bb 5ed8 283e
00000180: 7903 053e aaea 983e 5710 593e 1bdb 5fbd
00000190: 4820 573e 1308 c03e 4adc 0a3d 1d27 1b3f
000001a0: 7624 1d3e a7c5 d53e 8d7b 933e 5996 b2be
000001b0: 323d 403e 5234 37bf 0683 01be 9eba 12be
000001c0: db37 c2bd 991a 913e 68b4 1fbe f8fa fa3d
000001d0: dd62 d9bd adf0 2f3e 4fac 803d 6a87 873f
000001e0: 04b0 983e e418 42be 9336 1b3b f783 a3be
000001f0: db97 b83e 6b47 5bbf fa83 4dbe f1c3 193e
00000200: 12ca 1dbe 929d 4a3e 4168 7b3d 6957 253e
00000210: a5b3 0ebf e8a2 643e e149 fdbd bf3b 893f
00000220: 25d9 9b3e cea9 35bf 411e 2f3f 5db1 c0be
00000230: 8ce9 913e 4406 39bf 1708 edbe 06b1 933d
00000240: 1d5b 1abe 294e 3b3e 9eb8 06be a9cf 133e
00000250: 9382 3a3e 07e1 b83e 6caa 8a3e e946 3c3f
00000260: c96f 3abe 36fb a0bd 67e3 be3e ce1f ebbe
00000270: d7a6 b3bc dfee 04bf fa7b 423d 3bcc 843e
00000280: 6b29 a33d 99a3 933e 296c 16bd 3ce5 6d3d
00000290: d887 d9bd 8d15 513c 5853 d5bb c62f 333f
000002a0: 3f2a f03d fe5d 2cbf 74cf db3e ea3f 7ebe
000002b0: f803 a03e d4d0 0cbf 14df 25be 09f1 253e
000002c0: d5bd a23d 7812 663e 3f9d 8ebd 3f79 0a3d
000002d0: 5734 993f a35d ce3e e59c 013e 7c1c dc3e
000002e0: 5f7f 473d 0c9e 353f a404 9f3e 121b 06bf
000002f0: 5e47 bf3e 3d72 1abf d9a1 6dbe 22d9 d5bd
00000300: 7b65 5e3e 9432 b33e 908f 5b3d 4693 4b3e
00000310: 5669 6f3e 21c8 143e 5384 983c f620 3b3f
00000320: 30cf 1ebe 1eb7 b93d 097d e23e ab7a 79be
00000330: bd07 dc3e 112e 3ebf 0594 17be 5b93 5f3e
00000340: 2617 80bd 45e2 613e 430a ed3e ec6b 93bd
00000350: 447d c9bd 4d08 893e 1302 7dbd 0bba 363f
00000360: aeac 5b3e 9f95 4bbf 6554 113f 0b2c 82be
00000370: 7d5a 5e3e 4b24 73bf 377f 18bf 0faf 893e
00000380: 9063 103f 1599 a8be 061c a83e 883e 073f
00000390: f95c d93f a763 e8be 9aa5 7f3e 91df 61bf
000003a0: a9e6 dfbe 3973 153d 1810 883d f364 693d
000003b0: 6152 003e 963e f63e 3f8e 4abe d51b fb3e
000003c0: 93e8 00be 30db b93e a329 c7bd b18a 793e
000003d0: ea56 78be 82e9 4a3e 2b8a 32be 1e0e 8e3f
000003e0: 830a 8c3a 4e51 7ebe 82d1 e23d 5cac d8be
000003f0: cdef ba3e 1719 13bf e0fd 6c3e c32e eebd

lstm.weight_hh_l1 f4 [64, 16]
-0.039629463 -0.11514739 -0.12778124 -0.14817335 -0.040547226 -0.0946786 0.24215584 0.26153862
0.18950985 0.03948119 0.22553653 0.16451527 -0.11000412 -0.1122584 0.16667154 -0.19975066
0.22452383 -0.20702378 0.15792592 0.22997102 -0.26039943 0.14229912 -0.23291488 0.1662176
-0.14971133 -0.30850065 0.24428996 0.2892533 -0.06596377 0.23661341 0.15158774 0.18380243
0.36019474 -0.109323606 -0.17447822 -0.11538893 -0.25438938 -0.09488923 0.20479864 0.0053539164
-0.24296306 0.22250704 -0.015484135 0.16059282 -0.25042954 -0.01905863 0.04051993 -0.15140453
0.13007677 -0.22714525 -0.06783905 -0.015100533 -0.17369786 0.14381924 -0.21102625 -0.10906749
0.05450356 -0.24198884 -0.1909357 0.10804349 -0.058916125 0.075306855 0.03484152 0.037893154
0.26741213 0.17772056 0.14536758 -0.19517845 0.05135559 -0.06526966 -0.34955215 0.13249657
-0.0008356239 -0.18719944 0.08721796 0.09887598 -0.085092835 -0.10574896 -0.12845801 0.16770981
0.024660839 -0.047989774 -0.17966269 0.04994209 0.015381266 0.047641896 -0.24130282 0.25504923
0.11172679 0.103305385 -0.15374167 -0.013379533 -0.055302773 -0.054844458 0.14283775 0.1716943
0.12992732 0.19285522 -0.16244507 0.09231378 -0.306165 0.1792621 -0.2505538 -0.056505162
-0.004821039 0.10069919 0.16640055 0.11013628 0.17130111 0.107027106 0.31676444 -0.07631445
0.06900671 0.08869276 0.13666925 -0.15590748 -0.22912262 -0.056745768 0.22304727 0.07004298
-0.01229564 0.024992421 0.14745693 -0.046363503 0.21088685 -0.2562931 -0.19708382 0.07205625
0.06376827 0.04849019 0.013563958 -0.0682077 -0.12378247 -0.1644439 0.044708792 0.08608121
-0.282019 0.18987389 0.072881624 0.2022703 0.021752935 -0.2055443 0.18728669 0.13533282
0.08522806 -0.062498976 -0.26703188 0.119914606 -0.043610368 0.16592294 -0.28634065 0.087210074
0.08673798 0.29013294 0.18407948 0.15009007 -0.19765946 -0.18057981 0.2216802 0.15184009
-0.008008505 0.11167877 -0.34331712 -0.14723292 0.13768642 0.12754953 -0.17918287 0.21547823
-0.07817541 -0.1750452 0.20263693 0.047604658 -0.18937019 0.124865554 -0.16169661 0.04976873
0.48004228 0.1294633 -0.085329905 0.0031615207 -0.19599277 -0.27180645 0.13418026 0.15859327
-0.1913426 0.0910218 -0.14584969 0.26097563 0.13724327 0.038320724 0.009241888 -0.09082136
0.23361202 0.11580842 0.24580911 0.14410034 0.121860415 -0.09589951 -0.06751959 -0.17955631
-0.17576353 -0.10409414 0.099677846 -0.071483955 0.163619 0.09902298 -0.21357617 0.19692557
0.24668965 0.2404681 -0.10014182 -0.1077573 -0.29785305 -0.059039406 0.13596095 0.058714263
0.17758502 0.13037048 0.12472661 0.27733842 0.0043964456 -0.075844586 -0.018679187 -0.1120616
0.2992847 0.064137645 -0.14108655 -0.49583447 -0.2922484 -0.09202186 0.070813306 -0.31546757
0.51568377 -0.26060265 -0.46311465 -0.1925627 -0.19370355 -0.10087609 0.05210131 0.09299796
0.12150206 0.1507857 0.02886393 0.2258718 0.17351481 -0.031081475 0.23399916 -0.005219905
-0.31518403 0.1712701 -0.12396265 0.041141313 -0.064379856 0.09307159 0.0039696367 0.06385688
00000000: 8152 22bd 65d2 ebbd 16d9 02be c1ba 17be
00000010: d914 26bd dbe6 c1bd b3f7 773e 64e8 853e
00000020: df0e 423e 07b7 213d 0cf3 663e b176 283e
00000030: d749 e1bd bbe7 e5bd f2ab 2a3e 708b 4cbe
00000040: 93e9 653e 0bfe 53be 55b7 213e 867d 6b3e
00000050: 1353 85be dcb6 113e 3d81 6ebe f234 2a3e
00000060: ed4d 19be ccf3 9dbe 2627 7a3e 0219 943e
00000070: 0318 87bd c94a 723e d139 1b3e b436 3c3e
00000080: 726b b83e 0ee5 dfbd 6baa 32be 0851 ecbd
00000090: 533f 82be 4955 c2bd bcb6 513e e86f af3b
000000a0: 4fcb 78be e3d8 633e 2bb1 7dbc 7272 243e
000000b0: 4d38 80be d820 9cbc 3af8 253d ca09 1bbe
000000c0: d832 053e c498 68be 33ef 8abd 3a68 77bc
000000d0: dadd 31be 5a45 133e 4417 58be c75e dfbd
000000e0: 203f 5f3d eccb 77be a684 43be e845 dd3d
000000f0: 0952 71bd 7b3a 9a3d fbb5 0e3d da35 1b3d
00000100: 3eea 883e 61fc 353e 3ddb 143e dcdc 47be
00000110: 3d5a 523d 19ac 85bd 80f8 b2be 2ead 073e
00000120: c50d 5bba 36b1 3fbe 549f b23d 7d7f ca3d
00000130: 2745 aebd e992 d8bd 7f8a 03be 1fbc 2b3e
00000140: 8705 ca3c ed90 44bd 7ff9 37be 1490 4c3d
00000150: b501 7c3c 2624 433d 1618 77be d095 823e
00000160: 04d1 e43d c691 d33d 756e 1dbe d435 5bbc
00000170: 2985 62bd 95a4 60bd 0f44 123e a1d0 2f3e
00000180: ab0b 053e d77b 453e 0058 26be 020f bd3d
00000190: a9c1 9cbe 7c90 373e 9648 80be f571 67bd
000001a0: cef9 9dbb 603b ce3d e864 2a3e 218f e13d
000001b0: 8f69 2f3e 0731 db3d f32e a23e c04a 9cbd
000001c0: 6453 8d3d 8da4 b53d 06f3 0b3e 36a6 1fbe
000001d0: 1f9f 6abe 406e 68bd 8166 643e b272 8f3d
000001e0: a773 49bc e8bc cc3c f3fe 163e a8e7 3dbd
000001f0: b9f2 573e d938 83be 57d0 49be 3a92 933d
00000200: f098 823d a69d 463d 5d3b 5e3c 7bb0 8bbd
00000210: aa81 fdbd fb63 28be 9120 373d 584b b03d
00000220: cb64 90be 4d6e 423e f642 953d f21f 4f3e
00000230: 3633 b23c 347a 52be 15c8 3f3e b094 0a3e
00000240: 0d8c ae3d edfe 7fbd 67b8 88be ca95 f53d
00000250: c9a0 32bd b4e7 293e 3e9b 92be 329b b23d
00000260: afa3 b13d 4e8c 943e 557f 3c3e 36b1 193e
00000270: 3e67 4abe eae9 38be 2200 633e f87b 1b3e
00000280: 1b36 03bc d7b7 e43d 43c7 afbe 3ac4 16be
00000290: abfd 0c3e 589c 023e b77b 37be 53a6 5c3e
000002a0: 6e1a a0bd 0d3f 33be 0e80 4f3e 1afd 423d
000002b0: 42ea 41be 83b9 ff3d cc93 25be 4cda 4b3d
000002c0: 1ac8 f53e 0792 043e 72c1 aebd 8431 4f3b
000002d0: 54b2 48be 372a 8bbe 8d66 093e 4666 223e
000002e0: 51ef 43be a369 ba3d 9f59 15be 999e 853e
000002f0: 8089 0c3e 31f6 1c3d 4a6b 173c 8d00 babd
00000300: fd37 6f3e f72c ed3d 62b5 7b3e 0a8f 133e
00000310: f491 f93d f666 c4bd b647 8abd 9cdd 37be
00000320: 5bfb 33be 4f2f d5bd e623 cc3d 2e66 92bd
00000330: bd8b 273e 8fcc ca3d b6b3 5abe dba6 493e
00000340: 369c 7c3e 453d 763e 2817 cdbd dcaf dcbd
00000350: 3280 98be 4ed3 71bd 5939 0b3e 5e7e 703d
00000360: d9d8 353e d77f 053e aa70 ff3d 4dff 8d3e
00000370: 0f10 903b 6854 9bbd 1805 99bc 8d80 e5bd
00000380: d83b 993e 995a 833d fe78 10be 04de fdbe
00000390: 95a1 95be f575 bcbd 9106 913d f784 a1be
000003a0: da03 043f b66d 85be 5d1d edbe 282f 45be
000003b0: 395a 46be 2098 cebd 2f68 553d b775 be3d
000003c0: 12d6 f83d 9167 1a3e 0c74 ec3c f04a 673e
000003d0: dead 313e 949e febc 7a9d 6f3e bd0b abbb
000003e0: cd5f a1be 6e61 2f3e 21e0 fdbd cb83 283d
000003f0: 96d9 83bd 519c be3d ba13 823b 65c7 823d

lstm.bias_ih_l1 f4 [64]
-0.108125396 -0.10475619 0.12547524 -0.066831715 0.2752808 -0.1446215 -0.10840428 -0.3668692
0.015491475 0.04016206 0.069156595 0.052231807 0.17907895 0.17564824 0.24663252 -0.17802152
-0.35882148 -0.47396353 -0.56210256 -0.41823298 -0.31171632 -0.36915073 -0.3641371 -0.42485535
-0.08601431 -0.13391837 -0.4357676 -0.093110316 -0.19677858 -0.15858002 -0.491796 -0.5567991
-0.16784912 -0.065147005 -0.19171782 0.03893919 -0.11258741 -0.08090934 0.14760727 0.101159446
-0.12302569 0.17937988 -0.11757063 0.13776393 0.054266304 -0.03585041 -0.10284354 -0.095587514
-0.1597739 0.19149478 0.09720497 0.10865556 0.29909745 -0.10170086 0.1666364 -0.27732503
-0.18883993 -0.08152879 -0.040443994 -0.079992175 -0.13037318 0.081686355 -0.12408052 -0.34895173
00000000: d970 ddbd 6a8a d6bd 957c 003e 11df 88bd
00000010: 9bf1 8c3e a917 14be 1003 debd 48d6 bbbe
00000020: f5cf 7d3c f980 243d f9a1 8d3d 05f1 553d
00000030: 7960 373e 22dd 333e 3c8d 7c3e 464b 36be
00000040: 73b7 b7be 59ab f2be f4e5 0fbf a222 d6be
00000050: 4899 9fbe 5301 bdbe 2e70 babe a486 d9be
00000060: 4528 b0bd e621 09be ee1c dfbe 9fb0 bebd
00000070: 5380 49be cd62 22be afcc fbbe 638a 0ebf
00000080: a4e0 2bbe cb6b 85bd ad51 44be b37e 1f3d
00000090: 3a94 e6bd ccb3 a5bd 5c26 173e af2c cf3d
000000a0: e5f4 fbbd 5caf 373e dfc8 f0bd fd11 0d3e
000000b0: 5846 5e3d e1d7 12bd a29f d2bd 63c3 c3bd
000000c0: c59b 23be 3517 443e 6613 c73d ce86 de3d
000000d0: 4d23 993e 8a48 d0bd bca2 2a3e 8cfd 8dbe
000000e0: 415f 41be 91f8 a6bd 9aa8 25bd f0d2 a3bd
000000f0: 8c80 05be 2d4b a73d ed1d febd cda9 b2be

lstm.bias_hh_l1 f4 [64]
0.057913497 0.11820924 -0.14662479 -0.2183535 -0.11452689 -0.08870346 0.08795111 0.021284323
-0.24676085 -0.17292514 0.11792759 0.05224843 0.11972783 -0.27712676 -0.043683052 -0.09749055
-0.3680723 -0.24733637 -0.3553901 -0.4564621 -0.104773656 -0.50321025 -0.5772587 -0.26708034
-0.5483606 -0.46586365 -0.54485804 -0.45240784 -0.39392993 -0.4802314 -0.6009912 -0.5927714
0.0975506 0.009941524 0.23385972 0.00093806785 0.084644064 0.09267611 -0.17499633 -0.043882374
0.108480684 -0.18360817 0.09546004 -0.15292715 -0.062892236 0.017020406 0.052731663 -0.012330816
-0.33097327 -0.07571476 0.09196564 -0.18908525 0.030535484 0.27095434 0.17804316 -0.31097078
-0.28418195 0.14863567 0.13256553 0.0940054 -0.09962875 0.22719324 0.17462938 -0.2400944
00000000: b436 6d3d b017 f23d cf24 16be 0f98 5fbe
00000010: 138d eabd 29aa b5bd b61f b43d 765c ae3c
00000020: e0ae 7cbe 4a13 31be 0584 f13d 7302 563d
00000030: dd33 f53d 8fe3 8dbe 00ed 32bd 20a9 c7bd
00000040: f973 bcbe bf45 7dbe b1f5 b5be 66b5 e9be
00000050: 9293 d6bd 63d2 00bf 3ac7 13bf c1be 88be
00000060: 5c61 0cbf ae85 eebe d17b 0bbf 00a2 e7be
00000070: 2fb1 c9be e4e0 f5be 8fda 19bf debf 17bf
00000080: 9cc8 c73d c6e1 223c ec78 6f3e abe8 753a
00000090: de59 ad3d f9cc bd3d 3d32 33be 01be 33bd
000000a0: 1f2b de3d c803 3cbe 8e80 c33d ef98 1cbe
000000b0: a5cd 80bd 616e 8b3c 28fd 573d 3107 4abc
000000c0: 5475 a9be 5710 9bbd 7b58 bc3d 909f 41be
000000d0: 8d25 fa3c 87ba 8a3e f250 363e 9037 9fbe
000000e0: 4c80 91be f333 183e 42bf 073e e785 c03d
000000f0: 280a ccbd 58a5 683e 0bd2 323e 4edb 75be

lstm.weight_ih_l2 f4 [64, 16]
-0.48849514 0.061230462 0.27470195 0.47708416 -0.16159403 0.01925099 -0.023106666 0.28833896
-0.41387457 0.06779582 0.16096538 0.018358676 0.36956486 0.030568073 -0.6048323 -0.509088
-0.27403763 -0.36424625 0.023286574 0.17693701 0.31054917 0.08378846 0.080631234 0.4130977
-0.35569572 -0.19519207 0.049804863 -0.03852166 0.078568056 -0.012695674 -0.35469407 -0.14480409
-0.3856285 -0.14655352 0.28926584 0.2777204 0.10809709 0.103183545 -0.25737396 0.45841417
-0.423507 -0.13364525 0.08579812 -0.08039079 0.113880195 0.39308363 -0.026732232 -0.3183241
-0.2937771 0.02730681 0.5082916 0.12522666 0.4202683 0.39107057 -0.32651377 0.5018255
-0.23003235 0.24091315 0.46612015 0.05477148 0.29485995 0.31518522 0.129609 -0.25240391
-0.43396366 0.13700789 0.34796584 0.23365833 0.31527796 0.28258386 -0.17768839 0.22353572
-0.45419937 -0.02411682 0.38751063 0.27098984 0.19346325 0.07675969 -0.04034432 -0.17567945
-0.57656825 0.23822178 0.3090867 0.49602404 0.1289823 0.3123835 -0.40951267 0.3681891
-0.15498921 0.25767714 0.17138149 0.09644034 0.22854531 0.42206374 0.24543314 -0.40395057
-0.24002455 -0.2287301 0.097707875 -0.002344746 -0.05147762 -0.06741538 -0.2465953 0.1836884
-0.15844865 -0.055208296 0.17729452 0.2048476 0.25971195 0.05480774 -0.49477777 -0.14064068
-0.5250869 0.030175952 0.295582 0.20026775 0.14292684 -0.053204935 -0.020022852 0.20085782
-0.30987707 0.39341137 0.112684354 -0.04951846 0.18990393 0.30261827 0.22349079 -0.47759977
-0.5040944 0.25807083 0.38705176 0.19770692 0.06557857 0.31465393 -0.047903866 0.1903269
-0.422493 0.027873863 -0.13127108 -0.0421145 0.2789987 0.48091602 -0.28160343 -0.442929
-0.23311587 0.007157204 -0.06745418 0.1433296 0.098608606 -0.11521668 -0.034365892 0.28268936
0.06674775 -0.011993163 0.12733091 -0.026090616 0.29445398 0.35557768 -0.37823808 0.15179913
-0.3106265 0.009304181 -0.0006809306 0.24171437 0.1366853 -0.051511567 -0.12398809 0.10600595
-0.17472506 0.2714621 0.28944004 0.06805621 0.23041455 0.21002743 -0.10316637 -0.2735309
-0.45122752 0.12486824 0.3186301 0.34229794 0.060260028 0.027746037 -0.32385957 0.5301709
-0.15638408 -0.048121672 0.3577261 -0.07660043 -0.038879454 0.07136445 -0.36817822 -0.2682353
-0.5402175 -0.43122107 -0.05304421 0.2192359 0.18093248 0.22570913 -0.22033551 0.27565622
-0.19536965 0.1458676 0.15477362 -0.2507707 -0.12512596 0.13610293 -0.061198823 -0.13743035
-0.4918305 0.1523291 0.1214115 0.19203438 -0.20582399 -0.096602425 0.23963337 0.099993765
-0.3584058 0.041627504 0.091879256 0.09105829 0.3385406 0.21531196 -0.12406183 -0.30225718
-0.49234173 -0.024835184 0.11345032 0.34923184 -0.029787296 0.066769205 -0.023493972 0.37676877
-0.12456873 0.08976606 0.05495075 0.0629255 0.15344293 0.41255593 0.13339305 -0.23813602
-0.63508755 -0.2314429 0.4349102 0.23200598 0.22068097 -0.070526645 -0.30829078 0.45539603
-0.29234692 0.13107678 0.18145673 0.25336972 -0.04079429 0.23702468 -0.13750847 -0.42762512
00000000: 091c fabe cbcc 7a3d bca5 8c3e 6044 f43e
00000010: e878 25be 41b4 9d3c 314a bdbc 2aa1 933e
00000020: 5ee7 d3be 89d8 8a3d 1cd4 243e ef64 963c
00000030: 9b37 bd3e e569 fa3c 4ad6 1abf 9753 02bf
00000040: a94e 8cbe 7c7e babe 7cc3 be3c fa2e 353e
00000050: 4d00 9f3e 4999 ab3d fd21 a53d 8b81 d33e
00000060: c01d b6be 6ee0 47be 2f00 4c3d e3c8 1dbd
00000070: 4ae8 a03d 8401 50bc 769a b5be 8647 14be
00000080: 1971 c5be 2012 16be a71a 943e 5e31 8e3e
00000090: 0262 dd3d e551 d33d 85c6 83be 43b5 ea3e
000000a0: e9d5 d8be 4dda 08be edb6 af3d eda3 a4bd
000000b0: 053a e93d 4242 c93e 8efd dabc 60fb a2be
000000c0: f469 96be 88b2 df3c 661f 023f 6b3b 003e
000000d0: 682d d73e 673a c83e d02c a7be a377 003f
000000e0: 9a8d 6bbe f0b1 763e 4da7 ee3e 0f58 603d
000000f0: e2f7 963e f55f a13e 39b8 043e 163b 81be
00000100: 7c30 debe cc4b 0c3e 9428 b23e 2144 6f3e
00000110: 1d6c a13e d5ae 903e f2f3 35be 8ce6 643e
00000120: d28c e8be a390 c5bc cb67 c63e 2ebf 8a3e
00000130: 3b1b 463e 2f34 9d3d 1640 25bd 50e5 33be
00000140: fa99 13bf 69f0 733e 9d40 9e3e ddf6 fd3e
00000150: f013 043e bbf0 9f3e a5ab d1be 4883 bc3e
00000160: 7eb5 1ebe 42ee 833e a17e 2f3e 8382 c53d
00000170: c807 6a3e bd18 d83e d352 7b3e 9cd2 cebe
00000180: ffc8 75be 3938 6abe 111b c83d 4faa 19bb
00000190: 32da 52bd 1311 8abd 7a83 7cbe d018 3c3e
000001a0: 5d40 22be 1822 62bd b28c 353e 92c3 513e
000001b0: f7f8 843e 157e 603d 8353 fdbe 1c04 10be
000001c0: 186c 06bf 8f33 f73c 8656 973e fd12 4d3e
000001d0: 6a5b 123e 6bed 59bd f706 a4bc acad 4d3e
000001e0: 35a8 9ebe 376d c93e 0ec7 e63d ded3 4abd
000001f0: 2d76 423e c8f0 9a3e c5da 643e f587 f4be
00000200: 550c 01bf dc21 843e a62b c63e af73 4a3e
00000210: 0f4e 863d 521a a13e d836 44bd 0ee5 423e
00000220: 0151 d8be ba57 e43c ed6b 06be 4180 2cbd
00000230: ebd8 8e3e a03a f63e 532e 90be 97c7 e2be
00000240: edb5 6ebe fb86 ea3b 6b25 8abd ffc4 123e
00000250: 4ff3 c93d b9f6 ebbd 40c3 0cbd a9bc 903e
00000260: 0bb3 883d f97e 44bc 0963 023e fdbb d5bc
00000270: acc2 963e 470e b63e 6ca8 c1be 3b71 1b3e
00000280: 700a 9fbe 9070 183c 7b80 32ba f983 773e
00000290: 3bf7 0b3e cbfd 52bd 78ed fdbd a619 d93d
000002a0: 20eb 32be 15fd 8a3e 7c31 943e 0e61 8b3d
000002b0: cbf1 6b3e 6e11 573e e448 d3bd 3e0c 8cbe
000002c0: 4b07 e7be ebba ff3d 7c23 a33e ad41 af3e
000002d0: 38d3 763d a84b e33c ecd0 a5be 48b9 073f
000002e0: 2623 20be 3b1b 45bd e027 b73e b0e0 9cbd
000002f0: 1040 1fbd 8627 923d db81 bcbe 2356 89be
00000300: b24b 0abf 02c9 dcbe e344 59bd 607f 603e
00000310: 5d46 393e 4b20 673e a29f 61be d022 8d3e
00000320: fb0e 48be 515e 153e fa7c 1e3e 0465 80be
00000330: 0521 00be 915e 0b3e 9eab 7abd 8bba 0cbe
00000340: 35d1 fbbe 29fc 1b3e 98a6 f83d a9a4 443e
00000350: 86c3 52be 7ed7 c5bd 7362 753e 88c9 cc3d
00000360: f780 b7be 9a81 2a3d 312b bc3d c57c ba3d
00000370: 3255 ad3e bd7a 5c3e 2114 febd 74c1 9abe
00000380: 3714 fcbe 2873 cbbc a458 e83d 84ce b23e
00000390: 7d04 f4bc 4bbe 883d 6e76 c0bc d6e7 c03e
000003a0: e41d ffbd 45d7 b73d 0a14 613d 16df 803d
000003b0: 2520 1d3e 883a d33e 3098 083e eed9 73be
000003c0: 1995 22bf 5eff 6cbe 8dac de3e fa92 6d3e
000003d0: 31fa 613e 4670 90bd 4ad8 9dbe ab29 e93e
000003e0: 7fae 95be fe38 063e cbcf 393e adb9 813e
000003f0: ea17 27bd 99b6 723e 05cf 0cbe aef1 dabe

lstm.weight_hh_l2 f4 [64, 16]
-0.02243218 -0.12335278 0.022437306 0.007109705 -0.29406372 0.1866402 -0.20576154 -0.14290242
0.08236438 0.105358526 0.021949166 0.24328199 -0.08967115 0.028465096 -0.20748329 -0.08334624
0.07859766 -0.23054226 0.13192871 -0.20706616 -0.23965847 0.08582697 -0.22222607 0.015389307
0.11509245 0.06537575 0.017201925 -0.17971069 0.08093024 0.06369259 -0.28831095 0.15245585
0.0720009 -0.17441125 -0.16514869 -0.06498987 -0.14349647 -0.03522991 0.11053503 -0.037214085
-0.005060257 -0.012573018 0.08935169 0.13109244 0.09075126 -0.24961539 -0.032531846 0.31632626
-0.06276853 -0.2199555 -0.23809434 -0.14409424 -0.3860992 0.019161401 -0.20067318 -0.29108363
-0.06550887 -0.20575893 0.21854457 0.22905168 -0.1966766 -0.18856624 0.025075475 -0.031725653
0.050643925 -0.059268627 0.044913284 -0.16505949 0.10483533 0.02961765 -0.03292379 0.0698097
-0.29565063 -0.19969907 0.058466647 0.042044647 -0.06184073 -0.25756237 0.11457393 0.017573321
-0.04276012 -0.3302248 -0.11290211 -0.4159011 -0.3467375 -0.050632324 0.13979705 -0.08922298
0.18893853 0.20552611 -0.1531021 -0.08983895 0.14113222 -0.08221852 -0.10846587 0.34615502
0.34038728 -0.31918725 0.16229255 -0.24672788 0.03203411 0.2010475 -0.11973077 -0.106035665
-0.09892227 0.027151005 -0.06487896 0.063020326 0.15723325 0.29130483 -0.010632702 -0.07570235
0.1562673 -0.10973738 -0.14650781 -0.11284883 -0.17988597 0.012384614 0.0071001626 0.097051084
0.2545263 -0.19679141 0.24216849 0.15287513 0.1703625 0.177469 -0.15483266 -0.095989585
0.21598002 0.07730278 0.0020275621 -0.23681204 -0.20380308 0.22310744 0.23492137 -0.19669648
0.20612659 -0.075134754 0.27148834 -0.16259705 0.07876401 0.22252439 -0.3649505 -0.0015930481
0.06565566 -0.10990563 -0.0622542 -0.110153235 -0.4233724 0.13515893 0.06953464 -0.121189594
-0.12890624 0.2790485 -0.03705381 -0.07359341 -0.20165282 0.06334857 -0.037103944 0.061459355
-0.08528573 -0.061446063 0.049701203 -0.25112998 -0.25633416 0.27280447 -0.287718 -0.19691972
0.21760562 -0.15824428 -0.14932394 -0.2871996 0.32921132 -0.059600383 -0.3150093 -0.055216517
0.16878872 -0.017131096 -0.018932289 -0.05415395 0.09152661 0.16372648 0.07089763 -0.11744426
0.16823883 0.035770725 0.11786401 0.05664379 0.19693124 -0.17199352 -0.23770502 -0.098912306
0.10170009 -0.0701503 -0.13444525 -0.10458182 -0.25820494 0.07894498 -0.29399073 0.03183744
-0.1417985 0.09188809 0.266831 -0.3245696 0.046415813 -0.22781633 -0.21387778 0.2088977
0.18770446 0.15858547 0.18558538 -0.19337916 -0.024617366 0.02781241 -0.05706929 -0.08520729
0.2390719 0.1620034 -0.121100046 -0.026753183 0.021773461 0.16817452 -0.04404958 0.16132648
-0.0643153 -0.09668492 0.109429836 -0.1108177 -0.39052516 0.24742347 0.052068304 0.11030776
-0.2487094 -0.22509472 0.106931515 -0.063918374 0.20307393 -0.18035968 -0.06121006 -0.09384275
0.04385214 -0.08008551 -0.03610414 -0.46484625 -0.3692712 -0.091661714 -0.0130497115 -0.2071403
-0.028186245 -0.1861229 -0.07708137 -0.2674594 0.06467268 0.029636847 -0.06096146 0.10939408
00000000: b1c3 b7bc 62a0 fcbd 71ce b73c 87f8 e83b
00000010: 858f 96be 9c1e 3f3e 27b3 52be 0355 12be
00000020: a8ae a83d 36c6 d73d bdce b33c ea1e 793e
00000030: 82a5 b7bd a22f e93c 8076 54be 6fb1 aabd
00000040: cff7 a03d 4513 6cbe 5218 073e 2709 54be
00000050: 0869 75be 0dc6 af3d 3b8f 63be 6f23 7c3c
00000060: 97b5 eb3d b9e3 853d 0deb 8c3c 1406 38be
00000070: c1be a53d 4371 823d 7e9d 93be 631d 1c3e
00000080: 3575 933d dd98 32be bd1c 29be 6919 85bd
00000090: bdf0 12be 3d4d 10bd 3160 e23d cc6d 18bd
000000a0: 83d0 a5bb 0fff 4dbc 05fe b63d 193d 063e
000000b0: ccdb b93d 2d9b 7fbe 1d40 05bd 84f5 a13e
000000c0: c98c 80bd 043c 61be 01cf 73be 718d 13be
000000d0: cbae c5be 5ff8 9c3c 457d 4dbe ea08 95be
000000e0: 8429 86bd 78b2 52be 26ca 5f3e 868c 6a3e
000000f0: 9765 49be 8217 41be 156b cd3c c2f2 01bd
00000100: 0170 4f3d a9c3 72bd fef6 373d 5b05 29be
00000110: e8b3 d63d b7a0 f23c 19db 06bd 63f8 8e3d
00000120: 855f 97be ea7d 4cbe b97a 6f3d 0237 2c3d
00000130: b54c 7dbd 37df 83be bda5 ea3d edf5 8f3c
00000140: 3c25 2fbd 3a13 a9be 3939 e7bd fdf0 d4be
00000150: 9487 b1be d763 4fbd f526 0f3e 8aba b6bd
00000160: 1a79 413e 7075 523e ccc6 1cbe 7cfd b7bd
00000170: f784 103e 2f62 a8bd 5b23 debd 3b3b b13e
00000180: 3e47 ae3e 836c a3be 0530 263e 3ca6 7cbe
00000190: 3336 033d 65df 4d3e 6835 f5bd 3a29 d9bd
000001a0: c297 cabd c96b de3c 43df 84bd cd10 813d
000001b0: c101 213e e825 953e c934 2ebc d509 9bbd
000001c0: 8904 203e febd e0bd 2506 16be 4a1d e7bd
000001d0: 0734 38be d6e8 4a3c 7ba8 e83b b8c2 c63d
000001e0: 4551 823e b083 49be 04fb 773e 4c8b 1c3e
000001f0: 8273 2e3e 6fba 353e 748c 1ebe 3096 c4bd
00000200: de29 5d3e eb50 9e3d d9e0 043b db7e 72be
00000210: c1b1 50be 4776 643e 3a8f 703e cd6a 49be
00000220: d912 533e 40e0 99bd 8500 8b3e d77f 26be
00000230: 064f a13d 6fdd 633e cbda babe d3cd d0ba
00000240: 7a76 863d 3416 e1bd 43fe 7ebd 0598 e1bd
00000250: 44c4 d8be 1a67 0a3e 2d68 8e3d 4032 f8bd
00000260: ffff 03be 72df 8e3e bcc5 17bd 24b8 96bd
00000270: 147e 4ebe e5bc 813d 4efa 17bd cebc 7b3d
00000280: 49aa aebd deae 7bbd 7d93 4b3d 1c94 80be
00000290: 3b3e 83be 07ad 8b3e c64f 93be 53a5 49be
000002a0: 02d4 5e3e ca0a 22be 60e8 18be d30b 93be
000002b0: 638e a83e 881f 74bd e648 a1be b72a 62bd
000002c0: f3d6 2c3e 8356 8cbc e317 9bbc 88d0 5dbd
000002d0: 4e72 bb3d eaa7 273e c732 913d 9e86 f0bd
000002e0: cd46 2c3e 5384 123d b062 f13d 5203 683d
000002f0: 58a8 493e 121f 30be f268 73be 8992 cabd
00000300: 2348 d03d f6aa 8fbd 04ac 09be fe2e d6bd
00000310: 7033 84be e8ad a13d f485 96be fa67 023d
00000320: a033 11be d32f bc3d 139e 883e fd2d a6be
00000330: 821e 3e3d af48 69be c702 5bbe 47e9 553e
00000340: 9935 403e 3b64 223e 180a 3e3e 3005 46be
00000350: 5caa c9bc dad6 e33c 7dc1 69bd 2981 aebd
00000360: 44cf 743e 38e4 253e 4d03 f8bd 7e29 dbbc
00000370: 425e b23c f135 2c3e 556d 34bd c532 253e
00000380: bdb7 83bd be02 c6bd c01c e03d 64f4 e2bd
00000390: eaf2 c7be 945c 7d3e 9345 553d 09e9 e13d
000003a0: adad 7ebe 3b7f 66be e9fe da3d a3e7 82bd
000003b0: 9df2 4f3e 35b0 38be 66b7 7abd a130 c0bd
000003c0: 4d9e 333d df03 a4bd efe1 13bd 5400 eebe
000003d0: 1d11 bdbe 23b9 bbbd 75ce 55bc 961c 54be
000003e0: d7e6 e6bc 0097 3ebe d6dc 9dbd 70f0 88be
000003f0: 1c73 843d f9c8 f23c b9b2 79bd 010a e03d

lstm.bias_ih_l2 f4 [64]
0.24724808 0.059271794 -0.105030775 0.39127335 -0.07213084 0.0997403 0.036385342 0.36540052
-0.040819135 0.08112043 -0.12096369 -0.06525053 -0.051913988 0.018119138 0.08282163 -0.13454805
-0.4534993 -0.47140402 -0.33548507 -0.29439697 0.44805875 -0.2184803 -0.2844204 -0.34995246
-0.16717148 0.027394306 -0.24911036 -0.13523151 -0.13802256 -0.4283959 -0.20788093 -0.45263088
0.19210494 0.2031548 0.0317398 -0.042965453 0.05863505 0.106937476 0.068749785 -0.030733017
-0.0058607273 0.064789996 -0.12687285 0.09207065 -0.0693795 -0.011406353 0.09860107 0.1891583
-0.0119444495 0.043824773 0.02479594 0.3886241 -0.141756 0.30946702 0.08773969 0.22367537
0.13471003 0.030415226 0.12468808 0.15092918 -0.14700867 -0.07081197 0.020533659 0.2774843
00000000: 9a2e 7d3e fbc6 723d 601a d7bd fb54 c83e
00000010: 55b9 93bd a444 cc3d cc08 153d c715 bb3e
00000020: f731 27bd 7822 a63d d0bb f7bd 12a2 85bd
00000030: c3a3 54bd 966e 943c 639e a93d f7c6 09be
00000040: 0f31 e8be de5b f1be b3c4 abbe 33bb 96be
00000050: f567 e53e 4db9 5fbe 8d9f 91be f82c b3be
00000060: 002f 2bbe 066a e03c c916 7fbe 217a 0abe
00000070: c955 0dbe b556 dbbe bdde 54be 3cbf e7be
00000080: 28b7 443e d007 503e 9801 023d 8bfc 2fbd
00000090: 4e2b 703d 0902 db3d b0cc 8c3d cfc3 fbbc
000000a0: 580b c0bb 9eb0 843d f5ea 01be 898f bc3d
000000b0: d716 8ebd b6e1 3abc 5cef c93d b7b2 413e
000000c0: a7b2 43bc 9b81 333d db20 cb3c bdf9 c63e
000000d0: 7c28 11be 7672 9e3e deb0 b33d 280b 653e
000000e0: 6df1 093e 5a29 f93c 775c ff3d 2e8d 1a3e
000000f0: 7189 16be de05 91bd 3436 a83c 6c12 8e3e

lstm.bias_hh_l2 f4 [64]
-0.23256852 0.1463622 0.031996533 0.18690833 -0.39324433 0.25098282 0.11124639 0.003072217
0.08347951 -0.27934146 0.28569412 -0.10217186 0.20884971 0.23981158 0.071151115 -0.02347878
-0.2357511 -0.43853527 -0.19699025 -0.42562503 0.15399691 -0.41026112 -0.090560116 -0.40565488
-0.45884508 -0.1319015 -0.3783461 -0.24172422 -0.40121675 -0.20560353 -0.13687834 -0.37650776
-0.19337721 -0.20620747 -0.039439768 0.050208453 -0.036668546 -0.11805223 -0.07302822 0.029015297
0.0122003695 -0.07509438 0.120486744 -0.08101945 0.06076853 0.009536447 -0.09419267 -0.19210416
-0.164399 0.20923072 -0.0016247927 0.38561308 -0.28620008 0.30517277 -0.30678356 0.12853666
0.14650398 -0.14594854 0.07858984 -0.1155982 0.10131565 -0.09919283 0.35867754 -0.11715285
00000000: 7126 6ebe f9df 153e cc0e 033d e664 3f3e
00000010: 5257 c9be d280 803e 26d5 e33d 4057 493b
00000020: 4ef7 aa3d d805 8fbe 8046 923e 7b3f d1bd
00000030: b3dc 553e 2b91 753e adb7 913d 9256 c0bc
00000040: bd68 71be b287 e0be d0b7 49be 86eb d9be
00000050: 5eb1 1d3e bf0d d2be 9577 b9bd ffb1 cfbe
00000060: beed eabe 3011 07be 94b6 c1be 8e86 77be
00000070: 486c cdbe bb89 52be d629 0cbe a0c5 c0be
00000080: ad04 46be 0d28 53be 988b 21bd 61a7 4d3d
00000090: c231 16bd 5ec5 f1bd d28f 95bd 7db1 ed3c
000000a0: 0fe4 473c 15cb 99bd c1c1 f63d 87ed a5bd
000000b0: 6ce8 783d c23e 1c3c 16e8 c0bd f4b6 44be
000000c0: 3658 28be 9440 563e fff6 d4ba 146f c53e
000000d0: d188 92be 9b3f 9c3e bc12 9dbe 1d9f 033e
000000e0: 2405 163e 8973 15be b6f3 a03d c0be ecbd
000000f0: 947e cf3d 9c25 cbbd 95a4 b73e d5ed efbd
