save/best_model_29_32_8_0.2.pt (torch, 303055 bytes, 47 tensors)

lstm.weight_ih_l0 f4 [128, 29]
0	0x1da48e1a	4.355737e-21
1	0xbb8970a2	-0.004194335
2	0x1d686821	3.0758778e-21
3	0x9bb04359	-2.916028e-22
4	0xb81e779e	-3.7781538e-05
5	0xbadaa523	-0.0016681295
6	0xb5635233	-8.4683705e-07
7	0x358e29c3	1.0591979e-06
8	0x39da5eeb	0.0004165092
9	0x9f83e640	-5.5861575e-20
10	0x1d81e560	3.4383184e-21
11	0x3855eb1a	5.1002113e-05
12	0x3b1162ee	0.002218421
13	0x36c40f0a	5.843006e-06
14	0x39e1f146	0.00043095107
15	0xbb6f949b	-0.0036557082
16	0x3bc75b5a	0.006083888
17	0x3babf02e	0.0052471375
18	0xbc40f0f8	-0.011776201
19	0xbc0e0137	-0.008667282
20	0xb1fc3ace	-7.3408506e-09
21	0x1d37b6e1	2.4314395e-21
22	0x1d3fec18	2.5400697e-21
23	0x9e232a83	-8.637939e-21
24	0x336ffdc6	5.587733e-08
25	0xaeb55876	-8.246641e-11
26	0xba46aa4d	-0.00075784774
27	0x9ec88126	-2.1229238e-20
28	0xbbbd5a51	-0.005778589
29	0x2aa716a7	2.9680877e-13
30	0x39ed781c	0.0004529365
31	0x3ab29fa8	0.0013627904
32	0x3bce26ea	0.00629126
33	0xbc29c4dd	-0.010361877
34	0xbc8bfdc7	-0.017088784
35	0x9d3585bf	-2.4024296e-21
36	0x3c66222e	0.014046235
37	0xade268b4	-2.5739723e-11
38	0xbc0b261c	-0.008492973
39	0x9cf34244	-1.609752e-21
40	0x3c2701d2	0.010193305
41	0x3b87bdc3	0.0041424944
42	0xbc0a60c6	-0.008445924
43	0xb2024775	-7.583243e-09
44	0xb33661c5	-4.2464098e-08
45	0x3c26cd04	0.0101807155
46	0x9d087c1a	-1.806361e-21
47	0x2ed7d119	9.814211e-11
48	0x37c82644	2.3859677e-05
49	0x9cf887b0	-1.6446338e-21
50	0x9d254987	-2.187558e-21
51	0x3c703794	0.014661688
52	0x3173fd2a	3.5505061e-09
53	0x1e8bb6f6	1.4792868e-20
54	0x1e99443f	1.6227731e-20
55	0xbbe9b5a1	-0.0071322476
56	0x206be19f	1.9979926e-19
57	0xba314596	-0.0006762383
58	0x3c7aa4fc	0.015298124
59	0xb932f811	-0.00017067815
60	0xba8b15e1	-0.0010611379
61	0x2706b476	1.8694064e-15
62	0x2e29cebd	3.860977e-11
63	0x3349697b	4.6894893e-08
64	0x36f5a67d	7.3209508e-06
65	0x335cc858	5.1404953e-08
66	0x3ca181d7	0.019715233
67	0x1e97d318	1.6075053e-20
68	0xbb005922	-0.0019584377
69	0xbc4ff92a	-0.012693683
70	0x3a382e64	0.0007025956
71	0xb0b0fc61	-1.2877416e-09
72	0x3b60b5a2	0.003428795
73	0x9bb012f1	-2.9128998e-22
74	0x3b2d0549	0.0026400855
75	0xb9699410	-0.00022275769
76	0x3957cbe2	0.0002057995
77	0xb376f281	-5.7496894e-08
78	0x3ba9d92f	0.005183361
79	0xbbe2890b	-0.0069133095
80	0x3c7a9096	0.015293261
81	0x1d3916e3	2.4496378e-21
82	0x3ba9e8a8	0.0051852055
83	0xbb5cd333	-0.003369522
84	0x391d78cb	0.00015017686
85	0x3bcbc773	0.0062188446
86	0x3a252775	0.000630013
87	0x3904b8a4	0.00012657285
88	0x351a3b20	5.745551e-07
89	0x39fee331	0.00048615926
90	0xbc689bfe	-0.014197348
91	0x37202107	9.544433e-06
92	0x3c423d7d	0.01185548
93	0x393d8efd	0.00018077712
94	0xb8cb52a6	-9.695189e-05
95	0xbc18da12	-0.009329336
96	0x3b18cd9e	0.0023315917
97	0xa190183a	-9.764232e-19
98	0x3b0a3331	0.0021087641
99	0xb8b057ac	-8.408664e-05
100	0x3b4c3781	0.0031161013
101	0x3c7cd22d	0.015430969
102	0xb8a6271b	-7.922781e-05
103	0x38bd7f3e	9.035923e-05
104	0x3c698bb7	0.014254502
105	0x3c7d2f76	0.01545321
106	0xa8b5e356	-2.0193628e-14
107	0x2fae0798	3.165581e-10
108	0x3b71507e	0.0036821659
109	0x3c032e4a	0.008006642
110	0xbc309cce	-0.010779573
111	0x386d4bb3	5.6575704e-05
112	0x3c61fd97	0.013793371
113	0xb5a40ef7	-1.2223308e-06
114	0x1c097cc5	4.549076e-22
115	0x3613d47d	2.2028391e-06
116	0x3c2be762	0.010492178
117	0x3481fc51	2.4211707e-07
118	0x36830891	3.9051015e-06
119	0x31922ea9	4.254464e-09
120	0xaad23cc9	-3.7345672e-13
121	0x1dcc608c	5.4098178e-21
122	0x1dac8a41	4.5670972e-21
123	0xb8fc185c	-0.00012020834
124	0x39b5aa87	0.00034650063
125	0xba89816f	-0.0010490845
126	0x3c0189dc	0.007906403
127	0x2e0cef21	3.2044704e-11
128	0x3bc0ade2	0.0058801034
129	0xba84cfcc	-0.0010132729
130	0xb7ffbfcc	-3.0487681e-05
131	0xbc2dd037	-0.010608724
132	0x34694c86	2.1727655e-07
133	0x2a6d9f5a	2.1105115e-13
134	0x3c2cffd5	0.010559042
135	0x9ea1a8e4	-1.711639e-20
136	0xb0ccec8b	-1.4910183e-09
137	0x1df8cbca	6.5855766e-21
138	0x1d6a5795	3.101492e-21
139	0x386440f8	5.4419943e-05
140	0x3b617068	0.0034399275
141	0xbbbb9a32	-0.0057251686
142	0xb24a14be	-1.1762664e-08
143	0xa6393d61	-6.426795e-16
144	0xba27eea4	-0.00064061047
145	0xb5014eab	-4.817072e-07
146	0x37f46725	2.9135097e-05
147	0x9a4e2b94	-4.2635004e-23
148	0xba3166c2	-0.0006767326
149	0x3ac97815	0.001537087
150	0x372c9aa7	1.0288007e-05
151	0x294477bc	4.3624596e-14
152	0xb2b1350e	-2.0629638e-08
153	0x356854c4	8.6550085e-07
154	0x38f2f4b9	0.000115850424
155	0xbaeb6e3e	-0.0017961932
156	0xb507db23	-5.0610305e-07
157	0x31f17348	7.027129e-09
158	0xbc15524f	-0.009113862
159	0x9d73d50d	-3.2270927e-21
160	0x3706021e	7.987515e-06
161	0x3b900083	0.0043945923
162	0xba637ee1	-0.0008678269
163	0x2e2dcad0	3.951578e-11
164	0x1c21df40	5.3558975e-22
165	0xbae155c0	-0.0017191693
166	0xbbf3ba67	-0.0074379924
167	0x3bb80f2f	0.0056170444
168	0xb45adc82	-2.0383052e-07
169	0x3afcfaa4	0.0019300771
170	0xb8df814c	-0.00010657552
171	0x3bcb6520	0.0062071234
172	0xb9aea9a1	-0.0003331425
173	0xaf8783c8	-2.4649993e-10
174	0x9d03b4db	-1.7431206e-21
175	0xbb81a29e	-0.003956153
176	0xbc60c40a	-0.013718614
177	0x99d94c64	-2.2468128e-23
178	0x36c7f251	5.9588715e-06
179	0x3a855227	0.0010171578
180	0x9d5437af	-2.8086754e-21
181	0xac54b2fe	-3.0226373e-12
182	0xb8fb2f02	-0.000119773686
183	0xbc9e82ef	-0.019349543
184	0xbb9ec335	-0.004845048
185	0x3ca31fe1	0.019912662
186	0x27e6794b	6.396933e-15
187	0x3bb9e50a	0.0056730555
188	0xbc2f1961	-0.010687203
189	0x9d06628c	-1.77857e-21
190	0x3a860348	0.0010224367
191	0x2c1eb579	2.2553888e-12
192	0xb930c385	-0.00016857505
193	0xb421e638	-1.5078047e-07
194	0x9d196314	-2.0300604e-21
195	0x9d338b75	-2.376255e-21
196	0xb746a7af	-1.18407615e-05
197	0x9d0fcc58	-1.9031536e-21
198	0x34c552b2	3.6754278e-07
199	0xb611bc69	-2.1716353e-06
200	0x2d536415	1.2016184e-11
201	0xbbebe9e7	-0.007199514
202	0xb8d5a2c3	-0.00010186948
203	0x3bff3c57	0.0077891755
204	0xb554d28e	-7.928255e-07
205	0xb3ce1a47	-9.597402e-08
206	0x34118b42	1.3554839e-07
207	0x39f435cd	0.0004657939
208	0xbb614346	-0.0034372373
209	0xb73f05b5	-1.1385816e-05
210	0x2b48f3a7	7.139241e-13
211	0x9da2a5b3	-4.305237e-21
212	0xb91a2da6	-0.0001470359
213	0x3c86ad51	0.016440066
214	0x1cee4c08	1.5769172e-21
215	0x1cf32ee3	1.6092511e-21
216	0x37d4db63	2.537453e-05
217	0x372e1b5d	1.0377579e-05
218	0x1cc59507	1.3074889e-21
219	0x1c8d7d18	9.362933e-22
220	0xb47ec069	-2.3725592e-07
221	0xb70b0d33	-8.288119e-06
222	0xba440e09	-0.0007478898
223	0x3c0769bd	0.008264956
224	0x30345dd1	6.561694e-10
225	0xbb173a99	-0.0023075698
226	0x2b4e4ad8	7.328977e-13
227	0x9d8122ef	-3.4182136e-21
228	0xbc08e155	-0.008354505
229	0x3bd1bc24	0.006400602
230	0x9c125421	-4.841608e-22
231	0x3a1c01ad	0.00059511774
232	0x9bd15b70	-3.463524e-22
233	0x3768990e	1.3863913e-05
234	0xba1cbf78	-0.0005979459
235	0xb0281621	-6.114949e-10
236	0xb6eb98b8	-7.0213246e-06
237	0xbc06e24a	-0.008232662
238	0x3afe0563	0.0019380267
239	0xbb0d95e5	-0.0021604237
240	0x9f0cd680	-2.9823583e-20
241	0x3227012a	9.720944e-09
242	0xba81455f	-0.0009862593
243	0x1d0a935d	1.8340333e-21
244	0x34b087fd	3.28815e-07
245	0x3ba57c53	0.005050221
246	0x3addb9bf	0.0016916319
247	0x33cd15b1	9.550002e-08
248	0xba2e98c6	-0.0006660338
249	0x39ec6bf9	0.00045093874
250	0x9da6baee	-4.4133115e-21
251	0x3c8de16e	0.017319407
252	0x290d2654	3.1341534e-14
253	0x30264a18	6.049574e-10
254	0x369bdfa4	4.645395e-06
255	0xbadc715f	-0.0016818455

lstm.weight_hh_l0 f4 [128, 32]
0	0xad8b1ff5	-1.5816662e-11
1	0x9bafc988	-2.9081558e-22
2	0x3befedbc	0.0073220413
3	0x3bab4d58	0.005227726
4	0xafb216b8	-3.2394154e-10
5	0x1b1a1835	1.2746403e-22
6	0x1abc4904	7.787294e-23
7	0xba987c60	-0.0011633746
8	0x9cf15196	-1.5969132e-21
9	0x9c95f6b1	-9.923761e-22
10	0x1c8ce0dc	9.322548e-22
11	0x3084800d	9.640658e-10
12	0xbc52afae	-0.012859268
13	0xb5a287ce	-1.2109465e-06
14	0x3b34170d	0.002747956
15	0x33336464	4.176799e-08
16	0xbbb0980a	-0.005389218
17	0xba967919	-0.0011480182
18	0x1c0ed515	4.725926e-22
19	0x9c200f17	-5.295906e-22
20	0x1c2aeba8	5.655286e-22
21	0xba15b98d	-0.0005711548
22	0xbb294998	-0.0025831219
23	0x3a750e98	0.0009348183
24	0x9ba7f32f	-2.7784986e-22
25	0xb9a4d162	-0.0003143652
26	0x3c9bce3e	0.019019242
27	0x387d1ea6	6.0348444e-05
28	0x3b4eb2d9	0.0031539707
29	0x1b49e875	1.6701441e-22
30	0xbb6f060f	-0.0036472117
31	0x2c7395d8	3.4615557e-12
32	0x1b81f266	2.1497906e-22
33	0x1b4c71e2	1.6911282e-22
34	0xbc1e1a98	-0.009649895
35	0x3c2bb1d6	0.010479411
36	0xbbe4d7fc	-0.006983755
37	0x39c5ac32	0.00037703064
38	0x3684179b	3.9366546e-06
39	0x38c0a159	9.185327e-05
40	0xa5df386a	-3.872256e-16
41	0xb7150635	-8.882537e-06
42	0xb6f59132	-7.318472e-06
43	0xaab92e12	-3.289457e-13
44	0xb8d7164c	-0.00010256152
45	0xba4a9125	-0.00077273167
46	0xb5851056	-9.914027e-07
47	0xbbc76955	-0.0060855546
48	0x34044df0	1.2321811e-07
49	0x9a169689	-3.1140874e-23
50	0xb387840b	-6.310446e-08
51	0xbc6c5120	-0.014423639
52	0x3a55ec06	0.00081604754
53	0x9c164f04	-4.973296e-22
54	0xb3c4bfba	-9.161836e-08
55	0x3acd8b5a	0.0015681789
56	0x3b60e5d5	0.0034316678
57	0xba8f99b8	-0.0010955846
58	0x3a34c50e	0.00068958185
59	0x9a1f5f0e	-3.2957214e-23
60	0xbb3821f1	-0.0028096403
61	0xafaca757	-3.140552e-10
62	0x3520de1f	5.9927874e-07
63	0xbab5e0cc	-0.0013876199
64	0x3c7f271c	0.015573289
65	0xba6aaae1	-0.00089518545
66	0x3bd2520c	0.006418472
67	0x997eef1c	-1.317978e-23
68	0xb5895af9	-1.0233772e-06
69	0xafeb2203	-4.2770418e-10
70	0x9a819f16	-5.3610167e-23
71	0x238206b1	1.4097462e-17
72	0xbc7f391c	-0.015577581
73	0x3a27c0c8	0.0006399271
74	0x3a3bc28a	0.00071624725
75	0x3c2d1bb1	0.010565684
76	0x1ae06cd8	9.2820075e-23
77	0x355c5589	8.2080857e-07
78	0x9b018167	-1.0712442e-22
79	0xb81c0ec5	-3.7207054e-05
80	0x3abf7556	0.0014607112
81	0x99aed95d	-1.807897e-23
82	0xbbea184b	-0.007144009
83	0x3b651ab0	0.0034958534
84	0x365727e4	3.2060716e-06
85	0x3b62771e	0.0034555863
86	0xad9f496d	-1.8108815e-11
87	0xb6f6922c	-7.348388e-06
88	0x1a23a381	3.3839687e-23
89	0xbc96ba09	-0.018399255
90	0x3b1c05fd	0.002380728
91	0x3a29614a	0.00064613356
92	0x184dede9	2.6615743e-24
93	0x9a569957	-4.437803e-23
94	0xacaa6438	-4.842817e-12
95	0x9a1deb67	-3.2656996e-23
96	0xbbe5e378	-0.007015642
97	0x3c7599fe	0.014990328
98	0x2fb72afc	3.3318048e-10
99	0xba1f3fd7	-0.00060748815
100	0xbc67e023	-0.014152559
101	0x1aa21502	6.703557e-23
102	0xbc1a72e9	-0.009426811
103	0xa501e113	-1.1265225e-16
104	0xb961bf65	-0.00021528972
105	0x196e33a8	1.23147435e-23
106	0x994ade10	-1.04880004e-23
107	0xb8c4a30f	-9.37638e-05
108	0x369e90cd	4.725624e-06
109	0x3b85fe7d	0.0040891753
110	0x991ccd55	-8.1064774e-24
111	0x36eb2a09	7.0084393e-06
112	0x99ffcf04	-2.6449995e-23
113	0xbbee2a0a	-0.007268195
114	0xbc80ff10	-0.015746623
115	0x2da4bbd0	1.8728047e-11
116	0x370f111c	8.527448e-06
117	0x3a72b06a	0.0009257855
118	0x1edf2856	2.3627726e-20
119	0x243be302	4.0741444e-17
120	0x3c96f2b4	0.018426277
121	0xb8b29cd3	-8.516912e-05
122	0xb6944414	-4.418669e-06
123	0xbb17171c	-0.0023054546
124	0x167d7ef7	2.047724e-25
125	0x97ab8945	-1.1085268e-24
126	0xb8e64ab2	-0.00010981168
127	0x99ca2954	-2.0903003e-23
128	0xbc0cf179	-0.008602493
129	0x9a05f3ac	-2.7700592e-23
130	0x9b075938	-1.1195766e-22
131	0xbc0f7fb6	-0.008758476
132	0xbb7f4830	-0.003895294
133	0xb7bdc116	-2.2620468e-05
134	0x3c966fe1	0.018363895
135	0x3b15794e	0.00228079
136	0xbb4dd636	-0.0031408197
137	0x9c868421	-8.901531e-22
138	0x3850f580	4.9819704e-05
139	0x3bf0578a	0.007334654
140	0xbaee817f	-0.0018196552
141	0xba548e12	-0.00081083283
142	0xa62ca7d6	-5.990195e-16
143	0xbbe31863	-0.0069303974
144	0x1bc05797	3.182034e-22
145	0xab5084f4	-7.4080954e-13
146	0x3c6604f1	0.014039264
147	0x3824533b	3.917816e-05
148	0x3beb6998	0.0071842186
149	0x1b46fbda	1.6459554e-22
150	0x9da3c91d	-4.3353687e-21
151	0x3c1effb3	0.009704518
152	0x3ad683af	0.0016366149
153	0xb22938cd	-9.85001e-09
154	0x9a1234f7	-3.0234877e-23
155	0x360b38bf	2.0745645e-06
156	0xbc06ebef	-0.008234962
157	0xb09c5c9e	-1.1376817e-09
158	0xbc28e9ca	-0.010309646
159	0xb7c4bb94	-2.3452369e-05
160	0x39462c75	0.00018899313
161	0x3b0c7bac	0.002143602
162	0xbbb946ed	-0.005654207
163	0x39e8e5cb	0.00044421697
164	0xab4a2492	-7.181557e-13
165	0xbac5c8c2	-0.0015089738
166	0xb394fbca	-6.937587e-08
167	0xba25b6fb	-0.00063215167
168	0x3b41deff	0.002958238
169	0x9f17dcee	-3.2158243e-20
170	0xb5800530	-9.538253e-07
171	0x3c5ddfb5	0.013542105
172	0x9aeda1bb	-9.828219e-23
173	0x3c50558c	0.012715708
174	0xba7f957c	-0.0009749753
175	0x17dd4488	1.429909e-24
176	0x3b3bfeb1	0.0028685743
177	0x17b4b525	1.1677955e-24
178	0xbbb40755	-0.005494038
179	0xb865497d	-5.4666296e-05
180	0x1993f0cd	1.5296702e-23
181	0xba3f2beb	-0.0007292616
182	0xbbd712ad	-0.0065635056
183	0x99584c88	-1.1182394e-23
184	0x36227759	2.420935e-06
185	0x1c3508c5	5.989921e-22
186	0xab404428	-6.830669e-13
187	0x375edc03	1.3283457e-05
188	0x344a9490	1.8866763e-07
189	0xbb00d112	-0.0019655866
190	0x971e73be	-5.119864e-25
191	0xba40d0fa	-0.00073553587
192	0x3a097f57	0.00052451104
193	0xad9ee339	-1.8063427e-11
194	0x99a2f145	-1.6847855e-23
195	0xbb4ba310	-0.0031072535
196	0x3b83d071	0.004022651
197	0x19ed3a1b	2.4528694e-23
198	0xbbd50d1d	-0.0065018074
199	0xab39bd70	-6.59881e-13
200	0x3c49a24a	0.012306759
201	0x3c914a3f	0.017735599
202	0x3c86946e	0.016428199
203	0xbb5b428f	-0.003345642
204	0xb80cac92	-3.353932e-05
205	0x3181fb17	3.7829397e-09
206	0xb1000e0a	-1.8634432e-09
207	0xb377180c	-5.753104e-08
208	0x1afda7bd	1.04909343e-22
209	0xbb55ef44	-0.0032643834
210	0x3922a4b4	0.0001551088
211	0xb6013afb	-1.925683e-06
212	0x24927334	6.351257e-17
213	0xb9e46507	-0.0004356282
214	0xbc3d66c0	-0.011560142
215	0xbc58da77	-0.01323568
216	0x99cc0e68	-2.1098924e-23
217	0x9a52df60	-4.3607423e-23
218	0xbbb81e94	-0.0056188796
219	0x39b557e8	0.00034588506
220	0x1669cd3b	1.888635e-25
221	0x19a7eaa6	1.7362169e-23
222	0x3b15de02	0.0022867923
223	0x3b2c5e6a	0.0026301392
224	0xb49cbaaf	-2.9193095e-07
225	0x998ee2d4	-1.4774071e-23
226	0x329cbb2c	1.8245906e-08
227	0x1937da72	9.504993e-24
228	0x9930447d	-9.112818e-24
229	0x98b3a80c	-4.64401e-24
230	0x3924fd30	0.00015734578
231	0x2d6ded07	1.3524521e-11
232	0xbc440f04	-0.011966471
233	0xb92306ff	-0.00015547498
234	0x1aefb4d4	9.9140227e-23
235	0xb9252b44	-0.00015751744
236	0x3a962474	0.0011454956
237	0x9f8557ac	-5.647273e-20
238	0xb5093343	-5.111107e-07
239	0x9964edaf	-1.18353235e-23
240	0x2d890995	1.5579352e-11
241	0x2d4ff7e5	1.1821631e-11
242	0xb6c86cb6	-5.97312e-06
243	0x988ab036	-3.585009e-24
244	0x3c363f31	0.011123464
245	0x3169a884	3.4001753e-09
246	0xbb7ad283	-0.0038272447
247	0xadc182c8	-2.1999638e-11
248	0x2a61e620	2.0063855e-13
249	0x35477347	7.430103e-07
250	0x3939171e	0.00017651587
251	0x27b29796	4.9569274e-15
252	0x2e9998ad	6.984755e-11
253	0x9d14ee6c	-1.9710898e-21
254	0x3c8fbc6a	0.017545898
255	0x99c9b385	-2.085542e-23

lstm.bias_ih_l0 f4 [128]
0	0xb90e7e7c	-0.00013589294
1	0x2a17b33f	1.3473683e-13
2	0x1f7a2859	5.2972934e-20
3	0xbb9c5ee5	-0.0047720545
4	0xbbd2e7cf	-0.006436325
5	0xbc3fa576	-0.011697164
6	0x9e99c064	-1.6279076e-20
7	0x3748e3dd	1.19739825e-05
8	0x3b9e65fd	0.0048339353
9	0xa04f4a31	-1.755813e-19
10	0x1fc17548	8.1932705e-20
11	0x9f2980f9	-3.5893826e-20
12	0x3bbab93f	0.0056983526
13	0x3ba02936	0.004887725
14	0xba402430	-0.0007329611
15	0xb7c5d4df	-2.3583356e-05
16	0xba066924	-0.00051273615
17	0x1e1c8e5e	8.288012e-21
18	0x9f2d13a9	-3.6650437e-20
19	0xb710e793	-8.636986e-06
20	0xbb4c31a2	-0.0031157513
21	0xbca03fed	-0.019561732
22	0x3a666019	0.00087881234
23	0xb7ff87cc	-3.0461604e-05
24	0xa076bd13	-2.089957e-19
25	0xbc49711e	-0.012295036
26	0x9dd6ac98	-5.6823786e-21
27	0x1db14b93	4.692965e-21
28	0x9cbcc4ed	-1.2491701e-21
29	0xbc02b59a	-0.0079778675
30	0x337bcc08	5.8626057e-08
31	0xb9a63f0e	-0.00031708967
32	0x3845c958	4.7155976e-05
33	0xb7fa8be1	-2.9867459e-05
34	0x1ec2e698	2.063592e-20
35	0xbc9ab2d7	-0.018884106
36	0x9f7d0c94	-5.3585238e-20
37	0x3bccfacd	0.0062554837
38	0xba9d0cc1	-0.001198195
39	0x3145bb80	2.8773854e-09
40	0xaaa4b662	-2.9258806e-13
41	0xbc686820	-0.014184982
42	0x33a0f736	7.495548e-08
43	0x3a003502	0.0004890711
44	0xbc2d5670	-0.01057969
45	0x3b0db931	0.0021625275
46	0xbbcdb2d9	-0.006277424
47	0x3c5c50ca	0.013446996
48	0xb9368285	-0.00017405495
49	0x3a1fde31	0.0006098478
50	0x2c4bcfa6	2.8963303e-12
51	0xb97e77b0	-0.00024267915
52	0x3c373798	0.011182688
53	0xbc6b6f24	-0.01436976
54	0x39973b48	0.00028845132
55	0xb71e7f4a	-9.447171e-06
56	0x3b132420	0.0022451952
57	0xb1bd20d9	-5.5043583e-09
58	0x299a4d35	6.852367e-14
59	0xb23110ab	-1.0306546e-08
60	0xb9e47696	-0.00043575902
61	0xbb533104	-0.003222526
62	0x1ca6adbb	1.1029867e-21
63	0xb9d0d89e	-0.00039834244
64	0xad0a9178	-7.876692e-12
65	0xb8c5d88a	-9.4340256e-05
66	0x3b034151	0.0020027945
67	0xba43e5f7	-0.0007472927
68	0xb9b990c7	-0.00035393817
69	0x3a990497	0.0011674342
70	0x3bfe0137	0.0077516097
71	0xbc9bf415	-0.019037286
72	0x3c78eaab	0.015192668
73	0x3c97d101	0.018532278
74	0xa32befe4	-9.320727e-18
75	0xa98e7dab	-6.327867e-14
76	0x28bd55e1	2.102046e-14
77	0xbc97c9e8	-0.018528894
78	0xbc0e98fa	-0.008703465
79	0x22ed7c1b	6.437038e-18
80	0x3a1ac5bb	0.0005904098
81	0xa38a37e0	-1.4985654e-17
82	0x35bab3bb	1.3910388e-06
83	0x2321cbbf	8.770972e-18
84	0xb601a957	-1.9321067e-06
85	0xbc4e9ed6	-0.012611112
86	0xbc90efd4	-0.017692484
87	0x3a9cb15c	0.0011954713
88	0x3a2c579b	0.00065743335
89	0x241b8c3a	3.3729044e-17
90	0xb9a36ff2	-0.00031173188
91	0xb51d82a4	-5.8677165e-07
92	0x2f5baf79	1.9980274e-10
93	0x399786e1	0.00028901457
94	0xbc1eba0c	-0.009687912
95	0xa28e93a3	-3.8645494e-18
96	0xb9dcb5d3	-0.0004209714
97	0x3c91a96a	0.017780978
98	0x3c92049f	0.01782447
99	0x228e9300	3.864482e-18
100	0xbc8136d8	-0.015773222
101	0x3c821ca9	0.015882807
102	0x3a45231a	0.0007520184
103	0x9e1d141c	-8.315669e-21
104	0x3b6778b9	0.003531976
105	0xa03245f5	-1.5100333e-19
106	0xbc9ded35	-0.019278148
107	0x3b8b424b	0.004249846
108	0xbb2a8347	-0.0026018189
109	0x1ed9d5f2	2.3064254e-20
110	0x9ffd0f83	-1.0717533e-19
111	0x35ca3e75	1.506835e-06
112	0x3ad20a47	0.0016024791
113	0x35543144	7.9047845e-07
114	0xa63ae3ec	-6.4840605e-16
115	0xbaa18bb4	-0.001232496
116	0xb5233b3f	-6.0808446e-07
117	0x1f1a28aa	3.2644405e-20
118	0x38ce118f	9.826116e-05
119	0x2de8717c	2.6425744e-11
120	0x3a2a0101	0.0006485135
121	0x1efb096c	2.6579556e-20
122	0x3c9e6a79	0.01933788
123	0x3bfff913	0.0078116744
124	0xbb315578	-0.0027059
125	0xb68803c4	-4.053554e-06
126	0xa0463a64	-1.6790572e-19
127	0x1e371d3b	9.693984e-21

lstm.bias_hh_l0 f4 [128]
0	0x2b0caffc	4.998222e-13
1	0xb94664c5	-0.00018920291
2	0xa3f0fea5	-2.6128698e-17
3	0xbc88afba	-0.016685355
4	0x29e92bdc	1.0354887e-13
5	0x3bfab6bf	0.0076511796
6	0xbc8bc865	-0.017063329
7	0x3c02dfcc	0.007987928
8	0xb5d889c4	-1.6133349e-06
9	0xa00ce972	-1.1935702e-19
10	0x3b9d4626	0.004799622
11	0x3c66124a	0.014042446
12	0xba049ddf	-0.0005058925
13	0x3c9f0ca2	0.019415203
14	0x2134b9f4	6.123248e-19
15	0xbb4183b1	-0.0029527957
16	0x2f5ca4da	2.006745e-10
17	0xbc01aa1c	-0.007914092
18	0x26af8f03	1.2181828e-15
19	0x2d5ddc46	1.2611306e-11
20	0xac655c3f	-3.2594064e-12
21	0xa7f0a418	-6.6791292e-15
22	0x3142ebc2	2.8364728e-09
23	0x32b470e1	2.100609e-08
24	0x1e1833be	8.057513e-21
25	0x3b364316	0.0027810982
26	0xbc6bae5e	-0.014384834
27	0xbb2d007a	-0.002639799
28	0xb50ff4d3	-5.362792e-07
29	0xaa5fe98c	-1.9887407e-13
30	0x3c4edf03	0.012626412
31	0xbaa6619e	-0.0012693887
32	0xa01884a1	-1.2918784e-19
33	0x3b5ff187	0.003417106
34	0xb90fc88f	-0.00013712257
35	0x3c571258	0.013126932
36	0x9f1817d3	-3.220696e-20
37	0x9e82017d	-1.3764901e-20
38	0x3c0339fc	0.00800943
39	0xb8c59fe2	-9.4234725e-05
40	0xbaff144f	-0.0019461008
41	0xb34e166a	-4.7983498e-08
42	0x3b9509f1	0.0045483042
43	0x9f0559f6	-2.823826e-20
44	0x3af720fe	0.0018854437
45	0xb603285c	-1.9544013e-06
46	0xb55687d0	-7.9918846e-07
47	0xb9478d62	-0.00019030788
48	0x3bd7dd2c	0.006587645
49	0xbb3612f4	-0.0027782293
50	0x9f1c4663	-3.3092507e-20
51	0x1f91d3f8	6.176056e-20
52	0x38b3f5f9	8.581201e-05
53	0x3c1a47e7	0.009416557
54	0x1c94dc61	9.850785e-22
55	0x9f8a3493	-5.853225e-20
56	0xb63d0681	-2.816698e-06
57	0x1ee33ffd	2.4061025e-20
58	0xba2599ef	-0.00063171884
59	0xba2457f8	-0.0006269212
60	0x3a2ca4d9	0.00065858435
61	0x396c304e	0.00022524709
62	0x3bc4049d	0.0059819953
63	0x398264f9	0.00024870763
64	0xbaeda98e	-0.0018132196
65	0xb941f3dd	-0.0001849676
66	0x3b72fff1	0.0037078822
67	0x21f7a047	1.6779796e-18
68	0xb781d4e3	-1.5477131e-05
69	0x3bf436b0	0.0074528083
70	0x36ad2d1a	5.1610523e-06
71	0x3c0be95d	0.008539525
72	0xa29b5d86	-4.2111856e-18
73	0xa35524d4	-1.1554552e-17
74	0x3951fb5a	0.00020025429
75	0x321d531d	9.1575005e-09
76	0xa2dfa8d0	-6.062301e-18
77	0xb9353761	-0.00017282135
78	0x236de3cc	1.2896034e-17
79	0x24a586db	7.17858e-17
80	0xbc23ebbe	-0.010004936
81	0xa2ef4e82	-6.4864203e-18
82	0x3bb12446	0.0054059355
83	0x2b1dabca	5.601601e-13
84	0x2cbe815a	5.4144857e-12
85	0x39cd5f17	0.00039171494
86	0x225ddc94	3.0067858e-18
87	0x23149d4a	8.056403e-18
88	0x230470a9	7.179591e-18
89	0x3408e442	1.2749027e-07
90	0x37a27777	1.9367535e-05
91	0xba810330	-0.0009842869
92	0x3b86a9c1	0.0041095917
93	0xbc0b4247	-0.0084996885
94	0xb90e5cb7	-0.00013576714
95	0xb6f9f36e	-7.449117e-06
96	0xbc4d9e04	-0.012549881
97	0x24581db7	4.6862703e-17
98	0xba9af509	-0.0011822294
99	0x1d110441	1.919279e-21
100	0xb944548b	-0.00018723511
101	0xb87ed0b9	-6.0752707e-05
102	0xbc5574dc	-0.01302835
103	0x9fb62653	-7.71434e-20
104	0xbc2791cc	-0.010227632
105	0x3a0b9efc	0.000532612
106	0xbb0d0997	-0.0021520609
107	0x2aae8ec5	3.1007675e-13
108	0xbc858b5e	-0.016301807
109	0x37931914	1.7535443e-05
110	0x9feba9d9	-9.980736e-20
111	0x1c840b6e	8.737982e-22
112	0xbc8f86ea	-0.017520387
113	0x1e8bc881	1.4800124e-20
114	0xba8d778c	-0.0010793074
115	0x3c972fce	0.018455412
116	0xb8be728b	-9.081241e-05
117	0xbbbf0e92	-0.0058305943
118	0x3a02c3be	0.00049882743
119	0x2739ab09	2.5766626e-15
120	0x3ba9a378	0.0051769577
121	0xbb14f9d4	-0.0022731917
122	0xb964e904	-0.0002183058
123	0x1d84c42d	3.514295e-21
124	0x9c93e4e5	-9.786812e-22
125	0x3c6f4d15	0.01460578
126	0x9d233124	-2.1598275e-21
127	0x1e468671	1.05098346e-20

lstm.weight_ih_l1 f4 [128, 32]
0	0x3691ba05	4.3429923e-06
1	0xba095e7e	-0.00052402157
2	0x1dd20d81	5.56005e-21
3	0xa32ea81e	-9.468159e-18
4	0x9d9e5286	-4.190758e-21
5	0x9b9fd2bb	-2.6440525e-22
6	0x3a737aca	0.00092880114
7	0xb9bbb55f	-0.0003580255
8	0x387cafba	6.024514e-05
9	0x3aa27342	0.0012393969
10	0x371299b4	8.738065e-06
11	0xba9dfe46	-0.0012053929
12	0xbc7c0200	-0.015381336
13	0x9d5923d9	-2.8738244e-21
14	0xbc49995b	-0.012304629
15	0xb9e5c240	-0.0004382301
16	0x3a068ef0	0.00051329937
17	0xaabe31db	-3.3785374e-13
18	0xb85b5893	-5.229616e-05
19	0x1e1b8396	8.232843e-21
20	0xbaf38807	-0.0018579968
21	0x9eb51780	-1.917384e-20
22	0x3c4c0a9d	0.012453702
23	0x9dbe2f4a	-5.0341477e-21
24	0x1d6401c4	3.0176462e-21
25	0x3c84b394	0.01619891
26	0x34943cf4	2.7611497e-07
27	0x39191bc0	0.00014601555
28	0x325a0906	1.2691322e-08
29	0x39ae35a1	0.00033227823
30	0xbc018667	-0.007905579
31	0x36c3482e	5.8198557e-06
32	0x3c89d9d5	0.016827503
33	0x3c22a406	0.009926802
34	0x337294f1	5.6480477e-08
35	0xbbee1eff	-0.0072668786
36	0xb6e8dbaa	-6.939711e-06
37	0xbc8e3c9a	-0.017362881
38	0x1d739e6a	3.224268e-21
39	0xb9b12a24	-0.00033791468
40	0x9f5cf6d5	-4.6790987e-20
41	0x39256026	0.00015771444
42	0x39c83430	0.00038185855
43	0x9e040a60	-6.990167e-21
44	0x394446f6	0.00018718452
45	0x1e109aeb	7.655333e-21
46	0xb8584de6	-5.157096e-05
47	0xb6543a37	-3.1624347e-06
48	0x3c2108d5	0.009828766
49	0xb84435b9	-4.6780075e-05
50	0x3bc5991a	0.006030214
51	0x9e1bc79d	-8.246911e-21
52	0x33dfc22a	1.0419565e-07
53	0x1ee1a730	2.3891949e-20
54	0x9cee1ef0	-1.5757516e-21
55	0xbc56318f	-0.013073339
56	0x3c966c99	0.01836233
57	0xb5b08890	-1.3152767e-06
58	0xaf1f1e5d	-1.4471753e-10
59	0x1d5d22fa	2.9267189e-21
60	0x29e83aba	1.0313057e-13
61	0x1dbeff7e	5.0556754e-21
62	0xbc2ecf30	-0.010669515
63	0x3c9f41a0	0.019440472
64	0xb89f5cda	-7.599006e-05
65	0x37b8efe5	2.2046219e-05
66	0x3b1854b8	0.0023243856
67	0xbadf0117	-0.0017013875
68	0xbb4bfd32	-0.0031126258
69	0xbb591494	-0.0033123838
70	0x3c23e97d	0.010004398
71	0x398aa64b	0.0002644531
72	0xbbc98546	-0.0061499206
73	0x3c1c29d1	0.009531454
74	0x9dee78ea	-6.3123098e-21
75	0x3a99ac45	0.0011724314
76	0x3ba8f23c	0.0051558297
77	0xbc3d10d9	-0.011539661
78	0xbb39a32e	-0.0028326022
79	0x358de54b	1.0572052e-06
80	0x19a8551a	1.7405165e-23
81	0xbbbd6f68	-0.005781103
82	0xbc52970f	-0.012853398
83	0x35d13a71	1.5588722e-06
84	0x3b021161	0.0019846784
85	0x3af2e041	0.0018529968
86	0xbc71cddd	-0.014758554
87	0x3a19e8bb	0.00058711664
88	0x3c6738d2	0.014112668
89	0x190ba513	7.219468e-24
90	0xb09774b5	-1.1019866e-09
91	0x22a5b7f8	4.4918124e-18
92	0x3c670345	0.014099901
93	0x3ad0080b	0.0015871538
94	0x2f32814f	1.6234945e-10
95	0xb32eea0d	-4.07254e-08
96	0xb015d7cc	-5.451255e-10
97	0xbb166d9e	-0.002295352
98	0xbb0eabc4	-0.002176986
99	0x3c462824	0.012094531
100	0x1d7d3e4d	3.351648e-21
101	0x339f1ad1	7.408892e-08
102	0x3b893f19	0.00418843
103	0x3a296560	0.00064619444
104	0xbb42dd56	-0.0029733977
105	0x3b3ee97e	0.0029130871
106	0x1e0204f7	6.883169e-21
107	0x2ca7b020	4.7659793e-12
108	0x3529ae36	6.3210916e-07
109	0x37c10a30	2.3012137e-05
110	0x3c3ce6c0	0.011529624
111	0x9e72f6b3	-1.28623895e-20
112	0xb9c0ac79	-0.00036749596
113	0x3b8c30d4	0.0042782817
114	0xbc3400c5	-0.010986512
115	0xbc86946e	-0.016428199
116	0xbbf7ee4b	-0.0075662485
117	0x3b04da3b	0.0020271677
118	0x3b15c413	0.0022852465
119	0x3c697d0b	0.014251004
120	0x3a17c1ea	0.00057890883
121	0x3816e7c7	3.5978646e-05
122	0x3b1c086d	0.0023808733
123	0x1c4d13b9	6.78543e-22
124	0x2aac01ac	3.0554498e-13
125	0x3bf91b32	0.007602119
126	0xba0b9ef6	-0.0005326116
127	0x1d010d1a	1.7079781e-21
128	0xbb2b9da8	-0.00261865
129	0xbafa560e	-0.0019099133
130	0xbb4c2543	-0.003115014
131	0xbc8a6280	-0.016892672
132	0x3364bb25	5.3255594e-08
133	0x38e04e8e	0.00010695784
134	0x3c308897	0.010774753
135	0x3bb604c7	0.0055547687
136	0xb9cf2cc6	-0.00039515476
137	0x3a9dc2fc	0.0012036259
138	0x3ae6517a	0.0017571889
139	0xbb03baef	-0.0020100435
140	0x3b59ad77	0.0033214965
141	0x3bc618a8	0.0060454197
142	0x1cf77d53	1.6377484e-21
143	0xbc8a0158	-0.016846344
144	0x1df2c4b0	6.4260237e-21
145	0x3353a045	4.927303e-08
146	0xac3754d8	-2.6052962e-12
147	0x9d2de26e	-2.301342e-21
148	0xaf8d1163	-2.5660105e-10
149	0x3a432b89	0.0007445147
150	0x3c563b2f	0.013075634
151	0xb880385f	-6.1140156e-05
152	0x9bed36e3	-3.924383e-22
153	0x3c5b4cab	0.013384978
154	0x3b49b8f2	0.0030780402
155	0x347f831f	2.3796427e-07
156	0xa8c2c321	-2.162295e-14
157	0xa5aa762c	-2.9570375e-16
158	0x2f15e71b	1.3633576e-10
159	0xbc834ba4	-0.01602728
160	0xbc3b2c45	-0.011424129
161	0xba01bb82	-0.00049489003
162	0x9be1ca33	-3.7353796e-22
163	0xb7ffa074	-3.0473086e-05
164	0x3c163acc	0.009169292
165	0x37626342	1.349376e-05
166	0x1a90fbd0	5.996383e-23
167	0xbb7225d8	-0.0036948826
168	0xba221854	-0.0006183435
169	0xb45ce2c3	-2.0571592e-07
170	0x3b540d8c	0.0032356707
171	0x9ba55493	-2.7351615e-22
172	0x3bb8e52a	0.005642553
173	0xa9f800e8	-1.10135696e-13
174	0xaf803bfa	-2.332568e-10
175	0xbabe6379	-0.0014525495
176	0xb32016cf	-3.7273647e-08
177	0xaf3968b2	-1.6862847e-10
178	0xb993a90b	-0.00028163972
179	0x3a144c27	0.00056570995
180	0x2de62243	2.6163188e-11
181	0xbb1b8b57	-0.0023734176
182	0x39995947	0.0002924895
183	0xbc20bb36	-0.00981026
184	0xac32c3d9	-2.5404039e-12
185	0x3b0e01d3	0.0021668568
186	0x361bdd47	2.32256e-06
187	0x35c7d8e7	1.4889782e-06
188	0xb64d2a95	-3.0572166e-06
189	0x1b4cdd10	1.6945914e-22
190	0x3769a044	1.3925197e-05
191	0x1c2a3b49	5.6324906e-22
192	0x36ac5b2c	5.1366133e-06
193	0xb209740b	-8.000835e-09
194	0x3a6b7dd0	0.0008983286
195	0xb6bdb15e	-5.653287e-06
196	0xbb5cddc4	-0.0033701519
197	0xb9f981c8	-0.00047589676
198	0xbb1f34dd	-0.0024292984
199	0x2d9a87ca	1.7568075e-11
200	0x3c0c77df	0.008573501
201	0x2ba5b0c2	1.1773015e-12
202	0xbc9e9fc8	-0.019363299
203	0xb8f4f804	-0.00011681023
204	0x38b90565	8.822492e-05
205	0xb5cbd2c8	-1.5186024e-06
206	0xbca1747d	-0.019708866
207	0xb4eb0b49	-4.3780372e-07
208	0x28d40485	2.3538688e-14
209	0x3aa8bfb0	0.001287451
210	0x3bf70be7	0.0075392607
211	0x3646e3dc	2.963693e-06
212	0x384c5f42	4.8726106e-05
213	0x2ca635f0	4.723992e-12
214	0x34e04d72	4.17796e-07
215	0x3735597c	1.0809275e-05
216	0xbc7cf366	-0.01543889
217	0xb92d8cca	-0.00016551014
218	0x3c12751a	0.008939052
219	0xa0e00c4b	-3.795521e-19
220	0xb4e7b16d	-4.3156197e-07
221	0xb7bd561b	-2.2570652e-05
222	0x1af319e6	1.00544286e-22
223	0x3c1e857b	0.009675379
224	0x3b4fa86a	0.0031686076
225	0x3c200ea0	0.009769112
226	0x38c6e266	9.483546e-05
227	0x3c14b395	0.009076019
228	0x1d9d38fc	4.1616474e-21
229	0x1e9ab032	1.6378257e-20
230	0xa54a1bcd	-1.7530126e-16
231	0xaeaf3ae8	-7.9685425e-11
232	0x3a589572	0.0008262015
233	0x23fb1ed5	2.7226532e-17
234	0xbc61a909	-0.013773211
235	0x9cbd983c	-1.2546323e-21
236	0x3c0cacc4	0.008586112
237	0x388b9aad	6.656847e-05
238	0x1dad56c9	4.5882452e-21
239	0x39731765	0.00023183001
240	0xbb02c433	-0.001995337
241	0x1bcabb6c	3.3539215e-22
242	0x358ae924	1.0349654e-06
243	0x3a5b6fc1	0.00083708396
244	0xbb60f0b1	-0.003432315
245	0xbc8b03f9	-0.016969668
246	0x23e5df89	2.49229e-17
247	0x1d748150	3.2359984e-21
248	0xb7a4c1dc	-1.9640596e-05
249	0xb836343b	-4.3440825e-05
250	0x24efcc5d	1.0399593e-16
251	0xbae39a53	-0.0017364718
252	0xbc98dd8c	-0.01866033
253	0xbbfbb044	-0.0076809246
254	0xb489148b	-2.5533186e-07
255	0x3c01a826	0.007913625

lstm.weight_hh_l1 f4 [128, 32]
0	0x1e60eb32	1.19070985e-20
1	0xbb645ed0	-0.0034846552
2	0x9facf43f	-7.3248905e-20
3	0xb34c2274	-4.7528786e-08
4	0x9cb76cf3	-1.2138087e-21
5	0x32a54ef3	1.924443e-08
6	0x9e10f93c	-7.674837e-21
7	0xb9b78842	-0.00035006
8	0xbb2596f1	-0.002526697
9	0xb6790577	-3.7107072e-06
10	0xbc5a6109	-0.013328799
11	0x3292e2b6	1.7099733e-08
12	0x32946bc0	1.7278467e-08
13	0xaa13837d	-1.3101842e-13
14	0x9bc901f6	-3.3253928e-22
15	0xb88262c7	-6.217282e-05
16	0x3b25e45c	0.0025313115
17	0xbc9a00db	-0.018799236
18	0x3b7bd188	0.003842445
19	0x1b5ebc56	1.8424264e-22
20	0x3351277b	4.8697512e-08
21	0xba211281	-0.000614442
22	0x9c6ce439	-7.838082e-22
23	0xbabba814	-0.0014317059
24	0x362dce72	2.5899176e-06
25	0x9d17441a	-2.0019891e-21
26	0xb822f0bb	-3.8848008e-05
27	0x9dc7d940	-5.2899493e-21
28	0x9dc3ff41	-5.1879997e-21
29	0x33c39871	9.108124e-08
30	0x9dd8766d	-5.7297173e-21
31	0xbb22060f	-0.002472285
32	0xbb6013a5	-0.0034191397
33	0xbc08464a	-0.0083175395
34	0x3c919441	0.017770888
35	0x3c13ecc9	0.009028622
36	0xba784ef6	-0.00094722153
37	0x3c05752d	0.008145613
38	0xb9b87043	-0.00035178856
39	0x9db558ab	-4.800198e-21
40	0x2fed79e6	4.3196663e-10
41	0x1f6a0e04	4.956302e-20
42	0x1bffeba2	4.2338485e-22
43	0xbc3df190	-0.0115932375
44	0x1caf9fd0	1.1621839e-21
45	0x3010d8c8	5.269496e-10
46	0x1be55f52	3.7946471e-22
47	0x3c9dbd1f	0.019255219
48	0xb85a1d6f	-5.2002662e-05
49	0x3c9fbcd8	0.019499227
50	0x1cc393c7	1.2942217e-21
51	0xbc66b96a	-0.014082292
52	0xbb9de15f	-0.004818126
53	0x3bd84645	0.0066001737
54	0xbb852a28	-0.0040638633
55	0x9fbd0ca9	-8.006556e-20
56	0xbc9b0b05	-0.018926153
57	0x1d5d9185	2.9324338e-21
58	0x9e8c82f9	-1.4877246e-20
59	0x3a4f91e4	0.0007918163
60	0x3c228f8c	0.00992192
61	0x3c26e009	0.01018525
62	0x2af88b5c	4.415035e-13
63	0xbaea27f0	-0.0017864686
64	0x32b13113	2.0627828e-08
65	0xa7decda9	-6.1840355e-15
66	0xbb0103b3	-0.0019686043
67	0x37109015	8.616616e-06
68	0x2c698f22	3.3190746e-12
69	0x3bbe2814	0.0058031175
70	0xabee9456	-1.6952089e-12
71	0x39382780	0.00017562322
72	0x3a913165	0.0011077343
73	0xb13cc4e4	-2.746952e-09
74	0x174dd9da	6.651404e-25
75	0x3c01811e	0.007904319
76	0xbc833baf	-0.01601967
77	0x34743c69	2.2746248e-07
78	0x973c36fc	-6.0815476e-25
79	0xbc589f7b	-0.013221617
80	0x3ad1ab01	0.0015996398
81	0x3b8bde83	0.004268469
82	0x382f7a77	4.1837306e-05
83	0x3c730367	0.014832354
84	0xbb464495	-0.003025328
85	0xb4f70e86	-4.6017902e-07
86	0xb3b475ba	-8.4033175e-08
87	0xb88b43ce	-6.640666e-05
88	0xba389a63	-0.00070420484
89	0xaf91b65e	-2.6504926e-10
90	0xbc0d9f77	-0.008643976
91	0xb14e9ca7	-3.0065992e-09
92	0x19806954	1.3277431e-23
93	0x3a21b00c	0.00061678956
94	0xba0edfa2	-0.0005450194
95	0xb70022d2	-7.637502e-06
96	0xbb073f46	-0.002063708
97	0x313d855d	2.7578928e-09
98	0xbbac4ebf	-0.0052584107
99	0x3b48f1c8	0.003066169
100	0x1cd9f161	1.442225e-21
101	0x9bb7ead4	-3.0426565e-22
102	0x1d8b2bb7	3.6838194e-21
103	0x2fb54995	3.297599e-10
104	0x3c8bfa9e	0.017087277
105	0xbc9b8cf1	-0.018988105
106	0xb5f88344	-1.8515643e-06
107	0xbb111706	-0.0022138967
108	0xbc25239b	-0.01007929
109	0x3a07a04d	0.0005173728
110	0xbb9ea971	-0.0048419763
111	0x3a70e032	0.0009188681
112	0xa544e6e5	-1.707852e-16
113	0xbb4457ba	-0.0029959516
114	0x1bcdfd53	3.4078112e-22
115	0x393a71cb	0.00017780733
116	0xaf9a382c	-2.805235e-10
117	0x3aba1fc4	0.0014200141
118	0xa8a7a417	-1.8611887e-14
119	0x9e8f250d	-1.5156038e-20
120	0x1d43999e	2.5887453e-21
121	0x381856f9	3.6320624e-05
122	0xbb062fa4	-0.0020475173
123	0x3983dbbb	0.0002514998
124	0xb9195bca	-0.00014625411
125	0x9b105068	-1.1937381e-22
126	0x30125c03	5.3245247e-10
127	0x9d042f6d	-1.7494573e-21
128	0xbb19bafc	-0.0023457399
129	0x3b8996f7	0.0041989046
130	0x98e35b0b	-5.8770055e-24
131	0xba05c653	-0.00051031
132	0x3ad1c34e	0.001600364
133	0x9ac3faf7	-8.1055565e-23
134	0x1d114637	1.922689e-21
135	0xb7b53269	-2.1600355e-05
136	0xbc391d62	-0.011298509
137	0xb6a2266f	-4.8324505e-06
138	0x394addec	0.00019346894
139	0x9bb21642	-2.9462014e-22
140	0x3c58809b	0.013214256
141	0xa92dfd2f	-3.863332e-14
142	0x1a6670f0	4.7654115e-23
143	0xaebfbe87	-8.719519e-11
144	0x38524d11	5.0139675e-05
145	0x3c325f79	0.01088702
146	0x3b545c9a	0.0032403828
147	0xb66561cd	-3.4180587e-06
148	0x3594c436	1.1083964e-06
149	0xbba58bf1	-0.0050520827
150	0x2affef27	4.5463045e-13
151	0xb7f7cc2e	-2.9539773e-05
152	0x3b0a7ff5	0.0021133397
153	0x1b97841c	2.5066228e-22
154	0x3afc4e84	0.0019249474
155	0xa67978d6	-8.655299e-16
156	0xbc85f371	-0.016351433
157	0x21aef25b	1.185485e-18
158	0x1c7f7396	8.4521814e-22
159	0xb9679219	-0.00022084302
160	0x37f4a3d3	2.9163353e-05
161	0x27325569	2.4748763e-15
162	0x985a3a9d	-2.8205432e-24
163	0x37e52cf0	2.7319853e-05
164	0x394e17b6	0.00019654524
165	0x9a51bf04	-4.3374488e-23
166	0xb9b79818	-0.000350178
167	0x2e75f295	5.5922007e-11
168	0x3b368f8d	0.002785656
169	0xb844be92	-4.6907524e-05
170	0x37908070	1.7225946e-05
171	0xb7e61ea5	-2.7432407e-05
172	0xb2b5e2b8	-2.1174273e-08
173	0x1e07fd32	7.1992e-21
174	0x3145c0dd	2.8776903e-09
175	0xba5e24ae	-0.00084740936
176	0xb1a0fa53	-4.6850714e-09
177	0xbba23cfb	-0.004951117
178	0xbaf26c73	-0.0018495455
179	0x373babe1	1.1186087e-05
180	0x3b0c2eff	0.0021390317
181	0x37d20757	2.5037369e-05
182	0x1a93aede	6.108029e-23
183	0x3b5a15b0	0.0033277087
184	0x1c0c7375	4.647134e-22
185	0x1aff8095	1.05673264e-22
186	0x9c33087e	-5.923711e-22
187	0xa43bc246	-4.0713717e-17
188	0x38b40af0	8.585106e-05
189	0x29655023	5.0917722e-14
190	0x1beafc8e	3.8875262e-22
191	0xba1e6365	-0.00060420326
192	0x3b3e79d9	0.0029064326
193	0xafc75012	-3.6254783e-10
194	0xaddf85a9	-2.5411522e-11
195	0x34bf6ecb	3.5657135e-07
196	0x363f190e	2.8475802e-06
197	0xbca0727c	-0.01958584
198	0x3c58207a	0.013191337
199	0x3b23facd	0.0025021315
200	0x1a316c9c	3.6690476e-23
201	0xb86a2242	-5.5821853e-05
202	0x1a9001fc	5.956021e-23
203	0x2adbd626	3.905081e-13
204	0x1b8ef847	2.3652375e-22
205	0x9a414892	-3.9970086e-23
206	0xba64a972	-0.0008722759
207	0x9866f946	-2.9852654e-24
208	0xb4113515	-1.3523488e-07
209	0x1a70be82	4.9784728e-23
210	0xbc9c133d	-0.019052142
211	0x3c8d5ec5	0.017257104
212	0x38d065d9	9.9371835e-05
213	0x3aedc094	0.0018139058
214	0x1bcb2720	3.3608817e-22
215	0x36ee97b9	7.1106156e-06
216	0x38478374	4.7567723e-05
217	0xba7267f2	-0.00092470564
218	0xa6c7fae4	-1.3876403e-15
219	0xbc8ae675	-0.016955594
220	0x381d4639	3.7497117e-05
221	0x99d0316f	-2.1526662e-23
222	0x3c4f853b	0.012666042
223	0x9b51e7ea	-1.736301e-22
224	0xb8c2a3f9	-9.281183e-05
225	0x3c94dcb2	0.018171642
226	0x3bfa0b31	0.0076307287
227	0x298cffcf	6.2616247e-14
228	0x1b5adb34	1.8103366e-22
229	0x9b8e785d	-2.3569712e-22
230	0x3b88f3fa	0.004179475
231	0xbc5c2f27	-0.013438976
232	0x1a639102	4.7059636e-23
233	0xb8eaf8ad	-0.00011204309
234	0x34760c84	2.2915088e-07
235	0xbb3e797d	-0.0029064112
236	0x33a94ed1	7.8840124e-08
237	0x3ac882a3	0.0015297722
238	0x3995c607	0.00028567036
239	0x3c2db2a6	0.010601675
240	0xb84ff6b8	-4.958242e-05
241	0x1adc9acb	9.123995e-23
242	0x37e954e6	2.7815298e-05
243	0x3c6db8bc	0.014509376
244	0x39e9e22e	0.0004460974
245	0xbab0be0a	-0.001348437
246	0x31a21783	4.7174935e-09
247	0x387d379c	6.037169e-05
248	0xb8c49891	-9.374426e-05
249	0x1c76507c	8.1498596e-22
250	0xba924acb	-0.0011161206
251	0x3ca357ac	0.019939266
252	0x9aee40f9	-9.853946e-23
253	0x3959c03e	0.00020766348
254	0xbab0760e	-0.0013462917
255	0xb4976fa9	-2.8207185e-07

lstm.bias_ih_l1 f4 [128]
0	0xb7ea012f	-2.7895525e-05
1	0xbbf053f9	-0.007334229
2	0xa04dcbeb	-1.7431646e-19
3	0xbaaab8eb	-0.001302508
4	0x36db6891	6.5388817e-06
5	0xb2aab98c	-1.9874982e-08
6	0xb5dca3bd	-1.6438931e-06
7	0x3c784ab7	0.015154532
8	0x3831b00f	4.2364056e-05
9	0x3b6349b3	0.003468138
10	0xb7f7ba51	-2.9531455e-05
11	0x263e93be	6.611972e-16
12	0xbb7cd9ac	-0.003858189
13	0x3792f102	1.7516784e-05
14	0x3322db3c	3.7917957e-08
15	0x1e832189	1.3884034e-20
16	0xbb0eb97a	-0.0021778033
17	0xbc2cc148	-0.010544129
18	0x35a7771e	1.2477137e-06
19	0x3b2f72ed	0.0026771382
20	0xbc1b9524	-0.009496007
21	0x3bacdc69	0.0052752984
22	0xbb5b86ba	-0.0033497051
23	0xb809d66f	-3.2863052e-05
24	0x223d07ce	2.5618408e-18
25	0x3c116336	0.008873751
26	0xbb663eb3	-0.0035132586
27	0xa1a3983a	-1.1085604e-18
28	0x20dc729c	3.7345292e-19
29	0xb9154ad8	-0.00014237629
30	0xbc553315	-0.013012667
31	0xb653055d	-3.1444572e-06
32	0xac203136	-2.2764685e-12
33	0xa2da4178	-5.9158336e-18
34	0x39ced498	0.00039449777
35	0x3bb74c35	0.0055938014
36	0xa0f85fb4	-4.2076165e-19
37	0x9ff03682	-1.0173413e-19
38	0x3b10d3b2	0.0022098836
39	0xa180c192	-8.724855e-19
40	0xbb3ea35f	-0.0029089076
41	0xa5463cd6	-1.7194374e-16
42	0x3c49e98e	0.01232375
43	0xbc030d69	-0.007998803
44	0x3a272bfc	0.00063770986
45	0x1f3c84be	3.992035e-20
46	0xb80d44b8	-3.368102e-05
47	0x2fd7997a	3.9217324e-10
48	0x34ce1cfb	3.8391576e-07
49	0xae5c8573	-5.0140735e-11
50	0x3bfa7625	0.0076434785
51	0xbbffb42f	-0.007803462
52	0x1f730522	5.1461497e-20
53	0xa02f8333	-1.4866487e-19
54	0xa00bba01	-1.1835301e-19
55	0xba9334b4	-0.0011230917
56	0x3ad780d6	0.0016441594
57	0x3b4e7fa7	0.0031509192
58	0xacd0a2ad	-5.929776e-12
59	0xa1bd9e9e	-1.2849124e-18
60	0x35efbb75	1.7861445e-06
61	0xbb02134e	-0.0019847932
62	0xa17f64b0	-8.653062e-19
63	0x389ebe7b	7.569507e-05
64	0x3c995d1f	0.018721161
65	0x3c352196	0.011055371
66	0xa6572ff8	-7.465812e-16
67	0x3ae20919	0.0017245143
68	0xba5815c3	-0.0008242989
69	0x3a154754	0.00056945276
70	0x3a76b2e9	0.0009410815
71	0xa5363b09	-1.5805986e-16
72	0x26bc6369	1.3072066e-15
73	0xbc937f68	-0.018005088
74	0xb9c6969b	-0.00037877713
75	0x3b0b3756	0.00212427
76	0x2fc327ee	3.5498665e-10
77	0x2b2673fd	5.9136013e-13
78	0x26c9059a	1.3948695e-15
79	0xb644bd81	-2.9316582e-06
80	0xba110607	-0.0005532209
81	0x37388111	1.0997305e-05
82	0xba4554e6	-0.00075276045
83	0xb51cb37f	-5.837573e-07
84	0x3977ffee	0.00023651097
85	0xa2b28d50	-4.8396617e-18
86	0xba66ca2e	-0.0008803931
87	0x3c7e468e	0.015519751
88	0xbbbc3d4a	-0.005744611
89	0xa5b00567	-3.0534794e-16
90	0x3c45cf2c	0.012073319
91	0xbbb7015b	-0.0055848784
92	0xbbba1b0d	-0.0056794942
93	0x3af062ed	0.0018340029
94	0xb7e31b1b	-2.707313e-05
95	0x3918dd71	0.00014578343
96	0xbc0d474a	-0.008622954
97	0xa284ad3b	-3.5962087e-18
98	0x9d9110d8	-3.8398596e-21
99	0xa196047d	-1.0165583e-18
100	0xbaf47074	-0.0018649236
101	0xbc8f6a31	-0.01750669
102	0x33840e02	6.149277e-08
103	0xba7f8120	-0.0009746719
104	0xa6818541	-8.987292e-16
105	0xbb8ba976	-0.0042621447
106	0x9d605440	-2.968971e-21
107	0xbc99b0f6	-0.01876114
108	0xa0875142	-2.2923661e-19
109	0xb088c1d5	-9.950393e-10
110	0x9f6cae27	-5.0119e-20
111	0x1e8ab3b4	1.4685642e-20
112	0xb8d55584	-0.0001017256
113	0x1f219f4b	3.422484e-20
114	0xbb91d90d	-0.0044509233
115	0xb31c5906	-3.6402547e-08
116	0x1fa0350a	6.785038e-20
117	0x36951eac	4.4441167e-06
118	0xbc329ff6	-0.0109023955
119	0x233963c9	1.00500004e-17
120	0xba793f54	-0.0009508033
121	0x9f8624fc	-5.681239e-20
122	0xbc791738	-0.01520329
123	0xa1d3dea4	-1.4356849e-18
124	0xba05d69d	-0.0005105527
125	0xb3e36e93	-1.05906246e-07
126	0x37e32bd4	2.7080918e-05
127	0x21c82039	1.3561056e-18

lstm.bias_hh_l1 f4 [128]
0	0xbb445394	-0.0029957043
1	0x34065533	1.2510718e-07
2	0x9d9365bf	-3.901578e-21
3	0x3c76838e	0.0150460135
4	0xa08f1671	-2.4239993e-19
5	0x3c8a2837	0.016864879
6	0x3ab3d539	0.0013720162
7	0x3b3b8273	0.002861169
8	0xba60281f	-0.00085509004
9	0xb7266b6f	-9.919385e-06
10	0x3c367db0	0.011138365
11	0x3b7b2b5f	0.0038325412
12	0xa1198a04	-5.202108e-19
13	0x321271ea	8.5242196e-09
14	0x3923f7cc	0.00015637203
15	0x370f557d	8.5433685e-06
16	0x2b19b669	5.4609664e-13
17	0x1f3a77d5	3.9486155e-20
18	0x3c846154	0.01615969
19	0x9f392be0	-3.9211566e-20
20	0x2d3a8221	1.060177e-11
21	0xbae3b8e9	-0.0017373833
22	0x3b983841	0.004645378
23	0xbb8bf6c8	-0.004271362
24	0xa985fe31	-5.950482e-14
25	0x3c9f1b37	0.019422157
26	0x3ad7b733	0.0016457796
27	0x3a9496d5	0.0011336455
28	0xb3106f7e	-3.3629014e-08
29	0x3ab8a138	0.0014086133
30	0x3a7dbfc4	0.00096797594
31	0xb4994cef	-2.8554447e-07
32	0xabbcedcb	-1.3424204e-12
33	0x3c3944da	0.011307919
34	0x3666f2c5	3.4413981e-06
35	0x3b51bf41	0.0032004865
36	0xbbc3b17d	-0.005972086
37	0xae498bda	-4.5826322e-11
38	0xb4417ba6	-1.8019509e-07
39	0xb51bd6eb	-5.8054746e-07
40	0xbc9bd9a9	-0.019024687
41	0xbb806d9b	-0.003919316
42	0xb21ca8c8	-9.1187715e-09
43	0x3bb98d9c	0.005662633
44	0xbc3245fd	-0.010880944
45	0x1f1171ee	3.0799185e-20
46	0x9fb22b64	-7.5457716e-20
47	0xb9271c19	-0.00015936828
48	0xba87aa29	-0.0010350394
49	0x1f224153	3.435887e-20
50	0x3c6f1302	0.014591934
51	0xbc996e41	-0.018729331
52	0xa8d161f7	-2.3246147e-14
53	0xb7a12ab4	-1.921258e-05
54	0xa0075572	-1.1463216e-19
55	0x3c967dc6	0.01837052
56	0x2271bf9a	3.2763023e-18
57	0x3572ad24	9.040398e-07
58	0x39c57e7e	0.00037669012
59	0xb62eef9c	-2.6067491e-06
60	0xb9c20a33	-0.00037010162
61	0x388c97e1	6.70401e-05
62	0xbabb446c	-0.0014287359
63	0x3b87f14c	0.004148638
64	0xbb736e4f	-0.0037144606
65	0x2df2c91c	2.7601525e-11
66	0xa5a565ca	-2.8691912e-16
67	0xa69dce65	-1.0950007e-15
68	0xba8eedb4	-0.0010904581
69	0xb6177b9d	-2.2572706e-06
70	0xbc1ef3ea	-0.009701708
71	0x3b85fc58	0.0040889196
72	0x344fe448	1.9361426e-07
73	0xb02d8bdd	-6.313579e-10
74	0x3996c599	0.0002875745
75	0xb5654d86	-8.542196e-07
76	0xba9095dd	-0.0011030991
77	0xb65310de	-3.1451268e-06
78	0x25bc0f2e	3.2623088e-16
79	0xb83f4345	-4.56006e-05
80	0xadc9390e	-2.2876392e-11
81	0xa5d8a945	-3.7584729e-16
82	0x26003cd8	4.449138e-16
83	0xb6984113	-4.5375286e-06
84	0x39f99cae	0.00047609716
85	0x3b128fbc	0.0022363504
86	0xb927b811	-0.00015994931
87	0x3c24264a	0.010018894
88	0xa6c75986	-1.3832664e-15
89	0xbb02efec	-0.001997943
90	0x22ee39d8	6.4571274e-18
91	0xb9087f26	-0.00013017337
92	0x38d47dbc	0.000101323676
93	0xbaf219dd	-0.0018470843
94	0xbbf7d616	-0.007563363
95	0x3b85b5b0	0.0040804967
96	0x3728d9dd	1.0064306e-05
97	0x262449ea	5.69991e-16
98	0x9d975b33	-4.0063665e-21
99	0xa1ba0c2c	-1.2607072e-18
100	0xbb2c028f	-0.0026246642
101	0x3b3f02cc	0.0029145954
102	0xaf3a6cc3	-1.6955241e-10
103	0x3bb82e0d	0.005620724
104	0x3ca08438	0.019594297
105	0x3a44b514	0.00075037894
106	0xbbb3431c	-0.0054706465
107	0x324ae330	1.1809604e-08
108	0x3591523a	1.0827273e-06
109	0xb753c2e7	-1.2621959e-05
110	0x3ba781c2	0.005111904
111	0x3c93c04a	0.018036027
112	0x3293c0de	1.7200758e-08
113	0xbbb0fbee	-0.005401126
114	0x3b4a9556	0.0030911765
115	0x9f387d77	-3.9067298e-20
116	0x3a39d793	0.0007089313
117	0x29fdf5ca	1.12780946e-13
118	0x2e00a83b	2.925325e-11
119	0x239b9036	1.686621e-17
120	0x228f8f22	3.8911775e-18
121	0x3c1ece73	0.009692776
122	0xa07058b2	-2.0358138e-19
123	0xb1c87e26	-5.8351075e-09
124	0x220cdc01	1.9090007e-18
125	0xbc00e5f8	-0.007867329
126	0xb1ce0337	-5.9957546e-09
127	0xbbe5d32c	-0.007013699
