save/best_model_29_32_8_0.2.pt (torch, 303055 bytes, 47 tensors)

lstm.weight_ih_l0 f4 [128, 29]
000000 3a 42 22 28 9a cd cc 3b 61 69 30 3d 5d f3 0f 26
       9.007167e-15 0.0062500956 0.043069247 4.994291e-16
000010 ec 34 94 bc ba 71 de 27 53 f3 e2 27 87 ba b9 3b
       -0.018091641 6.174068e-15 6.2991414e-15 0.0056679877
000020 c0 33 fa b5 8b 8e 52 39 06 5a ba bc ee bc 84 38
       -1.8641513e-06 0.00020080262 -0.022748005 6.3294414e-05
000030 ef cb a8 3c c7 7f 32 3d 3c 10 3a 29 6a 2f ed 27
       0.020605056 0.04357889 4.1314378e-14 6.583212e-15
000040 26 3f 48 3c 94 86 74 bb 50 f4 13 28 9e c6 1e bd
       0.012222087 -0.003731166 8.213116e-15 -0.038763635
000050 ba d3 df b3 50 48 e2 27 00 2d 2d 3c c5 b7 3c 28
       -1.04227595e-07 6.2806002e-15 0.010569811 1.0475945e-14
000060 05 10 b0 bc a7 88 d5 3b d3 ac d7 bb 73 f6 c2 bb
       -0.021492014 0.0065165344 -0.0065818815 -0.005949789
000070 b9 85 17 3b 36 96 81 bb b3 32 b1 3c 6c ac 81 38
       0.0023120476 -0.003954674 0.02163062 6.1833154e-05
000080 ae be 1c ba 91 f6 2f 39 2b 26 16 3c b8 d7 85 3c
       -0.0005979341 0.00016781154 0.009164373 0.016338214
000090 f0 58 ca bc 06 e7 40 b0 54 72 24 bc 58 1f 2d bc
       -0.024700612 -7.0177497e-10 -0.010037024 -0.010566555
0000a0 31 4b 7b 3c 37 d3 53 b2 ea 63 80 bb af 42 18 bd
       0.015337751 -1.2329841e-08 -0.0039181607 -0.03717297
0000b0 81 6f 77 b5 6b 51 2b bd 29 26 6b b7 12 26 18 bd
       -9.217693e-07 -0.041825693 -1.4015976e-05 -0.03714568
0000c0 8b 40 84 28 9e 42 1e 3b 56 eb 8a bc 3a 12 75 30
       1.4682935e-14 0.0024148594 -0.01695792 8.915638e-10
0000d0 b1 69 0a bd 3e d5 25 bd a2 d4 1f 28 0e f2 24 3d
       -0.0337922 -0.040486567 8.8723804e-15 0.040269904
0000e0 48 54 e2 35 56 b6 da bc f0 6f 41 28 6f d7 84 bb
       1.6862841e-06 -0.026698273 1.0737925e-14 -0.004054002
0000f0 3b 49 2f 3d 8d d1 48 26 49 2e 93 32 25 84 49 28
       0.042794447 6.9672933e-16 1.71341e-08 1.1186396e-14
000100 d5 77 ca 3c 77 22 c8 bb 27 ff 0f 3d 7e 8c a7 39
       0.024715343 -0.006107624 0.03515544 0.00031957397
000110 cd 7c d4 ba 1b a6 3f bb 30 12 3a b8 03 14 97 3c
       -0.001621151 -0.0029243294 -4.4362794e-05 0.01844216
000120 9a 75 ec 3c 30 4d 86 3b f3 cc 81 3c 1a 45 e3 2a
       0.02886467 0.004098557 0.015844798 4.037125e-13
000130 73 de 62 28 48 4e b5 3b ab 5f 57 bc 5d 83 da bc
       1.2593756e-14 0.0055330135 -0.013145368 -0.026673967
000140 91 fc 96 b9 0d 28 55 3c 92 f5 40 3c 67 bf dc bb
       -0.00028798406 0.013010037 0.0117772985 -0.006736684
000150 01 86 a4 3c 6b a9 07 3b d2 2c eb bc 84 84 23 bc
       0.02008343 0.0020700346 -0.028707895 -0.009980325
000160 53 f9 02 b5 db 1a 74 ba 74 f7 0c bd b0 e9 84 ab
       -4.879159e-07 -0.0009311863 -0.034415677 -9.444025e-13
000170 44 d5 63 b7 44 2c 93 3c f8 69 b8 bb af 87 1a bd
       -1.3579909e-05 0.017965443 -0.005627867 -0.037727054
000180 a6 6b f2 2c d3 89 06 3a 4c 6e 0e bc 72 a4 c3 ba
       6.890005e-12 0.0005132232 -0.008693289 -0.0014926328
000190 b5 ea 0b ba 19 a7 4c 3a 8b 3e 96 bc ac 48 79 b7
       -0.0005337403 0.0007806882 -0.01834037 -1.4858477e-05
0001a0 e4 76 c1 ae be b4 a5 bc 06 28 ee a8 c3 d6 bb 3b
       -8.797743e-11 -0.020227786 -2.6440665e-14 0.0057323887
0001b0 00 9a 1a 3c 96 99 11 bd 21 fa 55 bc dc 5d ee bc
       0.0094361305 -0.03554686 -0.013060124 -0.02909749
0001c0 ff 66 ad bc 39 e8 fd 37 e9 46 7a a8 93 70 ef ba
       -0.021167276 3.0268087e-05 -1.3893164e-14 -0.0018267803
0001d0 98 d7 77 af a6 dd 7e 27 c7 24 ae 3b c0 26 bf bb
       -2.2541113e-10 3.5369737e-15 0.005314443 -0.005833477
0001e0 c9 1d 59 27 51 2d cc b9 a5 d3 ee 26 c8 6c ab 2e
       3.0130946e-15 -0.00038943675 1.6571934e-15 7.795503e-11
0001f0 45 99 95 3b fa 09 02 3d 59 f9 95 bc 26 c9 55 27
       0.0045653903 0.031747796 -0.018307375 2.966873e-15
000200 c5 e0 03 bc a7 b8 1c b8 15 f9 db 32 bb d8 85 bc
       -0.008049195 -3.736527e-05 2.5608225e-08 -0.016338697
000210 46 75 fc ae 7f 82 4e bc 57 ae 7f 31 90 3a 0e 3b
       -1.1480465e-10 -0.012604355 3.7206485e-09 0.0021702386
000220 f7 5e 39 27 f7 d2 55 27 3b 36 8c 27 b7 6b 1c 3b
       2.5725388e-15 2.9674052e-15 3.8916603e-15 0.0023867914
000230 51 54 30 b9 c2 f1 24 bb c0 e9 38 bb 36 65 39 bb
       -0.00016816078 -0.0025168513 -0.0028215498 -0.0028289086
000240 b8 08 df 39 4a f3 32 3d 27 4b 1a bd e1 15 dd 3b
       0.0004254037 0.04368905 -0.037669327 0.006746993
000250 f0 dd c4 a5 11 c2 24 bd 90 f5 fd b8 5d 0b c0 a7
       -3.415097e-16 -0.04022414 -0.0001210972 -5.3303025e-15
000260 a4 79 c9 a8 26 ef e0 bb 0e b0 e8 a8 2a cf 75 bc
       -2.2368236e-14 -0.006864446 -2.5833526e-14 -0.015003005
000270 53 18 83 bc 85 9d 0a 3d f4 d0 32 bc 51 c4 03 bc
       -0.01600281 0.03384163 -0.010914076 -0.008042411
000280 9d 9e 5f ac 89 f6 cb a7 c9 43 f2 a7 06 36 f0 38
       -3.1778254e-12 -5.6611112e-15 -6.7241986e-15 0.000114541544
000290 97 0d b5 b9 0d 47 c3 b1 9e 2b 2b 3a f9 c9 fc bb
       -0.00034533135 -5.6833245e-09 0.0006529632 -0.0077145067
0002a0 ed 35 a3 3c 92 d2 ef b9 ba ed d1 a8 56 e1 33 2a
       0.019923175 -0.0004574252 -2.3306759e-14 1.5976573e-13
0002b0 42 6f 34 bd 23 c6 d5 3b 14 98 25 3c a3 cc 8f 3b
       -0.044051416 0.006523864 0.010107059 0.0043884083
0002c0 5f 3a 05 bc d4 8d 17 3d b5 85 c6 bc c8 94 93 b9
       -0.008131593 0.037000492 -0.024233678 -0.00028148876
0002d0 34 44 c9 3b 7e 6c 24 36 8c 02 ba 3b 1f ca d1 33
       0.0061421636 2.4501055e-06 0.005676573 9.7690865e-08
0002e0 b0 4c 6d 24 d2 82 1a af 35 57 de 3b bc 4d 02 33
       5.145614e-17 -1.4052695e-10 0.006785298 3.0338683e-08
0002f0 cb 23 00 3c 61 1e ee 3a 80 19 f4 bb 96 2b 09 b9
       0.007821034 0.0018167013 -0.007449329 -0.00013081575
000300 4c 3c e5 a4 9b 22 c8 a5 f4 5e 44 3c f8 5b e5 3b
       -9.9415066e-17 -3.471792e-16 0.011985529 0.006999489
000310 ca 4e 97 b7 4e ad c1 a3 d1 b9 2a 36 a1 0d f9 bc
       -1.8037292e-05 -2.09985e-17 2.5440133e-06 -0.030402007
000320 21 d6 25 3a 55 f8 2e 3c 02 89 9e bc 1b c1 cf a6
       0.0006326158 0.010679324 -0.01935244 -1.4415852e-15
000330 c6 70 c6 bb fe 4a 45 37 5c a1 49 b7 9d a1 33 3d
       -0.006055924 1.17595755e-05 -1.2018103e-05 0.0438553
000340 ab 44 5c ac 9c 0b e7 b7 f4 f3 08 a8 c4 eb 5b bc
       -3.1301999e-12 -2.7542752e-05 -7.6024155e-15 -0.01342291
000350 31 c3 37 3c a4 88 ce 3c d8 08 a9 39 21 7d f2 3b
       0.011215971 0.02521164 0.0003224078 0.0074001704
000360 54 42 9f ba 8f ee 57 af 9c d8 61 3a d5 c8 56 b7
       -0.0012150505 -1.9638889e-10 0.0008615346 -1.2802154e-05
000370 86 e3 d8 a6 34 d7 20 3c 26 48 fa ba 14 ce 0a 30
       -1.5049681e-15 0.009816933 -0.0019094988 5.049696e-10
000380 44 12 2a 3c 1a bf ca bb 74 13 01 bd 36 1d 2f bc
       0.010380331 -0.006187332 -0.031512693 -0.010688117
000390 b4 8b 5e 39 6f d8 23 bc 5f bc 96 ac 42 d1 34 3d
       0.00021223613 -0.010000332 -4.28417e-12 0.044144876
0003a0 82 37 82 ba 80 c4 c4 33 f0 ee 14 b7 f9 32 ba ba
       -0.0009934756 9.1627044e-08 -8.877119e-06 -0.0014205865
0003b0 d7 a7 cd 27 ff 12 ec 2d 73 8a f3 27 93 92 b3 3b
       5.7080902e-15 2.683853e-11 6.7596156e-15 0.0054801195
0003c0 11 9a 64 3a a7 40 1c 3c f3 b4 4b bc e5 99 c3 27
       0.00087204674 0.009536899 -0.012433278 5.4290225e-15
0003d0 75 df b8 27 3c ae 2b b6 b6 54 7f bb 43 69 d4 3b
       5.131253e-15 -2.5582403e-06 -0.0038960404 0.0064822747
0003e0 ed 09 dd 3a 70 7b a6 bc 09 ad ac 3c b8 ef 18 bd
       0.001686392 -0.020322531 0.021078603 -0.03733799
0003f0 3a 12 31 28 d3 4e 1b af 5c 55 3d bb 16 c6 16 28
       9.829426e-15 -1.4125172e-10 -0.002888999 8.369626e-15

lstm.weight_hh_l0 f4 [128, 32]
000000 5f be e7 3c 82 d5 40 bc 64 b2 29 bc 3f 82 26 37
       0.028289018 -0.011769654 -0.010357473 9.924696e-06
000010 4f 2c b4 3c c7 4c 27 3d 20 cc 50 26 95 a7 34 30
       0.021993784 0.040844705 7.244114e-16 6.5721767e-10
000020 8d e1 32 26 7f f2 d3 a6 cf d2 d2 26 29 39 a6 b7
       6.2061834e-16 -1.4706795e-15 1.4628817e-15 -1.981536e-05
000030 3d f0 70 bc 1e 84 d8 25 2b 0f 03 bd 8e 28 15 ba
       -0.014705715 3.7559553e-16 -0.031996887 -0.0005689942
000040 5d f2 1d b9 ce 06 e8 3b 16 c6 99 3c 36 1d 48 26
       -0.00015062974 0.0070808893 0.018771213 6.9428527e-16
000050 8d 2c 43 27 0d 9d 20 3d a4 e8 0d b8 ce 26 b7 bc
       2.7085837e-15 0.039212275 -3.3833683e-05 -0.02235737
000060 8f ed 1a 3d 19 6f c2 b6 ee 0b 47 b1 ba ab 95 bc
       0.03782421 -5.794584e-06 -2.8965093e-09 -0.018270362
000070 55 85 de a4 37 96 7a b4 88 75 fa b5 c2 eb 72 26
       -9.6503026e-17 -2.3337712e-07 -1.8660658e-06 8.428013e-16
000080 4b 78 8a b9 d8 1b 98 3c 51 4a 01 3c 27 1a e1 bc
       -0.00026411036 0.018567964 0.007891254 -0.02747829
000090 28 4c d7 36 f1 7e b3 bc a1 61 c3 bb 0c 5e 89 3b
       6.416365e-06 -0.021911116 -0.005962566 0.0041921195
0000a0 df b1 17 bd 6c 63 14 38 1d cd 16 bd c1 09 58 b7
       -0.037034865 3.5378544e-05 -0.036816705 -1.2876874e-05
0000b0 3c 09 cd 25 86 62 e5 36 6c e7 11 a5 1a 43 9d b2
       3.556809e-16 6.8362015e-06 -1.2655154e-16 -1.830772e-08
0000c0 46 5d c9 3c c5 c9 01 ae 3d 07 96 24 b2 9b 68 3c
       0.024580609 -2.951041e-11 6.506439e-17 0.014197277
0000d0 f1 fa 0d 32 cf 21 10 bc cb 0c 2f b6 ab 7f b2 bc
       8.264338e-09 -0.008797123 -2.6084479e-06 -0.021789392
0000e0 f8 68 25 3d 43 c1 00 3c 89 b4 61 3b 15 75 00 25
       0.04038331 0.007858577 0.0034439883 1.1141899e-16
0000f0 79 39 10 3c 3c ab 7f a6 b5 ac 12 3d 73 1a b4 28
       0.008802765 -8.8702963e-16 0.035809238 1.9995485e-14
000100 ff 1d e4 bc 53 e6 15 27 4a 06 b5 3c 92 ce 69 bc
       -0.027846335 2.0802763e-15 0.022097725 -0.014270442
000110 47 e2 54 b7 5f 56 a0 a6 46 f8 ea 32 aa 01 79 3b
       -1.2688869e-05 -1.1125641e-15 2.7354087e-08 0.0037995377
000120 83 e2 8d b5 51 b9 08 ba 50 27 ed 3c 1f 8c 9c 38
       -1.0571242e-06 -0.00052156026 0.02894941 7.464759e-05
000130 e8 86 1e 3b f8 b8 92 a4 2c d6 cd 39 94 82 83 a6
       0.0024189297 -6.3630756e-17 0.00039260217 -9.125344e-16
000140 8d d4 29 3d 45 e2 b9 39 b4 01 35 2d 90 66 bd b7
       0.04146247 0.00035454534 1.0289037e-11 -2.2578315e-05
000150 5e 25 17 3d 95 59 d1 a5 54 4e 82 b9 29 ee e0 3c
       0.03690087 -3.6316424e-16 -0.0002485389 0.027457314
000160 80 e5 cd 31 4a 65 10 bd b4 3b e9 38 f9 2c 53 26
       5.9923764e-09 -0.035252847 0.00011121426 7.326628e-16
000170 45 f1 cc b7 d6 53 8f af ea 46 8d 36 1c 33 0c bd
       -2.4431045e-05 -2.6071117e-10 4.210383e-06 -0.03422843
000180 4b 7a f6 3c 11 01 33 bb 88 b9 5d b9 03 39 19 3c
       0.03008761 -0.0027313868 -0.00021145318 0.009351972
000190 7a 0c ee 3c 7d e8 24 b8 b3 d6 bd 3c f2 d8 93 b5
       0.029058684 -3.931717e-05 0.023173666 -1.1015493e-06
0001a0 52 77 3a a6 c1 fa 85 bc 99 91 16 af 72 e8 dc bc
       -6.469342e-16 -0.01635492 -1.3694147e-10 -0.026966307
0001b0 ff 6d 08 bc 7e 21 13 3b 31 0d 22 39 68 32 bd bc
       -0.008327006 0.0022450383 0.00015454438 -0.023095325
0001c0 e4 68 24 35 09 8d 6a 39 fd d6 0e 36 d5 08 fd b6
       6.1247397e-07 0.00022368519 2.1284789e-06 -7.5410157e-06
0001d0 60 0c c4 3a 91 07 bf 25 ec 21 e5 b9 91 c5 84 39
       0.0014957301 3.3138346e-16 -0.00043703557 0.000253242
0001e0 f4 80 b0 bc ec 18 ab bc 8c 7d f8 b8 eb 4e 06 bd
       -0.021545865 -0.020885907 -0.000118489465 -0.032790106
0001f0 b6 4b 77 3a cc c2 d8 3b 7e 15 0f a5 81 40 1e 37
       0.0009433584 0.0066150185 -1.2410555e-16 9.432552e-06
000200 75 34 2e bd 0d 91 05 b7 ac ac 28 bb 16 96 d2 25
       -0.042530496 -7.96119e-06 -0.0025737686 3.6530895e-16
000210 90 c1 ea 3c 5a 94 be 3c 07 08 a6 3b 7c cc e1 25
       0.02865675 0.023264099 0.005066875 3.9169842e-16
000220 ea 60 ce 25 82 b1 62 37 50 32 96 3b 8e 99 3d bb
       3.5800975e-16 1.3511979e-05 0.0045836344 -0.0028930637
000230 1c d7 81 bc 75 63 ab 38 27 42 ff a4 08 5e fa bc
       -0.015849642 8.172441e-05 -1.1070069e-16 -0.030562416
000240 f8 49 9d 3b ef ef 47 bc e7 71 2e 3d d2 bd 45 bc
       0.0048000775 -0.012203201 0.042589094 -0.0120691825
000250 1a 4c 39 b9 6e 03 a8 bb 8a 4d 8b 3a e9 63 d9 bc
       -0.00017671325 -0.005127362 0.0010627967 -0.026536899
000260 06 b7 3a ae f1 71 a6 3a 91 7a 2d 2d 8e 75 72 bc
       -4.245406e-11 0.0012698752 9.861127e-12 -0.014798535
000270 56 d6 d8 a9 b2 24 cc 3b 9e 8f a3 bc a3 ff 1c 26
       -9.629508e-14 0.0062299604 -0.019965943 5.4469825e-16
000280 37 01 1b b9 33 21 24 bd 97 e5 9f bb 35 a2 9d 35
       -0.00014782404 -0.040070724 -0.004879664 1.174462e-06
000290 fc 47 d6 35 f1 0b 2a 3c 15 06 8f bc c1 75 3d bb
       1.5965193e-06 0.010378824 -0.017458955 -0.0028909298
0002a0 00 b0 f9 3c 9e 5c 30 bd 40 98 2d 3c 9f df 59 ae
       0.030479431 -0.043057077 0.010595381 -4.9538703e-11
0002b0 28 6d 3a 25 b1 d3 24 3d 2d 3f a6 3c 87 c6 f4 3c
       1.6169912e-16 0.040240947 0.020293796 0.029879821
0002c0 60 a9 9b a5 e9 f5 27 26 eb f5 43 bb b2 6e 05 a6
       -2.7002987e-16 5.8273035e-16 -0.0029901217 -4.6293665e-16
0002d0 b4 00 d4 bb 42 b5 a0 bc 30 c9 10 a6 c5 e7 4d bc
       -0.0064698104 -0.01961768 -5.0232696e-16 -0.012567465
0002e0 56 5b 91 3a c7 5c 36 bc bb 4b e9 b4 61 42 62 b1
       0.0011089842 -0.011130518 -4.3454733e-07 -3.292506e-09
0002f0 5f b9 48 bc 2d 1e c2 ba d0 c2 2e 3d 9e 13 04 3d
       -0.012251227 -0.0014810018 0.042666256 0.03224527
000300 4a f3 d4 3c 14 64 fe bb d5 3b 77 38 9a d4 20 3d
       0.025994916 -0.007763395 5.8945112e-05 0.039265253
000310 a8 54 96 3c e5 fb f8 3b 89 74 60 a3 37 ff 4f bc
       0.018350914 0.0075983875 -1.2167742e-17 -0.012695125
000320 bc 0b 2a ba 26 28 f5 ab dc 66 70 bc 80 78 4f ba
       -0.0006486734 -1.741944e-12 -0.014672961 -0.0007914379
000330 56 2a f3 ba eb 5d b4 ba f9 2e a9 bc 13 0c 2d 22
       -0.0018552046 -0.00137609 -0.020652281 2.3452264e-18
000340 27 95 25 3d bc 22 81 b9 dd b7 d9 bb 97 b9 99 37
       0.040425446 -0.00024630676 -0.0066442327 1.8325443e-05
000350 f9 36 df a3 da 6e 9f 36 2e 34 ca 38 8e 20 9f 3c
       -2.420099e-17 4.751474e-06 9.64183e-05 0.019424703
000360 10 6d 33 24 73 5b 71 b7 1a dc 68 37 62 74 ce 3b
       3.8906817e-17 -1.4386012e-05 1.3879524e-05 0.006300495
000370 02 e9 77 22 89 8a 09 bd 1e 2f ad 3a 5c 48 e9 33
       3.3598095e-18 -0.033579383 0.0013212895 1.086307e-07
000380 aa 81 66 b1 08 08 8b a5 18 3d 04 bd 4a b9 35 bd
       -3.354311e-09 -2.4118099e-16 -0.032284826 -0.04436616
000390 77 72 2f bd 74 5b 6c bc 35 57 e2 a4 a9 71 cb 2e
       -0.04283377 -0.014426101 -9.815961e-17 9.251561e-11
0003a0 91 0d a2 bc 23 a4 2c bd 5f b9 db 32 06 40 ec 36
       -0.01978186 -0.04214872 2.5579252e-08 7.0408014e-06
0003b0 52 bd 21 3d 6a be 8b 30 4c e0 0b 38 95 c7 90 3c
       0.03948719 1.01677e-09 3.3349075e-05 0.017673293
0003c0 2b 65 08 bc db 14 c0 3c c0 a4 10 3d 01 dc 12 3d
       -0.008324902 0.023447445 0.035313368 0.035854343
0003d0 1e f4 47 bb 43 9c cc 24 ab 42 a3 bc 2c 3f 1d bc
       -0.0030510495 8.8735615e-17 -0.01992925 -0.009597581
0003e0 c1 19 0b a4 e3 ed 68 b9 b5 61 fd 3c c9 72 34 36
       -3.0162635e-17 -0.00022213864 0.03093038 2.6888904e-06
0003f0 a6 eb 78 23 58 c4 63 aa cc bf a0 af 2a a6 c5 ba
       1.34940074e-17 -2.022977e-13 -2.924011e-10 -0.0015079428

lstm.bias_ih_l0 f4 [128]
000000 40 eb e6 bb a4 9a c1 2d ed 5a 24 37 b9 60 b4 b9
       -0.007047087 2.2010234e-11 9.796332e-06 -0.0003440434
000010 15 0f 32 bd dd 27 15 b8 b0 6d 91 b0 83 6c 4c a8
       -0.043471415 -3.5561494e-05 -1.0581314e-09 -1.1347805e-14
000020 67 d0 f7 3c 63 7a 94 bc 20 63 35 30 08 ff 22 bc
       0.030250741 -0.018124765 6.598828e-10 -0.0099484995
000030 78 9d 34 2d 7c aa a5 bc b0 72 ff bb 5a b4 90 b9
       1.02667805e-11 -0.020222895 -0.0077956542 -0.00027600193
000040 fe 83 92 bc 9e 4f 33 bd d2 6a 9e b7 5b d7 a3 a7
       -0.017885204 -0.0437771 -1.888481e-05 -4.5475077e-15
000050 a1 93 d6 bb 50 78 05 3d e8 1d 40 a8 b5 de 86 b2
       -0.0065483605 0.032585442 -1.0664626e-14 -1.5700929e-08
000060 c6 62 52 a8 91 a2 02 29 24 ba 48 bc ca e3 8b 3c
       -1.167876e-14 2.9006803e-14 -0.012251411 0.017076392
000070 52 54 40 3c 1b 86 8a 3c d6 03 01 a8 d0 f1 a8 bc
       0.0117388535 0.01690965 -7.16177e-15 -0.020623118
000080 57 d1 0f 3c b2 0d 94 ba 11 40 e6 29 c9 21 9d bc
       0.008777938 -0.0011295585 1.02251656e-13 -0.01918115
000090 9c 90 d2 bc 92 2d 85 3b 2a f3 01 bd 24 f9 70 a8
       -0.02570372 0.0040642703 -0.03172604 -1.33767e-14
0000a0 9c 61 a0 29 79 cb 88 37 9f e3 c4 3c 0c c0 43 b1
       7.12236e-14 1.6307213e-05 0.02403432 -2.84854e-09
0000b0 ba 59 52 b8 7c 14 c4 28 58 17 bf 3c cd f1 7f 37
       -5.0151466e-05 2.1769255e-14 0.02332656 1.5255483e-05
0000c0 31 b0 fa 3b df b5 0b 3b 26 55 1e 27 57 dd c9 a7
       0.007650398 0.002131812 2.1973064e-15 -5.6028684e-15
0000d0 db 9a 2f b9 c8 51 ca b7 ab f9 45 ad 18 4f 12 bd
       -0.00016746989 -2.4118359e-05 -1.1253591e-11 -0.03571996
0000e0 a7 b6 d0 bb c1 70 5b 29 26 4a 32 a9 d1 fc 64 a8
       -0.00636943 4.8725567e-14 -3.9588253e-14 -1.2711363e-14
0000f0 08 c5 3b 27 7a f1 1e 3c 6c 16 bf 3a 0e eb 33 bd
       2.6058274e-15 0.009701127 0.0014578826 -0.043925337
000100 a4 39 20 bd e5 d8 6f 2b 38 3c d4 36 7f 41 78 ac
       -0.03911747 8.521086e-13 6.3251027e-06 -3.5279277e-12
000110 86 1a 59 34 f2 b8 86 bc e0 14 ae b9 5f 9f 00 ae
       2.0219349e-07 -0.01644561 -0.0003320342 -2.924538e-11
000120 b9 6c 38 b5 6f c9 ea bc 89 c5 9d 32 77 40 3b af
       -6.8703554e-07 -0.028660504 1.8367034e-08 -1.7030453e-10
000130 db cd 10 ac 8b f0 d6 39 f7 54 8e 36 da b9 62 3c
       -2.0577904e-12 0.0004099648 4.241821e-06 0.013838256
000140 a0 86 08 3d aa de e1 ba c3 6e 65 36 c8 ee 33 ab
       0.033331513 -0.0017232497 3.418813e-06 -6.392495e-13
000150 39 aa 26 3d 8c ae d4 3c b1 6f eb 3a 2f 8c 31 3b
       0.04068968 0.025962137 0.0017962364 0.0027091613
000160 f4 7e 45 34 a9 e2 0a bd 88 64 16 3d 3b b8 2f b8
       1.839324e-07 -0.033907566 0.036716968 -4.189483e-05
000170 9f 1b 01 b6 06 ef 0b bd 51 15 e3 ac 8f 50 6d 3c
       -1.9238576e-06 -0.034163497 -6.4540946e-12 0.014484539
000180 ed ae d3 29 17 d8 1b 29 77 1e f8 29 c5 47 56 39
       9.400627e-14 3.4604342e-14 1.1018697e-13 0.00020435367
000190 83 11 36 3c 6f ff 37 b9 3d 6d b3 bb f3 89 f0 bc
       0.011112574 -0.00017547396 -0.0054756687 -0.029362654
0001a0 12 f1 78 2e 52 22 5c 37 de 98 08 bb 5b a9 ec b8
       5.6602785e-11 1.3121013e-05 -0.002084307 -0.00011284902
0001b0 5e f5 a6 3c fb c2 2c ac fd 02 55 bc b5 08 49 bb
       0.020380672 -2.4550906e-12 -0.013001201 -0.0030675356
0001c0 62 ed c9 33 58 92 81 a7 c4 1c 14 2f fc 4c b5 bc
       9.4029716e-08 -3.596336e-15 1.3470741e-10 -0.022131436
0001d0 98 e9 d3 b2 ea 68 4f a8 eb 92 31 bd a8 a6 3e b6
       -2.4669859e-08 -1.1513558e-14 -0.043353003 -2.8409213e-06
0001e0 be b9 5a ba 0f 2e 54 29 72 48 33 bd c0 58 9b 38
       -0.0008343718 4.7113406e-14 -0.04377026 7.407507e-05
0001f0 d4 5c 08 bc ab 96 52 bc cc a9 6f bb 69 bf a2 bb
       -0.008322913 -0.012853305 -0.0036569713 -0.0049666655

lstm.bias_hh_l0 f4 [128]
000000 e6 ec 3e 39 10 1d 09 bd 0b 98 e6 29 b1 89 68 a9
       0.00018208064 -0.03347498 1.0240427e-13 -5.1633777e-14
000010 a4 73 87 28 10 2d 17 3c 96 ac 06 bd ce 0d ff bc
       1.5038162e-14 0.009227052 -0.032879435 -0.031134512
000020 89 0d ce bc 41 bb 0d bd bf 1a c2 3c b6 1e c5 bc
       -0.025152938 -0.034602407 0.023694394 -0.024062496
000030 ef 3a 11 3c 7a 64 62 3a d8 13 21 3d 05 87 e3 bc
       0.0088641485 0.0008636188 0.039325565 -0.027774343
000040 f0 31 8a bc db d4 80 bb b4 3c bb bc ec b3 c7 a7
       -0.016869515 -0.0039316243 -0.022856094 -5.5428667e-15
000050 2c cf d8 ba 4f 46 1c b9 de df f4 a7 8f cf c2 b5
       -0.0016541234 -0.00014903511 -6.796632e-15 -1.4514534e-06
000060 e7 75 bd 3b 90 2b 93 3b 47 b5 43 a9 82 84 5a a8
       0.0057818773 0.004491277 -4.345593e-14 -1.2130164e-14
000070 df a8 12 bc b2 21 9d b8 4a 18 1f ae 76 19 c9 a8
       -0.008951395 -7.4926196e-05 -3.6173987e-11 -2.2326525e-14
000080 16 0a d4 bc 89 52 84 3b a9 c3 17 2a 2a d2 e2 bb
       -0.025883716 0.0040381593 1.3479377e-13 -0.006922026
000090 f6 c7 e5 3c 8b ad 03 bc e6 8c 7a 32 13 4d e1 39
       0.02804945 -0.008036981 1.4583952e-08 0.0004297277
0000a0 a1 ec 70 34 27 32 7c bc a1 1b 9f 3b bc 40 e7 bc
       2.2437827e-07 -0.015392817 0.0048555885 -0.02822911
0000b0 b9 d6 84 3c 46 cb 8e 28 74 53 16 3b ae f9 29 3b
       0.016215669 1.5853323e-14 0.0022937926 0.0025936174
0000c0 35 54 03 3c 0b 91 f2 36 6e 81 fb 2c 5c 16 76 37
       0.008015682 7.2290472e-06 7.1482186e-12 1.4667949e-05
0000d0 e7 d9 20 2a 33 92 57 3c 6e cc 38 ae d4 94 de 3c
       1.4286455e-13 0.013157415 -4.2018326e-11 0.027170576
0000e0 f0 fb 15 3d 30 9c 17 bd 9d fc 31 a9 21 22 98 37
       0.03661722 -0.037014186 -3.9521002e-14 1.8135705e-05
0000f0 df be ce 3a 59 83 48 a9 8e d8 80 ba 5a a2 eb ba
       0.0015773437 -4.4522847e-14 -0.0009830163 -0.0017977462
000100 73 2c 3c 3c 34 04 92 3c 38 ba 44 b9 10 bd a4 ac
       0.011485207 0.01782427 -0.00018761388 -4.6821505e-12
000110 ec 63 2d 3d 56 05 17 bb 88 23 a2 b9 b7 77 ea ba
       0.04233162 -0.0023043952 -0.0003092552 -0.0017888461
000120 f6 3e ce 3c 99 d9 d6 af 26 dd 0a 3c d6 e9 82 3a
       0.025176506 -3.9080986e-10 0.008475577 0.0009987901
000130 da ce ab 3b b5 a4 8a 2c 9c 3c 98 3b 66 0e 73 37
       0.0052431645 3.940482e-12 0.004645897 1.4487281e-05
000140 90 35 a1 bc f0 2f 9b 38 4b 4e 2d ba e8 1c 1a 3c
       -0.01967886 7.399905e-05 -0.0006611093 0.009406306
000150 e4 ed 2c b7 eb 32 9f 39 99 56 ec 3a 20 44 35 3d
       -1.0307387e-05 0.0003036478 0.0018031179 0.044254422
000160 76 6f a4 38 0d c2 85 ac 9e c7 e6 36 4b ec 30 3c
       7.8408906e-05 -3.8016313e-12 6.8777726e-06 0.010798524
000170 8c 11 83 bb 6f 87 fa 3c b7 98 d1 b3 cd aa 4d ac
       -0.0039998945 0.030582158 -9.7600996e-08 -2.9227066e-12
000180 7a e8 ec bc c1 b3 fc 3c f1 2f 39 38 fe 3b 33 b6
       -0.028919447 0.030847432 4.4152086e-05 -2.6707999e-06
000190 38 f2 68 b3 43 57 1f bb 97 c2 a3 bc 97 f5 ff 3c
       -5.4237006e-08 -0.0024313487 -0.019990249 0.031245036
0001a0 6a 5f 5b 2c 93 26 02 bd ca 4f 1a 3d 0f aa 63 a8
       3.1174737e-12 -0.03177507 0.03767375 -1.2637907e-14
0001b0 a2 b3 49 3b bc f7 b8 28 ff 98 5c b7 35 5e d7 ba
       0.0030777236 2.0535541e-14 -1.3148644e-05 -0.0016431274
0001c0 bf 41 81 28 53 b9 e0 a7 79 48 2f ba ad 3c 2e bd
       1.435039e-14 -6.237342e-15 -0.00066865195 -0.042538334
0001d0 2b 50 d9 29 aa 10 fc b9 d4 3a 19 36 d5 76 0a 3d
       9.650643e-14 -0.000480776 2.283302e-06 0.033804733
0001e0 12 3f 91 30 c9 95 34 bd 50 2f 69 bc 91 4b 15 bd
       1.0568064e-09 -0.04408816 -0.014232472 -0.03644902
0001f0 df d1 88 bb ad 2f 1b 3d d4 1c 36 3d 41 5e d9 38
       -0.004175409 0.037887264 0.044461086 0.000103649225

lstm.weight_ih_l1 f4 [128, 32]
000000 e7 da b1 b6 f5 06 0b bd f4 21 09 3d a4 57 be a7
       -5.3004946e-06 -0.03394218 0.033479646 -5.2830614e-15
000010 91 50 11 bb 87 03 dd 3c 02 ba c7 bc 49 fd 11 bd
       -0.0022173265 0.026979221 -0.024380688 -0.035641942
000020 19 14 97 37 62 ad 3b 28 0c 40 2e 3d 3d 39 cc a7
       1.8009961e-05 1.0418182e-14 0.04254155 -5.6683432e-15
000030 a5 e1 3c 34 ac f5 84 bc 5d f1 5d 27 f4 4b 10 3c
       1.7590953e-07 -0.016230427 3.0800754e-15 0.008807171
000040 f4 9b 13 bd b1 93 0c 3c ae 78 cf a6 03 7f 8c b9
       -0.0360374 0.008580134 -1.4396221e-15 -0.00026797512
000050 2c 2e db 3c c0 66 43 27 5d 86 1c 3d 00 e0 c6 a7
       0.026755415 2.7117387e-15 0.038214076 -5.51989e-15
000060 6c 06 07 3d 37 61 dd 3c 82 a7 64 27 15 a9 c2 b9
       0.03296511 0.027023895 3.1732162e-15 -0.0003712854
000070 f6 fa 0b bd bb 51 aa 27 13 d8 6e a6 e1 60 b9 36
       -0.034174882 4.727309e-15 -8.286567e-16 5.524708e-06
000080 7c 0e 1f 35 c1 b8 ed 3b 19 89 0e bd d2 9d 8e 3c
       5.9253193e-07 0.0072546904 -0.034798715 0.017409239
000090 f0 18 a2 27 cf 41 7a 39 50 81 09 3c 82 c3 0d bd
       4.499107e-15 0.00023866374 0.008392647 -0.03461028
0000a0 88 66 8f a5 d3 bc c2 ad 4d 0a f9 b8 eb 96 29 bc
       -2.4876024e-16 -2.2139101e-11 -0.00011875164 -0.010350923
0000b0 fd 88 9c ac a5 95 67 b8 29 0b 49 bb 49 19 7d 25
       -4.4489954e-12 -5.521406e-05 -0.0030676818 2.1952819e-16
0000c0 c3 0c 1f a5 11 9f a9 38 ec 71 ee a4 1c 2f 0e 3d
       -1.3795375e-16 8.0881764e-05 -1.0340904e-16 0.034712896
0000d0 19 01 6c a6 b5 0b ef bc 40 11 2d 39 8d c3 97 bb
       -8.1880436e-16 -0.029180387 0.00016504992 -0.0046314658
0000e0 aa 8e c1 3c 3e 8f dc bc 8b f7 55 bc 27 48 16 bb
       0.023627598 -0.026923772 -0.013059507 -0.002293119
0000f0 e7 93 ba b5 43 34 ce ba e3 74 25 bd e4 ae 12 bc
       -1.3901125e-06 -0.0015732128 -0.040394675 -0.00895283
000100 91 3e 32 37 bb e4 09 bb ff b9 ee 26 d5 5f be bc
       1.0624194e-05 -0.0021040875 1.6564982e-15 -0.023239056
000110 84 ce 0e 3b b8 23 5f 26 33 73 ae ba b0 53 18 3d
       0.0021790573 7.7417075e-16 -0.0013309479 0.037189186
000120 ed 9d ca bc f8 5a cc b5 6e 7b 93 bc 59 11 5a bc
       -0.024733508 -1.522566e-06 -0.018003192 -0.0133098
000130 39 7f be 25 0e 84 a7 39 61 ed 6c b8 2e 18 15 bd
       3.3045955e-16 0.0003195111 -5.648786e-05 -0.036400013
000140 eb 39 d3 3c 0a 51 14 bc 10 c2 01 bd 0a 89 48 a6
       0.025784453 -0.009052524 -0.031679213 -6.957466e-16
000150 4c d5 ed ad 2b 81 69 3c e8 ea 1e 3d bb 0a e7 bc
       -2.7038503e-11 0.014251987 0.038798243 -0.028203359
000160 50 2f 06 ba 79 b2 76 36 e2 f0 e9 25 16 a9 5e bc
       -0.00051187444 3.6760741e-06 4.0582286e-16 -0.013590118
000170 d6 31 1f 3d 75 63 19 bc 87 a9 eb 2c 55 d2 2f 3c
       0.038865887 -0.009362091 6.697923e-12 0.010731299
000180 4c da e2 3c 25 bf b8 b3 99 74 56 3c 65 83 58 a7
       0.027691983 -8.602937e-08 0.0130893225 -3.004725e-15
000190 b4 4e a9 a7 46 a8 2d 2c 79 08 18 b5 29 f7 12 3a
       -4.6992253e-15 2.467819e-12 -5.663674e-07 0.0005606288
0001a0 33 e2 2a ad 92 59 b3 b8 df d0 9c 39 a7 5f 60 a7
       -9.7136075e-12 -8.552069e-05 0.0002991026 -3.1138098e-15
0001b0 52 d4 bd 3b c7 c6 04 bd ea 17 d8 b7 75 e2 1f b9
       0.005793133 -0.03241613 -2.5760342e-05 -0.00015247783
0001c0 7b e8 e5 b7 13 eb 03 bd 5b 89 87 39 14 49 93 bc
       -2.7407184e-05 -0.032206606 0.00025851544 -0.017979182
0001d0 34 75 28 3d 0c 8c b8 b7 63 fe 5d bb 81 fe b3 3b
       0.0411274 -2.1999724e-05 -0.003387355 0.0054929857
0001e0 56 40 69 36 da a0 c9 bb d4 c8 f5 26 ef e7 6d b9
       3.4757154e-06 -0.006153208 1.7054725e-15 -0.00022688483
0001f0 20 fb 6f 3c ed e5 17 3d e8 de d1 39 ab 49 e7 bb
       0.014647275 0.03708451 0.00040029665 -0.0070583425
000200 fe 6a 8f 3a 09 74 5b 37 41 29 f0 ac ce d6 e5 28
       0.001094192 1.3080434e-05 -6.8257904e-12 2.5517264e-14
000210 92 de 01 bc c5 81 39 a7 b6 1e df bc b0 80 5a 34
       -0.0079266 -2.5744256e-15 -0.027236324 2.0349648e-07
000220 f2 0c f0 3b 18 2e 10 36 b3 bb 81 bc 89 5e 96 27
       0.007325762 2.1484502e-06 -0.015836572 4.173586e-15
000230 b8 04 9a 3b da 5f 1b 27 04 55 15 bd 38 d5 1a 38
       0.0047002696 2.1562532e-15 -0.03645803 3.6915037e-05
000240 95 b0 87 bc df a6 b7 3b 24 80 5d ba bc 3d 32 ba
       -0.016563693 0.0056046094 -0.00084495754 -0.000679936
000250 c9 90 2a 3d fb a5 4e a9 de ef 47 27 03 3c 97 3c
       0.041641984 -4.5885154e-14 2.774683e-15 0.018461233
000260 c7 70 de 39 29 e6 14 3d cb 1c 4b a7 7d 6a b4 bc
       0.00042427165 0.03635231 -2.8187518e-15 -0.022023434
000270 09 bc d2 ba 0b e5 5b 3c 53 7f 80 3c e4 79 56 3c
       -0.0016077767 0.013421307 0.015685713 0.013090584
000280 1e 67 cf a5 aa d2 f1 ba c4 af f4 3c e6 e6 a4 b6
       -3.597865e-16 -0.0018449624 0.029868968 -4.914461e-06
000290 ea e0 64 3c 23 45 3f bc 36 bd 16 3d 08 d1 6a bc
       0.013969639 -0.011674198 0.03680154 -0.0143320635
0002a0 f0 1c 19 3a fd 53 9a b0 06 b0 c1 bc 54 c6 c0 3c
       0.0005840799 -1.1228846e-09 -0.023643505 0.02353207
0002b0 99 88 a9 3c 3e 3a 09 3d 29 16 63 31 38 1a eb 2f
       0.020695018 0.03350281 3.3045444e-09 4.276488e-10
0002c0 b6 de 1d bc 7f 63 d0 39 ae 6d 10 bc 01 15 10 29
       -0.009635618 0.00039746982 -0.008815212 3.199264e-14
0002d0 42 06 d4 bc d8 84 6d a4 52 eb 1d 3b 48 f2 25 bc
       -0.02588189 -5.1503706e-17 0.002409656 -0.010128565
0002e0 89 25 00 24 55 ab cb bb 56 04 47 b9 cd e3 c9 ba
       2.778737e-17 -0.0062154927 -0.00018979734 -0.0015402973
0002f0 76 6e 82 ba 1a e7 b5 b8 80 6d 4d b7 09 43 b2 3a
       -0.0009951133 -8.6737986e-05 -1.2244447e-05 0.00136003
000300 aa 54 2b 3a ef 29 1c 38 e3 1f 0b 3c 5f 17 59 2e
       0.0006535748 3.7232352e-05 0.008491489 4.9360845e-11
000310 30 f5 1c 3b fc 73 0b 26 92 79 e6 22 16 47 8a ba
       0.0023949854 4.83825e-16 6.2470342e-18 -0.001054975
000320 a4 09 97 25 cb b1 2c bc 98 ea b8 bb 09 03 1c 29
       2.6200857e-16 -0.010540436 -0.0056432 3.464159e-14
000330 1f d1 be 24 6a 73 50 bc 18 57 21 3d 4c 84 63 37
       8.275363e-17 -0.012722829 0.0393897 1.3561057e-05
000340 56 50 91 bc ed 81 9f b3 6b a3 71 3b bb 7c 1a a6
       -0.017738502 -7.427648e-08 0.0036871086 -5.3598524e-16
000350 58 42 3c 39 5d c5 11 3d 9b 45 e9 3b 66 36 67 a6
       0.00017953792 0.03558861 0.0071188933 -8.021795e-16
000360 fe 89 1c bd d1 9e b8 3c 55 d9 2e b8 8e 58 33 3d
       -0.038217537 0.022536667 -4.168724e-05 0.043785624
000370 88 e1 1b bd ee 95 48 3c 6d de 04 3c 15 4b 0a 34
       -0.03805688 0.012242777 0.008109671 1.2879566e-07
000380 c3 02 99 39 ec b8 56 ba b8 36 81 38 ae db 05 3c
       0.00029184492 -0.00081910077 6.1613915e-05 0.0081700515
000390 44 96 1a bb d5 4d b5 3c 78 bf 22 ac fc 7a e6 26
       -0.00235881 0.02213184 -2.3127871e-12 1.5992791e-15
0003a0 cb 9b 81 3b 26 68 3d bb 7a cf 6a 3a a1 4f 3e 3c
       0.0039553395 -0.0028901189 0.0008957308 0.011615665
0003b0 bb 1b a4 bc 8d d7 0b bd 1e ae e7 36 b0 81 d2 3b
       -0.020032754 -0.034141112 6.9046064e-06 0.0064241514
0003c0 ac 58 cd bb 0f 08 80 3c 4f e0 f9 3c 7e 95 d9 bb
       -0.006266674 0.015628843 0.030502466 -0.0066401353
0003d0 71 d8 41 bc 83 be 01 2d 66 b3 9b 33 cc 14 5d bc
       -0.011831389 7.375103e-12 7.250382e-08 -0.013493728
0003e0 65 f0 e6 b3 9f 62 da 3a 0d 01 a3 26 49 d0 df 30
       -1.0753937e-07 0.0016661471 1.1310682e-15 1.6284584e-09
0003f0 2e 8a 27 3d bb 26 b1 bb 0d f6 5e bc 35 ba 6a bb
       0.040903263 -0.0054062284 -0.013608468 -0.0035816554

lstm.weight_hh_l1 f4 [128, 32]
000000 5e da 1b 3d 10 d0 81 3c f0 86 86 bc 29 c7 2d 27
       0.038050048 0.015846282 -0.016421765 2.4116538e-15
000010 e4 39 8b ba f4 49 35 3c 7c aa a0 3a 6f c7 ac ba
       -0.0010622111 0.011064995 0.001225784 -0.0013181994
000020 44 a9 85 26 d9 f3 cf 3c 20 d6 39 3c 41 a4 e7 27
       9.274608e-16 0.02538483 0.011342555 6.4293464e-15
000030 65 d2 42 a7 1d 16 d3 3c 62 c4 4b 38 88 15 88 3a
       -2.7036963e-15 0.02576738 4.8581867e-05 0.0010382393
000040 38 79 5a ba c2 8e f3 bc 16 9a 07 bd 05 37 18 ba
       -0.0008334103 -0.029731158 -0.033105932 -0.00058065384
000050 f0 1c 57 3a 18 ea 01 3d 2a fc f2 b9 34 b6 61 3a
       0.0008205911 0.03171739 -0.00046345714 0.0008610219
000060 b1 0b 6b 35 73 77 6c 26 94 2c c2 bc 3f eb cd 3c
       8.7561335e-07 8.204083e-16 -0.023702897 0.025136588
000070 f4 7d 67 27 e6 c3 83 3a cd fb de 3c f2 6e c2 3b
       3.212597e-15 0.0010052889 0.027219677 0.005933636
000080 c1 83 05 33 cb 59 02 ba 30 62 83 3c 33 58 a0 3c
       3.1086305e-08 -0.00049724866 0.01603803 0.019573307
000090 97 b3 bb bc ab 9a ba 22 01 4a a0 3c 42 ad 1d bc
       -0.022912784 5.0579162e-18 0.019566538 -0.009623827
0000a0 c7 5d e8 3a e6 a3 6a bb bf 11 3e b9 5c 7f 14 26
       0.0017728143 -0.0035803257 -0.00018126423 5.152042e-16
0000b0 50 36 37 ae 65 41 20 2d 98 62 1c 3c b2 c5 39 b7
       -4.1657622e-11 9.1094675e-12 0.009544991 -1.1072889e-05
0000c0 36 92 91 ba b0 2b 7b 39 19 3f e5 bc 62 ba 44 3b
       -0.0011106196 0.000239535 -0.027984189 0.003001832
0000d0 47 52 52 b9 de ec a3 bc 0b 60 87 24 9b 81 0a 3d
       -0.00020057811 -0.020010408 5.870962e-17 0.033815008
0000e0 a2 e9 0a ba 10 91 8b 38 02 14 b2 21 53 f4 ec b0
       -0.0005299096 6.6550565e-05 1.2067045e-18 -1.7240701e-09
0000f0 4f 2b 1e bd b6 af 31 3b 13 7b 19 bc eb dc 9b 3b
       -0.03861552 0.0027112789 -0.009367722 0.00475656
000100 e7 c8 b5 b0 53 3e 91 24 4e 85 bc ba 42 05 7f bb
       -1.3226583e-09 6.298931e-17 -0.001438299 -0.0038913046
000110 ea b4 0e 3d d9 c0 c6 23 9a b4 15 bd 5c ab ce 3b
       0.0348405 2.1548877e-17 -0.03654919 0.0063070487
000120 91 c4 9e bc 18 be ed a3 f6 52 9f b6 c6 bb c9 bc
       -0.01938084 -2.57761e-17 -4.748227e-06 -0.02462567
000130 40 41 d5 bc b2 80 8a 2e d1 5f 09 a4 89 99 ff 31
       -0.02603209 6.298374e-11 -2.97883e-17 7.4389317e-09
000140 37 b9 9c bb 12 f9 33 bd f2 60 f3 b9 92 85 8a ba
       -0.0047828215 -0.043938704 -0.00046420802 -0.0010568372
000150 65 63 4f 3b 79 6e 3c 3c 31 55 00 bd 48 4f cf 3c
       0.0031644937 0.011500948 -0.031331245 0.025306359
000160 bf 40 58 a6 2e 89 bc 3b 0f 2d 19 ba ab 7f 2d 39
       -7.50278e-16 0.005753658 -0.0005843201 0.00016546126
000170 8b ad 38 3a d7 39 94 b7 a4 ce 87 bb 70 a8 20 3d
       0.0007044903 -1.7669909e-05 -0.0041445065 0.039223135
000180 8c 07 a2 b8 11 ad 1c bd d2 19 90 3c b0 05 1e b8
       -7.726168e-05 -0.038250986 0.017590437 -3.7675432e-05
000190 11 35 49 ba e8 7b 6a 3b 59 97 1e 3d 57 f5 aa 27
       -0.0007675449 0.003577942 0.038718555 4.7450477e-15
0001a0 94 c0 cb bc c6 e9 48 3b 08 f1 0e 3a 8f fe 30 bc
       -0.024872102 0.0030656918 0.00054527866 -0.010802879
0001b0 7d 84 9c b9 c9 5b 87 bb c7 b0 98 bb a6 8f b7 3b
       -0.0002985335 -0.0041308147 -0.0046597454 0.005601841
0001c0 64 56 25 31 2c 7e 28 bd 32 77 2d bd ed 10 58 3c
       2.4059768e-09 -0.041135952 -0.04235 0.013187629
0001d0 01 56 c2 bc e1 9e 4f 3c 8c 22 d0 35 79 41 87 37
       -0.02372265 0.012672157 1.5507262e-06 1.6123742e-05
0001e0 3d f1 9b ba be 3b bb bc 7a d8 e9 38 8d e0 88 3b
       -0.0011897456 -0.022855636 0.00011150628 0.004177159
0001f0 e2 1c 8f b7 11 c1 f2 ba 7b 81 08 35 5a 51 3c 37
       -1.7060378e-05 -0.0018520673 5.0852367e-07 1.1224614e-05
000200 9d d1 0f bd b2 f5 7a 3a 4a 5e ee bb f5 c3 bb 3c
       -0.035112012 0.00095733546 -0.0072744237 0.022920588
000210 48 5a d2 37 64 cc 01 3d 8c e8 12 3d ce db 64 39
       2.5075991e-05 0.031689063 0.035866305 0.00021825658
000220 e8 9f 65 3b 3e 4e b2 3b 3a e2 94 27 9c c3 68 27
       0.0035037939 0.005441456 4.1323527e-15 3.2302508e-15
000230 84 a2 db 26 88 c9 e8 26 a5 72 23 25 e2 96 1d bb
       1.5240228e-15 1.6152859e-15 1.417684e-16 -0.0024046232
000240 2e 89 ea bc 21 b7 f1 b7 60 19 a9 3c de 0e 27 a7
       -0.028629865 -2.8814715e-05 0.020641983 -2.3183965e-15
000250 9e 31 c5 a6 d5 d6 3f 37 41 b2 67 3b f4 81 aa bb
       -1.368307e-15 1.1434507e-05 0.003535405 -0.00520348
000260 43 d7 85 3b 99 66 12 3d e7 f8 49 33 e7 1e 50 34
       0.004084499 0.035742376 4.7025335e-08 1.9382752e-07
000270 9d 83 15 b9 bf 9d 1f bd a2 d3 12 bd 2a 5e e1 39
       -0.00014258777 -0.038968798 -0.03584636 0.00042985502
000280 3d 68 c9 36 87 6d 96 3c e0 d7 c6 3c 51 52 98 bc
       6.0024017e-06 0.018362774 0.02427286 -0.018593939
000290 94 92 6d a4 c8 aa 93 34 65 d9 c9 af 15 6a 23 bd
       -5.151534e-17 2.7505143e-07 -3.6716155e-10 -0.03989609
0002a0 5f d7 6d ae 9b 72 b3 3c 2b 78 2b 3c cb cd 15 3c
       -5.407885e-11 0.021905234 0.010465662 0.009143303
0002b0 f1 35 a3 b8 f3 27 94 bb 0a 4e 8d 22 68 69 ed bb
       -7.782493e-05 -0.004521364 3.8300754e-18 -0.0072452314
0002c0 94 a2 bd 24 a2 44 52 31 7f 9e 2a 3d 92 58 08 bc
       8.22411e-17 3.0598035e-09 0.04165506 -0.008321898
0002d0 6a 1e 62 22 34 54 7b b3 2d 2e 24 33 03 7d 3d 23
       3.0644812e-18 -5.8517074e-08 3.8226222e-08 1.0272183e-17
0002e0 25 7e 10 38 e8 50 4e 2d ea 3f 0a a1 e3 ef 22 b9
       3.4449757e-05 1.1727709e-11 -4.684081e-19 -0.00015538889
0002f0 7a c0 64 a7 b9 88 49 b4 af a9 5a 24 db 7a 14 bc
       -3.1745698e-15 -1.8769323e-07 4.7414942e-17 -0.009062494
000300 e0 0b 4d 3a 74 50 ad b3 44 96 b4 25 69 eb 1e ba
       0.0007821899 -8.0705746e-08 3.1326847e-16 -0.00060623005
000310 72 49 30 3d f4 2d db bc 6a 2a ee 3b 38 6a 91 bc
       0.043038793 -0.02675531 0.0072682397 -0.017750844
000320 e5 be 2f bc c2 37 7e 3a 38 c6 be 39 4c 2e 66 3c
       -0.010726665 0.00096976396 0.00036387309 0.014049124
000330 4b c6 e6 b4 2e a6 b2 a5 0e fe 2e bc ba 5f 55 3b
       -4.2985116e-07 -3.0990686e-16 -0.010680689 0.0032558278
000340 99 5c 12 3b 38 78 16 2f af 9f da 26 0a 9d 1c 33
       0.0022333025 1.3685131e-10 1.5170071e-15 3.6464407e-08
000350 0e 71 d6 3a a8 a8 31 3c 77 fd 43 bb fa e7 ea 3a
       0.0016360597 0.010843433 -0.0029905715 0.0017921918
000360 a5 a6 a9 3b ea db 2c b8 e3 4f 82 b8 21 a1 07 3d
       0.0051773363 -4.1212807e-05 -6.213763e-05 0.03311265
000370 c1 57 ae bc 4d 76 d9 37 e6 1b f1 3c c2 3e 8c bc
       -0.021282079 2.5923504e-05 0.029432248 -0.017119769
000380 9d c8 a0 bb 3a 4c ba bc bf ff a4 38 f2 7c 14 bd
       -0.0049067275 -0.022741426 7.867766e-05 -0.03625197
000390 82 5b a8 bb 06 3d 02 b3 bb 11 e5 aa 24 46 e4 3c
       -0.0051378617 -3.0323484e-08 -4.0690875e-13 0.027865477
0003a0 b0 15 90 bb dd ec b2 31 d2 54 40 3b 1f 82 10 b9
       -0.0043971166 5.20741e-09 0.0029347432 -0.00013781384
0003b0 50 fb ec bc 10 40 f9 bb cb b4 79 a4 d9 1c 7d b0
       -0.028928429 -0.007606514 -5.4146406e-17 -9.208186e-10
0003c0 71 af 85 38 7f 03 65 bc e2 db 0f ae 29 f2 13 bc
       6.374613e-05 -0.013977884 -3.270973e-11 -0.009029903
0003d0 3d c3 81 b8 04 3e d1 bc a9 c6 ae ba 87 59 bc 39
       -6.187565e-05 -0.025542267 -0.0013334352 0.00035924857
0003e0 58 06 8b b8 55 7e bd 3c 54 05 a5 3c f7 68 f3 3b
       -6.629218e-05 0.023131529 0.020144142 0.0074282843
0003f0 a5 b2 6c ba cd 52 00 b7 d7 9b 68 bc de 6b 20 bd
       -0.00090293057 -7.648673e-06 -0.014197311 -0.03916537

lstm.bias_ih_l1 f4 [128]
000000 0c a2 9a 35 cd 2a 90 a8 d1 68 15 39 bc 08 85 aa
       1.1521056e-06 -1.6005773e-14 0.00014248794 -2.3631607e-13
000010 12 ae 1f 3a 24 d1 f1 32 0e 5b 7f 3b 62 b0 f0 37
       0.0006091307 2.8151199e-08 0.0038964185 2.8692364e-05
000020 bc ac 86 29 14 20 8e b0 c4 30 1f b9 f1 97 97 32
       5.98076e-14 -1.0340977e-09 -0.00015181588 1.7647809e-08
000030 60 06 58 37 c0 90 c1 39 00 9b 97 39 10 4c 81 2a
       1.2876088e-05 0.00036919676 0.00028916448 2.2967782e-13
000040 f5 da 68 aa f6 74 a1 ab 66 94 9f 3c 68 b4 28 3d
       -2.0681705e-13 -1.1472201e-12 0.019479942 0.041187674
000050 21 90 51 3b c0 c1 9c 3c 3f 6d e4 34 d7 f4 4e 29
       0.0031976777 0.019135356 4.2547796e-07 4.5953553e-14
000060 9d 2d 35 3a 50 8d a3 2a 80 f2 95 ae f6 cc e7 26
       0.0006911399 2.9052672e-13 -6.818812e-11 1.60844e-15
000070 3a be 29 bd be b5 c7 2b 9a 47 08 bd e4 44 bf 3c
       -0.04144118 1.4190244e-12 -0.03327141 0.02334828
000080 5f ac f4 3b 94 b6 99 bc b8 48 eb 3c 19 1d 10 3c
       0.0074668373 -0.018763818 0.028721198 0.008796
000090 96 d3 8b 2a 76 b8 23 28 30 73 af b7 35 87 30 ba
       2.4838177e-13 9.088316e-15 -2.0915264e-05 -0.00067340146
0000a0 40 95 73 3b 9b 0e 02 3d f5 e4 4d b4 d3 d9 c1 2a
       0.0037167817 0.03175221 -1.9175407e-07 3.4434833e-13
0000b0 65 dd 7d bc b9 4b 18 af bb 00 d6 39 f8 f3 9e 3a
       -0.015494679 -1.3851222e-10 0.00040817805 0.0012127152
0000c0 2e 55 1e 3d 63 8e 03 bd 10 a2 22 37 15 fd 01 ab
       0.038655452 -0.032118212 9.693686e-06 -4.618123e-13
0000d0 fa 51 ae 38 d0 6d d8 bc ee f2 a6 3c 13 3a fa 36
       8.312236e-05 -0.02641955 0.02037951 7.4573413e-06
0000e0 8d 86 e6 bc 74 8f 36 b7 20 47 7b 37 5b d6 04 bc
       -0.02814033 -1.0881446e-05 1.4977326e-05 -0.008107747
0000f0 a5 34 29 bd 30 e3 81 31 6a 67 d5 b5 0a 6a 1b bc
       -0.04130997 3.7802224e-09 -1.5899834e-06 -0.009485731
000100 24 64 30 ae 9e 39 0c 37 52 b7 c6 3c b8 87 42 bc
       -4.010671e-11 8.358065e-06 0.024257336 -0.011873178
000110 93 9e 21 ae 37 39 3d b9 62 06 2c b9 af f2 17 35
       -3.6748004e-11 -0.00018045759 -0.00016405576 5.6605035e-07
000120 a1 07 85 3c 96 44 40 3c 18 32 df 3c b7 63 02 bd
       0.01623899 0.011735102 0.027245566 -0.031833377
000130 38 79 50 3c 5a 2d fe bb 3f c8 f4 2c ef 24 b1 3c
       0.012724213 -0.007756871 6.957129e-12 0.021624057
000140 8a 19 b9 3c 70 86 1c bd 6b 86 1d 39 97 57 9f 38
       0.022595186 -0.038214147 0.00015022761 7.598026e-05
000150 2b 60 5b b6 c1 5b 54 b7 2f 9b 0e bb e2 3e e6 2d
       -3.268952e-06 -1.2657548e-05 -0.0021759977 2.6175898e-11
000160 d7 d6 d9 3c f6 c1 9f bb 2a 71 6c ae ff 37 64 3a
       0.026591701 -0.004875417 -5.3760697e-11 0.0008705854
000170 d9 8f ac 3b 1e da 81 2e bd 60 1d 3a 16 8e 2e 3b
       0.0052661714 5.904986e-11 0.000600349 0.0026634983
000180 61 4e ff aa 01 c5 9d bc fc 1e fb 3b 22 9e 4d aa
       -4.5351486e-13 -0.019258978 0.0076636057 -1.8262521e-13
000190 0c 90 a4 2a a4 51 e4 39 0c c8 fa 3c 10 c6 4f bb
       2.9232205e-13 0.00043548376 0.030612968 -0.0031703748
0001a0 41 50 0c 3a 37 0b 26 28 d6 e4 73 36 34 54 09 2b
       0.0005352535 9.217283e-15 3.6343022e-06 4.878903e-13
0001b0 96 b1 42 3c 50 4a 92 b9 ae c7 48 bc 48 84 d2 2a
       0.01188316 -0.00027902657 -0.012254639 3.7395282e-13
0001c0 00 6c d8 3a f6 f0 0a 38 39 3b 1e 3b a5 01 ab b8
       0.0016511679 3.3126176e-05 0.0024144186 -8.154222e-05
0001d0 a3 08 9d bc 0e 44 53 ba 78 5d 6b 3c d0 5e 22 29
       -0.019169157 -0.0008059152 0.014365546 3.6053463e-14
0001e0 87 ea 45 bc 0a b6 10 3a 7a ce b0 27 03 e2 05 37
       -0.012079841 0.000552029 4.9073675e-15 7.98004e-06
0001f0 35 a9 88 bc ff 68 26 bd 62 26 eb bb 12 ac 04 3d
       -0.016682247 -0.040627476 -0.0071762064 0.03239066

lstm.bias_hh_l1 f4 [128]
000000 60 c5 40 3b a8 de ff bc 68 f8 1f b0 da 3f be 3c
       0.002941452 -0.0312341 -5.819687e-10 0.023223806
000010 76 85 c3 b3 eb 45 20 3d a1 c4 12 bc 25 1a 3b bc
       -9.1046715e-08 0.03912918 -0.008958013 -0.011419808
000020 2a 78 0d 3b 58 05 13 bd 03 3c ce bb 1e 6a c0 ad
       0.0021586516 -0.035893768 -0.006293775 -2.1874998e-11
000030 b0 e2 88 35 cb 1e a4 29 32 25 07 b4 0e 82 98 2a
       1.0198764e-06 7.288405e-14 -1.2586386e-07 2.7090868e-13
000040 8b 9c 4d aa 9a 71 93 b9 3c 3f ec a9 85 9c bc 3b
       -1.826197e-13 -0.00028122665 -1.0491475e-13 0.0057559633
000050 64 8b 99 3c 89 c8 8e 29 fe ff 3d b9 b7 c2 1a bc
       0.018743224 6.340854e-14 -0.00018119809 -0.009445838
000060 31 38 a3 b7 da 25 6d 35 9b e3 f5 3b 96 3a 1a bd
       -1.945728e-05 8.834446e-07 0.0075039393 -0.03765353
000070 b2 19 e7 3a d5 64 5d bb 31 db 6a 3b d3 54 2c bd
       0.0017631559 -0.0033782024 0.0035836215 -0.042073082
000080 aa ef 50 3b 40 20 b8 a8 61 bf 02 bd 0b 1a d6 3b
       0.0031881132 -2.044209e-14 -0.031920794 0.0065338663
000090 82 f6 a6 2a 11 f0 08 28 b0 56 eb 3b e8 c6 86 bb
       2.9658573e-13 7.601573e-15 0.007181965 -0.004113067
0000a0 eb b3 80 b8 5f 50 33 28 e5 b8 00 3c 9f 66 71 2e
       -6.137028e-05 9.953924e-15 0.007856582 5.48882e-11
0000b0 26 d9 a2 3c fb 84 c1 3c d1 83 45 af 10 26 ed bc
       0.019878935 0.02362298 -1.7963876e-10 -0.028948814
0000c0 88 e7 41 bc 0a fa 8c bc 2f d6 b0 ba 11 1a ec ba
       -0.0118349865 -0.017209072 -0.0013491566 -0.001801314
0000d0 99 08 da b4 2d 9f 89 3c ea b6 1f 3d aa ac b9 33
       -4.061192e-07 0.016799534 0.0389928 8.646141e-08
0000e0 00 82 88 37 ce 05 2e 3d 17 cb 99 3c 31 5e b8 3c
       1.6273e-05 0.042486005 0.018773599 0.022505851
0000f0 ba 2d d3 b2 01 03 ee 38 2a 0b 0f bb 07 1c c8 33
       -2.4584427e-08 0.00011349284 -0.0021826723 9.318324e-08
000100 34 2d d2 3c c0 4a 1b b6 01 11 14 bd 34 44 38 2e
       0.02565632 -2.314031e-06 -0.03614903 4.1897333e-11
000110 93 0f 67 bc 38 f4 04 b4 4c 13 9e 3b 6d 56 34 bd
       -0.014102834 -1.2382304e-07 0.0048240777 -0.044027735
000120 2b c9 57 bc 29 ba 53 bc 90 c6 9b b8 10 a8 8c 39
       -0.013170521 -0.012922802 -7.427961e-05 0.00026828097
000130 2f 57 d7 33 d9 f6 99 3c cb 43 e2 2c 30 73 91 bc
       1.0027576e-07 0.018794464 6.430833e-12 -0.017755121
000140 9f b1 af b8 1a d1 6f 2e 46 95 9d 2e 63 71 7c bc
       -8.377735e-05 5.4528028e-11 7.16605e-11 -0.015407893
000150 ee 27 bd ad 94 d7 41 ba c1 1e af b8 47 1b 07 3b
       -2.1504545e-11 -0.00073944894 -8.3503786e-05 0.0020615624
000160 bb 63 17 ae 6d e3 58 af e7 53 c5 ae 09 02 26 bb
       -3.4422003e-11 -1.9725883e-10 -8.973427e-11 -0.0025330803
000170 8f 4a 73 bc 10 36 02 3d 94 72 31 3c 8c 36 00 bc
       -0.014849319 0.03178984 0.01083054 -0.007825505
000180 c1 07 5b 3c 64 22 44 ba 84 82 09 b8 f3 d9 21 3d
       0.013368548 -0.0007481931 -3.2784897e-05 0.039514493
000190 eb e8 18 bd 6e 0a e6 3c 9d 8e 51 a9 95 9c 48 bc
       -0.037331503 0.028081145 -4.653102e-14 -0.012244363
0001a0 b3 02 6b b3 b6 f4 02 bd 9a 80 85 ba d0 a7 1e bc
       -5.4717656e-08 -0.031971656 -0.0010185421 -0.009683564
0001b0 58 6a 35 38 de 21 02 bc 0c 6c f6 3c 69 16 22 3c
       4.3252803e-05 -0.007942645 0.030080818 0.009893038
0001c0 ef a1 35 bd 15 c5 11 bd 55 b9 92 bb 14 75 2a 3d
       -0.044343885 -0.035588343 -0.0044776597 0.04161556
0001d0 17 3d 36 bc 8c 64 06 3c b9 f8 d0 28 df 3f 54 ba
       -0.011122963 0.008202683 2.3200505e-14 -0.0008096676
0001e0 2e 17 0b ab 30 d9 19 b7 0a a6 d6 bc 50 8a 8d bc
       -4.941489e-13 -9.170079e-06 -0.02620222 -0.017277867
0001f0 ef bc 8e 32 ea d9 9a bb 4f 15 15 30 74 2e 23 bd
       1.6616893e-08 -0.0047256844 5.4236166e-10 -0.039839223
